MAD_multidim_gpu/model/wdgrl_8.pth (torch, 518010 bytes, 52 tensors)

net.0.weight f8 [32, 16]
00000000: 0000 0080 403d c23f 0000 0000 d8e8 8b3f
00000010: 0000 0080 a715 ccbf 0000 0040 febf c93f
00000020: 0000 0040 1ab0 c13f 0000 0080 62c3 ccbf
00000030: 0000 0040 fe35 cabf 0000 0000 da64 a93f
00000040: 0000 0000 0fdd c4bf 0000 0080 0d86 b23f
00000050: 0000 0000 dc29 be3f 0000 0040 5010 c2bf
00000060: 0000 0000 a843 89bf 0000 0080 6b67 ccbf
00000070: 0000 0000 d6f6 c83f 0000 0080 a03a b63f
00000080: 0000 0000 7808 8a3f 0000 0080 e262 c83f
00000090: 0000 00c0 50ab cb3f 0000 0080 57a4 bd3f
000000a0: 0000 0000 6a30 c2bf 0000 0080 b505 c0bf
000000b0: 0000 00c0 30c0 c83f 0000 0000 9004 ac3f
000000c0: 0000 00c0 2637 c1bf 0000 0080 256a b23f
000000d0: 0000 0000 4458 b13f 0000 0000 581b b0bf
000000e0: 0000 0000 392b aa3f 0000 0040 0173 c4bf
000000f0: 0000 0000 3635 9abf 0000 0000 8287 a6bf
00000100: 0000 00c0 3f3a c3bf 0000 0000 6a44 993f
00000110: 0000 0080 d5a4 c0bf 0000 0000 8079 983f
00000120: 0000 0000 6cb1 9abf 0000 00c0 4cf7 c2bf
00000130: 0000 0080 a986 b5bf 0000 0080 8261 c6bf
00000140: 0000 00c0 9426 ce3f 0000 0000 f4e9 a7bf
00000150: 0000 0040 db15 cd3f 0000 0000 32be a5bf
00000160: 0000 0080 b337 bc3f 0000 0000 cac2 a5bf
00000170: 0000 0000 7ab8 c7bf 0000 0040 b8ba cdbf
00000180: 0000 00c0 82ff cc3f 0000 0080 d0e4 b53f
00000190: 0000 0040 6815 cfbf 0000 0000 b841 9fbf
000001a0: 0000 0040 f5e5 c3bf 0000 0080 0c19 c3bf
000001b0: 0000 0000 e172 ac3f 0000 0080 3155 b4bf
000001c0: 0000 0000 29d1 b13f 0000 0040 4cf9 c43f
000001d0: 0000 0000 f846 ad3f 0000 0080 b98b ba3f
000001e0: 0000 0000 14da c6bf 0000 0000 dc8b 983f
000001f0: 0000 0000 0190 afbf 0000 00c0 9282 cfbf
00000200: 0000 00c0 8eb6 c73f 0000 0080 1159 bdbf
00000210: 0000 0040 6354 ce3f 0000 0080 984b b03f
00000220: 0000 0080 e186 cfbf 0000 0080 80ed b73f
00000230: 0000 0000 6540 a7bf 0000 0080 7604 c13f
00000240: 0000 0000 4fd3 a83f 0000 0080 ea5d cfbf
00000250: 0000 0000 30cc a4bf 0000 00c0 da56 c7bf
00000260: 0000 0040 69b7 cdbf 0000 0000 ffb9 b5bf
00000270: 0000 0040 a8f8 ccbf 0000 0000 a42f 94bf
00000280: 0000 0080 50d5 c03f 0000 0000 5048 c9bf
00000290: 0000 00c0 3625 c73f 0000 0080 6d88 b13f
000002a0: 0000 0000 0a49 903f 0000 0000 6db7 a5bf
000002b0: 0000 0040 6843 c53f 0000 0080 5d33 b13f
000002c0: 0000 0040 598d c7bf 0000 0040 b943 cf3f
000002d0: 0000 0000 a2d4 9d3f 0000 0040 868f c8bf
000002e0: 0000 00c0 a890 cabf 0000 0000 c6b4 cd3f
000002f0: 0000 0000 aaea a9bf 0000 0080 cf57 ba3f
00000300: 0000 0000 11cd bb3f 0000 0000 decd aabf
00000310: 0000 0000 6177 b83f 0000 00c0 f962 cf3f
00000320: 0000 0000 70b0 a23f 0000 0080 4383 babf
00000330: 0000 0080 f629 bebf 0000 0000 85a6 ab3f
00000340: 0000 0000 c2c8 a5bf 0000 0000 e9b3 ce3f
00000350: 0000 0000 40a6 b7bf 0000 00c0 d6c4 cbbf
00000360: 0000 0080 5659 c6bf 0000 0080 01e6 c2bf
00000370: 0000 0000 6b40 c4bf 0000 0000 7363 a8bf
00000380: 0000 0000 fa71 c43f 0000 0000 596b c5bf
00000390: 0000 0040 7c31 c8bf 0000 0080 a92b bd3f
000003a0: 0000 00c0 897a ccbf 0000 0040 645e c53f
000003b0: 0000 0080 29af b03f 0000 0000 5e9d 92bf
000003c0: 0000 0000 d9d5 bebf 0000 00c0 1bb2 c8bf
000003d0: 0000 00c0 9e5b c03f 0000 0000 8b97 b83f
000003e0: 0000 0000 f81b cd3f 0000 0080 85f0 ccbf
000003f0: 0000 0080 aba1 b6bf 0000 0000 b19f af3f
00000400: 0000 0000 b10c b53f 0000 00c0 0012 c13f
00000410: 0000 0000 6c11 b13f 0000 0080 f14a b43f
00000420: 0000 00c0 c56d cfbf 0000 0040 94e9 c33f
00000430: 0000 0080 1743 b9bf 0000 0080 ab73 bdbf
00000440: 0000 00c0 705b c3bf 0000 0080 464b c1bf
00000450: 0000 0080 9eb1 cdbf 0000 0000 b2ad bb3f
00000460: 0000 0000 c904 c7bf 0000 0000 c512 ce3f
00000470: 0000 0000 db9d b4bf 0000 0080 0076 c6bf
00000480: 0000 0080 e6de c83f 0000 0000 6674 c7bf
00000490: 0000 0080 af41 cebf 0000 0080 3259 bdbf
000004a0: 0000 0080 85fa b9bf 0000 0040 4bac c73f
000004b0: 0000 0000 ae00 9bbf 0000 0040 6914 c1bf
000004c0: 0000 0000 480e c83f 0000 0000 5fd3 abbf
000004d0: 0000 0000 de61 9e3f 0000 00c0 f7a9 c83f
000004e0: 0000 00c0 eff3 c73f 0000 0040 44f2 cdbf
000004f0: 0000 0000 6b23 a03f 0000 0000 eff8 bdbf
00000500: 0000 0000 886a 793f 0000 0080 fee6 be3f
00000510: 0000 0000 f4e4 c53f 0000 0080 d75b c93f
00000520: 0000 0040 c622 cfbf 0000 00c0 2ec7 c8bf
00000530: 0000 0000 b6d7 9b3f 0000 0000 90b7 c83f
00000540: 0000 0000 ca72 af3f 0000 0000 681b a2bf
00000550: 0000 0000 cd1e ca3f 0000 0000 3756 c13f
00000560: 0000 0000 6c66 9c3f 0000 0040 320b ca3f
00000570: 0000 0000 4a7c b63f 0000 0080 f04a c8bf
00000580: 0000 0000 e7a6 a43f 0000 0000 7cf9 b43f
00000590: 0000 00c0 b1ab c3bf 0000 0040 1f55 c7bf
000005a0: 0000 0080 85cf b23f 0000 0000 514c c93f
000005b0: 0000 0000 e2a2 ac3f 0000 0040 f0cc c53f
000005c0: 0000 0080 c686 b8bf 0000 0000 28f1 cfbf
000005d0: 0000 0000 dc40 c0bf 0000 0080 34c4 bebf
000005e0: 0000 0080 cdee c7bf 0000 0000 68ee 92bf
000005f0: 0000 0000 8704 b43f 0000 0080 05cc b4bf
00000600: 0000 0040 99fa cf3f 0000 0040 2f76 c73f
00000610: 0000 00c0 2766 c4bf 0000 00c0 7514 ce3f
00000620: 0000 0080 aa4c c1bf 0000 00c0 fb92 c33f
00000630: 0000 0000 55a0 c2bf 0000 0000 82a3 acbf
00000640: 0000 0080 2164 b03f 0000 0000 80f0 733f
00000650: 0000 0080 0740 b33f 0000 0000 b819 81bf
00000660: 0000 0040 2fc6 c93f 0000 0080 2892 c43f
00000670: 0000 0040 e5e2 c63f 0000 00c0 9c85 c1bf
00000680: 0000 0080 110d b43f 0000 0000 48b6 893f
00000690: 0000 0080 b1a1 b63f 0000 00c0 195b c0bf
000006a0: 0000 0000 40af 90bf 0000 0080 926f b7bf
000006b0: 0000 0080 a11f c43f 0000 0080 b6c7 ce3f
000006c0: 0000 0080 fc18 b5bf 0000 0000 f84d 7dbf
000006d0: 0000 0080 216e bdbf 0000 0000 f720 bdbf
000006e0: 0000 00c0 fb34 cb3f 0000 0000 dda4 a93f
000006f0: 0000 0000 8d37 c9bf 0000 0080 3848 b7bf
00000700: 0000 0080 d0a6 cc3f 0000 0080 3dca ba3f
00000710: 0000 0000 a69d afbf 0000 00c0 c3b2 c83f
00000720: 0000 0000 b52a a73f 0000 0000 c742 a63f
00000730: 0000 0080 537e cabf 0000 0000 24f8 9f3f
00000740: 0000 0000 7dc5 cdbf 0000 0000 b688 aa3f
00000750: 0000 0000 10f1 713f 0000 0000 0f68 cbbf
00000760: 0000 0080 0538 b83f 0000 0000 02ed cf3f
00000770: 0000 0000 e530 bc3f 0000 0000 1f41 c6bf
00000780: 0000 0080 c515 b93f 0000 0000 e92d cb3f
00000790: 0000 0080 0a41 cbbf 0000 0000 4be1 a9bf
000007a0: 0000 0000 c6a9 a9bf 0000 00c0 6efa c1bf
000007b0: 0000 0000 9675 9ebf 0000 0000 2723 be3f
000007c0: 0000 0000 ec81 963f 0000 0080 c4d5 c03f
000007d0: 0000 0000 c53c c7bf 0000 0000 e901 cdbf
000007e0: 0000 00c0 c27e c4bf 0000 0000 04f7 c03f
000007f0: 0000 0000 3bf5 b2bf 0000 0080 67ed b53f
0.14249426126480103 0.013627707958221436 -0.21941083669662476 0.2011716663837433 0.1381867229938507 -0.22471266984939575 -0.2047727406024933 0.04959756135940552
-0.16299617290496826 0.07235798239707947 0.11782622337341309 -0.14112284779548645 -0.01233607530593872 -0.2219061255455017 0.19503283500671387 0.08683207631111145
0.01271146535873413 0.19051772356033325 0.21616563200950623 0.11578890681266785 -0.14210247993469238 -0.12517422437667847 0.1933651864528656 0.05472230911254883
-0.1344955861568451 0.07193216681480408 0.06775307655334473 -0.06291723251342773 0.05111101269721985 -0.15975967049598694 -0.025593608617782593 -0.04400259256362915
-0.15021511912345886 0.024675041437149048 -0.1300303339958191 0.023900985717773438 -0.02606743574142456 -0.14817199110984802 -0.08408603072166443 -0.17485076189041138
0.23555240035057068 -0.04670679569244385 0.227229505777359 -0.042466700077056885 0.11022493243217468 -0.042501747608184814 -0.1853172779083252 -0.23226073384284973
0.22654756903648376 0.08552268147468567 -0.24284079670906067 -0.030524134635925293 -0.15545526146888733 -0.14920192956924438 0.05556395649909973 -0.07942494750022888
0.06959778070449829 0.16385796666145325 0.05718207359313965 0.10369452834129333 -0.17853021621704102 0.02397102117538452 -0.06164553761482239 -0.24617227911949158
0.18525871634483337 -0.11464032530784607 0.23695030808448792 0.06365349888801575 -0.2463037371635437 0.09346774220466614 -0.04541316628456116 0.13294869661331177
0.04848715662956238 -0.24505358934402466 -0.04062032699584961 -0.18233808875083923 -0.23215976357460022 -0.08486932516098022 -0.22633841633796692 -0.019712984561920166
0.13150984048843384 -0.19751930236816406 0.1808231770992279 0.0684879720211029 0.015903621912002563 -0.04241505265235901 0.16611960530281067 0.067190021276474
-0.1840011179447174 0.24425426125526428 0.029131442308425903 -0.1918800175189972 -0.2075396478176117 0.23207926750183105 -0.05061846971511841 0.1029023826122284
0.10859781503677368 -0.05235189199447632 0.09557157754898071 0.2452079951763153 0.03650236129760742 -0.10356542468070984 -0.11782780289649963 0.054004818201065063
-0.04254728555679321 0.23986542224884033 -0.09238052368164062 -0.21694454550743103 -0.17460137605667114 -0.14764422178268433 -0.15821588039398193 -0.047633737325668335
0.1597282886505127 -0.16733849048614502 -0.18901017308235168 0.11394748091697693 -0.22248956561088562 0.16694310307502747 0.06517276167869568 -0.018178433179855347
-0.12045055627822876 -0.19293543696403503 0.1277960240840912 0.09606236219406128 0.2274160385131836 -0.22609013319015503 -0.08840438723564148 0.06176522374153137
0.08222490549087524 0.13336190581321716 0.06667208671569824 0.07926854491233826 -0.24553748965263367 0.1555657684803009 -0.09867998957633972 -0.11504623293876648
-0.15122804045677185 -0.13510972261428833 -0.2319830060005188 0.10811913013458252 -0.1798335313796997 0.2349478006362915 -0.08053368330001831 -0.17547613382339478
0.19430238008499146 -0.18323969841003418 -0.23637956380844116 -0.11464229226112366 -0.10147890448570251 0.1849454939365387 -0.02636978030204773 -0.13343539834022522
0.18793582916259766 -0.05434700846672058 0.02967020869255066 0.1926870048046112 0.1871318519115448 -0.23395588994026184 0.03152021765708923 -0.11707967519760132
0.006205111742019653 0.12071219086647034 0.1710495948791504 0.1981152892112732 -0.24324873089790344 -0.1935785710811615 0.027190059423446655 0.1931018829345703
0.061422646045684814 -0.03536534309387207 0.2040649652481079 0.1354435682296753 0.027734458446502686 0.20346668362617493 0.08783400058746338 -0.18978697061538696
0.04033586382865906 0.08193182945251465 -0.15367719531059265 -0.18228521943092346 0.07347902655601501 0.1976414918899536 0.05593019723892212 0.17031672596931458
-0.09580650925636292 -0.24954700469970703 -0.12697935104370117 -0.12018135190010071 -0.18697518110275269 -0.01848757266998291 0.07819408178329468 -0.08123812079429626
0.24983516335487366 0.18329420685768127 -0.15936753153800964 0.2349993884563446 -0.1351521611213684 0.1529230773448944 -0.14551794528961182 -0.05593496561050415
0.06402787566184998 0.004868030548095703 0.07519575953483582 -0.008349835872650146 0.20136061310768127 0.1607103943824768 0.17879930138587952 -0.13689002394676208
0.07832440733909607 0.012554705142974854 0.08840474486351013 -0.12778016924858093 -0.01629352569580078 -0.0915462076663971 0.15721529722213745 0.24046975374221802
-0.08241251111030579 -0.0071544349193573 -0.11496171355247498 -0.11378425359725952 0.2125544250011444 0.05008593201637268 -0.19700777530670166 -0.09094575047492981
0.22384077310562134 0.10464844107627869 -0.06174963712692261 0.19295546412467957 0.04524770379066467 0.04347822070121765 -0.2069801688194275 0.03122001886367798
-0.23258936405181885 0.05182427167892456 0.004380285739898682 -0.21411311626434326 0.09460482001304626 0.2494204044342041 0.11012107133865356 -0.17386233806610107
0.09798845648765564 0.21233856678009033 -0.21292239427566528 -0.05054697394371033 -0.050123393535614014 -0.14045509696006775 -0.029745429754257202 0.11772388219833374
0.021979987621307373 0.13152366876602173 -0.1815420389175415 -0.22662079334259033 -0.16011843085289001 0.1325383186340332 -0.07405441999435425 0.08565375208854675

net.0.bias f8 [32]
00000000: 0000 0000 7df7 b33f 0000 0000 4ca9 bf3f
00000010: 0000 0000 e44d c2bf 0000 0000 19f9 bc3f
00000020: 0000 0040 40ef cfbf 0000 0000 211e a2bf
00000030: 0000 00c0 57b1 ca3f 0000 00c0 f235 cd3f
00000040: 0000 0080 93a0 c43f 0000 0000 78bd 89bf
00000050: 0000 0000 06af 963f 0000 0000 a5ad c5bf
00000060: 0000 0000 4ccf ce3f 0000 0000 d5b8 a4bf
00000070: 0000 0080 6540 b5bf 0000 0000 cf88 adbf
00000080: 0000 0000 7027 72bf 0000 0000 704f 6fbf
00000090: 0000 0000 ce80 923f 0000 00c0 4b01 c03f
000000a0: 0000 00c0 b173 c7bf 0000 00c0 a923 c93f
000000b0: 0000 0080 ff05 cb3f 0000 0000 6588 babf
000000c0: 0000 0000 4b9d b33f 0000 0000 beb5 b43f
000000d0: 0000 00c0 e91b cabf 0000 0000 e4dc 83bf
000000e0: 0000 0000 9e11 abbf 0000 0000 f8e6 903f
000000f0: 0000 0000 dbb5 c0bf 0000 0000 7bc7 b03f
0.07799512147903442 0.12367701530456543 -0.14300203323364258 0.11317592859268188 -0.24948886036872864 -0.035386115312576294 0.20853707194328308 0.22820886969566345
0.16115039587020874 -0.012568414211273193 0.022152036428451538 -0.16936171054840088 0.24070119857788086 -0.04047265648841858 -0.0830138623714447 -0.05768439173698425
-0.0044321417808532715 -0.0038220584392547607 0.018069475889205933 0.12503954768180847 -0.18321821093559265 0.19640085101127625 0.21112054586410522 -0.10364371538162231
0.07661885023117065 0.08089816570281982 -0.2039768397808075 -0.009698659181594849 -0.052868783473968506 0.016506075859069824 -0.13054978847503662 0.06554383039474487

net.2.weight f8 [64, 32]
00000000: 0000 0080 0f7f b3bf 0000 0020 dfb3 c13f
00000010: 0000 00c0 cb45 b93f 0000 0060 11f0 b3bf
00000020: 0000 0040 714c c6bf 0000 0040 b576 acbf
00000030: 0000 00c0 ff29 bd3f 0000 0080 752f bebf
00000040: 0000 0000 4cd6 a2bf 0000 00c0 95f2 bf3f
00000050: 0000 00a0 13dd c43f 0000 0000 2aa3 b23f
00000060: 0000 0080 4490 ac3f 0000 0080 76dd b03f
00000070: 0000 0000 ea90 873f 0000 0000 7bd9 943f
00000080: 0000 00c0 514c b5bf 0000 00a0 be14 b8bf
00000090: 0000 0040 ec7b bdbf 0000 0000 dd38 a13f
000000a0: 0000 0000 72de 84bf 0000 0060 6454 c63f
000000b0: 0000 0000 ca4b a2bf 0000 00e0 1c91 c3bf
000000c0: 0000 00e0 4985 babf 0000 00c0 9460 b43f
000000d0: 0000 00e0 1fe6 b9bf 0000 00c0 422d be3f
000000e0: 0000 0040 0cb9 b33f 0000 0060 6731 b6bf
000000f0: 0000 0000 2a1b 82bf 0000 00c0 5836 abbf
00000100: 0000 0040 1397 b13f 0000 0000 304d bdbf
00000110: 0000 0080 0969 a63f 0000 0080 62b8 aabf
00000120: 0000 00c0 945a b33f 0000 00e0 befe b2bf
00000130: 0000 0060 b9bb c43f 0000 0000 37f6 aa3f
00000140: 0000 00e0 6271 c63f 0000 0080 700a babf
00000150: 0000 0060 ffdb c1bf 0000 0000 d855 8a3f
00000160: 0000 0000 82c3 9e3f 0000 0060 fc31 b8bf
00000170: 0000 00a0 9d8e c03f 0000 0040 836b bb3f
00000180: 0000 0060 c913 c03f 0000 0000 32c1 813f
00000190: 0000 00c0 c409 c3bf 0000 0060 746a c23f
000001a0: 0000 0060 bd9e c13f 0000 0000 1b68 afbf
000001b0: 0000 0000 00d6 9e3f 0000 0000 201a 4d3f
000001c0: 0000 0040 0f43 bf3f 0000 0000 087d 6dbf
000001d0: 0000 0000 b4fc 7abf 0000 00a0 347b b7bf
000001e0: 0000 00c0 43f9 b03f 0000 00a0 da5d c43f
000001f0: 0000 00c0 4902 ba3f 0000 0000 3b84 a83f
00000200: 0000 00c0 2e60 abbf 0000 00a0 437c b3bf
00000210: 0000 00c0 ce73 ba3f 0000 0020 111a c63f
00000220: 0000 0000 4352 96bf 0000 00c0 ffe4 b0bf
00000230: 0000 00a0 4e56 b0bf 0000 0080 6a70 a23f
00000240: 0000 0040 8124 bc3f 0000 0060 926c c1bf
00000250: 0000 0080 dabb a93f 0000 0000 52a7 c2bf
00000260: 0000 0080 af7b a5bf 0000 00a0 8849 c23f
00000270: 0000 00a0 bdc0 c23f 0000 0040 03ec bcbf
00000280: 0000 0020 571a bcbf 0000 0040 0157 b93f
00000290: 0000 00e0 da9b c63f 0000 0040 eb4c b0bf
000002a0: 0000 0000 dab8 a9bf 0000 0040 cc54 c6bf
000002b0: 0000 0040 2c54 b43f 0000 0000 1175 c4bf
000002c0: 0000 0020 c9f8 c0bf 0000 0040 3703 bf3f
000002d0: 0000 0000 9b67 b7bf 0000 0000 34e6 8cbf
000002e0: 0000 0080 d71b bcbf 0000 00e0 034e b5bf
000002f0: 0000 00e0 da89 c23f 0000 00a0 8533 c53f
00000300: 0000 0020 437c c03f 0000 00e0 73f1 c03f
00000310: 0000 0000 5252 893f 0000 0000 2025 7c3f
00000320: 0000 0000 aad7 a0bf 0000 0000 f0e7 74bf
00000330: 0000 00a0 f2b7 c2bf 0000 0040 1b47 b53f
00000340: 0000 0000 fc04 723f 0000 0020 3879 c2bf
00000350: 0000 0060 f772 c23f 0000 0000 0053 5a3f
00000360: 0000 0020 3a66 b6bf 0000 00e0 8b7b c0bf
00000370: 0000 0080 4952 ad3f 0000 0000 275a c6bf
00000380: 0000 00c0 e263 bd3f 0000 0000 5c7c a43f
00000390: 0000 0000 7226 ae3f 0000 0040 8af7 b33f
000003a0: 0000 0060 21c8 c53f 0000 0000 f37d 9dbf
000003b0: 0000 0060 89fd babf 0000 0040 efda bb3f
000003c0: 0000 00c0 62d9 b43f 0000 00e0 80d2 c5bf
000003d0: 0000 0060 f3b6 b1bf 0000 00a0 bd64 bfbf
000003e0: 0000 0060 b9cc c0bf 0000 00c0 6a6e b93f
000003f0: 0000 0000 b4a2 a2bf 0000 0000 75d1 91bf
00000400: 0000 0020 6929 b2bf 0000 0040 195c b33f
00000410: 0000 00e0 645a c03f 0000 0000 4c84 84bf
00000420: 0000 0000 f048 6bbf 0000 00e0 78e0 c33f
00000430: 0000 0080 1685 b03f 0000 0060 4613 c03f
00000440: 0000 00a0 78b7 c13f 0000 0000 8646 a63f
00000450: 0000 00c0 a81c c5bf 0000 0000 53f2 973f
00000460: 0000 0040 e19c be3f 0000 00c0 0938 bc3f
00000470: 0000 00e0 286c c43f 0000 0040 bbb8 b23f
00000480: 0000 0020 94b6 c03f 0000 0060 25d6 c53f
00000490: 0000 0000 8004 57bf 0000 00c0 381c c2bf
000004a0: 0000 0060 aa0b b3bf 0000 0000 37bd a3bf
000004b0: 0000 0060 94dd b9bf 0000 00c0 d0c4 c3bf
000004c0: 0000 0000 8e04 9b3f 0000 0000 7297 91bf
000004d0: 0000 00a0 272e c5bf 0000 00a0 ac36 c53f
000004e0: 0000 0000 0698 9dbf 0000 00e0 45bc b6bf
000004f0: 0000 0040 9177 be3f 0000 0000 6843 85bf
00000500: 0000 0000 a8aa 763f 0000 00c0 acc9 b73f
00000510: 0000 00a0 ad1f c5bf 0000 0000 0c07 853f
00000520: 0000 0080 5cb4 a9bf 0000 00c0 0172 bc3f
00000530: 0000 0080 aed4 adbf 0000 0000 9d65 943f
00000540: 0000 00e0 9f94 c13f 0000 00e0 f194 c13f
00000550: 0000 0000 2012 963f 0000 00e0 0772 babf
00000560: 0000 0000 526e b03f 0000 00c0 5750 b83f
00000570: 0000 00a0 b0b7 c43f 0000 0040 cca7 b53f
00000580: 0000 0000 8652 c2bf 0000 0040 1a48 ba3f
00000590: 0000 0060 1374 c53f 0000 00e0 3626 c13f
000005a0: 0000 0080 fe03 aebf 0000 0080 657d a6bf
000005b0: 0000 0000 6a44 933f 0000 0080 ce88 aa3f
000005c0: 0000 0000 0d62 903f 0000 0000 14a7 9a3f
000005d0: 0000 0000 6ef1 a1bf 0000 0000 69f8 c5bf
000005e0: 0000 0000 d213 b03f 0000 0020 8b27 c53f
000005f0: 0000 00a0 1b52 c03f 0000 00c0 ebba acbf
00000600: 0000 0080 2946 a5bf 0000 0020 a9a9 bbbf
00000610: 0000 0080 7eeb b4bf 0000 0020 4ccb c13f
00000620: 0000 0020 241e c03f 0000 0080 c861 b7bf
00000630: 0000 00c0 7a3b b53f 0000 0040 4204 bb3f
00000640: 0000 0020 cb59 c6bf 0000 00c0 14f3 be3f
00000650: 0000 0000 9050 8cbf 0000 0020 a635 c6bf
00000660: 0000 0000 4f6c 96bf 0000 0040 3339 b13f
00000670: 0000 00e0 e63f c1bf 0000 0020 89c5 bfbf
00000680: 0000 0000 ed6d 95bf 0000 00e0 26c9 c2bf
00000690: 0000 0000 2f38 a93f 0000 0000 e027 57bf
000006a0: 0000 00e0 0745 c03f 0000 00c0 550a bd3f
000006b0: 0000 0040 7f9c be3f 0000 0040 1a73 c0bf
000006c0: 0000 0020 b344 b3bf 0000 0040 1fb8 bb3f
000006d0: 0000 0040 72c8 b7bf 0000 0060 9691 c4bf
000006e0: 0000 0080 05b6 ac3f 0000 00e0 0ca5 c13f
000006f0: 0000 0000 7a51 c4bf 0000 0020 9f7f c23f
00000700: 0000 0000 bdbe c5bf 0000 0020 2a7a c33f
00000710: 0000 0020 d285 c13f 0000 00c0 d3e0 b33f
00000720: 0000 0040 0777 ba3f 0000 0000 ea69 aebf
00000730: 0000 0040 ad9d b5bf 0000 0060 5bc1 c23f
00000740: 0000 0060 2a0f b5bf 0000 00e0 aa81 c1bf
00000750: 0000 0000 c6b8 923f 0000 0000 46d8 8e3f
00000760: 0000 00a0 c8e0 c23f 0000 0000 8da8 9abf
00000770: 0000 00a0 dacc c03f 0000 0040 22f1 abbf
00000780: 0000 0040 4880 b33f 0000 0080 8c0d a6bf
00000790: 0000 00e0 0f50 c5bf 0000 0040 18df b43f
000007a0: 0000 0000 c318 9fbf 0000 0080 21b7 a7bf
000007b0: 0000 0000 8d0f a7bf 0000 00a0 41ca babf
000007c0: 0000 00e0 a8eb c3bf 0000 00c0 90b7 aebf
000007d0: 0000 0000 fb7c 97bf 0000 0000 993f 9bbf
000007e0: 0000 0080 535f a93f 0000 0000 5095 853f
000007f0: 0000 0060 145d b4bf 0000 0080 9f20 ac3f
-0.07615754008293152 0.13830174505710602 0.09872125089168549 -0.07788189500570297 -0.17420783638954163 -0.05559317022562027 0.1139221042394638 -0.11791166663169861
-0.036791205406188965 0.12479530274868011 0.16299672424793243 0.07280218601226807 0.05578817427158356 0.06587925553321838 0.01150687038898468 0.020360872149467468
-0.08319579064846039 -0.09406653791666031 -0.11517216265201569 0.03363695740699768 -0.010189905762672424 0.17445044219493866 -0.035734474658966064 -0.15286599099636078
-0.10359632223844528 0.07959870994091034 -0.10116767138242722 0.11787812411785126 0.077042356133461 -0.08669134229421616 -0.008840873837471008 -0.05314900726079941
0.06871147453784943 -0.11445903778076172 0.04377011954784393 -0.05218799412250519 0.07560090720653534 -0.0741996094584465 0.16197888553142548 0.05265972018241882
0.17533527314662933 -0.10172179341316223 -0.13952629268169403 0.012859046459197998 0.030042678117752075 -0.09451272338628769 0.12935228645801544 0.10710926353931427
0.1256038397550583 0.008669272065162659 -0.14873561263084412 0.14387373626232147 0.13765685260295868 -0.06134113669395447 0.03011322021484375 0.0008881241083145142
0.12211699783802032 -0.0035996586084365845 -0.006588652729988098 -0.0917237177491188 0.06630347669124603 0.15911419689655304 0.10159741342067719 0.047883838415145874
-0.053468190133571625 -0.07611487060785294 0.10332958400249481 0.17267049849033356 -0.021798178553581238 -0.0659942477941513 -0.06381694227457047 0.03601391613483429
0.10993202030658722 -0.136125847697258 0.05026133358478546 -0.14573121070861816 -0.04195927083492279 0.14286907017230988 0.14650698006153107 -0.11297626793384552
-0.10977692157030106 0.09898383915424347 0.17663131654262543 -0.06367368996143341 -0.05023843050003052 -0.17446282505989075 0.07940937578678131 -0.15982258319854736
-0.1325923353433609 0.12114281952381134 -0.09142464399337769 -0.014110952615737915 -0.1097998321056366 -0.0832216665148735 0.14483200013637543 0.16563482582569122
0.1287921816110611 0.1323685497045517 0.012364044785499573 0.006871342658996582 -0.03289538621902466 -0.005104005336761475 -0.14623863995075226 0.08311624825000763
0.004399284720420837 -0.14432431757450104 0.14413349330425262 0.0016067028045654297 -0.08749736100435257 -0.12877033650875092 0.057268425822257996 -0.17462623119354248
0.11480538547039032 0.04001128673553467 0.0588870644569397 0.0779959112405777 0.17016999423503876 -0.02880077064037323 -0.10543116182088852 0.10880942642688751
0.08144204318523407 -0.17048655450344086 -0.06919785588979721 -0.12263093143701553 -0.13124768435955048 0.09934107959270477 -0.036397576332092285 -0.017400577664375305
-0.07094437628984451 0.07562406361103058 0.12775860726833344 -0.010017961263656616 -0.0033306777477264404 0.15528784692287445 0.06453076004981995 0.12558822333812714
0.13841159641742706 0.04350680112838745 -0.1649371087551117 0.02338533103466034 0.11958129703998566 0.11023007333278656 0.1595507711172104 0.07313127815723419
0.1305718570947647 0.17059771716594696 -0.001404881477355957 -0.141486257314682 -0.07439675182104111 -0.03855296969413757 -0.10103728622198105 -0.15444383025169373
0.026384562253952026 -0.017179280519485474 -0.16547103226184845 0.1657310277223587 -0.028900235891342163 -0.08881031721830368 0.11901195347309113 -0.010382473468780518
0.005533844232559204 0.09292106330394745 -0.16502924263477325 0.01026734709739685 -0.05020417273044586 0.11111460626125336 -0.05826325714588165 0.01991887390613556
0.13734816014766693 0.1373579353094101 0.021553516387939453 -0.1033024713397026 0.06418335437774658 0.09497593343257904 0.1618557721376419 0.08459164202213287
-0.1431434154510498 0.10266269743442535 0.16760484874248505 0.1339787095785141 -0.05862422287464142 -0.0439254492521286 0.018815666437149048 0.05182500183582306
0.01599903404712677 0.026027977466583252 -0.035045087337493896 -0.17164337635040283 0.06280243396759033 0.16526927053928375 0.12750573456287384 -0.0561135932803154
-0.04155091941356659 -0.10805756598711014 -0.08171835541725159 0.13901664316654205 0.12591983377933502 -0.09133580327033997 0.08293883502483368 0.10553373396396637
-0.174615278840065 0.12089662253856659 -0.013825535774230957 -0.17351223528385162 -0.021897539496421814 0.06727905571460724 -0.13476262986660004 -0.12410790473222733
-0.020927146077156067 -0.1467636674642563 0.04925677180290222 -0.0014133155345916748 0.1271066516637802 0.11343894898891449 0.11957545578479767 -0.1285126507282257
-0.07526702433824539 0.10827822983264923 -0.09290231764316559 -0.1606929749250412 0.05607621371746063 0.13784943521022797 -0.1587364673614502 0.14451970160007477
-0.1698833703994751 0.15216566622257233 0.13689638674259186 0.07764934003353119 0.10337872803211212 -0.05940181016921997 -0.08443720638751984 0.1465257853269577
-0.08226265758275986 -0.136769637465477 0.018282979726791382 0.015060946345329285 0.14748485386371613 -0.026033595204353333 0.13125164806842804 -0.05457407981157303
0.07617618143558502 -0.04307211935520172 -0.16650579869747162 0.0815291553735733 -0.0303678959608078 -0.04631905257701874 -0.045040518045425415 -0.10464868694543839
-0.1556292623281479 -0.05999424308538437 -0.022937700152397156 -0.026609793305397034 0.04955540597438812 0.010538697242736816 -0.0795452818274498 0.05493639409542084

net.2.bias f8 [64]
00000000: 0000 0020 fc4f c5bf 0000 0000 9820 7c3f
00000010: 0000 0020 9aa6 b9bf 0000 0060 2bfc c3bf
00000020: 0000 00e0 95b2 c03f 0000 00c0 d0a0 b03f
00000030: 0000 00c0 d5b6 c5bf 0000 0000 72a7 ab3f
00000040: 0000 0080 06a0 a83f 0000 0020 63b0 c53f
00000050: 0000 0000 102c 6bbf 0000 00e0 0e42 c43f
00000060: 0000 0000 3cc4 943f 0000 0000 c79d c0bf
00000070: 0000 0000 c377 bebf 0000 0060 dc3a b3bf
00000080: 0000 0000 2f24 c2bf 0000 0000 dcef 733f
00000090: 0000 00c0 a5f1 b63f 0000 0000 f834 95bf
000000a0: 0000 0080 1163 a83f 0000 0000 536e b5bf
000000b0: 0000 0020 423f bebf 0000 00a0 63c5 b4bf
000000c0: 0000 0080 d0ce acbf 0000 0080 99ea a33f
000000d0: 0000 00a0 d75e bbbf 0000 0080 f543 a53f
000000e0: 0000 00e0 ffef b6bf 0000 0040 42a9 c2bf
000000f0: 0000 0080 12c2 b03f 0000 0080 df97 a43f
00000100: 0000 00a0 cf3e c33f 0000 00c0 e807 c2bf
00000110: 0000 0020 ea95 c0bf 0000 00c0 ced3 be3f
00000120: 0000 0000 8634 b5bf 0000 0000 21d9 9b3f
00000130: 0000 0080 0c4e a83f 0000 0080 872d a0bf
00000140: 0000 0000 ad40 9abf 0000 0080 7cdc a9bf
00000150: 0000 0080 ba37 a03f 0000 00e0 aa3b c3bf
00000160: 0000 00a0 3402 babf 0000 0000 83ae 90bf
00000170: 0000 0040 2db1 bb3f 0000 0000 72dd 933f
00000180: 0000 00c0 288b c0bf 0000 00a0 ff23 c63f
00000190: 0000 0000 acc4 c2bf 0000 0000 98e2 b7bf
000001a0: 0000 0040 7d46 b33f 0000 0080 88f2 a53f
000001b0: 0000 0000 042a bdbf 0000 0060 9075 c53f
000001c0: 0000 00e0 3019 c33f 0000 00c0 2864 b83f
000001d0: 0000 00c0 7ee1 c2bf 0000 0060 396a c43f
000001e0: 0000 00c0 b929 c0bf 0000 0080 4f48 c1bf
000001f0: 0000 0020 8526 c33f 0000 00a0 030b b4bf
-0.166503444314003 0.006867021322250366 -0.10019839555025101 -0.15613310039043427 0.13044999539852142 0.06495384871959686 -0.16964218020439148 0.05401188135147095
0.04809589684009552 0.16944541037082672 -0.003316909074783325 0.15826593339443207 0.02027982473373413 -0.1298149824142456 -0.1190149188041687 -0.07511689513921738
-0.1417292356491089 0.004867419600486755 0.08962474763393402 -0.020709872245788574 0.047630831599235535 -0.08371466398239136 -0.11815274506807327 -0.08113691955804825
-0.056265369057655334 0.03889922797679901 -0.1069159284234047 0.04153411090373993 -0.0895996019244194 -0.14579036831855774 0.06546130776405334 0.0402211993932724
0.15035434067249298 -0.14086636900901794 -0.12957502901554108 0.12041942775249481 -0.0828326940536499 0.027195468544960022 0.047470465302467346 -0.03159736096858978
-0.025637343525886536 -0.05051030218601227 0.031675174832344055 -0.150258406996727 -0.1015961542725563 -0.016290709376335144 0.10817225277423859 0.019399434328079224
-0.1292468011379242 0.17297358810901642 -0.14662694931030273 -0.09330129623413086 0.07529433071613312 0.04286600649356842 -0.1139223575592041 0.1676502674818039
0.1492062658071518 0.0952783077955246 -0.14750656485557556 0.15949170291423798 -0.12627336382865906 -0.1350192427635193 0.14961303770542145 -0.07829306274652481

net.4.weight f8 [64, 64]
00000000: 0000 00c0 d696 b5bf 0000 0040 39ee b2bf
00000010: 0000 00c0 d03d b7bf 0000 0000 92dd 913f
00000020: 0000 0000 02de 9ebf 0000 0000 4d84 a63f
00000030: 0000 0000 ccd3 853f 0000 0000 970b ba3f
00000040: 0000 0000 3053 603f 0000 0000 c4c1 9bbf
00000050: 0000 0040 1f09 b63f 0000 0080 7b29 a33f
00000060: 0000 0000 0cc3 85bf 0000 0040 efdb b43f
00000070: 0000 0000 4800 b4bf 0000 0000 8456 b33f
00000080: 0000 0000 eb55 be3f 0000 0080 cf7b a0bf
00000090: 0000 0080 b42c bb3f 0000 0000 e3e9 933f
000000a0: 0000 00c0 cf0d b2bf 0000 0040 cd2b bc3f
000000b0: 0000 0000 be51 9dbf 0000 0000 43d1 abbf
000000c0: 0000 0080 d0bf a0bf 0000 0000 47a0 9c3f
000000d0: 0000 0000 a5cc 92bf 0000 0000 96a1 a83f
000000e0: 0000 0080 c81b a8bf 0000 0080 afc3 a5bf
000000f0: 0000 00c0 68d7 b93f 0000 0040 55cc bb3f
00000100: 0000 00c0 a49b bbbf 0000 0000 a137 bebf
00000110: 0000 0000 c80e 61bf 0000 0000 490f 9dbf
00000120: 0000 0080 0e83 a83f 0000 0080 ccfe be3f
00000130: 0000 0000 d70b 94bf 0000 0000 dfb1 b93f
00000140: 0000 0040 dba9 bebf 0000 00c0 6825 bcbf
00000150: 0000 00c0 49ad b93f 0000 0080 8560 a73f
00000160: 0000 0000 c00d a5bf 0000 0000 fc83 91bf
00000170: 0000 0080 00ab b3bf 0000 00c0 8e4c b03f
00000180: 0000 0000 53ca bebf 0000 00c0 e05d ba3f
00000190: 0000 0000 03ab afbf 0000 0000 9416 763f
000001a0: 0000 0040 20ce be3f 0000 0000 6d51 a53f
000001b0: 0000 0000 92de 9f3f 0000 0000 9bc4 93bf
000001c0: 0000 0000 a0dd a73f 0000 0000 9a89 aebf
000001d0: 0000 0000 e4ce 7d3f 0000 00c0 d161 bbbf
000001e0: 0000 0040 736a b2bf 0000 0000 d8f5 713f
000001f0: 0000 0080 d367 b4bf 0000 0000 f471 733f
00000200: 0000 0080 746c a3bf 0000 0040 cacb b4bf
00000210: 0000 0000 79e3 a23f 0000 0000 64eb 9c3f
00000220: 0000 0000 eac7 bf3f 0000 0080 0313 a8bf
00000230: 0000 0080 e40a a53f 0000 0000 a0c7 bc3f
00000240: 0000 00c0 f61a b5bf 0000 0040 ef60 bf3f
00000250: 0000 00c0 3f95 b9bf 0000 0080 28fe b1bf
00000260: 0000 0080 e0ca ae3f 0000 00c0 b4a0 b53f
00000270: 0000 0080 eff0 b0bf 0000 0080 feb1 a53f
00000280: 0000 0080 0547 a9bf 0000 0040 367e bb3f
00000290: 0000 0000 f193 993f 0000 0000 e678 b9bf
000002a0: 0000 0000 b16f aabf 0000 0000 fcff a23f
000002b0: 0000 0000 74f3 ba3f 0000 0040 c89a bf3f
000002c0: 0000 0040 a4e9 b63f 0000 0000 a0da 53bf
000002d0: 0000 00c0 4cd4 b43f 0000 0000 1473 96bf
000002e0: 0000 0000 f0ff 903f 0000 0040 8b35 b23f
000002f0: 0000 0000 0984 a6bf 0000 0040 08e1 b4bf
00000300: 0000 0000 daf8 bdbf 0000 0080 0195 b33f
00000310: 0000 0040 e5b4 bcbf 0000 0000 5824 bf3f
00000320: 0000 00c0 3828 b1bf 0000 0000 a1c2 9bbf
00000330: 0000 0080 2147 ba3f 0000 0000 ea2e a93f
00000340: 0000 0000 c890 6ebf 0000 0000 c2b3 a93f
00000350: 0000 00c0 614e b53f 0000 00c0 77d2 bebf
00000360: 0000 0080 e9e3 a33f 0000 00c0 f140 bb3f
00000370: 0000 0000 867a a13f 0000 0040 7a1c bb3f
00000380: 0000 0000 265d 9ebf 0000 0000 1af6 9dbf
00000390: 0000 0080 6ce3 b43f 0000 0040 0cc4 b13f
000003a0: 0000 0000 1ddc a23f 0000 0080 b9b5 aa3f
000003b0: 0000 0040 6a54 ba3f 0000 00c0 121f bebf
000003c0: 0000 0000 47fc aabf 0000 0000 fb4e a93f
000003d0: 0000 0040 90d2 bd3f 0000 0000 c8f9 783f
000003e0: 0000 0040 db41 b0bf 0000 0080 fb0d adbf
000003f0: 0000 0000 7675 a23f 0000 0080 a18c babf
00000400: 0000 00c0 bbea bf3f 0000 0000 46d2 b6bf
00000410: 0000 0000 f6be a03f 0000 0000 e71c a23f
00000420: 0000 00c0 bf3f bf3f 0000 0080 6273 a9bf
00000430: 0000 0000 28cb 9dbf 0000 0040 36dc b03f
00000440: 0000 0080 f905 a5bf 0000 0080 2a5a aebf
00000450: 0000 0000 7470 bcbf 0000 0080 74fb aa3f
00000460: 0000 0040 c99a b1bf 0000 0040 d568 b9bf
00000470: 0000 0000 15df 9ebf 0000 0080 2100 afbf
00000480: 0000 0000 eab0 a43f 0000 0040 7ad2 bbbf
00000490: 0000 0080 5ad5 b23f 0000 0000 fc4a 89bf
000004a0: 0000 0080 61cc bdbf 0000 0000 583a 84bf
000004b0: 0000 0080 c979 bfbf 0000 0000 b1c5 973f
000004c0: 0000 0000 bd84 9cbf 0000 0040 1065 babf
000004d0: 0000 0040 102f bbbf 0000 0080 f4a3 a1bf
000004e0: 0000 0080 9f9e b53f 0000 0000 8996 bfbf
000004f0: 0000 0040 0d8e bb3f 0000 0040 e74e bf3f
00000500: 0000 0000 98ed 65bf 0000 0040 db8f bdbf
00000510: 0000 0000 816d b9bf 0000 00c0 d3ed b43f
00000520: 0000 0080 f5a5 acbf 0000 0080 b986 aebf
00000530: 0000 00c0 1f21 bfbf 0000 0040 e456 b4bf
00000540: 0000 0080 bd49 bb3f 0000 0000 9a39 adbf
00000550: 0000 0040 7f46 b23f 0000 0080 f5c6 b3bf
00000560: 0000 00c0 85c8 bcbf 0000 00c0 da10 bd3f
00000570: 0000 0000 0735 aebf 0000 0000 275e b9bf
00000580: 0000 0000 4687 81bf 0000 0080 986e a43f
00000590: 0000 0000 e520 95bf 0000 0080 b6fd b43f
000005a0: 0000 0000 c73e a33f 0000 0040 c597 b43f
000005b0: 0000 0000 3842 7dbf 0000 0000 41f8 a63f
000005c0: 0000 0000 b877 90bf 0000 0040 3e9f ba3f
000005d0: 0000 0000 00dc fe3e 0000 00c0 bb83 bebf
000005e0: 0000 00c0 2cde bcbf 0000 0080 7e07 bf3f
000005f0: 0000 00c0 dccc b2bf 0000 0000 7731 963f
00000600: 0000 0080 0b04 adbf 0000 0080 bc15 a23f
00000610: 0000 00c0 2b1a b0bf 0000 0080 8636 a5bf
00000620: 0000 0080 d0c6 a63f 0000 0000 9815 b83f
00000630: 0000 0080 1310 b03f 0000 0040 135b b73f
00000640: 0000 0000 b5d9 a13f 0000 0040 1a94 be3f
00000650: 0000 0000 71e3 9d3f 0000 0080 dda7 a3bf
00000660: 0000 0000 4d97 bfbf 0000 0080 7b6f ab3f
00000670: 0000 0040 3efe b23f 0000 0000 6c70 b8bf
00000680: 0000 0080 80e7 a93f 0000 0000 f97a af3f
00000690: 0000 0000 70e7 ab3f 0000 0000 aa3e a1bf
000006a0: 0000 00c0 1497 b93f 0000 0000 9312 903f
000006b0: 0000 00c0 4ce9 babf 0000 0000 11fc bebf
000006c0: 0000 0000 2de1 943f 0000 0080 d5a8 b1bf
000006d0: 0000 0080 169f a1bf 0000 0000 e51c 93bf
000006e0: 0000 0000 70f5 5fbf 0000 0000 3c3b b03f
000006f0: 0000 0000 b4cf a03f 0000 0000 d688 a1bf
00000700: 0000 0040 1bb6 b6bf 0000 0000 4c51 77bf
00000710: 0000 0000 e7ee b6bf 0000 0000 b0bd 9a3f
00000720: 0000 0000 efc3 9bbf 0000 0000 2224 ae3f
00000730: 0000 0000 6004 9bbf 0000 00c0 2057 bd3f
00000740: 0000 00c0 80bc bc3f 0000 0000 5a2f babf
00000750: 0000 0040 7e49 b2bf 0000 0000 b633 b53f
00000760: 0000 0000 9703 ac3f 0000 0000 87b7 a53f
00000770: 0000 0040 bbfd b43f 0000 0080 1f2d ae3f
00000780: 0000 0000 685a 68bf 0000 0040 f5ec babf
00000790: 0000 0080 317e a8bf 0000 0080 208d a23f
000007a0: 0000 0000 9ba6 993f 0000 0000 c244 b5bf
000007b0: 0000 0000 57e7 b33f 0000 0080 a557 b53f
000007c0: 0000 0080 1e78 a03f 0000 0000 80cb 3abf
000007d0: 0000 0080 b35e a03f 0000 0080 17ae bbbf
000007e0: 0000 0080 1452 a9bf 0000 0000 c0c1 94bf
000007f0: 0000 0000 b8bd a1bf 0000 0080 93c0 b73f
-0.08433286845684052 -0.07394750416278839 -0.09078697860240936 0.017446786165237427 -0.030143767595291138 0.04397812485694885 0.01065787672996521 0.10173934698104858
0.0019927918910980225 -0.02710634469985962 0.08607669174671173 0.03742586076259613 -0.0106259286403656 0.08148093521595001 -0.07812929153442383 0.07553887367248535
0.11849850416183472 -0.0321945995092392 0.10615089535713196 0.01944689452648163 -0.07052324712276459 0.11004336178302765 -0.028632134199142456 -0.054330915212631226
-0.032713428139686584 0.027955159544944763 -0.018358781933784485 0.048107802867889404 -0.04708696901798248 -0.04250858724117279 0.10094313323497772 0.1085866242647171
-0.10784368216991425 -0.11803632974624634 -0.00208224356174469 -0.028378620743751526 0.04787488281726837 0.12107542157173157 -0.019576415419578552 0.10037034749984741
-0.1197793036699295 -0.10994581878185272 0.10030041635036469 0.04565827548503876 -0.04112052917480469 -0.017105042934417725 -0.07682803273200989 0.06366817653179169
-0.12027472257614136 0.10299496352672577 -0.06185159087181091 0.00539262592792511 0.120332732796669 0.04163685441017151 0.031122475862503052 -0.019304677844047546
0.04661273956298828 -0.059643566608428955 0.007277384400367737 -0.10696135461330414 -0.07193680107593536 0.004384845495223999 -0.0797092616558075 0.004747346043586731
-0.037936821579933167 -0.08123458921909332 0.03689172863960266 0.02824169397354126 0.12414419651031494 -0.04702006280422211 0.04109872877597809 0.11242103576660156
-0.08244268596172333 0.12257285416126251 -0.09993360936641693 -0.0702843964099884 0.06014157831668854 0.08448342978954315 -0.0661763846874237 0.04237361252307892
-0.04936997592449188 0.10739459097385406 0.024978414177894592 -0.09950101375579834 -0.05163338780403137 0.03710925579071045 0.10527729988098145 0.12345553934574127
0.08950258791446686 -0.001211792230606079 0.08136443793773651 -0.021923363208770752 0.0166013240814209 0.07112951576709747 -0.04397609829902649 -0.0815587192773819
-0.11707842350006104 0.07649239897727966 -0.11213524639606476 0.12164831161499023 -0.067019984126091 -0.02710963785648346 0.10264787077903748 0.04918605089187622
-0.003731146454811096 0.05019956827163696 0.0832272619009018 -0.12039898335933685 0.03884820640087128 0.10645972192287445 0.03413790464401245 0.10590328276157379
-0.02965220808982849 -0.02925911545753479 0.08159521222114563 0.0693977028131485 0.03683558106422424 0.05216769874095917 0.10285057127475739 -0.11766164004802704
-0.052705973386764526 0.04943069815635681 0.11649419367313385 0.006097584962844849 -0.0635048896074295 -0.056747302412986755 0.036052405834198 -0.10370835661888123
0.12467549741268158 -0.08914601802825928 0.03270691633224487 0.03537675738334656 0.12206648290157318 -0.04970844089984894 -0.02909529209136963 0.06586016714572906
-0.04106120765209198 -0.05928166210651398 -0.11109089851379395 0.052699699997901917 -0.06876809895038605 -0.09925587475299835 -0.030147865414619446 -0.06054787337779999
0.04041224718093872 -0.10868038237094879 0.07356801629066467 -0.01235005259513855 -0.1163998544216156 -0.009876906871795654 -0.12295207381248474 0.023215070366859436
-0.027850106358528137 -0.1031046062707901 -0.1061868816614151 -0.03445400297641754 0.08445164561271667 -0.12339073419570923 0.10763628780841827 0.12229771912097931
-0.0026767700910568237 -0.1154763251543045 -0.09932714700698853 0.08175395429134369 -0.05595366656780243 -0.05962161719799042 -0.12159918248653412 -0.07945086061954498
0.10659393668174744 -0.057080090045928955 0.07138819992542267 -0.07725462317466736 -0.11243472993373871 0.11353842914104462 -0.058998316526412964 -0.09909290075302124
-0.008558794856071472 0.039906278252601624 -0.02063329517841339 0.08199635148048401 0.03758832812309265 0.08044083416461945 -0.007143229246139526 0.0448627769947052
-0.016081690788269043 0.10399235785007477 2.942979335784912e-05 -0.11919759213924408 -0.1127651184797287 0.12120810151100159 -0.07343845069408417 0.021673068404197693
-0.05667148530483246 0.03532208502292633 -0.06289933621883392 -0.041431620717048645 0.044485583901405334 0.09407949447631836 0.06274530291557312 0.09123344719409943
0.03486409783363342 0.11944736540317535 0.02918793261051178 -0.038390085101127625 -0.1234024167060852 0.05358491837978363 0.07419194281101227 -0.09546542167663574
0.05059434473514557 0.061485081911087036 0.05450010299682617 -0.03368121385574341 0.09996156394481659 0.015695855021476746 -0.10512237250804901 -0.12103372812271118
0.020390227437019348 -0.06898245215415955 -0.03441686928272247 -0.01866491138935089 -0.0019506067037582397 0.06340384483337402 0.032834649085998535 -0.03424710035324097
-0.08871622383594513 -0.005692765116691589 -0.08958286046981812 0.026114225387573242 -0.027114614844322205 0.05886942148208618 -0.02638387680053711 0.1146107167005539
0.11225132644176483 -0.10228502750396729 -0.0714339166879654 0.08282029628753662 0.05471488833427429 0.04241582751274109 0.08199663460254669 0.05893801152706146
-0.0029727965593338013 -0.10517819225788116 -0.04783777892589569 0.03623296320438385 0.025049611926078796 -0.08308041095733643 0.07774871587753296 0.08336862921714783
0.032166436314582825 -0.000408858060836792 0.03197251260280609 -0.10812518000602722 -0.04945434629917145 -0.020270347595214844 -0.034650564193725586 0.09278222918510437

net.4.bias f8 [64]
00000000: 0000 0000 90a8 98bf 0000 0040 2c4d b03f
00000010: 0000 00c0 26b8 bdbf 0000 00c0 246a b1bf
00000020: 0000 0080 8a5c a2bf 0000 0080 4773 aabf
00000030: 0000 0000 dfe5 9bbf 0000 0000 b356 bd3f
00000040: 0000 0000 05ef b63f 0000 0000 c36d bbbf
00000050: 0000 0080 9bb6 b4bf 0000 0000 22a7 9c3f
00000060: 0000 0000 15d1 a8bf 0000 00c0 21f9 bb3f
00000070: 0000 00c0 2907 bdbf 0000 0080 4a74 a93f
00000080: 0000 0080 85de b0bf 0000 0000 5033 623f
00000090: 0000 0000 23e7 943f 0000 0000 8c6e 8dbf
000000a0: 0000 0000 2e21 acbf 0000 0080 4d85 a13f
000000b0: 0000 0000 2927 a1bf 0000 00c0 e3a4 bf3f
000000c0: 0000 0080 b176 bc3f 0000 0080 afb8 babf
000000d0: 0000 0040 8bd4 b03f 0000 0000 3c0b ae3f
000000e0: 0000 0000 e0de 5ebf 0000 0000 5636 813f
000000f0: 0000 0080 4af3 aa3f 0000 00c0 f3de b7bf
00000100: 0000 0000 54f4 adbf 0000 0080 2700 ac3f
00000110: 0000 00c0 6429 b03f 0000 0040 e2c1 ba3f
00000120: 0000 0000 62ba b13f 0000 0000 d1c9 903f
00000130: 0000 0080 e0cf b23f 0000 00c0 943c b83f
00000140: 0000 00c0 a8bc bb3f 0000 0080 8a45 af3f
00000150: 0000 0000 2a85 a43f 0000 0000 c0cc 8abf
00000160: 0000 0040 bd0b bebf 0000 0000 0b45 a7bf
00000170: 0000 0000 deda ab3f 0000 0000 d769 95bf
00000180: 0000 00c0 98c5 b8bf 0000 0080 4a23 b33f
00000190: 0000 0000 5862 883f 0000 0000 800b 7c3f
000001a0: 0000 0000 cfa9 9c3f 0000 0080 d9de b6bf
000001b0: 0000 0080 6d87 a7bf 0000 0040 6ead b2bf
000001c0: 0000 0080 0fdf b53f 0000 0000 a1db a43f
000001d0: 0000 00c0 b79d b73f 0000 0000 868c 9e3f
000001e0: 0000 0000 faf8 b0bf 0000 0000 61f7 a23f
000001f0: 0000 0000 b7c2 bfbf 0000 0000 398f b5bf
-0.024080514907836914 0.06367756426334381 -0.11609117686748505 -0.0680258721113205 -0.035862281918525696 -0.05166076123714447 -0.027244076132774353 0.1146041750907898
0.08958464860916138 -0.1071435809135437 -0.08091136813163757 0.027981311082839966 -0.04847016930580139 0.10927020013332367 -0.11339055001735687 0.04971535503864288
-0.06589540839195251 0.002221733331680298 0.02041296660900116 -0.014371007680892944 -0.054940640926361084 0.034220144152641296 -0.033501893281936646 0.1236097663640976
0.11118611693382263 -0.10438057780265808 0.06574316322803497 0.05867946147918701 -0.0018841922283172607 0.00840441882610321 0.05263741314411163 -0.093245729804039
-0.058504700660705566 0.054688677191734314 0.06313161551952362 0.10452093183994293 0.06925022602081299 0.01639486849308014 0.07348445057868958 0.09467439353466034
0.10834746062755585 0.061077430844306946 0.04007846117019653 -0.01308584213256836 -0.11736662685871124 -0.045448631048202515 0.05440419912338257 -0.020911559462547302
-0.09676508605480194 0.07475724816322327 0.011906325817108154 0.006846904754638672 0.02799151837825775 -0.08933791518211365 -0.0459551066160202 -0.07295884191989899
0.08543488383293152 0.04073813557624817 0.09225033223628998 0.029832929372787476 -0.06629908084869385 0.037043601274490356 -0.1240648627281189 -0.0842166543006897
