AE_multidim/model/ae_2.pth (torch, 19554 bytes, 28 tensors)

net.0.weight f4 [16, 16]
-0.1048639 0.021976471 -0.18154089 0.2035019 0.02720753 -0.04236096 -0.124821186 -0.23934841
-0.20499521 0.019662177 -0.1324376 0.025650859 0.23016003 -0.21875101 -0.16378923 0.07300952
-0.19206583 0.015544832 -0.081641644 -0.0416393 0.23212236 -0.19642761 0.17242062 -0.2413184
-0.072582364 0.098519504 0.1286779 -0.018905342 0.19504508 -0.19103879 -0.12088668 -0.12012482
0.028071076 0.0648396 -0.11336836 -0.0769659 -0.03479275 0.0639748 0.060135037 0.21362841
-0.069685966 -0.08863917 -0.09053782 0.09159684 -0.19284606 -0.2447139 -0.21767715 0.015169203
-0.04109758 0.14435494 -0.050438136 0.17996046 -0.23331156 0.18344343 0.050376862 -0.14692721
-0.2370306 -0.1892286 -0.19974935 0.058665484 0.018745512 0.19295555 -0.02079612 0.0482094
0.24645737 -0.090333015 -0.010854334 -0.058271945 -0.1785762 -0.010101765 -0.21872056 0.1702492
0.15990573 0.014407665 -0.0766958 0.2337664 -0.15125787 -0.09057087 0.18692178 -0.18341321
-0.01305469 -0.11919546 -0.011122049 0.2282886 0.20876631 -0.1154474 0.21773444 -0.18924668
0.2140725 0.16619769 0.21730293 0.057976574 -0.016473955 -0.24748072 0.030936154 0.0863232
0.013415568 0.20610812 -0.18226358 0.09855409 -0.123379484 0.16020319 0.07165565 0.22855496
-0.22156942 -0.012055801 0.109845616 0.096395046 0.21983363 0.12791657 -0.16380924 -0.015423387
0.19903761 0.02132994 -0.18461448 0.13887334 0.16633517 0.11775932 -0.044326335 -0.1610333
0.01805991 0.13756919 0.24222931 -0.069449246 0.09067875 -0.14730608 -0.0044695437 0.002172172
-0.13227202 0.11694132 0.03927466 -0.1049597 0.049718186 -0.20766902 0.14959109 0.10770026
0.07840088 0.19514774 -0.14052759 0.08684513 -0.13760105 0.003945291 -0.21766572 -0.061878026
-0.22142678 -0.15814015 0.03928733 -0.22971636 0.08522475 -0.14393881 -0.037203074 0.014152557
-0.16325459 0.16286421 -0.13175988 0.018469363 -0.081056416 -0.040637344 0.11969629 -0.08483145
0.2160824 -0.18296427 -0.09704402 0.16051623 0.21417034 -0.044779718 0.04832697 0.19266784
-0.11022535 0.05962822 -0.10902852 0.009128302 -0.03025511 -0.0073742867 -0.11386815 0.016744882
-0.027698787 0.06088532 0.2057622 -0.05729896 0.24773349 -0.07798296 -0.23217879 0.23018622
-0.015003651 -0.11453909 0.15453584 0.030020952 0.13102292 0.1746751 -0.016011234 0.21755406
0.19345677 -0.13916758 0.09104568 -0.18573576 -0.067500144 -0.022108823 0.074322164 -0.12658194
-0.15684754 0.025494903 -0.061171025 0.034663647 0.10492885 0.11701879 0.07780033 -0.1935403
0.029903864 0.13740017 -0.2243923 0.058831573 -0.024151478 -0.15246245 -0.09380676 0.23139575
-0.24656022 0.034178123 0.08216574 0.009576291 -0.08885108 0.112923056 -0.047148857 -0.19294786
0.08093779 0.0887996 -0.1673157 0.002424809 -0.013037295 -0.21326357 -0.005270058 0.14923972
-0.033691704 0.14302815 -0.09273448 0.11978364 -0.16410637 0.13500431 0.10558713 0.14389133
-0.031880196 -0.0057851067 0.11969368 0.25031123 -0.16748284 -0.1775789 -0.14699578 -0.22552744
-0.119018525 -0.13349292 0.03732149 -0.09733099 -0.098400734 -0.046515763 0.09450728 0.13161042
00000000: e2c2 d6bd 0008 b43c dbe5 39be cd62 503e
00000010: 53e2 de3c b082 2dbd 40a2 ffbd c017 75be
00000020: 44ea 51be 9312 a13c b99d 07be c021 d23c
00000030: 12af 6b3e 4400 60be 5db8 27be 0486 953d
00000040: e8ac 44be c0af 7e3c bc33 a7bd f88d 2abd
00000050: 7cb1 6d3e 5224 49be 088f 303e 2c1c 77be
00000060: 10a6 94bd 98c4 c93d 24c4 033e 60df 9abc
00000070: e6b9 473e ac9f 43be 7093 f7bd 0004 f6bd
00000080: 50f5 e53c a0ca 843d ac2d e8bd 4ca0 9dbd
00000090: d882 0ebd 3805 833d 2850 763d 68c1 5a3e
000000a0: 84b7 8ebd 7488 b5bd e46b b9bd 2097 bb3d
000000b0: 7079 45be 4896 7abe c2e6 5ebe 4088 783c
000000c0: f055 28bd c8d1 133e 3898 4ebd 8e47 383e
000000d0: 3ae9 6ebe 98d8 3b3e f857 4e3d 1674 16be
000000e0: 26b8 72be 24c5 41be 188b 4cbe 384b 703d
000000f0: 3090 993c 2496 453e a05c aabc 3877 453d
00000100: 525f 7c3e 8400 b9bd 60d6 31bc 90ae 6ebd
00000110: aedc 36be e081 25bc 48f8 5fbe ce55 2e3e
00000120: 54be 233e 200e 6c3c b012 9dbd 7660 6f3e
00000130: 58e3 1abe 387d b9bd 6c68 3f3e acd0 3bbe
00000140: 57e3 55bc c01c f4bd 4139 36bc 7dc4 693e
00000150: d6c6 553e b06f ecbd c7f5 5e3e e2c9 41be
00000160: d235 5b3e ba2f 2a3e a984 5e3e d878 6d3d
00000170: 63f4 86bc 966b 7dbe d16d fd3c 38ca b03d
00000180: f8cc 5b3c 020e 533e 4ea3 3abe bad6 c93d
00000190: 62ae fcbd 4e0c 243e 33c0 923d 500a 6a3e
000001a0: 18e3 62be b285 45bc bdf6 e03d c46a c53d
000001b0: 111c 613e 90fc 023e 9cbd 27be 60b2 7cbc
000001c0: 84d0 4b3e 20bc ae3c 940b 3dbe d034 0e3e
000001d0: c453 2a3e cc2b f13d 888f 35bd eae5 24be
000001e0: 60f2 933c f0de 0c3e f60a 783e 683b 8ebd
000001f0: c8b5 b93d 68d7 16be 4075 92bb 005b 0e3b
00000200: 5172 07be ee7e ef3d 77de 203d 1cf5 d6bd
00000210: 4ca5 4b3d 30a7 54be 682e 193e f491 dc3d
00000220: a490 a03d cfd4 473e 77e6 0fbe dcdb b13d
00000230: 4ae7 0cbe 8047 813b c3e3 5ebe d073 7dbd
00000240: b4bd 62be 7eef 21be c0eb 203d c43a 6bbe
00000250: 508a ae3d b264 13be 4062 18bd 20e0 673c
00000260: 362c 27be e0c5 263e 10ec 06be 104d 973c
00000270: e800 a6bd 5873 26bd 5423 f53d 1cbc adbd
00000280: b444 5d3e fc5a 3bbe 04bf c6bd 5e5e 243e
00000290: 784f 5b3e f06a 37bd 80f2 453d b84a 453e
000002a0: d4bd e1bd b83c 743d 584a dfbd e08e 153c
000002b0: 90d9 f7bc 00a4 f1bb b433 e9bd 902c 893c
000002c0: 91e8 e2bc e362 793d 53b3 523e 50b2 6abd
000002d0: d9ad 7d3e 88b5 9fbd 47c0 6dbe f0b5 6b3e
000002e0: e0d1 75bc 7893 eabd a53e 1e3e 80ee f53c
000002f0: df2a 063e 08de 323e fe29 83bc 7ec6 5e3e
00000300: 8819 463e f281 0ebe 2876 ba3d 8431 3ebe
00000310: 843d 8abd 901d b5bc 3836 983d b29e 01be
00000320: a49c 20be b0da d03c 788e 7abd 78fb 0d3d
00000330: f0e4 d63d 8ca7 ef3d c855 9f3d 6e2f 46be
00000340: f3f8 f43c a1b2 0c3e 18c7 65be 60f9 703d
00000350: 52d9 c5bc 1e1f 1cbe c21d c0bd 02f3 6c3e
00000360: 487a 7cbe 5cfe 0b3d 8346 a83d e0e5 1c3c
00000370: 8ef7 b5bd 3444 e73d 291f 41bd 2094 45be
00000380: b6c2 a53d 91dc b53d cf54 2bbe 8be9 1e3b
00000390: 619a 55bc c461 5abe 73b0 acbb 4cd2 183e
000003a0: 5000 0abd f975 123e 93eb bdbd 2051 f53d
000003b0: 800b 28be 923e 0a3e 113e d83d 4058 133e
000003c0: cf94 02bd fe90 bdbb f621 f53d cb28 803e
000003d0: 9f80 2bbe 3ed7 35be 1086 16be aaf0 66be
000003e0: fcbf f3bd 5eb2 08be 6bde 183d 7855 c7bd
000003f0: 5386 c9bd 5087 3ebd 088d c13d e2c4 063e

net.0.bias f4 [16]
0.19401674 -0.11378172 -0.056290418 -0.1970852 0.042289376 -0.009277062 0.08532653 -0.07390556
-0.015155683 -0.06622845 -0.07725337 0.025507998 -0.24944937 0.11267909 0.24802645 0.22963373
00000000: 53ac 463e 6406 e9bd c890 66bd b4d0 49be
00000010: a037 2d3d d1fe 17bc adbf ae3d cc5b 97bd
00000020: 8b4f 78bc c8a2 87bd 0437 9ebd 26f6 d03c
00000030: a86f 7fbe 4bc4 e63d a5fa 7d3e 1b25 6b3e

net.2.weight f4 [16, 16]
-0.24181107 -0.019012272 0.2118124 -0.10326198 -0.14429396 -0.24804583 -0.036958218 0.09296593
0.18448275 -0.1046485 0.11211845 -0.055403262 -0.0018397868 0.13140085 -0.19287434 -0.1810101
-0.078685075 0.19415379 -0.10609853 0.1607874 0.19280508 0.06685901 0.14554393 0.031220675
0.22651318 0.042945683 -0.20838141 -0.0015113056 -0.23490655 -0.07315794 0.15026137 -0.085700065
-0.18503864 0.070153296 0.043187827 -0.22365758 0.15962115 -0.10727069 -0.039622255 0.057672948
-0.00833493 0.078704745 0.10252488 -0.019257037 0.08974534 -0.1720527 -0.07447186 -0.103358895
0.13487554 -0.07681009 0.21245411 -0.030383974 0.2447674 0.21009958 -0.0027777553 0.20696646
0.0012294352 0.15444615 -0.13502154 -0.0011936128 -0.0176166 0.03251171 -0.02504927 -0.044693917
-0.10255575 0.18147895 -0.02963838 -0.1333808 0.017897874 0.14184472 -0.09980106 0.22032446
-0.23511085 0.18301791 0.23126 0.015914947 -0.04080239 0.22766232 -0.24422386 -0.088792235
0.11651358 0.11785698 0.051236838 0.029343128 0.02148953 0.0053324997 -0.09119898 -0.07567677
0.21383336 -0.11212894 -0.058927625 0.1152336 0.21268299 0.18365493 -0.21597925 -0.19461823
0.14964573 -0.026710838 0.11730346 0.24656582 0.18425801 -0.22993428 -0.07820171 0.02681604
-0.21152836 -0.20627135 0.044344723 0.049042836 0.05656159 0.09667182 0.23137361 -0.092431575
0.18535495 -0.13939464 -0.14404926 0.23097786 -0.109657586 0.108191036 0.19301721 0.16480795
0.13254078 0.13785806 0.15017018 -0.004892816 -0.16129926 0.15000665 -0.21871825 0.064359136
-0.26330432 -0.14965793 0.22595736 0.09046754 -0.15040267 -0.055250846 0.036065765 0.033395797
-0.2187352 0.1065104 0.047050297 -0.23787649 0.18330118 0.17575733 -0.11772805 0.14267594
-0.21222591 -0.1845659 -0.10204598 -0.06343654 0.14455166 -0.14246869 -0.087215155 -0.20315534
0.13898203 -0.12674847 0.21755159 0.051323652 0.21554798 0.16279316 -0.16928485 0.15893239
0.0406586 -0.11002123 -0.078410655 -0.00435552 0.18416598 0.18741065 0.1954296 -0.17636204
-0.089755274 -0.0976291 0.021330565 -0.055836134 0.14011273 -0.09748296 -0.06014576 0.21906964
-0.04606205 -0.21819508 0.19851422 0.074338675 -0.023362279 0.15065295 0.14925922 0.19246101
0.12378746 -0.04548323 0.062499225 -0.1188052 -0.1056723 -0.26020643 -0.15834543 -0.0936746
-0.12265676 -0.01626715 0.02726382 -0.11135039 0.007048309 0.09009737 -0.013856113 0.14577112
-0.12446827 -0.12009215 0.15625241 0.19395533 -0.07669145 0.19226745 0.16224697 0.10283524
0.16757336 -0.12800074 0.19334558 -0.049905986 -0.07575157 -0.022853166 0.026161432 -0.0901418
0.0873152 0.032429785 0.088189244 0.0022889972 0.11541146 -0.049463183 0.0826537 -0.1567049
-0.14806563 -0.2373898 0.15151712 0.10142657 -0.13009012 -0.18908164 0.21846053 0.21378729
0.07518849 0.13791093 -0.061854273 0.002492994 -0.0760929 -0.17151782 -0.07904339 0.06499624
0.08756518 0.025920123 0.2096284 -0.12457481 -0.17618549 -0.20125312 -0.22848558 0.14925823
-0.047766447 0.11379638 -0.19120738 -0.07898 -0.13419756 -0.20438612 -0.121406466 -0.034381807
00000000: 529d 77be a0bf 9bbc 5ae5 583e 047b d3bd
00000010: ccc1 13be baff 7dbe 8061 17bd ec64 be3d
00000020: 0ce9 3c3e f451 d6bd 5c9e e53d 88ee 62bd
00000030: 0025 f1ba f28d 063e da80 45be b65a 39be
00000040: a425 a1bd 40d0 463e 304a d9bd 74a5 243e
00000050: b26e 453e 60ed 883d 7809 153e 80c2 ff3c
00000060: 12f3 673e d0e7 2f3d f061 55be 0017 c6ba
00000070: 588b 70be d4d3 95bd 1ede 193e 8483 afbd
00000080: c57a 3dbe 88ac 8f3d b8e5 303d 7e06 65be
00000090: ba73 233e bcb0 dbbd f24a 22bd 783a 6c3d
000000a0: 3b8f 08bc f42f a13d 90f8 d13d efc0 9dbc
000000b0: 68cc b73d 952e 30be b484 98bd d4ad d3bd
000000c0: d01c 0a3e 9c4e 9dbd 928d 593e d0e7 f8bc
000000d0: 4ea4 7a3e 5824 573e 000b 36bb 04ef 533e
000000e0: 0025 a13a 2227 1e3e 1643 0abe 0073 9cba
000000f0: b050 90bc 002b 053d 2034 cdbc f810 37bd
00000100: c008 d2bd 9ed5 393e 30cc f2bc fa94 08be
00000110: 909e 923c be3f 113e 8064 ccbd bc9c 613e
00000120: e6c0 70be 0c69 3b3e 6ccf 6c3e 1060 823c
00000130: 6820 27bd 5020 693e d215 7abe b4d8 b5bd
00000140: ac9e ee3d 005f f13d b8dd 513d 0061 f03c
00000150: d00a b03c 40bc ae3b 88c6 babd 6cfc 9abd
00000160: 22f7 5a3e dca3 e5bd 185e 71bd 98ff eb3d
00000170: 92c9 593e 0a10 3c3e aa29 5dbe 004a 47be
00000180: bb3c 193e b0d0 dabc cc3c f03d c07b 7c3e
00000190: 22ae 3c3e e473 6bbe 3828 a0bd 50ad db3c
000001a0: e49a 58be cc38 53be d0a2 353d 24e1 483d
000001b0: 20ad 673d e0fb c53d 34ed 6c3e c44c bdbd
000001c0: b0cd 3d3e 78bd 0ebe a681 13be 7685 6c3e
000001d0: 2894 e0bd 4393 dd3d 4ea6 453e 6ac3 283e
000001e0: c5b8 073e aa2a 0d3e 36c6 193e ea53 a0bb
000001f0: a22b 25be 589b 193e adf7 5fbe b9ce 833d
00000200: d3cf 86be ee3f 19be 5e61 673e 0c47 b93d
00000210: 2803 1abe b64e 62bd b2b9 133d 08ca 083d
00000220: 1ffc 5fbe 2022 da3d d0b7 403d e595 73be
00000230: 4eb3 3b3e bbf9 333e 671b f1bd a419 123e
00000240: c051 59be d8fe 3cbe 7cfd d0bd 04eb 81bd
00000250: 5a05 143e 50e3 11be dc9d b2bd f407 50be
00000260: 4e51 0e3e 5aca 01be d8c5 5e3e c038 523d
00000270: 9cb8 5c3e 40b3 263e 0259 2dbe 2cbf 223e
00000280: a289 263d d052 e1bd c495 a0bd c0b8 8ebb
00000290: 0296 3c3e 94e8 3f3e b21e 483e 4098 34be
000002a0: 9dd1 b7bd c4f1 c7bd 70bd ae3c 6eb4 64bd
000002b0: b679 0f3e 25a5 c7bd 675b 76bd cb53 603e
000002c0: 8fab 3cbd 886e 5fbe 5047 4b3e e03e 983d
000002d0: 4062 bfbc c444 1a3e 69d7 183e 8014 453e
000002e0: 4884 fd3d a04c 3abd 30ff 7f3d 2450 f3bd
000002f0: b86a d8bd c739 85be 4e25 22be 78d8 bfbd
00000300: 7833 fbbd b042 85bc 6058 df3c ac0b e4bd
00000310: 80f5 e63b f884 b83d c004 63bc 0645 153e
00000320: 38e9 febd e0f2 f5bd a200 203e 3a9c 463e
00000330: 6810 9dbd c2e1 443e 1224 263e 489b d23d
00000340: 5a98 2b3e a012 03be 62fc 453e 386a 4cbd
00000350: a423 9bbd 9036 bbbc 8050 d63c 449c b8bd
00000360: 50d2 b23d 18d5 043d 909c b43d 0003 163b
00000370: d85c ec3d e899 4abd 5846 a93d 4077 20be
00000380: 849e 17be 5016 73be 4e27 1b3e bcb8 cf3d
00000390: 5836 05be 9e9e 41be 1eb4 5f3e 0eeb 5a3e
000003a0: 6cfc 993d 8638 0d3e e85a 7dbd 8061 233b
000003b0: 98d6 9bbd 5ea2 2fbe 80e1 a1bd c01c 853d
000003c0: 6055 b33d 7056 d43c d4a8 563e 1421 ffbd
000003d0: f869 34be 4c15 4ebe 20f8 69be 26d7 183e
000003e0: c0a6 43bd 140e e93d decb 43be 44c0 a1bd
000003f0: 166b 09be 984a 51be f4a3 f8bd f0d3 0cbd

net.2.bias f4 [16]
-0.17256832 -0.068534374 0.1821206 -0.061605632 -0.16937965 -0.17692378 0.240771 -0.072250456
0.113952056 -0.07076594 -0.053169314 0.038902268 -0.14519751 -0.09419677 -0.07242262 0.021725506
00000000: c0b5 30be c05b 8cbd d37d 3a3e 3056 7cbd
00000010: dc71 2dbe 822b 35be ac8c 763e 0cf8 93bd
00000020: b25f e93d bced 90bd 11c8 59bd fc57 1f3d
00000030: a8ae 14be 3cea c0bd 5052 94bd b0f9 b13c

net.4.weight f4 [16, 16]
-0.19244435 0.024688363 0.114101075 0.18291572 -0.21693632 0.21696848 -0.24914932 -0.11633481
0.19433074 -0.0727717 -0.14497076 -0.17067367 -0.20994559 0.08660683 -0.19869018 -0.029903978
0.00234738 0.23619786 0.06943759 0.12439969 0.027496219 -0.0062098503 -0.05013573 -0.113909066
0.23324284 -0.007573694 0.070400715 -0.020147055 0.21153915 -0.038710803 0.19160569 0.1307523
-0.12652779 -0.09037256 0.18983945 -0.107250124 0.16215304 -0.16158399 0.05898401 0.12775642
-0.065665334 -0.17772606 0.08003658 0.0023380816 -0.053015828 -0.18293881 -0.24341041 0.1051974
0.058448464 0.121688515 0.056167584 -0.07998565 0.16103774 -0.23757386 -0.23458955 -0.16349654
0.17936745 -0.09992644 -0.09969164 0.10323261 0.023690194 0.19040999 0.20048109 -0.13062993
0.21597242 0.006824225 0.004629695 0.242971 -0.020585 -0.05804637 0.040677503 -0.17657197
-0.19196111 -0.013715476 -0.0057146987 -0.1951016 0.107281715 -0.15264302 0.13494682 0.17522115
-0.024333715 -0.22052866 -0.019964468 -0.22332507 0.067130715 0.19666868 0.023380572 0.16103132
-0.10343845 0.07375768 0.019595895 -0.011134265 0.022948265 -0.014953643 0.1557619 -0.18487939
-0.08897716 0.20047429 -0.150513 0.016115397 0.046898425 -0.06601083 -0.2303279 0.041448087
0.02402839 0.1797176 0.13736963 -0.10273528 -0.1431213 -0.06923905 0.07311627 0.24243596
0.08604115 0.11122683 -0.2092947 -0.05869955 -0.049454004 -0.061386496 -0.105006486 0.15690249
0.11406276 -0.16387072 0.10767448 -0.20574617 0.19182998 -0.0067575276 -0.07730383 0.19383022
0.133499 -0.05289051 -0.22755992 0.2083433 0.029693097 -0.21338129 -0.15214536 0.19566196
-0.07312849 -0.2084935 0.094091326 -0.19949242 0.24665418 -0.05271396 -0.14210823 -0.10189077
-0.11435902 0.24649626 0.035745174 0.22524828 -0.215089 0.05556509 -0.040341645 -0.21018708
0.16894153 0.1069119 -0.046063185 -0.045609564 0.11524978 -0.19837731 -0.15626651 -0.18022907
-0.18389079 0.20609513 -0.07087968 0.24280497 0.052004397 -0.032481253 0.14228785 0.22285277
-0.1550728 -0.008212149 0.042580847 -0.0708235 0.09485507 -0.14491796 0.24658808 -0.17189178
0.10388106 0.20401362 0.17052677 -0.17867863 -0.20919907 0.17217124 -0.14379908 0.24249981
0.120631695 0.10381183 0.04447715 0.14721873 -0.16091692 0.10950357 0.18976694 0.23039949
0.18212593 -0.12903559 0.17311415 0.013138294 -0.0967972 0.2444557 -0.0480474 -0.037783824
-0.13375689 -0.10144034 -0.13459578 -0.21679936 0.10461089 -0.199191 -0.10977146 0.103895724
0.121501446 -0.23129138 0.064819485 0.18795034 -0.05232501 0.1722219 0.031589717 -0.24856997
-0.2430749 -0.12092954 -0.23783565 -0.18634477 -0.07853374 0.094920784 0.13949156 0.055553347
-0.18325666 0.050979465 0.052960902 -0.13986635 -0.01983741 0.1637986 -0.17953065 0.12943992
-0.19141865 -0.08378008 0.19999859 -0.23808405 0.12109628 -0.048549324 0.0774385 0.1368956
-0.11938536 -0.14919195 0.15709212 0.013595074 -0.104616255 -0.13896805 0.18720135 -0.05372137
0.020001292 0.13375211 0.19267905 -0.24732986 0.103300124 -0.053043336 -0.028310865 -0.0040246844
00000000: 2210 45be 403f ca3c d3ad e93d 424e 3b3e
00000010: 8e24 5ebe fc2c 5e3e 0021 7fbe f240 eebd
00000020: a3fe 463e 5409 95bd 3773 14be 14c5 2ebe
00000030: fafb 56be ec5e b13d 7075 4bbe 30f9 f4bc
00000040: 80d6 193b dadd 713e 4c35 8e3d 44c5 fe3d
00000050: c03f e13c 007c cbbb 205b 4dbd 2849 e9bd
00000060: 36d7 6e3e c02c f8bb 402e 903d 700b a5bc
00000070: b89d 583e 388f 1ebd 4834 443e eee3 053e
00000080: 8090 01be 4015 b9bd 4665 423e f4a5 dbbd
00000090: 720b 263e 4676 25be 3899 713d 94d2 023e
000000a0: 8c7b 86bd d2fd 35be 38ea a33d 803a 193b
000000b0: 2027 59bd 5054 3bbe 9440 79be bc71 d73d
000000c0: a867 6f3d d437 f93d fb0f 663d 84cf a3bd
000000d0: 14e7 243e 9046 73be 3e38 70be a36b 27be
000000e0: 1aac 373e 3ca6 ccbd 212b ccbd 9e6b d33d
000000f0: f011 c23c d6fa 423e ea4a 4d3e dac3 05be
00000100: e027 5d3e c09d df3b b2b4 973b 64cd 783e
00000110: e0a1 a8bc 08c2 6dbd 749d 263d 48cf 34be
00000120: 7491 44be e0b6 60bc 5e42 bbbb b7c8 47be
00000130: 84b6 db3d 744e 1cbe 802f 0a3e 2c6d 333e
00000140: 8057 c7bc 44d2 61be 868c a3bc 54af 64be
00000150: d47b 893d 8463 493e 9d88 bf3c 65e5 243e
00000160: 8ad7 d3bd 440e 973d 9287 a03c 7e6c 36bc
00000170: 00fe bb3c 2000 75bc 0c80 1f3e 0651 3dbe
00000180: a839 b6bd 2249 4d3e 1420 1abe 7004 843c
00000190: 9018 403d b030 87bd 14db 6bbe 78c5 293d
000001a0: 30d7 c43c e407 383e a0aa 0c3e e066 d2bd
000001b0: 648e 12be 34cd 8dbd fcbd 953d 2241 783e
000001c0: 5836 b03d e4ca e33d 5a51 56be f06e 70bd
000001d0: 4890 4abd 6870 7bbd a40d d7bd 0cab 203e
000001e0: bc99 e93d bacd 27be 7084 dc3d 20af 52be
000001f0: 146f 443e 406e ddbb 7851 9ebd 6e7b 463e
00000200: f6b3 083e b8a3 58bd 7805 69be f257 553e
00000210: f03e f33c a080 5abe fecb 1bbe 9c5b 483e
00000220: 64c4 95bd 527f 55be f4b2 c03d be47 4cbe
00000230: ea92 7c3e 98ea 57bd d284 11be 1cac d0bd
00000240: 1035 eabd 8469 7c3e 8869 123d 7ca7 663e
00000250: 4a40 5cbe 3898 633d 483d 25bd 483b 57be
00000260: 02ff 2c3e a0f4 da3d c0ac 3cbd 18d1 3abd
00000270: 1408 ec3d 6c23 4bbe 5404 20be f88d 38be
00000280: de4d 3cbe 9a0a 533e 5e29 91bd dea1 783e
00000290: 9002 553d 100b 05bd e8b3 113e 8433 643e
000002a0: 67cb 1ebe 408c 06bc 4169 2e3d e90b 91bd
000002b0: 6043 c23d 6065 14be 9681 7c3e 6604 30be
000002c0: 98bf d43d f2e8 503e 929e 2e3e 88f7 36be
000002d0: 4838 56be a84d 303e 1140 13be df51 783e
000002e0: c00d f73d 4c9b d43d ac2d 363d 82c0 163e
000002f0: 68c7 24be 6843 e03d 4452 423e d8ed 6b3e
00000300: 387f 3a3e e821 04be d644 313e 0042 573c
00000310: 9c3d c6bd 9852 7a3e 5acd 44bd 36c3 1abd
00000320: 91f7 08be f4bf cfbd 7ad3 09be a700 5ebe
00000330: 3c3e d63d baf8 4bbe dccf e0bd 48c7 d43d
00000340: c0d5 f83d a6d7 6cbe 14c0 843d 0e76 403e
00000350: c052 56bd f05a 303e 3864 013d 2089 7ebe
00000360: a0e8 78be e8a9 f7bd 308b 73be 2ad1 3ebe
00000370: 4cd6 a0bd d465 c23d e0d6 0e3e e88b 633d
00000380: a2a7 3bbe d8cf 503d 88ed 583d 2039 0fbe
00000390: 1082 a2bc d2ba 273e e2d6 37be e68b 043e
000003a0: 4003 44be e494 abbd 6ecc 4c3e 4ecc 73be
000003b0: 5401 f83d a8db 46bd 1498 9e3d 5c2e 0c3e
000003c0: 5080 f4bd c6c5 18be c2dc 203e e0bd 5e3c
000003d0: 0c41 d6bd a44d 0ebe b6b1 3f3e f00a 5cbd
000003e0: c0d9 a33c 50f6 083e a84d 453e 0a44 7dbe
000003f0: 048f d33d f843 59bd 30ec e7bc 80e1 83bb

net.4.bias f4 [16]
0.02444921 -0.2332541 -0.06349215 0.013454094 0.25880215 0.11093029 -0.198109 -0.19529065
0.027320772 -0.026439905 -0.040789597 0.15609215 0.014200534 -0.19692406 -0.06319809 -0.1293889
00000000: b649 c83c 2ada 6ebe 2c08 82bd 8f6e 5c3c
00000010: b781 843e 6b2f e33d 16dd 4abe 46fa 47be
00000020: d0cf df3c 8098 d8bc fe12 27bd 9fd6 1f3e
00000030: 5ba9 683c 76a6 49be 006e 81bd 867e 04be

net.6.weight f4 [16, 16]
-0.12701972 -0.023786932 0.15079698 0.03437531 0.011620851 -0.13331325 0.2168659 -0.017878026
-0.10839513 -0.17585206 -0.105073065 0.07210559 -0.105837256 -0.11581814 0.049663663 -0.038068384
0.100785755 -0.13256046 -0.18364942 0.21949193 0.09421187 0.15658605 0.08265951 -0.048132867
0.04373029 0.07196823 0.07639609 -0.102098785 0.19146156 0.013664633 0.22874415 -0.013810605
-0.09909576 -0.2025663 -0.22461128 0.17204878 -0.10890669 -0.036744356 0.2409699 0.007579863
0.16335514 0.119194925 0.14200246 -0.23712337 0.20083296 0.0044062734 0.003991008 -0.13700578
-0.20264441 0.08286694 0.031799167 -0.11385107 -0.08664128 0.059893757 -0.19464236 0.0044523776
0.13977951 -0.20737901 0.039990157 0.14868537 -0.018300325 0.14539045 -0.12673771 0.19774547
-0.1434938 0.18018028 0.18418121 0.23327067 -0.11545789 0.06830084 0.10787925 -0.07173085
-0.05904773 0.21495849 -0.09291312 -0.22521695 -0.034057915 0.15574896 -0.2070564 0.0056500435
-0.004005819 -0.0536094 0.19827461 0.00411343 -0.2564264 0.2198941 -0.22509286 -0.03876832
-0.24661744 0.16183677 -0.18157901 -0.050084196 0.16401903 0.03943512 0.07189897 -0.14155942
-0.22892302 -0.10375419 0.2382589 0.024414003 -0.20049277 -0.14919117 -0.08085579 0.15072984
0.086580664 0.15752503 -0.11825958 -0.09196442 0.07544714 -0.20563316 -0.24854654 0.013574183
-0.13331869 0.07988733 0.1547088 -0.05284986 0.24266848 -0.21558774 -0.1460104 -0.10373971
0.1525096 -0.20627654 -0.067204416 -0.15171605 -0.17822084 0.14094776 0.11236882 -0.097059876
0.21797137 -0.019312382 0.18859348 -0.10806764 0.2541274 0.21969718 0.18058199 -0.0824123
0.18751913 -0.17319497 0.12827401 0.23181862 -0.10024596 0.20073184 0.0029146373 -0.07365179
0.24567312 0.1855284 -0.0065145195 0.18434191 -0.073168665 -0.15014338 -0.24030396 -0.10290077
-0.13578665 -0.07766768 -0.039202303 0.22221926 0.11173499 0.07794437 -0.08495012 0.22846663
-0.18651047 -0.17430708 0.044024557 -0.17029327 -0.056607544 0.22659194 0.09932643 0.12885058
-0.083525926 0.10151759 0.23500642 0.112751216 -0.11529663 0.20707932 0.23527214 -0.029855788
-0.19291483 -0.15973175 0.06974661 -0.22953826 0.19825101 -0.20815064 0.038209945 -0.13997659
-0.17620578 0.082270235 -0.0075290343 -0.11894611 -0.12582177 0.07226536 -0.16020492 -0.020439625
-0.18536189 -0.18516263 -0.08592197 0.05835727 0.21690115 -0.13207161 -0.09171429 0.0035753548
0.14571285 0.058622062 0.07732394 -0.18301639 0.17174032 -0.16486931 -0.17267942 -0.06736827
0.25293192 -0.023307174 -0.23320046 0.029034777 0.13387477 -0.0068349307 -0.07476267 0.07859376
0.054091245 -0.043212682 -0.118347995 0.20588537 -0.19205353 0.074508965 -0.03978333 0.119767964
-0.14924884 0.09695658 0.045960724 0.035567712 0.11998074 -0.05070198 0.23956898 -0.112012
-0.14414304 0.20290771 0.16397281 0.086835556 -0.12626372 -0.23639575 0.11402923 -0.10638893
-0.098624066 -0.0406276 0.062823266 0.10554349 0.029860439 -0.02893411 -0.0360471 0.12595692
-0.113092035 -0.03159347 0.20913427 0.08949367 -0.013946248 0.013623774 0.2462652 -0.24881154
00000000: 7511 02be d0dc c2bc 866a 1a3e 20cd 0c3d
00000010: 6265 3e3c 4583 08be 1812 5e3e f074 92bc
00000020: 44fe ddbd 9012 34be 8c30 d7bd 18ac 933d
00000030: 34c1 d8bd 1032 edbd 206c 4b3d 98ed 1bbd
00000040: c368 ce3d eebd 07be 980e 3cbe 7ec2 603e
00000050: 27f2 c03d 1858 203e 6449 a93d f826 45bd
00000060: 881e 333d 1464 933d 8e75 9c3d 2b19 d1bd
00000070: 800e 443e a0e1 5f3c e83b 6a3e e045 62bc
00000080: b8f2 cabd 8a6d 4fbe 8000 66be 8e2d 303e
00000090: 780a dfbd 4081 16bd d0c0 763e 8060 f83b
000000a0: 9246 273e 781c f43d 1869 113e 78d0 72be
000000b0: 28a7 4d3e 8062 903b 00c7 823b 3e4b 0cbe
000000c0: 0482 4fbe 24b6 a93d d83f 023d c02a e9bd
000000d0: fc70 b1bd 2853 753d 5450 47be 40e5 913b
000000e0: 5c22 0f3e 2a5b 54be b8cc 233d fa40 183e
000000f0: 90ea 95bc 3ce1 143e 88c7 01be ca7d 4a3e
00000100: 0af0 12be 2e81 383e 009a 3c3e 82de 6e3e
00000110: 3075 ecbd 50e1 8b3d ccef dc3d a0e7 92bd
00000120: 08dc 71bd 141e 5c3e 3c49 bebd 469f 66be
00000130: 5080 0bbd a87c 1f3e 9806 54be 0024 b93b
00000140: 3f43 83bb 8895 5bbd 8008 4b3e f4c9 863b
00000150: 524a 83be eb2b 613e be7e 66be 88cb 1ebd
00000160: 4889 7cbe 8ab8 253e d9ef 39be 1625 4dbd
00000170: 9bf4 273e b886 213d c43f 933d f4f4 10be
00000180: cc6a 6abe 147d d4bd 24fa 733e e0ff c73c
00000190: fa4d 4dbe 92c5 18be b897 a5bd ec58 1a3e
000001a0: 3451 b13d 3e4e 213e 1432 f2bd d857 bcbd
000001b0: 0884 9a3d 8091 52be fc82 7ebe 4066 5e3c
000001c0: b284 08be f89b a33d fc6b 1e3e 1879 58bd
000001d0: 167e 783e 08c3 5cbe c083 15be 7c75 d4bd
000001e0: 7a2b 1c3e 283a 53be 78a2 89bd 745b 1bbe
000001f0: 867f 36be 9c54 103e a021 e63d 54c7 c6bd
00000200: e333 5f3e 0035 9ebc a61e 413e 9152 ddbd
00000210: fd1c 823e 4cf8 603e 7cea 383e c8c7 a8bd
00000220: 0405 403e 065a 31be 435a 033e dc61 6d3e
00000230: c14d cdbd a68c 4d3e 8003 3f3b c0d6 96bd
00000240: bc91 7b3e 28fb 3d3e c077 d5bb 20c4 3c3e
00000250: 74d9 95bd 30bf 19be 3e12 76be a4bd d2bd
00000260: a80b 0bbe 3c10 9fbd 9892 20bd 728d 633e
00000270: 50d5 e43d 4ca1 9f3d 54fa adbd 28f3 693e
00000280: 9afc 3ebe 8e7d 32be 1853 343d 5c61 2ebe
00000290: 50dd 67bd b807 683e a86b cb3d 68f1 033e
000002a0: a40f abbd 74e8 cf3d 86a5 703e 1cea e63d
000002b0: a420 ecbd 9a0c 543e 2eeb 703e 2094 f4bc
000002c0: 778b 45be b890 23be 50d7 8e3d 140c 6bbe
000002d0: 5002 4b3e 7125 55be 0882 1c3d 0656 0fbe
000002e0: 4a6f 34be 4c7d a83d 1eb6 f6bb 059a f3bd
000002f0: 6cd7 00be dcff 933d c20c 24be 0071 a7bc
00000300: 82cf 3dbe 469b 3dbe dcf7 afbd 0808 6f3d
00000310: 561b 5e3e c83d 07be b4d4 bbbd 8050 6a3b
00000320: c035 153e b01d 703d 045c 9e3d a668 3bbe
00000330: b2dc 2f3e 80d3 28be e0d2 30be 60f8 89bd
00000340: 4b80 813e b0ee bebc 1acc 6ebe 57da ed3c
00000350: 7816 093e 8ef7 dfbb 2c1d 99bd c4f5 a03d
00000360: c88e 5d3d c8ff 30bd 6f60 f2bd 9dd3 523e
00000370: aea9 44be 2898 983d d8f3 22bd e848 f53d
00000380: b0d4 18be 2c91 c63d 5041 3c3d 73af 113d
00000390: 76b8 f53d e1ac 4fbd 9251 753e 8c66 e5bd
000003a0: 3c9a 13be 0ac7 4f3e 7de8 273e d7d6 b13d
000003b0: 474b 01be ba11 72be 2888 e93d 70e2 d9bd
000003c0: 6afb c9bd 2069 26bd 7ca9 803d 2f27 d83d
000003d0: e19d f43c 3a07 edbc 20a6 13bd dafa 003e
000003e0: cc9c e7bd 2868 01bd 4b27 563e 7548 b73d
000003f0: ce7e 64bc 4036 5f3c f22c 7c3e 74c8 7ebe

net.6.bias f4 [16]
0.108202554 0.06804658 -0.19897056 -0.08387029 -0.12058464 -0.0047275648 -0.14577484 -0.045677304
0.066977955 -0.13778254 -0.102930635 0.24020073 -0.16691583 0.16934094 -0.054029476 -0.02096934
00000000: 4d99 dd3d 015c 8b3d f0be 4bbe 30c4 abbd
00000010: 14f5 f6bd b0e9 9abb 0046 15be 2018 3bbd
00000020: bd2b 893d de16 0dbe 4ccd d2bd 2ef7 753e
00000030: fceb 2abe b667 2d3e 034e 5dbd e5c7 abbc

net.8.weight f4 [16, 16]
-0.19560218 -0.03163466 0.06640068 0.037928045 -0.016217321 -0.17761171 -0.19361883 -0.14767933
-0.21487492 -0.08002502 0.12693188 -0.09815538 -0.11051291 -0.0726549 0.1783087 0.04765129
0.045814384 0.17484039 0.17558822 -0.16064966 -0.14776969 -0.10005156 0.08993921 0.2187905
0.116199225 0.092009395 0.2049391 -0.25132602 0.017744958 -0.20857804 -0.107247196 -0.18767178
0.21289423 -0.024386942 0.044096857 0.22816217 -0.14854598 -0.188815 0.17916706 -0.24394822
-0.09532547 0.19817969 -0.03342825 -0.17516366 -0.21691918 -0.21508613 0.026249558 -0.09153885
0.1193479 0.1323192 -0.10943368 -0.24725825 -0.0852758 -0.15089391 -0.051119894 0.11201745
0.042491563 -0.19341722 -0.19291049 0.12283176 0.20177776 -0.17491458 -0.04664241 0.075013675
0.17220038 0.047274422 -0.013177246 -0.1940228 -0.03282392 0.19332914 -0.2250781 -0.03462708
0.008695184 -0.2019875 -0.044101506 0.28203452 0.22222245 0.10672615 -0.015333728 0.10504409
-0.037248462 -0.052337855 0.20373726 -0.06160292 0.02606979 -0.02305761 -0.24023172 0.10451281
0.19828787 -0.22580883 -0.14337412 0.11155006 -0.014375359 0.2358222 -0.11354622 0.015251011
0.19432694 -0.19432363 0.17738387 0.17140087 -0.21022868 0.18960705 0.08239147 0.23924136
-0.11889753 -0.010064065 -0.028718174 0.068116665 -0.22732505 0.00063848495 0.21128905 0.18826807
-0.182199 0.257926 -0.11688185 0.1566489 0.19776922 -0.1263833 -0.20625019 -0.1526199
-0.17353977 0.1989092 0.04349932 0.17839171 -0.24031377 -0.12810922 -0.16802318 -0.05990974
-0.09529502 0.15328775 -0.21639815 -0.16706893 0.068377346 0.071090445 -0.22682986 0.11611971
-0.11519731 0.09187326 -0.0035614073 0.14369383 -0.1784403 0.023129044 -0.25457326 -0.00080737326
-0.14151523 0.12059316 0.020938188 -0.10327378 -0.075428486 -0.115537584 0.097622514 -0.10908818
-0.052243203 0.1663292 -0.062230945 -0.23590863 0.19391742 0.13396668 0.22105789 0.22551137
0.04516226 0.06793907 0.21169704 -0.17115599 -0.011103302 0.19715689 0.225849 0.039076805
-0.2639423 0.18138087 0.21250877 0.0154686 0.1410529 0.10312174 0.11078102 -0.1180355
-0.05747968 0.012985319 -0.10924277 -0.0314461 0.17817095 0.09382868 0.024810702 0.11100894
-0.19035831 0.034799665 -0.14646304 -0.05236271 -0.09230727 -0.04456991 -0.21926156 -0.21950963
0.09077326 -0.02842926 -0.21996379 -0.22955924 0.12261644 -0.19860724 0.09493846 -0.07216939
0.19981837 -0.18710068 0.13741654 0.22580071 0.20744893 0.16813754 0.09522355 -0.18968453
-0.16144487 -0.23991737 0.04743886 0.16488084 0.020186901 0.027139723 0.23884213 0.15398052
-0.087287456 0.2009007 0.01394999 0.028460234 0.12264663 -0.1742889 -0.15761918 -0.15908062
-0.2496804 -0.15706535 -0.16465 -0.09673351 -0.24311358 0.087858215 0.021185309 -0.22674012
-0.11040682 0.14985523 -0.06451273 -0.27488095 -0.06484905 -0.111289784 -0.053033732 -0.09326361
-0.112017184 0.107387364 0.17108017 0.12532976 0.15136191 -0.16170132 -0.0006481111 -0.04016334
0.21749476 -0.1002346 -0.028614163 0.16983938 -0.17021024 -0.23265442 -0.23550698 -0.15987507
00000000: f04b 48be 5893 01bd 14fd 873d 705a 1b3d
00000010: 30da 84bc d8df 35be 0444 46be 4039 17be
00000020: 2c08 5cbe 28e4 a3bd 6efa 013e b005 c9bd
00000030: 9854 e2bd 18cc 94bd 8e96 363e 002e 433d
00000040: dda7 3b3d 5c09 333e 66cd 333e 5881 24be
00000050: f050 17be d5e7 ccbd 0c32 b83d 9e0a 603e
00000060: dcf9 ed3d 6c6f bc3d 8edb 513e cead 80be
00000070: e05d 913c 7b95 55be 6ba4 dbbd 082d 40be
00000080: f200 5a3e 20c7 c7bc e89e 343d 58a3 693e
00000090: 701c 18be b858 41be 9277 373e 90cd 79be
000000a0: 003a c3bd 9eef 4a3e 10ec 08bd 1a5e 33be
000000b0: 1020 5ebe 8a3f 5cbe 5009 d73c b878 bbbd
000000c0: ac6c f43d af7e 073e c41e e0bd 4431 7dbe
000000d0: 14a5 aebd ef83 1abe 1863 51bd 6869 e53d
000000e0: a20b 2e3d 2a0f 46be 548a 45be 388f fb3d
000000f0: d49e 4e3e cf1c 33be 1d0c 3fbd c5a0 993d
00000100: 4c55 303e d3a2 413d 60e5 57bc eaad 46be
00000110: 6072 06bd 13f8 453e e07a 66be 20d5 0dbd
00000120: 3f76 0e3c d0d5 4ebe c8a3 34bd d466 903e
00000130: 488e 633e 3d93 da3d 513a 7bbc 5b21 d73d
00000140: d891 18bd 3860 56bd 80a0 503e 5853 7cbd
00000150: 5090 d53c 50e3 bcbc 4eff 75be d00a d63d
00000160: fa0b 4b3e 6e3a 67be aad0 12be 5c74 e43d
00000170: a086 6bbc 607b 713e ec8a e8bd 60df 793c
00000180: a4fd 463e c6fc 46be 1ea4 353e b683 2f3e
00000190: 3046 57be 5a28 423e dcbc a83d b0fb 743e
000001a0: 8c80 f3bd c0e3 24bc 6042 ebbc c080 8b3d
000001b0: e6c7 68be 0060 273a 285c 583e 58c9 403e
000001c0: 6092 3abe e00e 843e c05f efbd 9268 203e
000001d0: 0484 4a3e a06a 01be 4033 53be 6448 1cbe
000001e0: 69b4 31be daae 4b3e 582c 323d 51ac 363e
000001f0: d014 76be 102f 03be 450e 2cbe ea63 75bd
00000200: 092a c3bd 77f7 1c3e 7a97 5dbe 1e14 2bbe
00000210: 6c09 8c3d de97 913d 1646 68be 2cd0 ed3d
00000220: 91ec ebbd 0c28 bc3d 8066 69bb 7a24 133e
00000230: 0eb9 36be 1f79 bd3c 6d57 82be e7a5 53ba
00000240: 5ee9 10be 8cf9 f63d 9086 ab3c 3481 d3bd
00000250: 407a 9abd f89e ecbd 50ee c73d a069 dfbd
00000260: f8fc 55bd 3452 2a3e e0e5 7ebd 0892 71be
00000270: 4a92 463e 902e 093e 005d 623e 74ec 663e
00000280: 10fc 383d a423 8b3d 1cc7 583e 8443 2fbe
00000290: a0ea 35bc 7fe3 493e f644 673e 000f 203d
000002a0: 7223 87be e8bb 393e e69b 593e 0370 7d3c
000002b0: 2c70 103e 7e31 d33d 29e1 e23d 99bc f1bd
000002c0: d06f 6bbd 60c0 543c acba dfbd a0cd 00bd
000002d0: 7272 363e 4029 c03d d03f cb3c a858 e33d
000002e0: 4aed 42be 188a 0e3d 68fa 15be 487a 56bd
000002f0: 980b bdbd f08e 36bd 1a86 60be 22c7 60be
00000300: 55e7 b93d 7be4 e8bc 303e 61be 9411 6bbe
00000310: 541e fb3d b25f 4bbe 186f c23d 8ccd 93bd
00000320: 309d 4c3e 5297 3fbe ecb6 0c3e 4d38 673e
00000330: 7e6d 543e 3f2c 2c3e 9104 c33d a93c 42be
00000340: ce51 25be e6ac 75be 404f 423d 86d6 283e
00000350: 005f a53c 2054 de3c 0893 743e 12ad 1d3e
00000360: c4c3 b2bd eab8 4d3e 808e 643c 7025 e93c
00000370: 282e fb3d ca78 32be ec66 21be 08e6 22be
00000380: 38ac 7fbe bdd5 20be 029a 28be 381c c6bd
00000390: c4f2 78be 02ef b33d d08c ad3c 902e 68be
000003a0: f91c e2bd a673 193e 401f 84bd 32bd 8cbe
000003b0: 94cf 84bd e6eb e3bd e639 59bd fe00 bfbd
000003c0: 4469 e5bd e8ed db3d a42f 2f3e 7256 003e
000003d0: 9efe 1a3e 0895 25be 00e6 29ba 5082 24bd
000003e0: f2b6 5e3e cc47 cdbd 4068 eabc 60ea 2d3e
000003f0: 984b 2ebe f63c 6ebe be28 71be 4ab6 23be

net.8.bias f4 [16]
-0.24254933 0.036953367 -0.12901017 -0.03893425 0.20948473 -0.21570048 -0.19396356 0.21759282
-0.021296632 -0.054234177 -0.0015978056 -0.12653095 0.14744912 -0.0934068 0.15324488 -0.21078742
00000000: da5e 78be 6a5c 173d 3e1b 04be 8579 1fbd
00000010: 2a83 563e 96e0 5cbe 629e 46be a7d0 5e3e
00000020: 4676 aebc a824 5ebd 766d d1ba 5491 01be
00000030: e7fc 163e 104c bfbd 3aec 1c3e a8d8 57be

net.10.weight f4 [8, 16]
0.21987757 0.13538249 -0.15325847 0.0921643 0.239296 -0.21762994 0.2167651 0.22606178
-0.20110485 0.14556715 0.07181482 0.096710026 -0.18037832 -0.15108916 -0.087702915 -0.06746164
0.18677935 -0.14467049 -0.16712826 -0.057104617 0.042577337 -0.056217134 -0.16210872 0.20863254
-0.14876042 -0.19190598 -0.23000406 0.22431454 -0.081342034 -0.15524814 -0.11680047 -0.24622503
-0.06880614 -0.011983989 0.14282551 -0.13393292 0.04596102 -0.2314674 0.22469187 0.16161974
0.11496007 -0.17736655 0.095935866 -0.11556506 0.13911228 -0.10128394 -0.1142171 0.20025688
-0.07961598 -0.18785164 -0.23452389 0.057743814 0.11680156 -0.18431908 0.053932816 0.14457142
0.088099144 -0.10499784 -0.14245525 -0.21948382 0.2538761 -0.101610065 -0.09515129 -0.009252906
-0.24203286 0.082089014 0.089054674 0.12182166 -0.14375763 0.048549384 -0.17183322 -0.027192967
0.21235317 0.24694791 0.13014081 0.013800502 -0.20623863 -0.115261436 -0.20402977 -0.20473674
0.2268604 0.21491534 -0.0013298392 0.097287685 0.21029815 -0.23089796 -0.23907742 0.05833444
-0.13579795 -0.19821617 0.21262598 -0.049012005 -0.16821393 -0.09197113 0.082868695 -0.014955431
0.12514663 -0.1718553 -0.23126042 0.21672577 0.045564294 0.050418496 -0.025151014 -0.1706076
0.09773159 0.063438326 0.24585032 -0.03905067 0.07619619 -0.1394065 0.15577793 0.17212015
-0.019837558 -0.15043338 0.087661624 -0.1888139 0.29904962 0.15341416 0.05047807 0.061452225
-0.19629143 0.21308929 -0.1251838 0.24671793 0.059611488 0.11961508 0.04364052 -0.03143853
00000000: 9627 613e b5a1 0a3e caef 1cbe a3c0 bc3d
00000010: 030a 753e 62da 5ebe acf7 5d3e bd7c 673e
00000020: 6eee 4dbe 8e0f 153e a613 933d e80f c63d
00000030: 18b5 38be 1eb7 1abe 969d b3bd 5429 8abd
00000040: 1643 3f3e 8024 14be ac23 2bbe 88e6 69bd
00000050: 9365 2e3d f043 66bd d4ff 25be c5a3 553e
00000060: a754 18be 0083 44be 2f86 6bbe b6b2 653e
00000070: a796 a6bd 5ef9 1ebe 1635 efbd 6a22 7cbe
00000080: 3cea 8cbd 7e58 44bc da40 123e b625 09be
00000090: 9f41 3c3d ca05 6dbe a015 663e a57f 253e
000000a0: 2f70 eb3d 949f 35be 067a c43d 60ad ecbd
000000b0: 7373 0e3e f46d cfbd a8ea e9bd 2410 4d3e
000000c0: b40d a3bd 2e5c 40be 0827 70be c784 6c3d
000000d0: a835 ef3d 24be 3cbe a8e8 5c3d 880a 143e
000000e0: 536d b43d 1c09 d7bd cadf 11be 5ec0 60be
000000f0: 0cfc 813e f018 d0bd aede c2bd 8099 17bc
00000100: 76d7 77be 491e a83d 4c62 b63d a27d f93d
00000110: 3335 13be b8db 463d 0cf5 2fbe c9c3 debc
00000120: 1c73 593e eadf 7c3e a243 053e 801b 623c
00000130: 3830 53be 300e ecbd 2eed 50be 82a6 51be
00000140: 184e 683e c412 5c3e 004e aeba c43e c73d
00000150: 6658 573e 8470 6cbe b6d0 74be 18f0 6e3d
00000160: 9e0e 0bbe 2ef9 4abe a0ba 593e d0c0 48bd
00000170: 4640 2cbe 5c5b bcbd 10b7 a93d a007 75bc
00000180: 7026 003e d6fa 2fbe 88cf 6cbe 5ced 5d3e
00000190: a0a1 3a3d a083 4e3d 8009 cebc c2b3 2ebe
000001a0: 8027 c83d f4eb 813d 30c0 7b3e 98f3 1fbd
000001b0: c00c 9c3d 94c0 0ebe 4084 1f3e 4440 303e
000001c0: 6082 a2bc 350b 1abe f087 b33d 6e58 41be
000001d0: 081d 993e 9a18 1d3e 18c2 4e3d 54b5 7b3d
000001e0: 9f00 49be 1434 5a3e 2f30 00be a0a3 7c3e
000001f0: 2d2b 743d c0f8 f43d 67c0 323d b0c5 00bd

net.10.bias f4 [8]
0.23210874 -0.04134469 -0.03027843 0.17887194 0.067491435 -0.10850534 -0.14759418 0.29510495
00000000: eaad 6d3e 0d59 29bd 780a f8bc 352a 373e
00000010: f338 8a3d 0c38 debd ee22 17be ff17 973e

net.12.weight f4 [4, 8]
-0.07602772 -0.20635083 0.081599176 -0.088017106 0.19903335 -0.08483279 0.11765823 -0.18987314
-0.20160364 0.13866791 0.2575904 0.17023724 -0.17328778 0.09889117 0.251483 0.27679962
-0.023593456 -0.31902727 -0.22680779 -0.14326586 -0.31857288 0.29433897 -0.18101354 0.07015529
0.14660104 -0.14943199 0.20817798 0.13898645 0.13019474 -0.12097654 0.18392363 0.117744684
00000000: 6cb4 9bbd a24d 53be 781d a73d 5042 b4bd
00000010: 66cf 4b3e d0bc adbd ccf6 f03d 1b6e 42be
00000020: 2f71 4ebe f6fe 0d3e e4e2 833e ac52 2e3e
00000030: 5a72 31be 7487 ca3d 61c2 803e aeb8 8d3e
00000040: 1047 c1bc 8b57 a3be 4d40 68be 49b4 12be
00000050: fc1b a3be 99b3 963e 9d5b 39be 94ad 8f3d
00000060: 951e 163e b304 19be 9c2c 553e 7752 0e3e
00000070: c551 053e 8cc2 f7bd 7a56 3c3e 2024 f13d

net.12.bias f4 [4]
-0.035958797 0.3541191 -0.22786103 0.31032348
00000000: 8849 13bd 194f b53e 6754 69be b8e2 9e3e

net.14.weight f4 [8, 4]
0.30939764 -0.14273363 0.44764733 -0.42791724 0.17034793 0.29828367 0.4061737 -0.051500622
0.2788489 0.36835718 0.014244258 0.04936111 0.24626261 -0.039985366 -0.01797092 0.30307245
-0.08947462 -0.2539534 -0.2680285 -0.20544565 -0.36308604 -0.24745785 -0.10378522 0.09018232
0.10327226 0.33671212 0.08188224 -0.14385718 -0.4850191 0.38698855 -0.40472132 0.45674568
00000000: 5e69 9e3e c428 12be 0832 e53e f817 dbbe
00000010: b06f 2e3e a3b8 983e 00f6 cf3e 51f2 52bd
00000020: 48c5 8e3e 5099 bc3e c060 693c e02e 4a3d
00000030: 442c 7c3e b2c7 23bd c037 93bc 502c 9b3e
00000040: 783e b7bd 2e06 82be 083b 89be 5860 52be
00000050: 6ae6 b9be 9765 7dbe 588d d4bd 82b1 b83d
00000060: 6880 d33d 8865 ac3e e0b1 a73d 4c4f 13be
00000070: 6c54 f8be 5d23 c63e a237 cfbe 92da e93e

net.14.bias f4 [8]
0.032467544 -0.135468 -0.24889183 0.016317941 0.020017207 0.18565176 -0.22935832 0.4142773
00000000: b0fc 043d 20b8 0abe 80dd 7ebe 34ad 853c
00000010: 20fb a33c 7f1b 3e3e e8dc 6abe 271c d43e

net.16.weight f4 [16, 8]
0.050009847 0.29166362 -0.18232204 -0.07812855 -0.2506327 0.27073112 -0.28786233 -0.3509302
0.2627205 0.042295426 -0.15172292 -0.13108243 0.33403966 -0.2995565 0.16048524 0.34611782
0.30361542 -0.23105083 -0.30956838 0.04197496 0.24252495 0.07142815 -0.23233914 -0.24562779
-0.16946468 0.21886668 -0.026522577 -0.052776277 -0.24426779 -0.10924795 -0.12561594 -0.2182331
0.26484314 0.15521559 0.15855017 0.27717647 -0.35032684 -0.07178071 -0.23108307 -0.029858172
0.14912638 -0.11166833 -0.30198917 0.30358317 -0.009659857 0.13847098 -0.32754004 -0.10964751
-0.12062201 -7.409379e-05 -0.056564897 0.3483253 0.33276835 0.26881924 -0.32799536 0.23799197
0.06575161 0.09731367 0.250914 -0.1820289 0.33636978 -0.3157162 0.34970346 -0.19031456
0.27902725 -0.12103902 0.2052615 -0.17220297 0.30114278 0.3989971 0.054002464 0.31783688
-0.28654456 0.1191318 0.34217682 0.18311712 -0.09882271 0.11201286 0.051056474 -0.31287202
-0.30686244 -0.16714323 0.2182065 0.042394042 0.05753362 0.22697142 0.20063534 -0.3192155
-0.14076339 -0.18923673 0.27852044 0.080245286 0.20157847 -0.24727628 -0.19367926 0.12205663
-0.2841768 -0.001681447 -0.21618067 0.012106836 0.29526195 0.12652105 -0.23210788 -0.14054435
-0.10008663 0.07896414 0.007983506 -0.0884737 -0.2970701 -0.3076361 -0.13157302 -0.08982035
-0.22728665 -0.041616138 -0.34366357 -0.16148917 0.0054653883 -0.07795351 0.21702197 0.40285808
-0.31647095 -0.1455059 -0.28548345 -0.09023286 -0.012626737 -0.3646221 -0.13088788 -0.016124092
00000000: 20d7 4c3d ef54 953e a1b2 3abe dc01 a0bd
00000010: ee52 80be 459d 8a3e b162 93be 20ad b3be
00000020: 4d83 863e f83d 2d3d 415d 1bbe 793a 06be
00000030: 3f07 ab3e 785f 99be 3e56 243e 5b36 b13e
00000040: 7b73 9b3e 9798 6cbe bf7f 9ebe f0ed 2b3d
00000050: 7658 783e ec48 923d 50ea 6dbe da85 7bbe
00000060: 2688 2dbe 961e 603e e045 d9bc f02b 58bd
00000070: 5621 7abe 64bd dfbd 77a1 00be 7f78 5fbe
00000080: 8599 873e d6f0 1e3e fa5a 223e 13ea 8d3e
00000090: 0a5e b3be c401 93bd 0aa1 6cbe 2099 f4bc
000000a0: 96b4 183e 5eb2 e4bd 539e 9abe 416f 9b3e
000000b0: 6044 1ebc 56cb 0d3e 54b3 a7be e08e e0bd
000000c0: ac08 f7bd cd62 9bb8 98b0 67bd b257 b23e
000000d0: 9d60 aa3e ada2 893e 02ef a7be 2bb4 733e
000000e0: c8a8 863d 644c c73d cd77 803e c965 3abe
000000f0: a938 ac3e 8ea5 a1be 550c b33e d2e1 42be
00000100: a9dc 8e3e 4ee3 f7bd 1230 523e fa55 30be
00000110: 632f 9a3e 5949 cc3e b031 5d3d 84bb a23e
00000120: f8b5 92be 60fb f33d cd31 af3e 0e83 3b3e
00000130: 9063 cabd 0067 e53d 9820 513d c330 a0be
00000140: 131d 9dbe 9827 2bbe 8671 5f3e 60a5 2d3d
00000150: 60a8 6b3d 326b 683e 5a73 4d3e 3770 a3be
00000160: 4724 10be 46c7 41be 3b9a 8e3e a457 a43d
00000170: 966a 4e3e fe35 7dbe db53 46be d4f8 f93d
00000180: 9f7f 91be 0064 dcba 775e 5dbe c05b 463c
00000190: 932c 973e bc8e 013e b0ad 6dbe dcea 0fbe
000001a0: 38fa ccbd f3b7 a13d 40cd 023c b331 b5bd
000001b0: 9219 98be 7b82 9dbe 14bb 06be bbf3 b7bd
000001c0: d5bd 68be af75 2abd acf4 afbe 6b5d 25be
000001d0: 0017 b33b 17a6 9fbd 023b 5e3e 6a43 ce3e
000001e0: 7b08 a2be 80ff 14be e32a 92be 01cc b8bd
000001f0: 60e0 4ebc bfaf babe 7907 06be ac16 84bc

net.16.bias f4 [16]
0.10533291 -0.31128845 -0.03181237 -0.25805023 -0.29454157 -0.11371936 0.32050073 -0.25087187
0.07452324 -0.04502526 -0.29659408 -0.29064614 -0.05410263 0.09617177 0.2752683 0.21501428
00000000: c8b8 d73d 3361 9fbe b04d 02bd 291f 84be
00000010: 27ce 96be b2e5 e8bd ac18 a43e 4772 80be
00000020: a49f 983d 686c 38bd 2edb 97be 92cf 94be
00000030: b89a 5dbd b4f5 c43d f7ef 8c3e b42c 5c3e

net.18.weight f4 [16, 16]
-0.06730977 0.19349775 -0.08341244 0.15137714 0.019355655 0.064154804 0.09857299 0.050839663
-0.01319136 -0.11243218 0.15450525 -0.10341063 0.14483428 -0.08225259 -0.027808078 -0.14943965
-0.046118617 -0.18369368 0.037092388 -0.1658063 -0.10465485 0.046342134 -0.11313398 -0.16555929
0.2768829 0.22290385 -0.06331116 -0.15577218 0.052686483 0.26717806 0.21667941 -0.1538692
-0.18367547 -0.021179706 -0.1858862 -0.08354056 -0.11802614 0.21607387 0.1679583 -0.089238346
0.103185564 0.08535275 -0.20796314 0.068978935 0.022776067 -0.16287094 -0.005954605 -0.09595674
0.12871686 -0.069583535 -0.10708618 -0.012133926 0.17792031 -0.2215614 -0.14802656 0.09929165
0.12189141 0.101334214 -0.09699157 -0.004160106 0.24316683 -0.10959607 -0.011895865 -0.093545645
0.23505732 0.06746018 -0.08566967 -0.054686844 -0.23996833 -0.13899374 0.21026117 0.19297192
-0.16592899 0.16096446 0.05965981 -0.04905635 0.13720614 0.23368624 -0.2110667 -0.1706905
-0.10891211 -0.081315786 0.046467036 -0.038802445 -0.14135736 -0.06200978 -0.13464572 -0.19067746
0.030261071 -0.20354187 0.10771462 -0.022005588 0.13070446 0.09168771 -0.05862218 0.28817156
0.14868605 0.23500377 0.16223344 0.18196017 -0.19479111 0.23744231 0.21238716 0.01297161
-0.05768429 0.049195647 -0.109338254 -0.09000346 0.15732276 -0.031684767 0.07472596 0.08784236
-0.19425493 -0.08800891 0.20758083 -0.24922961 -0.020457625 -0.1812684 -0.23172507 0.088083625
0.11002168 -0.22237405 -0.19420311 0.15367064 -0.20646766 0.16529873 -0.21584892 -0.025282413
0.058496386 0.2106148 -0.21263409 -0.12239012 0.21111876 0.1989994 0.06171151 -0.086854935
-0.0889061 -0.16587758 -0.09274149 -0.21257249 -0.024937272 0.18883629 -0.15474437 0.098955005
-0.08133876 0.051068634 -0.08387306 0.14375067 0.17198342 -0.09481117 0.16502084 0.007849723
0.058992203 -0.011876106 0.18928137 0.15595898 -0.2254158 -0.12109694 0.18172294 0.021577386
-0.053046584 -0.2199598 -0.10495022 -0.16924626 0.15780321 0.08853239 -0.26712954 0.2155053
0.018107096 0.0064070523 -0.082297176 0.11851174 0.0823029 -0.042600907 -0.101060644 0.09918379
0.16557682 0.079542965 0.20058084 -0.17419922 -0.049508214 0.044713706 -0.110143155 -0.2222212
0.06115836 -0.20771447 0.132869 0.07037586 -0.048338592 0.16117874 -0.058662623 0.010664046
-0.21412817 -0.07345274 0.12269908 0.21598122 0.040866315 -0.19582087 0.15599501 -0.06339651
0.10982936 -0.028506666 -0.023012549 0.17588931 0.1289354 -0.19923988 -0.06106417 -0.084101595
-0.02602145 -0.105635315 -0.2391811 -0.011977732 -0.08886498 0.029664487 -0.024826808 -0.0215123
-0.15074772 -0.06013462 -0.05711475 0.20803356 0.14329529 0.11151995 0.111665376 -0.13567363
0.024145126 0.24988094 0.07280365 0.11184716 -0.19283259 -0.16958919 -0.1987943 -0.1724219
0.09580046 0.072903246 0.17490405 -0.02551788 0.18334144 -0.02677998 0.076087624 0.018688858
-0.15008843 0.005895436 -0.23997533 -0.07728577 0.20495397 0.062113643 0.057811975 -0.24101987
0.28612489 0.031938106 0.09385198 0.05926308 -0.10605833 -0.17780674 0.24966879 -0.06429191
00000000: b4d9 89bd 4624 463e 24d4 aabd 9c02 1b3e
00000010: c08f 9e3c 9863 833d a3e0 c93d 403d 503d
00000020: 9320 58bc d842 e6bd a036 1e3e f4c8 d3bd
00000030: 704f 143e 0c74 a8bd c4cd e3bc b506 19be
00000040: e0e6 3cbd 321a 3cbe 30ee 173d 20c9 29be
00000050: 4855 d6bd 40d1 3d3d cab2 e7bd 6088 29be
00000060: 98c3 8d3e e840 643e 48a9 81bd be82 1fbe
00000070: c8cd 573d 90cb 883e 35e1 5d3e e38f 1dbe
00000080: 6c15 3cbe 1081 adbc f458 3ebe 5017 abbd
00000090: b0b7 f1bd 7842 5d3e 43fd 2b3e 98c2 b6bd
000000a0: f452 d33d 6ccd ae3d 4af4 54be d444 8d3d
000000b0: e094 ba3c a4c7 26be d91e c3bb f884 c4bd
000000c0: 5ace 033e d081 8ebd 0050 dbbd 60cd 46bc
000000d0: be30 363e fee0 62be 4694 17be 6c59 cb3d
000000e0: 34a2 f93d 5088 cf3d 84a3 c6bd 8051 88bb
000000f0: ba00 793e e873 e0bd e0e6 42bc dc94 bfbd
00000100: deb2 703e 9028 8a3d 9473 afbd 50ff 5fbd
00000110: 42ba 75be 6054 0ebe b44e 573e 6e9a 453e
00000120: 4ae9 29be ded3 243e d85d 743d 50ef 48bd
00000130: c47f 0c3e 724b 6f3e de21 58be 7ec9 2ebe
00000140: 500d dfbd e488 a6bd 3854 3e3d 50ef 1ebd
00000150: fcbf 10be f8fd 7dbd 91e0 09be f440 43be
00000160: 11e6 f73c 486d 50be 7c99 dc3d 1045 b4bc
00000170: 64d7 053e c4c6 bb3d d01d 70bd 398b 933e
00000180: 2841 183e d4a4 703e 8620 263e c453 3a3e
00000190: 5277 47be 1424 733e 057c 593e e086 543c
000001a0: 5d46 6cbd 6081 493d bcec dfbd bc53 b8bd
000001b0: 3819 213e e3c7 01bd ed09 993d b2e6 b33d
000001c0: c4ea 46be 043e b4bd 1290 543e 0c36 7fbe
000001d0: c096 a7bc 6c9e 39be 5649 6dbe 3065 b43d
000001e0: 0c53 e13d 06b6 63be 2edd 46be d65b 1d3e
000001f0: 426c 53be 1244 293e 8007 5dbe 101d cfbc
00000200: e899 6f3d 68ab 573e c0bc 59be aca7 fabd
00000210: 842f 583e 80c6 4b3e 35c5 7c3d 00e1 b1bd
00000220: 6714 b6bd d0db 29be 40ef bdbd 9aac 59be
00000230: 4049 ccbc 4d5e 413e 4f75 1ebe eca8 ca3d
00000240: f094 a6bd 582d 513d a4c5 abbd 6033 133e
00000250: 6c1c 303e 5c2c c2bd 39fb 283e 209c 003c
00000260: cfa1 713d 0094 42bc fad2 413e b6b3 1f3e
00000270: 66d3 66be ac01 f8bd 9415 3a3e 0fc3 b03c
00000280: 6047 59bd 243d 61be 24f0 d6bd e44e 2dbe
00000290: 2a97 213e 7850 b53d 34c5 88be 6cad 5c3e
000002a0: 5555 943c 40f2 d13b 6c8b a8bd 48b6 f23d
000002b0: 6c8e a83d 4a7e 2ebd e2f8 cebd df20 cb3d
000002c0: f88c 293e 6ce7 a23d 1065 4d3e 4861 32be
000002d0: 20c9 4abd b825 373d bc92 e1bd f48d 63be
000002e0: 3081 7a3d 1ab3 54be d00e 083e 3821 903d
000002f0: b0fe 45bd 0a0c 253e 3848 70bd 40b8 2e3c
00000300: 6a44 5bbe 646e 96bd a849 fb3d 2e2a 5d3e
00000310: 7063 273d 4485 48be 28bd 1f3e 08d6 81bd
00000320: 37ee e03d d086 e9bc d084 bcbc 541c 343e
00000330: a407 043e 8a05 4cbe 6c1e 7abd 753d acbd
00000340: f02a d5bc 5457 d8bd e4eb 74be 403e 44bc
00000350: d8fe b5bd f002 f33c 9761 cbbc 903a b0bc
00000360: 9c5d 1abe b84f 76bd 28f1 69bd c006 553e
00000370: 00bc 123e 9264 e43d d1b0 e43d 07ee 0abe
00000380: 00cc c53c cae0 7f3e 141a 953d 2010 e53d
00000390: e875 45be caa8 2dbe bc90 4bbe 5e8f 30be
000003a0: 0833 c43d 4c4e 953d 0c1a 333e e00a d1bc
000003b0: dcbd 3b3e b061 dbbc d4d3 9b3d 6019 993c
000003c0: c8b0 19be 802e c13b 18bc 75be 0048 9ebd
000003d0: 74df 513e e06a 7e3d 40cc 6c3d eacd 76be
000003e0: f67e 923e 88d1 023d 7835 c03d d8bd 723d
000003f0: 1c35 d9bd f812 36be 2da9 7f3e 7aab 83bd

net.18.bias f4 [16]
-0.032816816 0.24453945 0.21249689 -0.09928304 0.001982063 0.27881768 0.01536903 -0.18124667
0.19272059 0.18786582 0.1326854 -0.21446976 0.16629894 0.26234913 -0.051961005 0.045970593
00000000: ed6a 06bd 8d68 7a3e c998 593e e854 cbbd
00000010: 80e5 013b 31c1 8e3e 62ce 7b3c ba98 39be
00000020: 8c58 453e e65f 403e aede 073e f69d 5bbe
00000030: 454a 2a3e a052 863e 10d5 54bd a94b 3c3d
