AE_multidim/model/ae_5.pth (torch, 37650 bytes, 52 tensors)

net.0.weight f4 [16, 16]
0	0xbe283ec4	-0.16430193
1	0xbe4aa580	-0.19789696
2	0x3a34b800	0.0006893873
3	0xbd80e548	-0.06293732
4	0x3e065d8c	0.13121623
5	0x3d414ba8	0.047191292
6	0x3d334d60	0.043774962
7	0x3e3a68c8	0.18204033
8	0xbe67fe38	-0.2265557
9	0x3e5d6218	0.21619451
10	0xbe088750	-0.13332868
11	0x3dd91c30	0.106010795
12	0xbe54bc70	-0.20775008
13	0x3dfc0b68	0.12306863
14	0x3e754ee8	0.23955882
15	0xbe6f8df4	-0.23393995
16	0x3d867f40	0.0656724
17	0x3e558d06	0.20854577
18	0xbc362615	-0.011117478
19	0xbe366b1e	-0.178143
20	0x3b14ee00	0.0022724867
21	0x3e6cbcc9	0.23118891
22	0x3e342f90	0.17596269
23	0xbdb68223	-0.0891154
24	0x3b58f654	0.0033105807
25	0x3e3d4131	0.184819
26	0x3e0a7076	0.13519463
27	0x3e3478a4	0.17624146
28	0x3cbba690	0.022906572
29	0x3dc194d8	0.09452218
30	0x3de03678	0.10947889
31	0x3cfadc90	0.03062275
32	0xbe751102	-0.23932269
33	0x3e6e5326	0.23273906
34	0x3d27b650	0.04094535
35	0x3c224740	0.009904683
36	0x3e664526	0.22487316
37	0xbcfacb60	-0.030614555
38	0xbd7ebdc0	-0.06219268
39	0xbc0a07c0	-0.008424699
40	0x3e323e20	0.17406511
41	0xbe39979e	-0.18124244
42	0xbdd57ea0	-0.104245424
43	0xbe30395c	-0.17209381
44	0xbdb7bb30	-0.0897125
45	0x3e5577e6	0.20846519
46	0xbe0eddc6	-0.13951787
47	0x3e2bf3e0	0.1679225
48	0x3e01b458	0.12666452
49	0x3e6d7eef	0.23192953
50	0xbe5ae9b7	-0.21378218
51	0xbe54e08a	-0.2078878
52	0xbbebe380	-0.007198751
53	0xbe4633d3	-0.19355707
54	0xbe008a76	-0.12552819
55	0x3dd28b64	0.10280493
56	0x3df0ff1e	0.1176741
57	0x3b80f950	0.0039359704
58	0x3db53920	0.08848786
59	0xbe15af42	-0.14617637
60	0xbe00a470	-0.12562728
61	0x3ddf36ec	0.108991474
62	0xbd2678b0	-0.04064244
63	0xbda89208	-0.08230978
64	0x3df62f50	0.12020743
65	0xbe209c04	-0.15684515
66	0xbe57d7aa	-0.21078363
67	0x3e55e080	0.20886421
68	0x3e57b936	0.21066746
69	0xbe4d53fa	-0.20051566
70	0xbded91e4	-0.11600092
71	0xbd5d05e8	-0.05396071
72	0xbcc8b67a	-0.024501074
73	0x3dfab154	0.12240854
74	0x3e09c11c	0.13452572
75	0xbe2a41d8	-0.1662668
76	0xbe798e14	-0.24370605
77	0x3de585b8	0.112071455
78	0x3db336e8	0.08750707
79	0xbc71cd00	-0.014758348
80	0x3e51d088	0.20489705
81	0xbd367436	-0.04454442
82	0x3e2d596f	0.16928647
83	0x3dede0d0	0.11615145
84	0xbda0733c	-0.07834479
85	0x3cccb358	0.024987862
86	0x3daaa248	0.08331734
87	0x3cccaf6c	0.024985991
88	0xbd4209de	-0.04737269
89	0x3e0fdcf7	0.14049135
90	0x3e689080	0.22711372
91	0xbdc7967c	-0.097454995
92	0xbdf1dcfc	-0.118097275
93	0x3e785318	0.24250448
94	0x3d7ae517	0.061253633
95	0x3e3ada14	0.18247253
96	0xbd392740	-0.045203447
97	0xbd710803	-0.05884553
98	0x3e719856	0.23593268
99	0x3e6394b6	0.22224697
100	0xbd9a42f4	-0.075323015
101	0x3e1388db	0.14407675
102	0x3b360d00	0.0027778745
103	0xbd1996aa	-0.0374972
104	0x3e310edd	0.17290826
105	0x3d32d1f6	0.043657266
106	0x3e30ada0	0.17253733
107	0xbe5963b2	-0.21229437
108	0xbe2c4770	-0.16824126
109	0xba916000	-0.0011091232
110	0xbdbfcdc9	-0.09365422
111	0xbe3757a8	-0.17904532
112	0x3d250a78	0.040293187
113	0xbe65242b	-0.22377078
114	0x3e53892c	0.20657796
115	0x3d5107b8	0.05103275
116	0xbe6784c2	-0.22609237
117	0x3e7dcc01	0.24784853
118	0xbdf0cdc4	-0.11757997
119	0x3e1498c8	0.14511406
120	0xbe6954f0	-0.22786307
121	0x3df59162	0.1199062
122	0xbe128b9e	-0.14311072
123	0xbde04818	-0.10951251
124	0xbc9c7650	-0.019099385
125	0x3e1aeeb4	0.1513012
126	0x3e51b97f	0.20480917
127	0x3d7b4a58	0.061350197
128	0x3b247e00	0.0025099516
129	0x3cf9b8fe	0.030483719
130	0xbe7f5ba1	-0.24937297
131	0xbe4f01a8	-0.20215476
132	0x3e6f6624	0.23378807
133	0xbe6bd540	-0.23030567
134	0xbe2f5c88	-0.17125142
135	0x3e40cb76	0.18827614
136	0xbd16cb8d	-0.036815215
137	0x3dd934e2	0.1060579
138	0x3dd901b8	0.10596031
139	0xbe13fa54	-0.14450961
140	0x3e1d4744	0.15359217
141	0xbdbde418	-0.09272021
142	0x3dbe85fc	0.09302899
143	0x3d9c221c	0.07623693
144	0xbd693d10	-0.056943
145	0xbe2461de	-0.16052958
146	0x3da27961	0.079333074
147	0xbd138320	-0.036013722
148	0x3b83d080	0.004022658
149	0xbe033797	-0.12814175
150	0x3e06a4ae	0.13148758
151	0xbc16cdc6	-0.009204334
152	0x3e462b42	0.19352439
153	0xbc9daa64	-0.019246288
154	0x3dfae580	0.12250805
155	0xbe0442c8	-0.129161
156	0xbe56f238	-0.20990837
157	0x3e75d734	0.24007875
158	0x3d382a60	0.044962287
159	0x3e093112	0.13397625
160	0xbdaeaba8	-0.085288346
161	0xbe1180fa	-0.14209357
162	0x3d0aed30	0.033917606
163	0xbe5be3c6	-0.21473607
164	0x3e5eed88	0.21770298
165	0x3e3c4c8c	0.18388575
166	0xbe3975a6	-0.18111286
167	0xbe4284ec	-0.18996018
168	0xbdaec52c	-0.08533701
169	0x3ddc61d0	0.10760844
170	0x3df22fa4	0.11825493
171	0x3ce78a70	0.028264254
172	0x3c0ca3c0	0.008583963
173	0x3e7f9c50	0.24961972
174	0x3d515078	0.05110213
175	0x3e3fd7b8	0.18734634
176	0xbe65bdec	-0.2243573
177	0x3e74e17c	0.2391414
178	0x3e17da6b	0.14829414
179	0xbe7565a0	-0.23964548
180	0xbe2ae602	-0.16689304
181	0x3d1ee200	0.03878975
182	0xbe697688	-0.22799122
183	0xbe2a5acc	-0.16636199
184	0x3e6c3835	0.23068316
185	0xbdc04b77	-0.09389394
186	0xbd775ef8	-0.060393304
187	0xbe79f9f0	-0.2441175
188	0x3e6faef4	0.23406583
189	0x3e54418a	0.20728126
190	0xbe5b449a	-0.21412888
191	0xbe348922	-0.17630437
192	0xbcca5da0	-0.024702847
193	0x3e1dc2f4	0.154064
194	0xbe359dda	-0.17735997
195	0x3e4df34e	0.20112345
196	0x3e321b9e	0.17393348
197	0x3e5acb59	0.21366633
198	0x3c00aac0	0.00785321
199	0xbdf20e7c	-0.11819169
200	0xbe2dc098	-0.16968
201	0x3e5ec091	0.21753146
202	0xbe577416	-0.21040377
203	0xbe230994	-0.15921623
204	0xbc4e96e0	-0.012609214
205	0x3d71d840	0.059044123
206	0xbe73c640	-0.23806095
207	0x3e7c99fc	0.24668115
208	0x3e0ab072	0.13543871
209	0xbe1f3353	-0.15546922
210	0x3d11fef8	0.035643548
211	0xbd3fa318	-0.046786398
212	0x3ddefe48	0.10888344
213	0x3e62c65c	0.2214598
214	0xbe47c85e	-0.19510028
215	0x3deea6b0	0.11652887
216	0x3e4aa5ed	0.19789858
217	0x3c617609	0.013761052
218	0xbd82014c	-0.063479036
219	0x3d4bade0	0.049726367
220	0xbd155d38	-0.036465853
221	0x39801c00	0.00024434924
222	0xbce70d17	-0.028204484
223	0xbdddcad4	-0.10829702
224	0x3ca67da0	0.020323575
225	0xbe33bd2a	-0.17552629
226	0xbcccfe10	-0.02502349
227	0xbe3710f2	-0.17877558
228	0xbe5f2a58	-0.21793497
229	0x3de5dae4	0.11223391
230	0x3dece3a0	0.115668535
231	0xbe01546a	-0.12629858
232	0xbddc73e0	-0.10764289
233	0x3dda7830	0.10667455
234	0xbd738958	-0.059457153
235	0x3dd7b6a4	0.10532883
236	0x3de6f008	0.11276251
237	0x3e2428e2	0.1603122
238	0xbe287c4c	-0.16453665
239	0x3e31a6da	0.17348805
240	0xbdb0da74	-0.086354166
241	0x3e454f02	0.1926842
242	0x3e06bb07	0.13157283
243	0xbe63ff62	-0.2226539
244	0xbe3fdac4	-0.18735796
245	0x3e76b80a	0.24093643
246	0xbe63fffc	-0.22265619
247	0xbdd5d44c	-0.10440883
248	0x3d8ab90d	0.06773577
249	0x3e58ec99	0.21184005
250	0xbd39f838	-0.045402735
251	0x3e065438	0.13118064
252	0xbd15cf40	-0.036574602
253	0x3e3c2a14	0.18375427
254	0x3d846b72	0.06465806
255	0x3e363504	0.17793661

net.0.bias f4 [16]
0	0xbe35f58c	-0.1776945
1	0x3e377b3a	0.17918101
2	0xbdcd56c8	-0.10026318
3	0x3e0df67a	0.13863555
4	0x3dff3082	0.12460424
5	0x3e6bcb85	0.23026855
6	0xbd1b81a5	-0.037965436
7	0x3dad9a17	0.08476656
8	0x3e27eaf4	0.16398221
9	0x3e2839d8	0.16428316
10	0xbdb095f4	-0.08622351
11	0x3c2a0bd6	0.0103787985
12	0x3db28c1f	0.08718132
13	0x3e2ec332	0.17066649
14	0xb90b2000	-0.00013267994
15	0x3d4ac689	0.049505744

net.2.weight f4 [16, 16]
0	0x3cbe66f0	0.023242444
1	0xbd865777	-0.06559651
2	0xbc714fa0	-0.014728457
3	0xbd84dfe9	-0.0648802
4	0x3d8c7ed3	0.06860127
5	0x3c3dbc58	0.011580549
6	0x3e4e80a4	0.2016626
7	0xbd0c52a0	-0.034258485
8	0xbc858bb0	-0.01630196
9	0xbdee10e4	-0.116243154
10	0xbe3051ac	-0.17218655
11	0xbe41c215	-0.18921693
12	0x3e7c17d4	0.24618465
13	0x3e2e175d	0.170011
14	0x3d4b0a30	0.049570262
15	0xbdb62e34	-0.08895531
16	0x3e416fd8	0.18890321
17	0xbca15420	-0.019693434
18	0xbe22a3d2	-0.15882805
19	0x3db9c36c	0.09070477
20	0xbe6d5c7e	-0.23179814
21	0x3d8bc4e4	0.06824663
22	0xbe43bb02	-0.19114307
23	0x3e54d344	0.20783716
24	0xbc425a00	-0.011862278
25	0x3dfa8ff8	0.12234491
26	0x3de694c8	0.112588465
27	0xbd1ccca0	-0.038281083
28	0x3a253200	0.0006301701
29	0xbe740aec	-0.23832291
30	0x3e3f8f06	0.18706903
31	0xbc208300	-0.009796858
32	0xbe6a14d2	-0.22859505
33	0x3e2ddd1c	0.16978878
34	0xbd73cda8	-0.0595223
35	0x3d24b138	0.04020807
36	0x3e2e5ffc	0.17028803
37	0x3e2d98a4	0.16952759
38	0xbb9caf80	-0.0047816634
39	0x3dac19b4	0.0840334
40	0xbda74744	-0.0816789
41	0xbca6af20	-0.020347178
42	0xbdd049e8	-0.101703465
43	0xbcd40ed0	-0.02588597
44	0x3c92e840	0.017933011
45	0x3e1046f0	0.1408956
46	0xbe7a90ac	-0.2446925
47	0x3d1c3f10	0.03814608
48	0x3e741f2a	0.23840013
49	0xbe6058a2	-0.2190881
50	0x3c625080	0.013813138
51	0xbda47ebc	-0.08031985
52	0xbe645de2	-0.22301438
53	0xbe10fa02	-0.1415787
54	0x38ec6000	0.00011271238
55	0xbe34c502	-0.17653278
56	0x3d88a5a8	0.066722214
57	0x3df6cbd8	0.12050599
58	0xbd7b90f8	-0.06141755
59	0x3e57b340	0.21064472
60	0xbdef21c4	-0.11676362
61	0xbe495976	-0.19663033
62	0x3e61cfd6	0.2205194
63	0xbdfd5de0	-0.12371421
64	0xbe73d4ee	-0.23811695
65	0x3c20bd00	0.009810686
66	0xbc3aa940	-0.011392891
67	0xbd38eb40	-0.045146227
68	0x3ce78850	0.028263241
69	0xbe36c872	-0.17849901
70	0x3e2ce8e2	0.16885713
71	0xbdfcf2b8	-0.123509824
72	0x3d755280	0.05989313
73	0x3e0da016	0.13830599
74	0xbe3eb970	-0.18625426
75	0x3d0d4008	0.034484893
76	0x3e308390	0.17237687
77	0xbe18ca04	-0.14920813
78	0x3d5ad988	0.05343011
79	0xbe49dd40	-0.19713306
80	0xbd145f60	-0.03622377
81	0xbe14da8c	-0.14536494
82	0xbe4777ee	-0.19479343
83	0xbdae7eb8	-0.085202634
84	0xbe69c6ca	-0.22829738
85	0xbe17b062	-0.14813378
86	0x3e7243da	0.23658696
87	0x3dffa5a8	0.12482768
88	0x3e13c312	0.14429882
89	0x3db24000	0.08703613
90	0xbe0f6cba	-0.1400632
91	0xbd17f258	-0.03709635
92	0xbe6e533c	-0.23273939
93	0xbd4f3dd0	-0.05059606
94	0x3e471306	0.1944085
95	0xbe112a5a	-0.14176312
96	0x3e009982	0.12558559
97	0x3e304850	0.17215085
98	0x3d69a430	0.057041347
99	0xbe7ab698	-0.24483716
100	0xbd1d2c48	-0.038372308
101	0x3ddee830	0.1088413
102	0x3e108848	0.14114487
103	0x3e1033b6	0.14082226
104	0x3e7950ca	0.24347225
105	0x3e794872	0.24344042
106	0x3de847cc	0.11341819
107	0x3e243da4	0.16039139
108	0xbe17f772	-0.14840487
109	0xbe0416c2	-0.12899306
110	0x3d207118	0.039170355
111	0xbda10bb8	-0.07863563
112	0xbe61b08e	-0.22040007
113	0xbdea4bc4	-0.114402324
114	0x3bc53bc0	0.0060190856
115	0x3b8a4300	0.004219413
116	0x3d1a9a80	0.037745
117	0xbe030fda	-0.12799016
118	0x3e0cc294	0.137461
119	0xbdabc5ac	-0.08387312
120	0x3d82c83c	0.06385848
121	0x3d3712b0	0.044695556
122	0xbdfcfa54	-0.12352434
123	0xbd4adf60	-0.049529433
124	0xbe70aec8	-0.23504174
125	0x3ddfb83c	0.10923812
126	0xbe71cefc	-0.23614115
127	0x3dc8f028	0.09811431
128	0x3d8ca8ec	0.06868157
129	0x3e749dd1	0.23888327
130	0xbd8469a4	-0.06465462
131	0xbcb08991	-0.021549972
132	0x3bc8cab2	0.006127679
133	0x3e2aea2f	0.16690896
134	0x3c9cf063	0.019157594
135	0xbe09ce5f	-0.1345763
136	0x3d86208f	0.06549179
137	0x3dd865b9	0.10566277
138	0xbbe07500	-0.006849885
139	0x3db0b174	0.086275965
140	0x3e38da08	0.18051922
141	0x3e1534c6	0.14570913
142	0xbce318e0	-0.027721822
143	0x3d7fa934	0.062417224
144	0x3da91860	0.08256602
145	0x3e206dd2	0.15666893
146	0xbc55c680	-0.013047814
147	0x3e407924	0.18796211
148	0x3e276d0a	0.16350189
149	0xbe0d7376	-0.13813576
150	0x3e16d330	0.14728999
151	0xbe740fcd	-0.23834153
152	0x3e6118c1	0.21982099
153	0x3c89a58c	0.016802572
154	0x3dbc57c0	0.091964245
155	0xbe308c79	-0.17241086
156	0xbe54796a	-0.20749441
157	0xbc2cae83	-0.010539654
158	0xbe74c88a	-0.23904625
159	0xbcaaaf67	-0.020835591
160	0xbe6db8c0	-0.23215008
161	0x3da1212d	0.07867656
162	0xbe5684f0	-0.20949149
163	0xbe59dc86	-0.2127553
164	0xbce6904c	-0.028144978
165	0xbd9f99c6	-0.07793002
166	0xbe14ad57	-0.14519249
167	0xbda028b0	-0.078202605
168	0x3db20115	0.08691613
169	0x3d507e16	0.050901495
170	0xbe66999a	-0.22519532
171	0xbe5f3d2a	-0.21800676
172	0xbe5021ea	-0.20325437
173	0x3d68d81a	0.056846716
174	0xbe5ddaea	-0.2166554
175	0xbe21114e	-0.15729257
176	0x3d7cc580	0.06171179
177	0xbe053473	-0.13008289
178	0xbe4d0bac	-0.20023984
179	0xbbd6c8aa	-0.0065546827
180	0xbd041e8b	-0.03225569
181	0x3e0083b1	0.12550236
182	0xbe79692b	-0.24356525
183	0x3e7f055a	0.24904385
184	0x3dfaf045	0.12252859
185	0x3e625b3f	0.2210512
186	0xbe763986	-0.24045381
187	0x3e205f5a	0.15661374
188	0xbe14b389	-0.14521612
189	0x3daf780c	0.08567819
190	0x3d0ee818	0.03488931
191	0xbe0c5468	-0.13704073
192	0xbe54ffbe	-0.20800683
193	0xbb6cbd00	-0.0036123395
194	0xbdd25344	-0.10269788
195	0x3e754f74	0.2395609
196	0xbe29ad9e	-0.16570136
197	0xbdb2a050	-0.087219834
198	0xbd5b81e0	-0.053590655
199	0xbc898b00	-0.016789913
200	0x3e5335aa	0.2062594
201	0xbdc851b0	-0.09781206
202	0xba923400	-0.0011154413
203	0x3e6b41e8	0.2297436
204	0xbe5b7fa0	-0.21435404
205	0xbe7f4b12	-0.24930981
206	0x3cefc1e0	0.029267251
207	0xbdb65ff4	-0.0890502
208	0x3da83078	0.0821237
209	0x3e7ae40c	0.24501055
210	0x3e1e8b88	0.15482914
211	0xbc02810c	-0.0079653375
212	0x3c115518	0.008870386
213	0xbd050328	-0.032473713
214	0xbc7e55c1	-0.015523375
215	0x3e407011	0.1879275
216	0x3ca25713	0.01981691
217	0x3e25b922	0.16183904
218	0x3e209ecc	0.15685576
219	0x3dcfbcba	0.101434186
220	0xbe17ec45	-0.14836223
221	0xbe16c9a3	-0.14725356
222	0x3d324a70	0.04352802
223	0xbd5be8bc	-0.05368875
224	0x3e7373a2	0.23774579
225	0xbd21f358	-0.03953871
226	0xbe55ad32	-0.2086685
227	0xbe0967de	-0.13418528
228	0xbe5d62fa	-0.21619788
229	0x3d772508	0.06033805
230	0xbdcbf5cc	-0.099589914
231	0x3d64a168	0.05581799
232	0xbe1efec6	-0.15526876
233	0x3e7fa6c4	0.2496596
234	0x3e156e92	0.1459296
235	0xbd7532b0	-0.059862792
236	0x3de90ca0	0.11379361
237	0x3d612970	0.05497116
238	0x3de37294	0.111058384
239	0x3e49cadc	0.19706291
240	0x3e3d22e6	0.18470344
241	0xbe154708	-0.14577878
242	0xbdd08f88	-0.101836264
243	0x3dc1f030	0.0946964
244	0xbc47ed40	-0.012202561
245	0xbe6f4d3a	-0.23369303
246	0x3e05aff6	0.13055405
247	0x3e09b6ea	0.13448682
248	0x3cd1cec0	0.025611281
249	0xbd7d1ca0	-0.061794877
250	0x3e57e826	0.21084651
251	0x3e55e9d2	0.20889977
252	0xbe531f2a	-0.20617357
253	0xbe00b298	-0.12568128
254	0x3e26d4d6	0.16292128
255	0x3e311366	0.17292556

net.2.bias f4 [16]
0	0x3d1e3530	0.038624942
1	0xbdc0f034	-0.09420815
2	0xbe59370c	-0.21212405
3	0xbe330cc0	-0.17485332
4	0xbe2581c8	-0.16162789
5	0xbda8fec8	-0.08251721
6	0xbe21c3c4	-0.15797335
7	0xbe4a6cc2	-0.1976805
8	0x3e0265af	0.12734102
9	0x3db61421	0.08890558
10	0x3e37d3c8	0.17951882
11	0x3df60b3d	0.12013862
12	0xbbb5d680	-0.005549252
13	0x3e50ba26	0.2038351
14	0xbd930708	-0.071790755
15	0x3d2d7e80	0.042356968

net.4.weight f4 [16, 16]
0	0xbe2d0ae3	-0.16898684
1	0x3df9746c	0.12180409
2	0x3e0a93b8	0.13532913
3	0x3e3714c6	0.17879018
4	0x3e00034e	0.1250126
5	0x3e30a898	0.17251813
6	0x3de84264	0.11340788
7	0xbdbdfd50	-0.09276831
8	0xbe6fd841	-0.23422338
9	0xbe67353d	-0.22578903
10	0x3df96e58	0.121792495
11	0x3e690d43	0.22758965
12	0x3c5c8a00	0.013460636
13	0xbc9ac1a0	-0.018891156
14	0xbb205080	-0.0024462044
15	0xbe5b71a6	-0.21430072
16	0x3da28e4c	0.07937297
17	0xbe73cb98	-0.23808134
18	0x3e727d6e	0.2368066
19	0xbd175420	-0.036945462
20	0xbd8c7c80	-0.06859684
21	0x3e0cc3ae	0.13746521
22	0x3e0bb3f8	0.13642871
23	0x3e556fb2	0.2084339
24	0xbbf0b194	-0.0073453877
25	0x3e20d437	0.15705954
26	0xbe7b168c	-0.2452032
27	0x3e6a2f86	0.22869691
28	0x3e6684a0	0.2251153
29	0xbe0af6d4	-0.1357072
30	0x3d9e7ad4	0.07738271
31	0x3d6c6990	0.05771786
32	0xbdd0c808	-0.10194403
33	0xbd047a80	-0.032343388
34	0xbd8d0c70	-0.06887138
35	0x3dade950	0.084917665
36	0x3dca56dc	0.09879848
37	0xbded5f44	-0.11590436
38	0xbdf3a384	-0.118964225
39	0x3dab1604	0.083538085
40	0x3e3d7256	0.18500647
41	0x3e0be0e8	0.13660014
42	0x3e5a10d6	0.21295485
43	0x3da0cf3c	0.07852027
44	0xbe2ce646	-0.16884717
45	0xbd941e60	-0.07232356
46	0x3e42d4d8	0.19026506
47	0x3e51526e	0.204416
48	0x3d3d2e2f	0.046186622
49	0xbe5586cc	-0.20852202
50	0x3db68a20	0.08913064
51	0xbd3a1008	-0.045425445
52	0xbe61e7fa	-0.22061148
53	0xbc9a1f50	-0.01881376
54	0x3ca7d900	0.020489216
55	0xbe6d6010	-0.23181176
56	0x3decb74b	0.11558398
57	0xbe2c10f3	-0.1680334
58	0xbd200cba	-0.039074637
59	0x3dfa8cb9	0.12233872
60	0x3e797c9a	0.24363938
61	0x3e647c35	0.22313006
62	0xbe667d56	-0.2250875
63	0xbe3eaaf2	-0.18619898
64	0x3e7a048e	0.244158
65	0x3d177db8	0.03698513
66	0xbe3d263a	-0.18471614
67	0xbe3bb3fa	-0.18330374
68	0x3b7e7080	0.003882438
69	0x3e0580fe	0.13037488
70	0xbe6467de	-0.22305247
71	0xbd5de8b8	-0.054177016
72	0xbd26a2d0	-0.040682614
73	0x3e34715e	0.17621371
74	0xbdc68a04	-0.09694293
75	0xbd0ac6a0	-0.03388083
76	0xbdca45a0	-0.09876561
77	0xbe212314	-0.15736037
78	0x3e4fb53a	0.20283976
79	0x3c8cc1c0	0.017182231
80	0x3e1cc28b	0.15308587
81	0xbd3df2c8	-0.046374112
82	0x3db18c60	0.086693525
83	0xbe5fb6f6	-0.21847138
84	0xbb8c0ac0	-0.0042737424
85	0xbe1f1ffe	-0.15539548
86	0x3e6847e0	0.22683668
87	0x3e581b30	0.21104121
88	0xbd153480	-0.03642702
89	0x3e62be72	0.22142962
90	0x3e1b474a	0.15163913
91	0xbe10c7fc	-0.14138788
92	0x3e6dd8fe	0.23227307
93	0x3e191d44	0.1495257
94	0xbe5942f6	-0.2121695
95	0xbe051204	-0.12995154
96	0x3e4c2663	0.19936518
97	0xbdf25534	-0.118326575
98	0x3d31e018	0.043426603
99	0xbd425e58	-0.047453254
100	0xbc85dae0	-0.01633972
101	0x3e691ef2	0.22765711
102	0x3dedd73c	0.11613318
103	0x3e42ea5a	0.1903471
104	0xbd3283f3	-0.043582868
105	0xbdef8b59	-0.116965
106	0xbdb8816d	-0.09009061
107	0x3e513d71	0.20433594
108	0xbe763db8	-0.24046981
109	0xbd5ce3c7	-0.053928163
110	0xbe0befba	-0.13665667
111	0xbc781460	-0.0151415765
112	0xbd1009d0	-0.035165608
113	0xbe264574	-0.16237432
114	0x3e274ff4	0.16339093
115	0xbe485dda	-0.19567052
116	0x3e25f6dc	0.1620745
117	0x3ddce704	0.1078625
118	0x3dee6db0	0.11642015
119	0x3e73f0c4	0.23822314
120	0xbda172e4	-0.07883242
121	0x3e75fcbe	0.24022195
122	0x3cd92820	0.02650839
123	0x3c641520	0.013921052
124	0xbdd507c8	-0.10401875
125	0xbd8cd448	-0.06876427
126	0x3e53301a	0.20623818
127	0xbd8a02ac	-0.06738791
128	0x3e42d6a4	0.19027191
129	0x3bcea240	0.006305963
130	0xbdabc5bc	-0.08387324
131	0xbe05cd32	-0.13066557
132	0x3e4342fa	0.19068518
133	0xbd081070	-0.0332188
134	0xbe0cb5aa	-0.13741174
135	0x3e3f1f34	0.18664247
136	0xbe27b301	-0.16376878
137	0xbe50ad08	-0.20378506
138	0xbe066d28	-0.13127577
139	0xbdb6d062	-0.089264646
140	0xbcfb34e0	-0.030664861
141	0x3da4448b	0.08020886
142	0xbe2e20ec	-0.17004746
143	0x3d9d2e0c	0.07674798
144	0xbe0d5210	-0.13800836
145	0x3defa774	0.11701861
146	0xbe55635e	-0.20838687
147	0xbddf8de8	-0.10915738
148	0x3e178f92	0.14800861
149	0x3da7a854	0.08186403
150	0x3d362260	0.044466376
151	0x3c8e9190	0.017403394
152	0xbb8ef5c9	-0.004362796
153	0x3e18c7e5	0.14920004
154	0x3de3ddcc	0.11126289
155	0xbe7a7302	-0.24457934
156	0xbe329b72	-0.1744211
157	0x3e59425f	0.21216725
158	0xbe5a5d24	-0.21324593
159	0xbe39327a	-0.18085662
160	0xbd7b2ef0	-0.06132406
161	0x3e454db6	0.19267926
162	0xbd7066f0	-0.05869192
163	0x3dbd9610	0.09257138
164	0xbd3beab8	-0.045878142
165	0xbe5ccbf4	-0.21562177
166	0xbe45adfa	-0.19304648
167	0x3e4b76f0	0.1986959
168	0x3c626dc0	0.013820112
169	0x3da24d5c	0.079249114
170	0x3d657028	0.056015164
171	0x3dc19fe0	0.09454322
172	0x3e151bac	0.14561337
173	0xbe515d18	-0.20445669
174	0x3e2038fc	0.15646738
175	0x3e64aa66	0.22330627
176	0x3de9ecd7	0.11422127
177	0x3cb3fee0	0.02197212
178	0x3e35f232	0.17768171
179	0x3e1b863e	0.15187928
180	0x3d5c2e30	0.053754985
181	0x3c9963d0	0.018724352
182	0xbe20f4b2	-0.15718344
183	0xbe0be97c	-0.13663286
184	0xbd71b2aa	-0.059008278
185	0x3e3b0bb9	0.1826619
186	0xbc654801	-0.013994218
187	0x3e774e33	0.24150924
188	0x3d074b78	0.033030957
189	0xbe7300f7	-0.23730837
190	0x3e600df8	0.21880329
191	0x3d0218b8	0.031761855
192	0xbd57f63b	-0.052725058
193	0x3d0e4598	0.03473434
194	0xbe001ea0	-0.12511683
195	0x3e107322	0.1410642
196	0x3e4e04a4	0.20118958
197	0xbe2eed00	-0.17082596
198	0x3db68aa4	0.08913162
199	0xbe2d1f0e	-0.16906378
200	0xbce5e22e	-0.028061952
201	0xbd359803	-0.044334423
202	0xbe2ee100	-0.17078018
203	0xbba16487	-0.004925314
204	0xbe164966	-0.14676437
205	0x3bd9469e	0.0066307327
206	0xbe176430	-0.14784312
207	0xbd1f2e70	-0.038862646
208	0x3e4c4054	0.19946414
209	0x3e3af720	0.18258333
210	0x3dad184c	0.084519
211	0xbe391a24	-0.18076378
212	0xbe09fce4	-0.13475376
213	0x3e40e2fa	0.18836585
214	0xbe68bbfa	-0.22727957
215	0x3d6dab60	0.058024764
216	0xbe2b72c4	-0.16742998
217	0xbe03894a	-0.1284534
218	0x3e600342	0.21876243
219	0xbe043704	-0.12911612
220	0x3e3945d8	0.1809305
221	0xbe44df94	-0.19225913
222	0xbe1a5686	-0.15072069
223	0x3d0710b8	0.03297493
224	0xbe67bd64	-0.2263084
225	0x3e6a5268	0.22882998
226	0x3e342e00	0.17595673
227	0x3d80fc20	0.06298089
228	0x3e143e6a	0.14476934
229	0x3e600156	0.2187551
230	0xbe3ee19a	-0.18640748
231	0x3e0ea318	0.13929403
232	0xbdd4ab31	-0.10384215
233	0xbe68b1af	-0.22724031
234	0x3dd742b9	0.10510773
235	0x3ca35a9a	0.019940663
236	0x3e4baed2	0.19890907
237	0x3e738270	0.23780227
238	0xbe25aa90	-0.16178346
239	0xbd5b4db8	-0.053540915
240	0x3de4c513	0.111704014
241	0xbdf81820	-0.121139765
242	0x3dfca028	0.12335235
243	0x3c70afa0	0.01469031
244	0xbdc2cc08	-0.09511572
245	0xbdef2674	-0.11677256
246	0x3e5628b6	0.20913967
247	0xbd85b040	-0.06527758
248	0xbe0c08b3	-0.13675193
249	0x3e2a83ac	0.16651791
250	0xbe0635fa	-0.13106528
251	0x3e62f429	0.22163452
252	0x3e15e6ce	0.14638826
253	0x3e4ef6b9	0.20211305
254	0x3e015666	0.12630615
255	0xbc33c020	-0.010971099

net.4.bias f4 [16]
0	0x3e4daf45	0.20086391
1	0x3c9dfdec	0.019286118
2	0xbe0297ea	-0.12753263
3	0xbd7177a0	-0.058951974
4	0xbe0f20cc	-0.13977355
5	0x3df9aee5	0.121915616
6	0x3dbffecf	0.09374773
7	0xbe118908	-0.1421243
8	0x3e60183e	0.21884248
9	0x3e64f699	0.22359695
10	0xbe661ff6	-0.2247313
11	0x3e6c9a5e	0.23105761
12	0x3e2ef941	0.1708727
13	0xbd30e768	-0.043189436
14	0xbbfb4d82	-0.0076691518
15	0x3e27588a	0.16342369

net.6.weight f4 [16, 16]
0	0x3d4651c5	0.048417825
1	0xbd809954	-0.06279245
2	0xbd84e2ac	-0.06488547
3	0x3e01cf10	0.12676644
4	0x3e558f8e	0.20855543
5	0xbe418736	-0.18899235
6	0x3e73a96f	0.23795103
7	0xbb0eee00	-0.002180934
8	0xbd33cb3b	-0.043894988
9	0x3def9c1e	0.11699699
10	0x3dad7438	0.084694326
11	0xbddc3ba5	-0.10753564
12	0x3cf8f487	0.030390037
13	0x3c384280	0.011246324
14	0xbd4f679f	-0.05063593
15	0x3daeae34	0.0852932
16	0x3cabf19c	0.020989232
17	0x3e3a83ff	0.18214415
18	0xbd9e3d34	-0.07726517
19	0x3e331269	0.17487492
20	0x3d86816c	0.06567654
21	0xbd9e44be	-0.07727955
22	0x3d3cd633	0.046102714
23	0x3bf169c0	0.0073673427
24	0xbd76bc0f	-0.06023794
25	0xbdc747c9	-0.09730489
26	0xbd7529a0	-0.05985415
27	0xbe70539c	-0.23469394
28	0xbd8dbccb	-0.06920775
29	0x3b060200	0.002044797
30	0xbdbb094a	-0.09132631
31	0x3defbb96	0.11705701
32	0xbd331dbe	-0.043729536
33	0xbe637346	-0.22211942
34	0x3e073092	0.13202122
35	0xbd7cfbde	-0.061763637
36	0xbd4d3dd0	-0.050107777
37	0x3de3f208	0.11130148
38	0x3d927270	0.071507335
39	0xbe54c6fc	-0.20779032
40	0xbdec8a13	-0.11549773
41	0xbca45f33	-0.020064926
42	0x3d11ad60	0.035565734
43	0x3cd548a3	0.026035612
44	0xbe32773d	-0.17428298
45	0x3e07ebb6	0.1327351
46	0x3da91ae4	0.08257082
47	0xbe442d42	-0.1915789
48	0xbe7bcafc	-0.24589151
49	0xbe6367c8	-0.22207558
50	0xbe6d3996	-0.23166499
51	0xbe6dce52	-0.23223236
52	0x3d5536c8	0.052054197
53	0xbe1daeac	-0.15398663
54	0xbe4f47c8	-0.20242226
55	0x3de2de64	0.11077574
56	0x3cbbc540	0.022921205
57	0x3e111516	0.141682
58	0x3dc7653c	0.09736106
59	0x3de37880	0.11106968
60	0xbe67abca	-0.22624126
61	0x3df26fa8	0.11837703
62	0x3b94e680	0.0045440793
63	0xbdfe4850	-0.12416136
64	0xbd977cd9	-0.0739686
65	0xbe59bf92	-0.21264485
66	0xbda6565c	-0.081219405
67	0xbd8b58bb	-0.06804033
68	0x3e57d954	0.21078998
69	0x3d106d04	0.035260215
70	0xbd21b3c4	-0.03947808
71	0x3b318500	0.002708733
72	0x3e737688	0.23775685
73	0x3e21e213	0.15808897
74	0xbe4dbae4	-0.20090824
75	0xbdca1257	-0.09866779
76	0x3d2a6b59	0.04160628
77	0x3e24a9e8	0.16080439
78	0xbe17b584	-0.14815336
79	0xbe530cd0	-0.20610356
80	0xbe422840	-0.18960667
81	0xbdbda789	-0.092604704
82	0x3c923970	0.017849654
83	0xbe53a759	-0.20669307
84	0xbdebacb4	-0.1150755
85	0xbe0bf5b5	-0.13667949
86	0xbcbf61fb	-0.02336215
87	0x3e0eebfc	0.13957208
88	0xbda000e1	-0.07812668
89	0xbcde6efc	-0.02715253
90	0xbe234da2	-0.15947583
91	0xbcbe0d2f	-0.023199646
92	0x3e66ea84	0.22550398
93	0xbd7dd840	-0.06197381
94	0x3d8a8916	0.06764428
95	0x3d6bc572	0.057561345
96	0x3e675fe1	0.22595169
97	0x3da308be	0.07960652
98	0x3e58f012	0.2118533
99	0xbd2f71ae	-0.042833023
100	0xbded7258	-0.11594075
101	0xbe53ce62	-0.20684198
102	0x3ddab252	0.10678543
103	0x3daef0bc	0.0854201
104	0xbd4604d4	-0.04834445
105	0x3e2a6523	0.16640143
106	0x3e0382e0	0.12842894
107	0xbe6cb645	-0.23116405
108	0x3d34b5c0	0.044118643
109	0xbdb6626c	-0.08905491
110	0xbc2ba0dd	-0.0104753645
111	0x3d0bb998	0.034112543
112	0x3e7ce880	0.24698067
113	0x3e173fa8	0.14770377
114	0xbe4673b8	-0.1938008
115	0xbd7560ee	-0.059906892
116	0x3e514094	0.20434791
117	0xbc82852e	-0.015932646
118	0x3d87ce7d	0.066311814
119	0xbe3b5aa2	-0.18296292
120	0x3e2e0eb5	0.16997798
121	0x3d13237c	0.035922512
122	0x3b91abc0	0.004445523
123	0xbe0e9429	-0.13923706
124	0x3c5b4960	0.013384193
125	0x3e24b194	0.16083366
126	0xbe5e637e	-0.21717641
127	0x3e103a02	0.14084628
128	0x3d5fce08	0.054639846
129	0xbe7ec350	-0.24879193
130	0xbc803e70	-0.015654773
131	0xbe10be86	-0.14135179
132	0x3e42a788	0.1900922
133	0xbd306ad0	-0.043070614
134	0xbe44d2ce	-0.1922104
135	0x3dc33c34	0.09532967
136	0xbbdf66c0	-0.0068176687
137	0xbe28f94c	-0.16501349
138	0xbe271bfa	-0.16319266
139	0xbe762118	-0.24036062
140	0xbe5b5f7e	-0.21423146
141	0xbd1195f0	-0.035543382
142	0x3e0f8d88	0.14018834
143	0xbe48acee	-0.19597217
144	0xbda41d70	-0.08013427
145	0xbcaaf370	-0.020868033
146	0xbce20990	-0.02759245
147	0x3e296d14	0.16545516
148	0x3e7e0ecc	0.24810332
149	0x3e0ff358	0.14057672
150	0x3d134730	0.03595656
151	0x3e3eb70e	0.18624517
152	0x3d5340c0	0.051575422
153	0xbe6f78ae	-0.2338588
154	0x3e253bea	0.16136137
155	0xbda2bed0	-0.07946551
156	0x3b320600	0.002716422
157	0x3d88bcec	0.06676659
158	0xbe78be42	-0.24291328
159	0x3e06822e	0.13135597
160	0xbddb31e9	-0.10702879
161	0x3e6d02fa	0.23145667
162	0x3c6a0160	0.014282554
163	0x3e7bc023	0.24585013
164	0xbe5adfea	-0.21374479
165	0x3d90dc1d	0.07073233
166	0x3e5bd9a2	0.21469739
167	0x3b740e80	0.0037240088
168	0x3e7c447a	0.24635497
169	0x3dcc9804	0.09989932
170	0xbb870d80	-0.0041214824
171	0xbe0ca073	-0.13733082
172	0x3e1b0196	0.15137324
173	0xbca33a30	-0.019925207
174	0xbdad8ea4	-0.08474472
175	0x3de2964c	0.11063823
176	0xbe12299a	-0.14273682
177	0x3e28c0e8	0.16479838
178	0xbe2de36c	-0.16981286
179	0xbe16d70e	-0.14730474
180	0xbe329fe0	-0.174438
181	0xbde48f6c	-0.11160168
182	0xbdd820c4	-0.105531245
183	0x3e404a24	0.18778282
184	0x3e5a5f5e	0.21325442
185	0x3e1a2e9e	0.15056846
186	0x3e4a712e	0.19769737
187	0xbe658e20	-0.22417498
188	0xbe594816	-0.21218905
189	0xbe7625cc	-0.24037856
190	0xbc8cbde0	-0.017180383
191	0x3dcfe0a0	0.10150266
192	0xbe67325a	-0.22577801
193	0x3d892a54	0.066975266
194	0xbe3688a2	-0.17825559
195	0x3e5b95b4	0.21443826
196	0x3e583168	0.21112597
197	0xbe3bfbe0	-0.18357801
198	0xbe7e4c56	-0.24833807
199	0xbda67354	-0.08127466
200	0x3e42dd66	0.1902977
201	0xbe45038a	-0.19239631
202	0x3e295c28	0.16539061
203	0xbe3a8cf6	-0.18217835
204	0xbd26bcd8	-0.04070744
205	0xbd16e528	-0.036839634
206	0x3e36048e	0.17775175
207	0xbdeb52cc	-0.114904016
208	0xbc3a13e0	-0.011357278
209	0xbd410730	-0.047125995
210	0xbdfb4334	-0.12268677
211	0x3dadb6d8	0.0848214
212	0x3e35711e	0.17718932
213	0xbdf681f0	-0.12036502
214	0xbe2b91b6	-0.16754803
215	0xbe4a213a	-0.19739237
216	0xbbc78280	-0.006088555
217	0xbdf7e804	-0.121048
218	0xbe469824	-0.19393975
219	0xbe2a1c66	-0.16612396
220	0x3e5b238e	0.21400282
221	0x3e6aa0d8	0.2291292
222	0x3e3f0fe2	0.18658403
223	0x3e62106c	0.22076577
224	0x3b2dd91e	0.0026527117
225	0xbe264b35	-0.16239627
226	0xbe507604	-0.2035752
227	0x3e24f380	0.16108513
228	0x3c9665b0	0.018359035
229	0x3e26ddbd	0.16295524
230	0xbe1b797d	-0.15183063
231	0x3d320d38	0.043469638
232	0xbc132796	-0.008981606
233	0x3e70c407	0.23512278
234	0xbd4a4248	-0.049379617
235	0xbce1e7b6	-0.027576309
236	0xbdbb7c4b	-0.091545664
237	0xbd2fa6b0	-0.042883575
238	0xbe544e66	-0.20733032
239	0xbd191f49	-0.03738335
240	0x3e7fae8c	0.24968928
241	0x3e2e0dcc	0.1699745
242	0x3ccb3030	0.024803251
243	0xbdcce5b8	-0.10004753
244	0xbe7f5e9c	-0.24938434
245	0xbdb9b3b4	-0.09067479
246	0xbdc53ec4	-0.09631112
247	0xbb659380	-0.0035030544
248	0x3dc51f10	0.09625065
249	0xbe5bba42	-0.2145777
250	0x3dfbe5c8	0.12299687
251	0x3e131094	0.14361793
252	0xbe5d7a6c	-0.21628731
253	0x3c8c4910	0.017124683
254	0x3e479d6a	0.19493642
255	0xbda7aa0c	-0.08186731

net.6.bias f4 [16]
0	0x3e4fab6d	0.20280237
1	0x3e7cfbb7	0.24705397
2	0x3e3e693a	0.18594828
3	0x3d9131b4	0.07089558
4	0x3e67de2c	0.22643346
5	0x3d9fbe7e	0.078000054
6	0x3d918fe4	0.07107523
7	0x3e78a7a1	0.24282695
8	0xbcecfd60	-0.028929412
9	0x3c48dea0	0.012260109
10	0xbdb484ea	-0.08814414
11	0x3c5fbce0	0.013655871
12	0x3c8cfbe0	0.017209947
13	0xbe2714ce	-0.1631653
14	0x3d5ecb3f	0.05439305
15	0xbe4ee146	-0.20203122

net.8.weight f4 [16, 16]
0	0x3e519f0c	0.20470828
1	0xbe6a2e2c	-0.22869176
2	0x3e3cfdc6	0.18456182
3	0x3e380582	0.17970851
4	0x3d7465e6	0.05966749
5	0x3ce08f6e	0.027412143
6	0xbe23e375	-0.16004737
7	0x3db620f7	0.08893006
8	0x3e469da8	0.19396079
9	0xbdb859e4	-0.0900152
10	0xbd421d5e	-0.047391288
11	0xbe0f9bea	-0.1402432
12	0x3da06b04	0.078329116
13	0x3e47554a	0.19466129
14	0xbd8d8a78	-0.069111764
15	0xbdaed124	-0.08535984
16	0xbe055fde	-0.13024852
17	0x3dd45594	0.10367885
18	0x3d9aff58	0.07568234
19	0x3e44d4b0	0.19221759
20	0xbd0d2e90	-0.034468234
21	0x3d812544	0.06305936
22	0xbdcd39ec	-0.10020813
23	0xbe4383b8	-0.19093215
24	0xbd5f04f8	-0.054448098
25	0xbda897b0	-0.08232057
26	0x3e3fb0ee	0.18719837
27	0xbe756470	-0.23964095
28	0xbe4e255a	-0.20131436
29	0xbe5faece	-0.21844026
30	0x3e2e8632	0.17043379
31	0xbe4e0fb0	-0.20123172
32	0x3c5dc200	0.013535023
33	0x3e563b3f	0.20921038
34	0x3e6cf9cf	0.2314217
35	0x3e3a488c	0.18191737
36	0x3e4d1cbe	0.20030496
37	0x3e0e6880	0.13907051
38	0x3de18b61	0.110129125
39	0x3e223271	0.15839554
40	0x3e7a4106	0.24438867
41	0xbd55b758	-0.052176803
42	0xbe3ce577	-0.18446909
43	0x3e67f5c0	0.2265234
44	0xbe081592	-0.13289478
45	0x3c392120	0.0112994015
46	0x3e6d9f92	0.23205402
47	0xbe75135a	-0.23933163
48	0x3e1d3ab2	0.15354422
49	0xbe63e30f	-0.22254585
50	0xbdfc9f67	-0.12335091
51	0xbbaf3b80	-0.005347669
52	0xbe7dc948	-0.24783814
53	0xbd554083	-0.052063476
54	0xbe22482f	-0.15847848
55	0x3e321633	0.17391281
56	0x3d93ca48	0.072163165
57	0xbd9a9d34	-0.07549515
58	0x3deb880e	0.1150056
59	0x3dd43b90	0.10362923
60	0xbe164b92	-0.14677265
61	0x3e2ea974	0.17056829
62	0xbddbb7d1	-0.107284196
63	0xbdf35268	-0.11880952
64	0xbd9780ce	-0.073976144
65	0x3d60df69	0.05490056
66	0x3d6f2846	0.058388017
67	0xbe00afc2	-0.12567046
68	0x3dac0512	0.083994046
69	0xbe23b79b	-0.15988009
70	0x3e7104ca	0.23536983
71	0x3ce43955	0.02785937
72	0x3dc9e91c	0.09858915
73	0x3e00be68	0.12572634
74	0x3df781ea	0.12085326
75	0xbdb77a58	-0.08958882
76	0xbde82834	-0.11335793
77	0x3dc11ef8	0.09429735
78	0x3e31f304	0.1737786
79	0x3db919ec	0.09038147
80	0x3d899d25	0.06719426
81	0x3e5d0b65	0.21586378
82	0xbe75a7cb	-0.23989789
83	0xbe7d46b6	-0.24734005
84	0xbe0a1e37	-0.13488089
85	0x3e40b2b1	0.18818165
86	0x3de6c914	0.11268821
87	0x3e6c582f	0.23080514
88	0xbe5069a8	-0.20352805
89	0x3dce2144	0.10064939
90	0x3da7a1ba	0.08185144
91	0xbe4c2cb8	-0.19938934
92	0xbe30ca1a	-0.17264596
93	0x3cb3dca0	0.021955788
94	0x3dd70d7f	0.10500621
95	0x3db8e9ec	0.09028992
96	0xbce322ba	-0.02772652
97	0xbe4e1571	-0.20125367
98	0xbd91f2ed	-0.071264125
99	0x3c827610	0.015925437
100	0xbc8f91d0	-0.017525584
101	0xbe544502	-0.2072945
102	0x3e7c3097	0.2462791
103	0xbdb966b8	-0.09052795
104	0xbd822e10	-0.06356442
105	0x3e537afc	0.20652384
106	0x3e3113d6	0.17292723
107	0x3e158fb4	0.146056
108	0x3e51a312	0.20472363
109	0xbe27a2f8	-0.16370761
110	0xbe460e70	-0.19341445
111	0xbe50ce42	-0.20391181
112	0x3e4f17be	0.202239
113	0x3e6c34a4	0.23066956
114	0x3e07af90	0.13250566
115	0xbd0d37d0	-0.034477055
116	0x3db93ed8	0.090451896
117	0xbd2edb10	-0.042689383
118	0x3e2e8b2c	0.17045277
119	0xbd7a6e38	-0.06114027
120	0x3e5f85c0	0.21828365
121	0x3dcbf6a4	0.09959152
122	0x3e69f864	0.2284866
123	0x3de940f0	0.11389339
124	0x3e42daf2	0.19028834
125	0xbe70c8d2	-0.23514107
126	0x3e1d5230	0.15363383
127	0x3daced58	0.08443707
128	0x3c7c7ce0	0.015410632
129	0x3e04c32c	0.12965077
130	0xbe3f0960	-0.1865592
131	0x3d9255f8	0.071453035
132	0x3d3c3530	0.04594916
133	0xbe403752	-0.18771103
134	0xbdd02738	-0.101637304
135	0x3cfba840	0.030719876
136	0xbe23a03c	-0.15979093
137	0xbe0d5e88	-0.13805592
138	0xbe14d4e0	-0.1453433
139	0x3e25d8e0	0.16196012
140	0xbe0e6526	-0.13905773
141	0x3de61408	0.112342894
142	0xbdd811c4	-0.105502635
143	0x3e1879ee	0.14890262
144	0x3d0d818c	0.034547374
145	0x3ca2aee3	0.019858783
146	0xbdf58412	-0.11988081
147	0x3e02e492	0.12782505
148	0xbe74be55	-0.23900731
149	0xbd5c15ef	-0.053731855
150	0xbd0c3c03	-0.03423692
151	0xbd5a8316	-0.05334767
152	0xbdb3c480	-0.08777714
153	0x3da5f280	0.08102894
154	0xbe47a6e3	-0.19497256
155	0x3d80973c	0.06278846
156	0x3d428068	0.04748574
157	0xbe472b18	-0.19450033
158	0x3c4df2a2	0.012570055
159	0xbe0cc308	-0.13746274
160	0x3e6770d6	0.22601637
161	0x3e2d7768	0.16940081
162	0x3e2e5412	0.17024258
163	0xbe66b1ce	-0.22528765
164	0x3e7970b4	0.24359399
165	0xbe748626	-0.23879299
166	0xbe3aade8	-0.18230402
167	0x3d3356e8	0.043784052
168	0x3e4eb462	0.20185998
169	0x3c965210	0.018349677
170	0x3dd7a41c	0.10529348
171	0x3e1fb676	0.15596947
172	0xbd9a95e8	-0.075481236
173	0x3caf2220	0.021378577
174	0x3c81ebd0	0.015859514
175	0x3e6c4bee	0.2307584
176	0xbe6dcf36	-0.23223576
177	0x3e6413db	0.222732
178	0x3e783d42	0.24242118
179	0x3e2ca962	0.1686149
180	0x3e40c804	0.188263
181	0x3e5f79b4	0.2182377
182	0xbe44f3c6	-0.19233617
183	0x3e72a863	0.23697047
184	0xbe3047f8	-0.17214954
185	0x3de5fb1c	0.11229536
186	0x3e10e505	0.14149864
187	0xbdc0388c	-0.093857855
188	0xbd50bba8	-0.050960213
189	0xbd94a9c8	-0.07258946
190	0x3dbe0f7e	0.09280299
191	0xbdf4e02c	-0.1195682
192	0x3e05642d	0.13026495
193	0x3db4c8ce	0.08827363
194	0x3e685847	0.22689925
195	0xbd95d9f8	-0.07316965
196	0x3dde4022	0.10852076
197	0x3de4d7a4	0.11173943
198	0xbe05c2db	-0.13062613
199	0xba1c20c6	-0.00059558114
200	0xbe4d3510	-0.20039773
201	0x3dc8a100	0.09796333
202	0xbe606c4b	-0.2191631
203	0xbe5674ec	-0.2094304
204	0xbe74fb62	-0.2392402
205	0x3c286ce0	0.010279864
206	0x3d834786	0.064101264
207	0x3defba54	0.11705461
208	0xbdb23534	-0.08701554
209	0x3e4b453e	0.19850633
210	0x3e3ad0c4	0.182437
211	0xbe470040	-0.19433689
212	0x3e0cb010	0.13739038
213	0x3e4a9934	0.19785005
214	0xbcd79b20	-0.026319087
215	0xbe5fd018	-0.21856725
216	0xbc37dd40	-0.011222184
217	0x3da7ab68	0.0818699
218	0x3e045d3c	0.12926191
219	0x3dd62814	0.10456863
220	0x3e49eae2	0.19718507
221	0x3e46da78	0.19419277
222	0xbe6517e0	-0.22372389
223	0x3e7ee8c0	0.24893475
224	0xbe501e64	-0.20324093
225	0xbe770ff2	-0.24127176
226	0x3d23e5e8	0.040014178
227	0xbdb2a448	-0.087227404
228	0xbe69d42a	-0.2283484
229	0x3daaadb0	0.083339095
230	0xbdcfb4a0	-0.10141873
231	0x3d1ce440	0.038303614
232	0xbe3f4058	-0.18676889
233	0x3dfec3a4	0.12439659
234	0x3d34c6d0	0.044134915
235	0xbe76663a	-0.24062434
236	0xbd182808	-0.03714755
237	0xbe69f538	-0.2284745
238	0xbdb890b0	-0.09011972
239	0x3e230756	0.15920767
240	0x3e0a21f8	0.1348952
241	0xbe14621c	-0.14490551
242	0xbd0761bb	-0.033052187
243	0xbde304a8	-0.110848725
244	0xbd416a8c	-0.04722075
245	0xbe2d1bee	-0.16905186
246	0x3d549b83	0.05190612
247	0x3e329285	0.17438705
248	0xbd5b2148	-0.053498536
249	0xbdbdffb4	-0.09277287
250	0xbde5c866	-0.112198636
251	0xbe743bfc	-0.23851007
252	0xbd2c1fe8	-0.042022616
253	0x3e5034ec	0.20332688
254	0xbe153e94	-0.14574653
255	0x3dfc3be0	0.12316108

net.8.bias f4 [16]
0	0xbccbba93	-0.024869239
1	0xbde569f4	-0.112018496
2	0xbdcbc888	-0.09950358
3	0x3e197bfa	0.149887
4	0x3e7f1aef	0.24912618
5	0xbd8842e1	-0.06653381
6	0x3e4d23c1	0.2003317
7	0xbe3f17e2	-0.18661454
8	0xbe25f7ba	-0.16207781
9	0x3e3bd27b	0.1834201
10	0xbe5e815c	-0.21729034
11	0xbd84baa4	-0.064809114
12	0x3e1dd137	0.1541184
13	0xbcbf1de0	-0.023329675
14	0xbdc1c128	-0.0946067
15	0x3c32bfae	0.010909958

net.10.weight f4 [16, 16]
0	0xbe641aae	-0.22275802
1	0x3d5f6770	0.054542005
2	0x3d92b98c	0.071642965
3	0x3e050ce8	0.12993205
4	0xbda995a4	-0.08280495
5	0x3e23aa02	0.15982822
6	0xbe44571a	-0.19173852
7	0x3e2a9518	0.16658437
8	0xbdb39fb0	-0.08770692
9	0x3d374260	0.044741035
10	0x3e69f58e	0.22847578
11	0x3c5c0f40	0.01343137
12	0xbc2ed2c0	-0.010670364
13	0x3dd964e8	0.106149495
14	0xbe59e68e	-0.21279356
15	0xbe2cd44e	-0.16877863
16	0x3e2e7900	0.17038345
17	0xbe2e17e6	-0.17001304
18	0x3dc703a4	0.09717491
19	0x3e6b346a	0.22969213
20	0x3e71bbd8	0.23606813
21	0xbe4f7494	-0.20259315
22	0xbe69ed92	-0.22844532
23	0xbe118940	-0.14212513
24	0x3da7c580	0.08191967
25	0x3c8ecf60	0.017432868
26	0x3d0a3d68	0.033749968
27	0xbe6080e8	-0.21924174
28	0xbd15e590	-0.03659588
29	0xbe51e658	-0.20498025
30	0x3e279d34	0.16368562
31	0xbe380982	-0.17972377
32	0xbdb4a078	-0.088196695
33	0x3e4e1648	0.20125687
34	0x3e085c62	0.13316491
35	0xbe273368	-0.16328204
36	0xbce2b810	-0.027675658
37	0x3e56cff8	0.20977771
38	0x3e740458	0.23829782
39	0x3e01f4d4	0.12691051
40	0xbcbffa20	-0.023434699
41	0x3e054b12	0.13016918
42	0xbe68e982	-0.22745326
43	0x3e42d6b2	0.19027212
44	0x3d9edb88	0.07756716
45	0x3e69127e	0.2276096
46	0xbe742cea	-0.23845258
47	0x3d943a38	0.07237667
48	0xbe774ad8	-0.24149644
49	0xbc5ffa60	-0.013670534
50	0xbd8a4d00	-0.06752968
51	0xbcf52400	-0.029924393
52	0xbd3a7928	-0.0455257
53	0xbe1350f0	-0.14386344
54	0x3e481ad2	0.19541481
55	0xbe2cbbf0	-0.16868567
56	0x3dae1650	0.085003495
57	0xbd819d5c	-0.06328842
58	0xbd8d7e3c	-0.06908843
59	0x3de23b18	0.110464275
60	0x3e4fb9e2	0.20285752
61	0x3e5efe10	0.21776605
62	0x3e7f4f8e	0.24932691
63	0x3cb67320	0.022271693
64	0x3e2be688	0.1678716
65	0x3dfc585c	0.12321541
66	0xbd6e1d38	-0.058133334
67	0x3e0237ea	0.12716642
68	0xbe6bf10a	-0.23041168
69	0x3e3d13c8	0.18464577
70	0x3e6cb0e2	0.2311435
71	0x3e5e92a0	0.2173562
72	0x3e31efac	0.17376584
73	0x3d133c20	0.03594601
74	0x3e69e0e6	0.22839698
75	0xbd2e7ea0	-0.042601228
76	0xbe47ef34	-0.19524843
77	0xbe7bbcae	-0.24583694
78	0xbe4c82b6	-0.19971737
79	0xbe2bff1e	-0.16796538
80	0x3c5c8de1	0.013461561
81	0xbe73b8bc	-0.2380094
82	0x3e55f025	0.20892389
83	0x3e042663	0.12905268
84	0xbd74d0e7	-0.059769537
85	0xbe38aa19	-0.18033637
86	0xbd705d46	-0.058682702
87	0x3e7182ba	0.23585024
88	0x3df7459c	0.12073824
89	0xbe3edf48	-0.18639863
90	0xbe4ea25a	-0.2017912
91	0xbdb5be38	-0.08874172
92	0x3e396c16	0.18107638
93	0x3d5c3708	0.05376342
94	0xbd53a728	-0.051673084
95	0x3db60883	0.08888342
96	0x3e17df55	0.14831288
97	0xbc54a900	-0.012979746
98	0x3e4796e6	0.19491157
99	0x3dfd537a	0.123694375
100	0xbe2bfe7b	-0.16796295
101	0x3e1d99de	0.15390727
102	0x3e2345e2	0.15944627
103	0x3e1ac30a	0.15113464
104	0x3d816ec0	0.06319952
105	0x3e77fecd	0.24218293
106	0xbd027598	-0.031850427
107	0x3c2a4a68	0.010393716
108	0x3e6ad0e3	0.22931246
109	0x3e75eb44	0.24015528
110	0xbe6e036c	-0.23243493
111	0x3de8773f	0.113508694
112	0xbe107976	-0.14108834
113	0xbdc73e8c	-0.09728727
114	0xbe078bd8	-0.1323694
115	0x3ddf35d4	0.10898939
116	0x3ccb21a0	0.024796307
117	0xbaa34e00	-0.0012459159
118	0x3e51b654	0.20479709
119	0x3e53c56a	0.20680776
120	0x3e0ecaf0	0.13944602
121	0x3e08dbb0	0.13365054
122	0xbd2e05d8	-0.04248604
123	0x3e7cd48e	0.24690458
124	0xbe6e6118	-0.23279226
125	0x3e615e04	0.2200852
126	0x3e411a62	0.1885772
127	0xbe74e14e	-0.23914072
128	0xbda22334	-0.07916871
129	0xbce7c080	-0.028290033
130	0x3e60ca6a	0.21952215
131	0x3d65acc0	0.05607295
132	0xbe67c476	-0.22633538
133	0xbe37ec9e	-0.17961356
134	0xbdb5a3f8	-0.08869165
135	0xbdab3d98	-0.083613575
136	0x3d43b388	0.047778636
137	0xbe6eb7d4	-0.23312312
138	0x3e03a8da	0.1285738
139	0xbe2446ec	-0.1604268
140	0xbd8e5010	-0.069488645
141	0xbd0701e0	-0.032960773
142	0x3e050bc0	0.12992764
143	0xbd09c378	-0.03363368
144	0xbe6d8b15	-0.23197587
145	0xbe582ac2	-0.21110061
146	0x3ccdb022	0.0251084
147	0xbe56fdf0	-0.20995307
148	0xbe1f21f8	-0.15540302
149	0xbc10ade2	-0.008830519
150	0x3e03e469	0.128801
151	0xbe131bda	-0.14366093
152	0x3e6d6e6a	0.23186651
153	0xbe1ca0db	-0.15295736
154	0x3cfb7460	0.03069514
155	0x3e2b5f6a	0.16735616
156	0xbd495d86	-0.049161457
157	0x3dafae80	0.08578205
158	0xbc4f0880	-0.012636304
159	0x3e2269d7	0.15860687
160	0xbe12c3a4	-0.14332443
161	0xbd8c2c30	-0.068443656
162	0x3dec96d0	0.11552203
163	0x3d99f198	0.075167835
164	0xbe32a65c	-0.17446274
165	0x3e29d502	0.16585162
166	0xbe4dc9e2	-0.20096543
167	0x3cac4690	0.02102974
168	0x3e36c57e	0.17848775
169	0x3e422b22	0.18961766
170	0x3d7a0348	0.061038285
171	0xbe7f144e	-0.2491009
172	0x3d903a00	0.070423126
173	0x3d6552a0	0.055987
174	0xbc865720	-0.016398966
175	0x3cafd170	0.021462172
176	0xbd321a80	-0.043482304
177	0xbe2552fe	-0.1614494
178	0x3c9307a0	0.017947972
179	0xbdd8f170	-0.105929255
180	0x3da3c184	0.079958946
181	0xbceb3c40	-0.028715253
182	0xbe60e2ca	-0.21961513
183	0x3e3b7fc2	0.18310454
184	0x3ccd77f0	0.025081605
185	0xbe523da4	-0.20531327
186	0xbe6d2f74	-0.23162633
187	0x3db77764	0.08958319
188	0xbe6182d8	-0.22022569
189	0x3e4e54b8	0.20149505
190	0xbca87570	-0.020563811
191	0xbc7d2e40	-0.015452921
192	0x3d0b0770	0.03394264
193	0x3dd7b670	0.10532844
194	0xbe780cae	-0.24223587
195	0xbe351418	-0.17683446
196	0x3d0b4d58	0.034009308
197	0x3c5fbd60	0.01365599
198	0xbe6e3fc2	-0.23266509
199	0xbcc74d70	-0.024328917
200	0xbe7666f4	-0.24062711
201	0x3ddcd58c	0.10782918
202	0x3e40f8fa	0.18844977
203	0x3d878128	0.066164315
204	0x3e124c46	0.14286909
205	0xbe3c3e9a	-0.18383256
206	0x3e3b48d0	0.18289495
207	0x3e1979b2	0.1498783
208	0x3e18b045	0.14910991
209	0x3dd66304	0.104681045
210	0xbe3196ae	-0.17342636
211	0xbe0920b2	-0.13391379
212	0x3e55a242	0.20862678
213	0xbe3218d8	-0.1739229
214	0xbe5da6dd	-0.21645685
215	0x3d287eb0	0.041136444
216	0x3e077c36	0.13230976
217	0x3e25fa10	0.16208673
218	0xbe2ac6c4	-0.16677386
219	0xbe55a4d6	-0.20863661
220	0x3e6b2bb8	0.22965896
221	0xbda67d9c	-0.08129427
222	0xbe63d998	-0.22250974
223	0xbd4f981a	-0.050682165
224	0x3e18b5f5	0.14913161
225	0x3cecf320	0.028924525
226	0x3c6eed70	0.014582977
227	0x3e28567d	0.16439243
228	0xbd8ab9d2	-0.06773724
229	0x3c7143c0	0.0147256255
230	0x3dbacc61	0.091210134
231	0x3e54f31c	0.20795864
232	0x3b928a40	0.004472047
233	0xbc97ab86	-0.018514406
234	0x3e2a7752	0.1664708
235	0xbe35508a	-0.17706504
236	0x3dd82f24	0.10555866
237	0xbe6ba752	-0.23013046
238	0x3c9b7630	0.018977255
239	0xbc81c089	-0.015838878
240	0xbe71083a	-0.23538294
241	0xbe45cab4	-0.19315606
242	0x3d9f22b0	0.07770288
243	0x3de3dd54	0.11126199
244	0x3e598e40	0.2124567
245	0x3e680f34	0.2266205
246	0xbe605248	-0.21906388
247	0xbe186f54	-0.14886218
248	0xbe5d835c	-0.21632141
249	0xbe016b8e	-0.12638685
250	0xbe3a107a	-0.18170348
251	0xbe064d76	-0.13115487
252	0x3dbf58d8	0.093431175
253	0x3e27a6fe	0.16372296
254	0x3d5eb7c0	0.054374456
255	0xbe527074	-0.2055071

net.10.bias f4 [16]
0	0xbbb04480	-0.0053792596
1	0xbdb5f9b4	-0.08885518
2	0xbe567270	-0.20942092
3	0xbde945d4	-0.11390272
4	0xbddba2ac	-0.107243866
5	0xbc8933fc	-0.01674842
6	0x3d913165	0.070894994
7	0xbe30856e	-0.172384
8	0x3db585e8	0.08863431
9	0x3e3b55a8	0.18294394
10	0xbe5fde72	-0.218622
11	0xbdf934d4	-0.12168279
12	0xbe6de102	-0.23230365
13	0x3e636af5	0.2220877
14	0x3def193e	0.116747364
15	0xbe2f4140	-0.17114735

net.12.weight f4 [16, 16]
0	0x3d4406d0	0.04785806
1	0xbd655ec0	-0.055998564
2	0x3e288e16	0.16460451
3	0xbe12ee94	-0.14348823
4	0xbdd13f70	-0.10217178
5	0x3e742246	0.238412
6	0xbe120724	-0.14260536
7	0x3e5492bc	0.207591
8	0xbe40c648	-0.18825638
9	0xbe137726	-0.1440092
10	0xbe7807b8	-0.24221694
11	0x3e2d167a	0.16903105
12	0x3e46a90c	0.19400424
13	0xbe41840e	-0.18898031
14	0x3d9d99bc	0.07695338
15	0xbe14168c	-0.14461726
16	0x3d5a72e8	0.05333224
17	0xbe71a2f0	-0.23597312
18	0xbd1cc4a0	-0.038273454
19	0xbe4d45fc	-0.20046228
20	0xbe5614c4	-0.20906359
21	0x3cbc2dd0	0.022971064
22	0xbdddc7d0	-0.10829127
23	0x3c9a7e60	0.018859088
24	0xbe7d9966	-0.24765548
25	0xbda19570	-0.07889831
26	0x3ddac5b0	0.10682237
27	0xbe7d9204	-0.24762732
28	0xbdf20abc	-0.11818454
29	0x3e0421fa	0.12903586
30	0x3e21434e	0.15748331
31	0xbe66c952	-0.22537735
32	0xbd755cb0	-0.059902847
33	0xbcb8a9d0	-0.02254191
34	0xbe742700	-0.23843002
35	0xbd23ec50	-0.040020287
36	0xbe65617c	-0.22400469
37	0xbb19cc00	-0.002346754
38	0x3e32324c	0.17401999
39	0x3e563d9c	0.2092194
40	0x3df0aa60	0.117512465
41	0x3d6c4fd0	0.057693303
42	0x3e76bdde	0.24095866
43	0xbd9dfc38	-0.077141225
44	0x3d86032c	0.06543574
45	0xbe211ce0	-0.15733671
46	0x3e672f32	0.22576597
47	0xbe4a02ca	-0.19727626
48	0xbe53692a	-0.20645586
49	0xbe1c60c4	-0.15271288
50	0xbe0371e0	-0.12836409
51	0x3d972edc	0.073819846
52	0x3dd41d04	0.10357097
53	0xbdce43b4	-0.10071507
54	0x3e62f428	0.2216345
55	0xbcb62760	-0.022235572
56	0x3d8e55a0	0.069499254
57	0x3ce011e0	0.027352273
58	0xbe5bc4f2	-0.21461847
59	0x3e2cf7c6	0.16891393
60	0x3e23feee	0.16015217
61	0xbe4e8c42	-0.20170692
62	0x3de7df18	0.11321849
63	0xbe74b4fc	-0.23897165
64	0x3dec9164	0.115511686
65	0xbbca6b80	-0.006177366
66	0x3e1653a0	0.14680338
67	0xbdcf9b18	-0.10137004
68	0xbe5df5be	-0.21675774
69	0xbdc0ad9c	-0.09408113
70	0xbd53ad38	-0.051678866
71	0x3e7600b8	0.24023712
72	0xbe72be62	-0.23705438
73	0x3e25dbc4	0.16197115
74	0xbcbf2a80	-0.023335695
75	0xbe5cd4ec	-0.21565598
76	0xbe0788e2	-0.1323581
77	0xbe52f048	-0.20599473
78	0xbe777d98	-0.24169004
79	0xbe2b6894	-0.16739112
80	0xbe7ed8f6	-0.24887452
81	0xbdf19f70	-0.117979884
82	0xbe0dd7f8	-0.13851917
83	0x3e4f4766	0.2024208
84	0xbe615a1c	-0.2200703
85	0x3ccd83e0	0.025087297
86	0xbd96ff4c	-0.07372913
87	0xbdac0cec	-0.08400902
88	0x3e3569ce	0.17716143
89	0x3df57dd0	0.119868875
90	0x3e7b7df6	0.24559769
91	0x3dc71a9c	0.09721872
92	0xbd629ba8	-0.055324227
93	0x3e1630c8	0.14667046
94	0x3e743f4e	0.23852274
95	0x3b9cd340	0.004785925
96	0xbe2f6350	-0.17127728
97	0xbc154d00	-0.0091125965
98	0xbe5f2c12	-0.21794155
99	0x3b14c180	0.0022698343
100	0xba4f9000	-0.0007917881
101	0x3e7f9586	0.24959382
102	0x3e132aba	0.14371768
103	0x3ddb2400	0.10700226
104	0xbda49624	-0.080364496
105	0x3d97fe20	0.07421517
106	0x3ccd5390	0.02506426
107	0xbd89d3ac	-0.06729826
108	0x3d67ad10	0.05656153
109	0xbc8e2520	-0.017351687
110	0xbe2eb4c2	-0.17061141
111	0x3e52a44a	0.20570484
112	0x3e5c5a4a	0.21518818
113	0xbe743b6e	-0.23850796
114	0xbe5cb29c	-0.21552509
115	0xbe771074	-0.2412737
116	0x3e092124	0.13391548
117	0xbda913be	-0.08255719
118	0xbe29b24f	-0.16571926
119	0xbdd40008	-0.103515685
120	0xbd7ad0e8	-0.061234385
121	0xbda446b2	-0.080212966
122	0xbdcee328	-0.1010192
123	0x3e51f59e	0.20503852
124	0x3dd1ade4	0.10238245
125	0x3d84ee75	0.064907946
126	0x3e6306ef	0.22170614
127	0xbcf6ee00	-0.030142784
128	0xbdb4b6c0	-0.08823919
129	0x3e11f9fe	0.1425552
130	0xbe714fdc	-0.2356562
131	0xbe778fa0	-0.24175882
132	0x3e0e9a32	0.13926008
133	0xbe61a27f	-0.22034644
134	0x3cd1ce68	0.025611117
135	0x3dedf344	0.11618665
136	0x3e29d14e	0.1658375
137	0xbb9005a9	-0.004395206
138	0x3dbcb164	0.09213522
139	0x3e0ab832	0.13546827
140	0x3d5f6b18	0.054545492
141	0xbdaae1f9	-0.08343882
142	0x3e3c4c37	0.18388449
143	0xbe4b1b16	-0.19834551
144	0x3daa60a8	0.08319217
145	0x3cfe40f0	0.031036824
146	0x3e73e14c	0.23816413
147	0x3da354b8	0.07975143
148	0x3ba00d40	0.004884392
149	0x3dcde323	0.100530885
150	0xbdfb6383	-0.1227484
151	0xbe402958	-0.18765771
152	0xbd978ca4	-0.07399872
153	0x3e762f7b	0.2404155
154	0x3d6fc968	0.058541685
155	0x3e13ab9a	0.1442093
156	0x3d9a521c	0.07535192
157	0xbdf964ac	-0.12177405
158	0x3e098319	0.13428916
159	0xbe094f06	-0.13409051
160	0xbd75ac90	-0.05997902
161	0x3dec6fb0	0.1154474
162	0x3e0ea912	0.13931683
163	0x3e4f2ac4	0.20231158
164	0x3cf0bdd0	0.029387385
165	0xbdb570f2	-0.08859433
166	0x3d18ae48	0.037275583
167	0xbdf2affc	-0.118499726
168	0xbcdce4b0	-0.026964515
169	0x3d364069	0.04449502
170	0xbdc67e20	-0.09692025
171	0xbe58698a	-0.2113401
172	0x3de35d24	0.111017495
173	0xbc964740	-0.018344522
174	0x3e284951	0.16434218
175	0xbe6b08dc	-0.22952598
176	0xbd272b48	-0.04081276
177	0x3d9265d0	0.071483254
178	0x3e2fb746	0.17159757
179	0x3dba36d0	0.09092486
180	0x3de4a694	0.11164585
181	0xbe722cc5	-0.2364989
182	0xbe3fdd2e	-0.18736717
183	0x3d9cd2cc	0.07657394
184	0xbd9f5b84	-0.07781127
185	0x3d8dde91	0.06927217
186	0xbe4a62a2	-0.19764188
187	0xbe04e854	-0.12979251
188	0x3db83d44	0.089960605
189	0x3dd7d898	0.10539359
190	0x3e621e3f	0.2208185
191	0xbe092706	-0.13393793
192	0x3c776d40	0.015101731
193	0xbdf079f0	-0.11742008
194	0xbdbe04a8	-0.09278232
195	0x3e4a03aa	0.1972796
196	0xbe661e2e	-0.2247245
197	0x3dae38dc	0.08506939
198	0xbe6ab26e	-0.22919628
199	0xbaa4d700	-0.0012576282
200	0x3df1a8a8	0.11799747
201	0xbe561bc6	-0.20909032
202	0xbe7ea79a	-0.24868622
203	0x3e0c8e9c	0.13726276
204	0x3e6c48d2	0.23074654
205	0xbe14579a	-0.14486542
206	0x3e17bdde	0.14818522
207	0xbe21d116	-0.15802416
208	0x3e0cfa40	0.13767338
209	0x3b80eec0	0.003934711
210	0xbe187db8	-0.14891708
211	0xbc934f30	-0.017982095
212	0xbdc5832c	-0.0964416
213	0x3db2c77c	0.08729455
214	0xbda446ac	-0.08021292
215	0xbdef5df8	-0.11687845
216	0xbe4e1d90	-0.20128465
217	0xbe1864e0	-0.14882231
218	0x3e0fdaa6	0.14048252
219	0x3e79ab6c	0.24381799
220	0x3c069640	0.008214533
221	0xbe77d8b6	-0.24203762
222	0xbe79c160	-0.24390173
223	0xbe248702	-0.16067126
224	0xbcdea610	-0.027178794
225	0x3d052e38	0.03251478
226	0xbdbb7e54	-0.091549546
227	0x3e179abc	0.1480512
228	0xbe2ba7a6	-0.16763172
229	0x3e7a6212	0.24451473
230	0xbe1e3c02	-0.15452579
231	0xbdd514a4	-0.104043275
232	0x3e32e98e	0.17471907
233	0xbe384d2e	-0.17998192
234	0x3e79c402	0.24391177
235	0x3c0e64c0	0.008691013
236	0x3e474450	0.19459653
237	0x3d5a7830	0.053337276
238	0xbe7c0110	-0.2460978
239	0xbd894ff8	-0.06704706
240	0x3e7c8282	0.2465916
241	0xbce69bc0	-0.02815044
242	0x3e70989a	0.23495713
243	0x3e28a8f8	0.16470706
244	0x3d35a1d0	0.04434377
245	0xbdd9b048	-0.10629326
246	0x3e0c7792	0.13717487
247	0x3e41019c	0.1884827
248	0x3dab0cf4	0.0835208
249	0x3e2013be	0.15632531
250	0xbd8e97a4	-0.06962517
251	0x3def432c	0.11682734
252	0xbe3ac3ce	-0.18238756
253	0xbe24e836	-0.16104206
254	0xbe1f4a12	-0.155556
255	0x3e10391c	0.14084285

net.12.bias f4 [16]
0	0xbe48e4e8	-0.19618571
1	0xbe08fcd2	-0.13377693
2	0xbdc48c6c	-0.09597096
3	0xbe7cbcd6	-0.2468141
4	0xbbecb9c0	-0.0072242916
5	0xbe4fc4be	-0.20289895
6	0xbdc4aac4	-0.096028835
7	0x3cfc6369	0.030809121
8	0x3dcdd1f5	0.10049812
9	0x3df9a4e8	0.121896565
10	0x3c6e7661	0.014554591
11	0x3e4cf1e6	0.20014152
12	0xbe595788	-0.21224797
13	0x3b9a3280	0.004705727
14	0xbdbdba78	-0.09264082
15	0xbe6089a2	-0.21927503
