AE_multidim/model/ae_6.pth (torch, 135842 bytes, 180 tensors)

net.0.weight f4 [16, 16]
00000000: 28fe 86bd 6c68 15be 104d 69bd 90df 623e
00000010: 00b5 87ba 5caf f5bd 9019 cbbd a61d 32be
00000020: 6ea6 4cbe e8c2 8ebd 7e27 2a3e 6827 bbbd
00000030: 666b 10be 064d 35be b88e 3ebd fc9e 5e3e
00000040: f014 f53c d025 3dbd 98ab 40be 7611 0a3e
00000050: 3e26 2fbe 7685 6b3e 9277 34be 28ec e03d
00000060: 707b 3dbd 9097 6bbe fa2b 733e b8b3 24be
00000070: 32d8 12be 2831 a1bd 90a1 323e 10ff 6ebe
00000080: f8d0 583d c8d6 e73d 5e1b 68be 7877 6c3e
00000090: 9ecc 0fbe 1a9a 073e 54f5 0bbe 8cfa 1fbe
000000a0: 90a2 f33d 30be e1bc 6227 073e 40dd 9b3b
000000b0: 7aa6 3ebe 4091 07bd 005b ab3d f47b 87bd
000000c0: 88af 17bd 8c3c 7dbe 5a2d 14be 24c0 ddbd
000000d0: 7878 2a3d 903b 93bc 86f1 4d3e a23c 3fbe
000000e0: f80d 973d 286e 3c3e 08e5 8cbd 3467 c5bd
000000f0: 7825 a83d be28 123e e058 fbbc 00c4 803d
00000100: 7030 0b3e 2ae1 5fbe 9212 12be 74f2 eabd
00000110: 56d3 4cbe 82e4 6cbe b01f 133d a8a7 1d3d
00000120: bcdc 973d e01e c63c f42c 37be e8fb 38bd
00000130: bef0 653e de03 5f3e f0da 3dbe 3a7d 243e
00000140: 2efd 4fbe 843c 7c3e 8845 21be dcc1 483e
00000150: 4065 4cbe 94de c9bd 0c43 e4bd 74ad 3c3e
00000160: c017 2fbd 70ee 89bc c0e2 7e3e a0e1 c53c
00000170: aa47 6ebe 7835 6f3d 6eaf 26be 80b5 dc3c
00000180: 28e7 c53d e451 99bd 3275 53be 003c 483e
00000190: ba9b 55be 963a 113e 5c45 e63d 945e 40be
000001a0: 08c6 bfbd 54a4 87bd 0098 bbbd f890 993d
000001b0: 403a 503d d064 463e 10a1 75be 20c8 d5bd
000001c0: 0046 553e 4042 113c 9091 253e 58db 0a3d
000001d0: 6e06 0abe ee9b 3bbe 2809 49be 30ed dbbd
000001e0: 8eae 4cbe dca6 dbbd b0fb 643d 6ae7 73be
000001f0: bc53 7fbe 140f e93d 0466 fbbd 60f0 a1bd
00000200: 86d4 50be 2089 05bd 30c6 0a3e 46d7 433e
00000210: 5239 0a3e c8cb 15be e064 31bc 42fa 7dbe
00000220: a070 bfbc 1cd8 733e a0de 5abd a879 5e3d
00000230: 08a6 e33d 0013 3abb b86c b53d ce63 5dbe
00000240: 0087 463b 5e47 6f3e 70a0 f63c 5498 4e3e
00000250: dc1f 62be 208a 25bd ac72 993d a0a3 08bd
00000260: c809 2e3d faf4 03be fc7d 503e d417 73be
00000270: 16ac 23be 1094 043d 4278 1c3e 16be 71be
00000280: 1075 a6bd 944b 2c3e 5470 6bbe e07d 603d
00000290: 5acb 763e a00d 933c 484d 1a3d 287f 833d
000002a0: c221 473e 8025 a93b 00c6 3cbe 081a 8bbd
000002b0: 1c8b 21be c6dc 3e3e 6cb5 013e 42d1 64be
000002c0: 0076 c33d cefd 69be ac3c 72be d894 4fbd
000002d0: 2045 55be b2c5 5e3e 3445 a9bd c0ce 10bc
000002e0: 407f 4f3e 44b4 a13d a686 11be f004 793e
000002f0: ae59 353e fecc 553e dc0c ef3d 705d b4bc
00000300: aa24 403e b08e 403d 9826 a73d 0a6e 3bbe
00000310: 54af 05be 4c4d c83d 1064 543d 98e4 90bd
00000320: e0ad 2bbd c88b 9ebd 3025 563d ecbe f03d
00000330: 106c 5fbd 107c 01bd 3497 7fbe 50ef 913c
00000340: dc0d 41be 7c6e 273e 6e9d 11be 84fb ebbd
00000350: 589e 2cbe e827 22bd 2c48 2a3e 1c0a 5f3e
00000360: 7c9e 163e 20e5 b9bd f039 b1bc 6808 773e
00000370: 1008 5b3d 58c6 da3d 44e4 693e 8c6b a23d
00000380: ec1a 51be 4622 5e3e 00dc 023e 40be 18bc
00000390: 487d 583e d04d ef3c 8245 593e d4ce 83bd
000003a0: 806f 48bc 1686 7abe 1211 783e 08fa 783e
000003b0: 70a4 68bd 14f8 84bd 58f1 1bbe ac29 01be
000003c0: 725d 153e d40a b6bd e08a fa3d 7c25 b5bd
000003d0: 88c1 4cbe a619 2cbe 40d0 b53d be6e 59be
000003e0: deb6 0abe 00da 7a3e b026 fb3d a0df 9d3d
000003f0: 969f 013e 8820 1d3e c8f7 4cbe 207e cc3c
-0.06591445 -0.14590615 -0.05695826 0.22155595 -0.0010353625 -0.11996338 -0.09916985 -0.17394122
-0.19985363 -0.06970769 0.16616628 -0.091383755 -0.14103469 -0.17705163 -0.046522826 0.21740335
0.02991721 -0.04617864 -0.18815458 0.13483223 -0.17104432 0.2300013 -0.17623737 0.10982543
-0.046260297 -0.23007035 0.23747244 -0.16084182 -0.14340284 -0.07870704 0.17444444 -0.23339486
0.052933663 0.11320263 -0.2266669 0.23092449 -0.14042899 0.13242379 -0.13667804 -0.1562292
0.11896241 -0.027556509 0.13198617 0.0047565997 -0.18618193 -0.033097506 0.08366966 -0.06615439
-0.037032634 -0.24730128 -0.14470425 -0.108276635 0.041618794 -0.017972738 0.20111665 -0.18675473
0.07375711 0.18401396 -0.06879622 -0.09638825 0.082102716 0.14273354 -0.030682027 0.06287384
0.13592696 -0.21863237 -0.14264897 -0.114720255 -0.20002493 -0.23134044 0.03591889 0.038489968
0.074151486 0.024184644 -0.17888242 -0.04516211 0.22455117 0.21778819 -0.1854055 0.16063395
-0.20311424 0.2463246 -0.1574918 0.19605201 -0.19960499 -0.098569065 -0.11145601 0.18425542
-0.04274726 -0.016837329 0.24891186 0.024155438 -0.23269525 0.0584006 -0.16277859 0.026942015
0.0966323 -0.074863225 -0.20650175 0.19554138 -0.20860186 0.14182505 0.11243698 -0.18786079
-0.09363943 -0.0662314 -0.09159851 0.07498354 0.0508368 0.19374394 -0.23987222 -0.104385614
0.20827484 0.008865893 0.16168809 0.03390059 -0.13479015 -0.18321201 -0.19632399 -0.10738599
-0.19988462 -0.10725185 0.05590409 -0.23818746 -0.24934286 0.11379829 -0.12275317 -0.07907176
-0.20393571 -0.032601476 0.13552165 0.19125089 0.13498428 -0.14628518 -0.010827273 -0.24802497
-0.023369133 0.23812908 -0.053434968 0.05431524 0.11115652 -0.0028392673 0.08858627 -0.21620104
0.0030292869 0.23367068 0.0301058 0.20175296 -0.22082466 -0.04041493 0.07492575 -0.03335917
0.042489797 -0.1288642 0.20360559 -0.23739558 -0.15983614 0.032367766 0.1528025 -0.23607668
-0.08127797 0.16825706 -0.22992069 0.054807544 0.2410101 0.017950833 0.037671357 0.064207375
0.19446471 0.005161941 -0.18434906 -0.067920744 -0.15775722 0.18638906 0.12666863 -0.2234545
0.09543991 -0.22850725 -0.23655957 -0.050679058 -0.2082715 0.21755102 -0.082651526 -0.008838356
0.20263386 0.07895711 -0.1421152 0.2431829 0.17709991 0.2087898 0.116723746 -0.02201721
0.18763986 0.047011077 0.08161658 -0.18303695 -0.13055164 0.09780368 0.05185324 -0.07074851
-0.041913867 -0.07741505 0.05228156 0.117551655 -0.054546416 -0.031612456 -0.24960023 0.017814308
-0.18852943 0.1635074 -0.14220211 -0.11522582 -0.16857278 -0.03958884 0.16629094 0.217812
0.14708894 -0.09076905 -0.021634072 0.241243 0.053474486 0.10682362 0.22840983 0.07930669
-0.20420426 0.21692762 0.12779236 -0.009322703 0.21141541 0.029211909 0.21217921 -0.06435934
-0.012233615 -0.24465212 0.24225262 0.2431413 -0.056797445 -0.0649263 -0.15228784 -0.12613553
0.14586428 -0.08888784 0.122335196 -0.0884504 -0.19995701 -0.16806659 0.08877611 -0.21233651
-0.13546321 0.24497223 0.122632384 0.07708669 0.12658533 0.15344441 -0.20016396 0.024962485

net.0.bias f4 [16]
00000000: 54b9 5dbe d8b5 893d 70b9 fcbd cc65 953d
00000010: c05f 553e fea8 39be 0c15 2dbe 9022 6abe
00000020: 2c63 243e 50a6 c93d 303d 013d dee6 25be
00000030: 42a5 383e c037 503e 965d 7cbe dc99 d4bd
-0.21652728 0.06724137 -0.12340057 0.07294807 0.20837307 -0.18130872 -0.1690256 -0.22864747
0.16053456 0.09846175 0.031552494 -0.1620135 0.18031791 0.20333767 -0.24645075 -0.10380909

net.2.weight f4 [16, 16]
00000000: 0c74 673e 00b4 773c e091 33bc 0666 6a3e
00000010: e4f4 d53d 0e1a 1fbe 365b 04be ee01 0dbe
00000020: 98bf 123e 74b5 8bbd 708f 463d 7ef5 673e
00000030: 4862 15be 880a 19be 60c7 883d 50a8 8cbd
00000040: 209b d73c 145d 113e e088 f23c b0e4 35bd
00000050: 8865 efbd 6493 4bbe 306c 3bbd e074 bbbc
00000060: 367e 3cbe 0896 ab3d 8c8d c23d 90c6 2dbe
00000070: 72e1 053e 0a29 7b3e 4014 2f3e eca2 ed3d
00000080: f65c 113e a0e7 9d3d 88c6 f13d 18f2 aebd
00000090: 9c6f c7bd e086 a2bd a4ec 2dbe b491 3dbe
000000a0: 6045 b73c 8acd 60be c215 55be 9a4c 4abe
000000b0: c8c6 1e3d 38cc 6ebd d86e d7bd 6433 2a3e
000000c0: 38cf 9ebd 022a 743e a0b9 7ebc 909f cf3c
000000d0: 3651 7abe c8a1 9e3d 4066 1a3c d067 203e
000000e0: c6c0 453e 2898 e43d e6d9 173e 08a5 ebbd
000000f0: 189b 66bd e8d6 ccbd 7048 93bd 0020 c33c
00000100: bc2f 4bbe c099 f5bd 3e41 4a3e f24f 1bbe
00000110: bc97 0d3e 3000 f53d a837 b53d cc45 40be
00000120: 949b fe3d 309d a0bc a2f7 703e 0476 84bd
00000130: 5238 163e 2c7d ecbd c0b2 d93d 083d 883d
00000140: 8eb4 46be a2e0 763e ac9a b0bd f805 ab3d
00000150: 70ff f7bd 5071 1c3d 201f 5b3c ac91 723e
00000160: 4ea3 73be 4a8d 56be 3053 71bd 4034 4ebe
00000170: d2c2 383e a0d0 67be eecb 313e 801d 04bc
00000180: fc59 ae3d eac8 193e c8f0 f93d 581a 8cbd
00000190: 7097 f0bc 4411 423e a085 4dbd f08b f73d
000001a0: e4b4 5abe 3a33 0cbe 9ac6 423e 900d 493e
000001b0: aa99 3dbe 7873 29bd c03f 5a3e 04db 27be
000001c0: 60ed fdbc 48db 28bd 70c7 8e3d ac24 aabd
000001d0: 50e8 353d 34b0 933d 0c80 3abe d632 4d3e
000001e0: a0f5 67bc e402 fcbd 441a e73d ece5 693e
000001f0: 4646 36be 4082 e8bb 22f4 553e 58f2 9cbd
00000200: ba1d 353e daa8 3fbe 78fe 2cbd b09e 6bbd
00000210: fc29 353e 56e0 3a3e c0a0 983d 9838 82bd
00000220: 66c5 35be 3afb 5dbe 6cce 583e 4050 873c
00000230: 1041 8fbc b0fe 4dbe d047 21bd a021 d63d
00000240: a084 85bd 5482 3ebe f691 2f3e 705e f33c
00000250: a8c3 363e 984a 2f3e 0e00 65be 4044 f63d
00000260: 5837 793d 50ea e53d ae56 6c3e a2c6 713e
00000270: 040a 89bd f003 123d 6488 39be 6ce3 4d3e
00000280: f6a0 653e c4da b23d 04fb 6dbe 441f b23d
00000290: 0c41 28be b84f e2bd a0e3 23bc c0cf 663e
000002a0: 387e 0e3d f48f 2abe ea02 0f3e 30e8 fd3c
000002b0: 14d2 3cbe f823 dbbd 1874 36bd fca2 49be
000002c0: 18ec 37bd d24f 78be 004b 75be 8836 b2bd
000002d0: 2cb2 823d e687 57be 542c aabd 9815 743e
000002e0: b071 1ebd b65c 50be 844e 44be 160d 42be
000002f0: 1c3a 5abe 1868 533d c09c e4bc d04d f5bc
00000300: 0a00 0bbe be62 5c3e 84e7 86bd c806 213e
00000310: f007 963c 4ec9 5fbe 0c5f d0bd b093 993d
00000320: 42c9 17be 3049 cfbc 5c44 f2bd 14be 0dbe
00000330: 548b 53be 74fd d83d 7eb2 503e bc4c 5f3e
00000340: c0d9 c0bc 60da ff3c fc0c 963d 84ad 6d3e
00000350: 0624 10be 78fc a43d 52fa 1dbe c099 643d
00000360: 108a b4bc 0424 4b3e 5eac 73be 76e2 363e
00000370: 4024 abbc 40a9 de3d 3097 343d 68b0 c0bd
00000380: c0b9 c5bd 108f 17bd 6289 6abe 00e5 bcbd
00000390: f6b0 343e a414 4ebe 90f9 e23c 703d 373e
000003a0: dec1 323e 0ce5 9b3d f46d 0ebe f879 09bd
000003b0: fa48 193e 00fa 5d3d 56c2 7d3e 703f 48bd
000003c0: acb8 04be 305b 653d 9c99 513e 6015 0e3d
000003d0: b6d5 6b3e 60a7 ccbd ac9c 3f3e 6418 5dbe
000003e0: 285a 4b3d 0814 763e 9eaf 10be 5c44 ee3d
000003f0: d0d3 acbc 36f5 4c3e 6cbf 2fbe 6c5f 203e
0.22602862 0.015118599 -0.010960072 0.22890481 0.104471 -0.15537283 -0.12925419 -0.13770267
0.143309 -0.06821719 0.048476636 0.22652242 -0.14588273 -0.14945424 0.06678653 -0.068680406
0.026319087 0.14195663 0.029606283 -0.044407547 -0.116892874 -0.19880444 -0.045757473 -0.022882879
-0.1840752 0.083782256 0.09499654 -0.16970277 0.13074282 0.24527374 0.17097569 0.116033405
0.14195618 0.077101946 0.11805445 -0.085422695 -0.09738085 -0.079358816 -0.16984802 -0.18512613
0.022371948 -0.21953407 -0.20809081 -0.19755784 0.03876379 -0.058300227 -0.10519189 0.16621166
-0.077543676 0.2384415 -0.015547186 0.02534464 -0.24445042 0.07745701 0.009423792 0.15664601
0.19311818 0.11161834 0.14829215 -0.115060866 -0.056300253 -0.100019276 -0.07191551 0.02381897
-0.19842428 -0.11992216 0.1975145 -0.15167215 0.13827413 0.119629264 0.08848506 -0.18776625
0.12432018 -0.019606203 0.23531964 -0.06467822 0.14669922 -0.11547312 0.10629797 0.06652266
-0.19404814 0.24109128 -0.08623251 0.08350748 -0.12109268 0.038194 0.01337412 0.23688382
-0.23792765 -0.20952335 -0.058917224 -0.2013712 0.18043068 -0.22638178 0.17362949 -0.008063674
0.08513257 0.15018049 0.122041285 -0.06840962 -0.029369086 0.18951899 -0.050176263 0.12087238
-0.21358067 -0.13691416 0.19021073 0.1963408 -0.1851565 -0.041369885 0.21313381 -0.16392142
-0.030996978 -0.041224748 0.069716334 -0.08307776 0.044411004 0.072113425 -0.18212909 0.20038924
-0.014157683 -0.12305239 0.11284307 0.22841614 -0.17800245 -0.007095605 0.2089391 -0.07663411
0.17687121 -0.18716756 -0.042234868 -0.057524383 0.17691797 0.1824964 0.07452536 -0.06358451
-0.17751083 -0.21677867 0.21172494 0.016517758 -0.017487079 -0.20116687 -0.039375126 0.10455632
-0.06519437 -0.18604404 0.17145523 0.029708117 0.17848074 0.17118299 -0.22363302 0.120247364
0.060843796 0.11226332 0.2307994 0.23610929 -0.066913635 0.035648286 -0.18118435 0.20106286
0.22424683 0.087331325 -0.23240286 0.0869737 -0.16431063 -0.110503614 -0.0100030005 0.22540188
0.03478834 -0.16656476 0.13965955 0.030994505 -0.18439513 -0.1070022 -0.04454431 -0.1969108
-0.04490289 -0.24249199 -0.23954391 -0.08701807 0.0638164 -0.21047935 -0.08309236 0.23836362
-0.03868264 -0.20347866 -0.19170576 -0.18950304 -0.2131123 0.051612943 -0.027906775 -0.02994433
-0.13574234 0.21522042 -0.06587127 0.15725243 0.018314332 -0.21854135 -0.10174379 0.07498872
-0.14822868 -0.025303453 -0.11829445 -0.1384204 -0.20658618 0.10595217 0.2038059 0.21806616
-0.023541331 0.031232059 0.07326695 0.23210722 -0.14076242 0.08055967 -0.15427521 0.05581069
-0.02203849 0.19837958 -0.23796222 0.17859825 -0.020891309 0.108721256 0.044089496 -0.09408647
-0.096545696 -0.03700167 -0.2290397 -0.09223366 0.1764563 -0.20125061 0.027706891 0.1789453
0.17456767 0.076120466 -0.13909131 -0.033563584 0.14969245 0.054193497 0.24781165 -0.048888624
-0.12961072 0.055995166 0.20468754 0.034688354 0.23030743 -0.09992862 0.1871211 -0.21591336
0.049646527 0.24031079 -0.14129493 0.11634132 -0.021097094 0.20015416 -0.17162865 0.156614

net.2.bias f4 [16]
00000000: 1070 a8bc 0052 8dbb 5058 213e 3c72 a9bd
00000010: 9a5a 593e ec8a 0d3e 8cda ea3d 541f 77be
00000020: 7470 1d3e 4c80 56be c0fd 22be 6a55 5c3e
00000030: 209d 0b3e ac19 603e 5ad0 3dbe 683d 5c3d
-0.020561248 -0.0043127537 0.15756345 -0.082737416 0.21225968 0.13822526 0.11467466 -0.24133044
0.15374929 -0.20947379 -0.1591711 0.21516958 0.13634157 0.21884793 -0.18536511 0.0537695

net.4.weight f4 [16, 16]
00000000: d46e 3cbe 6626 4f3e 16ed 143e 7052 b8bc
00000010: 7439 bc3d 5819 57be 32bb 2a3e 26d3 5e3e
00000020: 40c6 c3bc de60 35be 0011 34bc 2036 6bbd
00000030: 2030 5bbe bc79 f93d faa9 663e 70fc dd3c
00000040: 2059 513d 924e 023e 285d 153e 3c78 d0bd
00000050: d0c3 853c 785b 243d d02a 293d 8865 623d
00000060: 20ce 7bbd f2b0 6d3e ec3a a6bd 06c1 6b3e
00000070: ec28 a5bd acfd 1bbe 0cf7 e93d 309b 9b3d
00000080: 76f5 693e 7a8f 66be e69a 7f3e 6e57 35be
00000090: 9cbe 67be 5a75 0d3e c0d4 f53d 929b 47be
000000a0: 6c35 653e 6ce9 ebbd 8013 cb3c 3038 bf3d
000000b0: 3cd8 02be 4288 01be d2e7 11be c62a 3fbe
000000c0: 80f4 153c f882 b63d 9ed1 73be 522b 06be
000000d0: aec6 373e c4a8 c1bd a0f0 693e 0088 6139
000000e0: d064 21bd 5801 c6bd 78af 033d d8cc f93d
000000f0: 1046 29bd 2e5f 14be a020 48bd 6a9f 0abe
00000100: feca 1bbe f6d7 493e b88f 81bd bc17 23be
00000110: e0db d7bc 882d 1fbd 58d0 3a3d 4edc 0b3e
00000120: 04fa 833d 32ca 463e 98e9 063d f49c 78be
00000130: 00bb 48bb a200 6cbe c68b 26be b85f 37be
00000140: 80d3 24be e800 5abe 9c6d 8b3d 2695 103e
00000150: 3402 71be f6bf 7fbe b81c dcbd 4060 783d
00000160: d27a 213e 1ab8 06be 5433 68be 9c07 a43d
00000170: 9860 79be e470 d93d 48f6 25bd 0049 1d3d
00000180: e45b 0bbe 0cea f63d b024 8e3c 0cd2 7ebe
00000190: 5cf2 a53d e874 3e3d 589c 503e 3600 6a3e
000001a0: 0471 c53d 8eb5 23be 905b bebd 404e 43bc
000001b0: 26c6 0a3e d80f 9fbd 0c19 3abe 4a8b 07be
000001c0: d073 673e 7ea8 4e3e 646c 74be 50c9 37be
000001d0: 8033 80bb d0b1 74be 0c2e a6bd a070 50be
000001e0: 4037 13bd 5673 39be ca76 5abe ac86 4c3e
000001f0: e034 213e 1652 1a3e be43 20be 4428 64be
00000200: 40ac 2f3d ac06 a53d 56e9 2cbe 18ee 383e
00000210: ca81 363e 9c5b 44be e4e3 9f3d 3074 893c
00000220: 06a2 5dbe 08e0 b2bd 3cdf cbbd b883 48be
00000230: 0091 9fbd bac1 193e 3666 263e 8488 4f3e
00000240: 800a 15bc c0c8 c53d 94a9 af3d 5cfc 5e3e
00000250: f84f 03bd b408 d3bd 7c78 eb3d 40ad d33c
00000260: f86f fcbd c0f1 3ebe 9062 d93d ecd7 35be
00000270: 7426 f93d fc41 e7bd 88d5 debd c010 14bc
00000280: aa58 5c3e 90c1 3b3d 20f1 9dbd 80b4 e33c
00000290: 304c b53c 345b d63d f873 463d 4ca5 323e
000002a0: 50e7 b83d d80b b13d f441 4d3e f82d b4bd
000002b0: 8e38 06be f8c7 53bd 403e 01bc 0640 0d3e
000002c0: 7037 9d3d 86a7 443e e235 07be cc3c ab3d
000002d0: d00b 3ebe ca94 243e e0fd 623e e021 963d
000002e0: c0d2 793d a0a0 1c3d 50f2 3dbd 4814 45bd
000002f0: 2c77 223e 88af 323d 1c8e 873d a0ed ffbc
00000300: c09a 6e3d 68eb 05be 2aed 053e b492 2c3e
00000310: a0b6 a73c 3834 f53d f0b2 99bd 4cb9 63be
00000320: d883 1d3d e865 1bbe 9c82 97bd 00fb 0bbd
00000330: e890 173e a0a3 c7bd 00f2 7a3d f411 413e
00000340: b0ee d73c 60bb a2bd 3c94 463e 40dc c03c
00000350: 182d 1bbd 94f0 36be aabb 34be 68d2 49be
00000360: 20a9 03be 1469 70be dc7b 9f3d dc0c 8f3d
00000370: d834 553d accd adbd f45a 533e f409 a6bd
00000380: 98d0 f6bd 3017 2ebd 2a09 78be d444 31be
00000390: 5c41 ed3d b079 0abd 30a2 47be 0007 453e
000003a0: 92ee 7bbe 4034 df3c 38b1 0b3d 0e4c 07be
000003b0: 38e3 4cbe ee70 0d3e e06e 49bc 64b4 0dbe
000003c0: 9e18 0bbe 0cb6 9abd 7034 6c3d 04d6 af3d
000003d0: 5852 623d 6034 2e3d a0cd 9fbc 58d7 7f3e
000003e0: 025e 41be 00e7 a73c 34f5 11be 80b0 0d3e
000003f0: 7e6e 48be f8c4 ebbd 4aa9 2c3e f638 64be
-0.18401653 0.20229492 0.14543566 -0.022500247 0.09190646 -0.21005762 0.16672972 0.21760234
-0.023898244 -0.17712733 -0.010990381 -0.057424664 -0.21405077 0.12181422 0.22525778 0.02709791
0.051110387 0.12725285 0.14586318 -0.10179183 0.016328722 0.040126294 0.041300595 0.05527261
-0.061475873 0.2321203 -0.08116707 0.23022851 -0.08064446 -0.15233487 0.114240736 0.07597959
0.22847542 -0.2251567 0.24961433 -0.17709133 -0.22631305 0.13814297 0.120034695 -0.19492939
0.2238366 -0.11519131 0.024789572 0.09336889 -0.127778 -0.12649634 -0.14248589 -0.1866866
0.009152532 0.08911699 -0.23810431 -0.13102463 0.17946884 -0.094560176 0.22845697 0.00021508336
-0.039402783 -0.09668225 0.032149762 0.12197274 -0.041326582 -0.14489433 -0.04885924 -0.13537374
-0.15214154 0.19711289 -0.0632624 -0.15927023 -0.026349962 -0.03886178 0.04560885 0.13658258
0.06444171 0.19413069 0.032937616 -0.24278623 -0.0030629039 -0.23047116 -0.16264257 -0.17907608
-0.16096306 -0.21289408 0.06808016 0.14119396 -0.23535997 -0.24975571 -0.10747665 0.060638666
0.15769508 -0.13156167 -0.2267583 0.08009264 -0.24353254 0.10617235 -0.040518075 0.038399696
-0.13609272 0.1205636 0.017351478 -0.24884814 0.08102867 0.04649821 0.2037214 0.22851643
0.09640697 -0.15987226 -0.09294808 -0.011920512 0.1355215 -0.07766694 -0.18173617 -0.13236728
0.22602773 0.20181462 -0.23869473 -0.17947888 -0.0039123893 -0.23895955 -0.081142515 -0.20355463
-0.035941362 -0.18110403 -0.21334377 0.19973248 0.15742826 0.15070376 -0.15650842 -0.22280985
0.04288888 0.08057913 -0.16885886 0.18059576 0.17822948 -0.19175571 0.078071386 0.016779035
-0.21643838 -0.08734137 -0.09954688 -0.19581497 -0.077913284 0.15015307 0.16249928 0.2026692
-0.009096742 0.09657431 0.08577266 0.21775955 -0.032058686 -0.10304394 0.1149759 0.025839448
-0.12326044 -0.18646908 0.106145024 -0.17758149 0.121655375 -0.112918824 -0.108805716 -0.009037197
0.21518198 0.045838892 -0.077120066 0.02779603 0.022131056 0.10466614 0.04845044 0.17445868
0.09028494 0.08644837 0.2004469 -0.0879783 -0.13107511 -0.051704377 -0.007888377 0.13793954
0.076765895 0.1920453 -0.13204148 0.083612055 -0.18559194 0.16072384 0.22167158 0.0733068
0.060992002 0.03823912 -0.046373665 -0.048115045 0.15865773 0.04362443 0.06618902 -0.031241238
0.05825305 -0.13078082 0.13078752 0.16852838 0.020472825 0.119728506 -0.07504833 -0.22238654
0.038455814 -0.15175593 -0.07397959 -0.03417492 0.14801371 -0.09748006 0.061265945 0.18854505
0.026358932 -0.07945895 0.19392484 0.023542523 -0.0378848 -0.17865211 -0.17649713 -0.1970917
-0.12857485 -0.23477584 0.07787296 0.069848746 0.05205235 -0.084864944 0.20640165 -0.08107367
-0.12051505 -0.042502582 -0.24222246 -0.17311412 0.11584732 -0.033807456 -0.19495463 0.19240952
-0.24602726 0.027246594 0.034104556 -0.13212606 -0.20008552 0.1381261 -0.012294501 -0.13838345
-0.1358361 -0.07554254 0.057667196 0.08585742 0.05525431 0.042530417 -0.01950723 0.24984491
-0.18883517 0.020495892 -0.14253694 0.1383686 -0.195734 -0.11512178 0.16861454 -0.22287354

net.4.bias f4 [16]
00000000: 8c97 90bd c0b9 423e 4417 a23d 84dd 723e
00000010: dc6a f33d c838 d93d 2e60 60be 82f3 633e
00000020: 2868 8dbd b01e 09be a8e0 583d c21c 1bbe
00000030: 4470 76be 60a7 9cbd 4211 6ebe 58f5 703e
-0.07060155 0.1901617 0.07914594 0.23717314 0.11885616 0.10606533 -0.2191169 0.2226086
-0.06904632 -0.13390613 0.052948624 -0.15147689 -0.24066263 -0.07649112 -0.23248771 0.23531091

net.6.weight f4 [16, 16]
00000000: 36ef 553e 80d9 acbc 3cf3 bcbd 18e7 f83d
00000010: 3031 f93d 18e9 e9bd 50c0 a93d 6822 6cbe
00000020: 5ac2 243e 8c43 ef3d fca1 c4bd b48a bd3d
00000030: 7e8e 213e c8e8 9abd 4a09 34be ac95 443e
00000040: 7001 4f3d 00b6 f5bb 744c 0d3e 381d 3c3e
00000050: f60e 613e 46d7 713e 8853 3d3e 0af0 67be
00000060: 6e89 643e 18dc 5bbe 0ee6 243e 48a0 783e
00000070: de02 1c3e dc7a f73d 764e 4b3e 5a59 39be
00000080: b4b9 d6bd ecd6 0f3e 00a2 3d3d ee32 16be
00000090: 7457 a33d 1cf9 31be f64b 6a3e 1012 dbbc
000000a0: 9ca5 5cbe 9087 e2bc a854 783d 30f6 d03d
000000b0: 640e 15be 40ec ca3b dc5e 14be 604c 913d
000000c0: 1043 a6bc 604a e9bc e043 7f3c 9294 253e
000000d0: 7c65 81bd c486 2bbe 7418 0fbe 845d 493e
000000e0: 3091 b13d 902d 47bd 0816 773d 8200 05be
000000f0: 005d 413c 2cb7 e23d 9268 44be 904a 9f3c
00000100: a0ad c3bc aafa 60be 4e25 31be 40bc acbb
00000110: 3234 593e d8d2 2abe acac fcbd d415 84bd
00000120: 7098 d1bc c089 f1bd d67b 1a3e e22e 023e
00000130: 5441 02be 30fe 5abe 6a80 7ebe 70a2 b5bd
00000140: ca11 2dbe c8e8 30bd 80b6 6bbe a607 243e
00000150: 0cc9 38be ae9f 253e 0c9d 27be 3046 e3bd
00000160: 88cb d13d 5084 e6bd 20c7 0b3d 7898 ff3d
00000170: 5cfb d2bd 04a1 5fbe 12f6 333e c0f6 463d
00000180: da55 72be 9889 14be fc6c 6e3e 52c4 20be
00000190: 1249 07be 8487 3fbe ee3c 6cbe 7695 383e
000001a0: 40af ce3d 88e9 28be f68f 643e d47a 33be
000001b0: 4a3e 40be aa13 353e e821 6f3e a076 2dbd
000001c0: 4e9e 34be 10f6 893c 6ccb 893d 28d8 753d
000001d0: d6a2 53be f400 9dbd d439 80bd 9e8f 273e
000001e0: ca3b 0cbe 0ee5 533e acfe 663e 6691 5e3e
000001f0: a890 75be 0832 e9bd 44d7 c4bd 60e6 bc3c
00000200: 304d c8bd 0cc9 d2bd 98be 523e 28f6 dc3d
00000210: 8e66 0f3e 6684 5fbe f0e4 c8bd f8f8 a03d
00000220: 6838 4bbe 663c 3dbe 8c60 d0bd 8034 023d
00000230: c8a5 8a3d 548f 903d 88cb 4abd 7cb5 ebbd
00000240: 9eea 1abe 808e 3b3c 5ce3 8c3d 786e 7d3d
00000250: ccb0 3cbe 7c5b 0cbe a02c 463e 28c4 70be
00000260: 54cc c73d bcb1 163e 2a65 06be 1880 00be
00000270: d0d9 fa3d 2431 07be 2271 303e 7c52 f43d
00000280: 809e aabd a4d9 79be ec93 21be 605e ad3d
00000290: 4a06 303e a6fb 08be 92b8 1a3e 90e9 98bd
000002a0: 00e9 5ebd 30fe 47bd f860 d9bd 74c5 d53d
000002b0: aa9b 143e 4833 183e 5e19 633e e462 f7bd
000002c0: 68ad 4dbd e8d6 68be 20fc 2abc 3607 5a3e
000002d0: b456 393e b04d d63d 065c 24be 4cfd 503e
000002e0: 3cc3 9abd dafb 0c3e ee63 79be f0ae 753e
000002f0: 3033 1a3e 00a6 ef3d 3e98 5abe 184e 663e
00000300: b42f 513e 3c39 4ebe b02b ce3d 746c 0fbe
00000310: 64ae 9e3d e895 95bd ba5a 39be 2818 9b3d
00000320: e87f 313e f209 6f3e 4466 f7bd 00b1 a03c
00000330: 62da 33be d068 013d f068 3b3e 824c 59be
00000340: f0a2 b23d 0842 0b3d 8a38 1e3e 7094 46be
00000350: f039 aa3d c8bf f7bd 5ea7 603e 0236 1abe
00000360: 702c febc 38dc 4a3e 6ed1 063e 0873 59be
00000370: 5822 6d3e d819 4e3d d424 c7bd 9ce9 353e
00000380: d096 c13d e0d0 2bbe 4230 4dbe b879 47bd
00000390: 3488 dc3d d45a 0fbe 9e4c 0fbe ae26 153e
000003a0: 64b3 ebbd 0494 a43d f037 653d b4b1 3d3e
000003b0: 38b7 663d 001e fe3b 8848 a33d f45b 113e
000003c0: 88ef 24bd 4817 333d dc65 c9bd f85a e03d
000003d0: 7481 b73d d056 f2bd 6ac8 0ebe e041 a0bc
000003e0: a04f 91bc d099 37be 2893 8fbd 6497 d63d
000003f0: d00c c33d 2681 10be 8aae 613e a478 f83d
0.20892033 -0.021099806 -0.09226081 0.12153453 0.12167585 -0.11421412 0.08288634 -0.2306
0.16089764 0.116828054 -0.096012086 0.09254971 0.15777013 -0.07563931 -0.17581668 0.1919772
0.05053848 -0.0074985027 0.13798696 0.18370521 0.21978363 0.23617277 0.18488896 -0.22650161
0.2231805 -0.21470678 0.16103384 0.24279892 0.15235469 0.120839804 0.19854149 -0.18100491
-0.10484639 0.1404683 0.046297073 -0.14667866 0.07975665 -0.17380184 0.2288054 -0.026742011
-0.2154755 -0.027652532 0.06062761 0.102032065 -0.14556271 0.006192714 -0.14489311 0.070946455
-0.02029565 -0.028477848 0.0155801475 0.16169956 -0.06318185 -0.16750628 -0.13974172 0.1966458
0.086702704 -0.048627436 0.060323745 -0.12988475 0.011801958 0.110700935 -0.19180515 0.019444734
-0.023886502 -0.21970621 -0.17299387 -0.0052714646 0.21211317 -0.16681993 -0.12337622 -0.06449476
-0.025585383 -0.11793852 0.15086302 0.12713197 -0.12720233 -0.21386027 -0.24853674 -0.08868873
-0.16901317 -0.043190747 -0.23018837 0.16018543 -0.18045443 0.16174194 -0.16368502 -0.110973716
0.10243899 -0.11255705 0.034125447 0.12480253 -0.10301849 -0.21838766 0.17574337 0.048575163
-0.23665562 -0.14505613 0.23283762 -0.1569989 -0.13211468 -0.18704039 -0.23070118 0.18025765
0.1009202 -0.16495335 0.22320542 -0.17527324 -0.18773761 0.17683282 0.23352778 -0.042349458
-0.17638513 0.016840965 0.06728253 0.060020596 -0.20667586 -0.076661974 -0.0626103 0.1636338
-0.13694683 0.20692846 0.22558087 0.21735153 -0.23980963 -0.11386496 -0.09611371 0.02305907
-0.09780347 -0.10292253 0.20580518 0.10789138 0.14003965 -0.2182785 -0.09809291 0.07859987
-0.19845736 -0.18480071 -0.10174665 0.03178835 0.067699015 0.07058588 -0.04951051 -0.11509225
-0.15128562 0.011447549 0.06879303 0.06187293 -0.18426818 -0.13706774 0.1935296 -0.23512328
0.09755769 0.14716238 -0.13124529 -0.12548864 0.12248576 -0.1320234 0.17230657 0.11929795
-0.08331013 -0.2439943 -0.15779084 0.08465266 0.17189899 -0.13377246 0.1510947 -0.074664235
-0.054421425 -0.048826396 -0.106141984 0.10438052 0.14512506 0.14863312 0.22177646 -0.12079409
-0.0502142 -0.2273823 -0.010436088 0.21291813 0.18099481 0.104640365 -0.16050729 0.20409125
-0.07556769 0.13767949 -0.24354526 0.23992515 0.15058589 0.11701584 -0.21347138 0.22490728
0.20428354 -0.2013902 0.100669265 -0.14006215 0.07748106 -0.07303983 -0.18101016 0.07572967
0.17333949 0.23343638 -0.120800525 0.01961565 -0.17563775 0.031594098 0.18301749 -0.21220592
0.08722484 0.03399852 0.15451255 -0.19392562 0.08311832 -0.12097126 0.21938846 -0.15059665
-0.031027049 0.1981057 0.13165829 -0.21235287 0.23157632 0.050317615 -0.09723821 0.17764896
0.09452593 -0.16778898 -0.2003794 -0.048700064 0.10768166 -0.13999492 -0.13994071 0.14565536
-0.115088254 0.08036044 0.05596155 0.1852482 0.056327075 0.007755041 0.079728186 0.14195234
-0.040267497 0.043723375 -0.09833881 0.10954851 0.08960238 -0.118329644 -0.1394364 -0.019562662
-0.017738163 -0.17929769 -0.0701049 0.10478094 0.09523928 -0.14111766 0.22039238 0.121323854

net.6.bias f4 [16]
00000000: ce6e 693e 9c18 d5bd e00b 29bd 60b3 e0bd
00000010: 0010 b1b9 9890 7f3e 8043 793c cc8b c23d
00000020: 0028 ba3d fc99 dfbd 58bf cc3d ecad 5b3e
00000030: 782d 5fbe f2b2 74be 0086 723e f032 cb3d
0.22796175 -0.104050845 -0.04127109 -0.10971713 -0.00033771992 0.24957502 0.015213847 0.094993204
0.09089661 -0.10918042 0.099974334 0.21453065 -0.21794689 -0.23896387 0.2368393 0.09921825

net.8.weight f4 [16, 16]
00000000: e0e2 1a3e 9280 1abe 5a2c 203e 0670 77be
00000010: 3ea0 773e 140f d2bd 9837 393d d0dd 983c
00000020: 080f 113d 46f7 30be 3449 273e 20ff 723e
00000030: 0446 e13d fcf0 183e 406c d9bd 4ab0 47be
00000040: 380e afbd 1099 d83c 4027 9a3b 2c59 8fbd
00000050: d299 583e 0a9b 0c3e 807f 99bd 009e eb3c
00000060: 90df e73d bc89 1f3e d0e9 20be 7001 d8bc
00000070: d215 31be 80e6 e2bb e491 a7bd 809b 0c3e
00000080: 62fc 3ebe 80d9 133c 6cbc 9ebd cc69 453e
00000090: 3861 643e 98a0 273d 2437 8dbd d836 593e
000000a0: 0816 173e 5256 20be b231 07be 1878 e53d
000000b0: 703e 313e 3882 edbd cc6d f2bd 3c77 763e
000000c0: 74c6 f0bd bcb1 a33d 7805 e1bd 647d 4abe
000000d0: 94fd 9fbd 5a98 35be e88d 9cbd ea31 6ebe
000000e0: 7a90 3cbe c0ea 053d 8688 5fbe f093 71bd
000000f0: 483b 7b3d e41c 673e 9aa8 5cbe 08f4 cabd
00000100: 74a3 dc3d 5808 3b3d 6019 6c3e acb9 72be
00000110: 606e 3b3d 8025 9dbc 3006 bbbc c83d 023e
00000120: 100d a53c 7213 45be d818 43bd eeeb 5d3e
00000130: f8f0 273e 78ec 2fbe 9495 9dbd 28ca b5bd
00000140: fe64 673e 9c73 e93d 8071 4ebe ec86 f5bd
00000150: 34c1 6a3e a03e d03c dcf5 c3bd 563a 6c3e
00000160: 6437 26be 88c8 f93d 4000 803c 3009 e23c
00000170: fc98 133e 2667 20be 3434 a9bd c48a 54be
00000180: a05a ebbd 34f8 95bd bcf1 eb3d c899 43be
00000190: b820 6e3d 2054 1d3c 243f 5dbe a423 45be
000001a0: e0b2 e3bc 2009 4cbc 8813 0fbe 70a1 d23d
000001b0: 9655 2dbe e0d7 cabd 3047 3cbd b862 423d
000001c0: 6ae4 2fbe 30b2 643d f48b df3d 6031 6e3e
000001d0: 7a48 253e bcbe 8c3d 4084 533c 142e 623e
000001e0: a032 37be e80d e2bd 5851 2e3e 22c3 3b3e
000001f0: 0073 ddbb cc4c 0cbe 003f de3c ae57 56be
00000200: 9465 24be 3041 9bbd e8ac 7fbd f0c0 f83d
00000210: 3c2e 26be 5a93 17be 6c70 6dbe e888 a6bd
00000220: 583a b33d 00e8 8239 78dc e53d 4470 713e
00000230: 2ae7 5b3e 0ca7 7ebe beaf 123e c027 b5bd
00000240: d092 9b3c 408c c63c 18fe 4fbd 80c1 02be
00000250: 1073 a73d 1e89 06be ac35 7bbe e2bd 643e
00000260: a84b ac3d 30f2 c33c e679 1c3e 7c3d 7e3e
00000270: c07e 2cbd d00e 753d e042 ed3c ba97 3e3e
00000280: e087 5a3d fe21 3b3e 20f0 cabd e2ac 2c3e
00000290: 72b9 7bbe d0d0 cdbd 547f 44be 6c69 bebd
000002a0: f86e 623e e4d9 8abd 8083 aabc 8cb4 493e
000002b0: 50f0 c93c f0ea 2cbd d8c1 f8bd 4c98 afbd
000002c0: e009 5c3e 2c26 4bbe 4070 0b3d 38a4 b8bd
000002d0: 8412 febd 7070 e83d 1866 f2bd 1e99 063e
000002e0: 9c15 ecbd 90eb a53c f046 dcbc e88e 1f3e
000002f0: 6e31 1fbe a0e8 483e 98bd bebd 3053 50bd
00000300: 061c 02be 3cd0 8cbd e6b5 563e 7c97 263e
00000310: 30d1 3abe 347b b3bd 6874 673d 063b 223e
00000320: 9031 dabc 622d 593e 72e0 0f3e d422 4bbe
00000330: bc3b 193e 1003 57be 1ec6 23be 2000 9abd
00000340: 302e 37bd c0d3 5f3c c432 18be 9007 113e
00000350: 12b2 463e 1267 3abe aca2 b13d d8ef 37bd
00000360: 9cb9 8e3d 3088 edbd b678 2a3e 3edb 303e
00000370: a6cd 753e ba35 0cbe 5ce3 743e a849 0ebd
00000380: b01a 003e 0cb9 7b3e 8813 743e eeac 46be
00000390: 4c9d 3ebe b6ec 12be e438 30be 7a41 24be
000003a0: f089 cdbc c08c f1bb c8c3 fabd 90cb 12be
000003b0: 1cb6 0ebe fe45 723e 643e d7bd b887 4c3d
000003c0: ec76 4e3e ccff 49be a430 9b3d 0634 2cbe
000003d0: 0043 a6ba a89c 3ebd 84d2 ba3d 349e 733e
000003e0: c014 a93b c4e4 e2bd 70bf 2abd 407e a7bb
000003f0: b292 423e 1c54 37be 84d5 cabd 3065 673e
0.15125608 -0.15088108 0.15641919 -0.24163827 0.24182221 -0.10256782 0.045219034 0.018660456
0.035414726 -0.17281827 0.16336519 0.23730135 0.109996825 0.14935678 -0.1061635 -0.19500843
-0.08547634 0.026440173 0.004704386 -0.0699943 0.21152428 0.13731018 -0.07495022 0.028761864
0.11321938 0.15579885 -0.15714192 -0.026367873 -0.1729348 -0.0069244504 -0.08182123 0.13731194
-0.18650964 0.009024024 -0.07750782 0.1927864 0.22302711 0.04092464 -0.06895283 0.21212327
0.14754498 -0.15657929 -0.13202551 0.11204547 0.17308974 -0.11597103 -0.11837348 0.24068922
-0.11756602 0.079928845 -0.10987371 -0.19774395 -0.07812038 -0.17733899 -0.07644254 -0.23261228
-0.18414488 0.03269458 -0.21829423 -0.058978975 0.061335832 0.22569615 -0.21548691 -0.099098265
0.10773364 0.045662254 0.23056555 -0.2370364 0.04575956 -0.01918292 -0.022830099 0.1271888
0.02014783 -0.19245699 -0.047631115 0.21672031 0.16400516 -0.1718005 -0.076945454 -0.08876449
0.22597119 0.11399004 -0.20160484 -0.11988625 0.22925264 0.025420487 -0.09568378 0.23069128
-0.16232067 0.121964514 0.01562512 0.027592272 0.14413828 -0.15664348 -0.0826191 -0.2075606
-0.11491895 -0.073227316 0.115207165 -0.19101632 0.05813667 0.0096025765 -0.21606117 -0.19251877
-0.027795255 -0.012453347 -0.13972294 0.10284698 -0.1692718 -0.09904456 -0.045966327 0.047457427
-0.17176977 0.055833995 0.10915366 0.23261023 0.16140929 0.06872317 0.012909949 0.2208789
-0.17890406 -0.11037809 0.17023218 0.18336156 -0.006758094 -0.1370117 0.02712965 -0.20931885
-0.16054374 -0.07580793 -0.062420756 0.12146175 -0.16228575 -0.14802304 -0.23187417 -0.081315815
0.087513626 0.00024968386 0.11223692 0.23577982 0.21474901 -0.24868411 0.14324853 -0.08845472
0.018990904 0.024236798 -0.050779432 -0.12769127 0.08176243 -0.13138244 -0.24532193 0.2233806
0.08412868 0.023919195 0.15280876 0.24828142 -0.042113066 0.05982858 0.028962553 0.18612567
0.053352237 0.18274686 -0.099090815 0.16862825 -0.2458246 -0.100495934 -0.19189197 -0.092974514
0.22112644 -0.067798406 -0.020814657 0.1969778 0.024650723 -0.04221624 -0.12146348 -0.0857397
0.21488142 -0.1983878 0.034042597 -0.09015697 -0.12405875 0.11349571 -0.11835879 0.13144347
-0.11527559 0.020253927 -0.026889294 0.15581858 -0.155462 0.1961999 -0.09313506 -0.050860584
-0.12706003 -0.06875655 0.20967826 0.16268724 -0.18243861 -0.087637335 0.056507498 0.15842828
-0.026634961 0.21208718 0.14050463 -0.19837505 0.14964193 -0.20997262 -0.15993544 -0.07519555
-0.044721782 0.013661325 -0.14863116 0.14163041 0.19403866 -0.1820338 0.08673605 -0.044906467
0.06968996 -0.11598241 0.1664761 0.17271134 0.2400423 -0.1369237 0.23914856 -0.034738213
0.1251018 0.24582309 0.23835576 -0.19401905 -0.18614691 -0.1434811 -0.17209202 -0.16040602
-0.025090188 -0.007371515 -0.122443736 -0.14335465 -0.13936657 0.23659512 -0.10509947 0.04993412
0.20162553 -0.19726485 0.07577637 -0.1681672 -0.0012684762 -0.046536118 0.09122184 0.23790818
0.0051599443 -0.1107879 -0.041686475 -0.0051114857 0.19001272 -0.17903179 -0.09904006 0.22597194

net.8.bias f4 [16]
00000000: 5045 09bd 4cc4 6f3e c060 d43d 00ce fa3d
00000010: bcf2 b0bd 5609 7cbe 8e14 48be 9629 213e
00000020: 3cd1 493e 48e8 133e e237 4cbe 3a74 523e
00000030: 08b0 173e 7877 803d 800d b5bb 1e9a 723e
-0.033513367 0.23414725 0.10370016 0.12246323 -0.08640048 -0.24612936 -0.19539091 0.1573852
0.19708723 0.14444077 -0.19943193 0.2055215 0.14813244 0.06272787 -0.005525291 0.23691604

net.10.weight f4 [16, 16]
00000000: 381d c93d 620c 36be 824d 323e 48a5 c43d
00000010: 08cf 433e 16e5 4ebe 2848 e73d eebe 663e
00000020: 466e 0cbe 80ff ce3b 14cb 3c3e a40c 8b3d
00000030: 18d6 643e e6e6 09be 4eeb 673e 280b aebd
00000040: 5687 113e 2099 cc3d 0c22 443e 6c27 9ebd
00000050: f844 41bd 5ae1 4dbe e41f 623e 8278 3e3e
00000060: b8a4 2ebe 72bc 7a3e 500d 543e f0b8 f8bc
00000070: 28a8 293d dc02 0dbe 08ec 563d b6f1 3ebe
00000080: 6e43 0ebe 9404 46be 7cf5 07be 5296 70be
00000090: 3e29 79be c85f 9ebd 880f bf3d 186f 39be
000000a0: 1c79 71be c078 2cbd 64c4 61be 0ca9 5f3e
000000b0: 2276 77be 3cfb afbd 50dc d43d 60ef 493c
000000c0: 4c02 84bd 4c65 72be 30bc 4fbe d80f 103d
000000d0: 30bf 843c d861 41bd f80e 033d fe18 17be
000000e0: a871 54be 543a bdbd 8a87 6b3e 300f 1ebe
000000f0: 22aa 4abe 96d6 0a3e 0021 d3bd 9a8b 3d3e
00000100: d071 c63c 5a32 043e a2e7 383e 6253 2f3e
00000110: 10d2 2a3d 2cd7 ffbd 8eb1 65be 544c 563e
00000120: 4ce7 febd 5e19 21be 5080 08be 606c 8dbd
00000130: 3092 9a3c 9083 783e 00e0 19ba de9d 2cbe
00000140: 945b b03d b039 da3d 1cee 7c3e 000b b43b
00000150: e4d5 e73d b8ca 97bd 5411 3c3e 6ed5 5c3e
00000160: c00a 55bd b082 82bc cc40 313e 8610 1dbe
00000170: 18b4 21be 1c19 703e c018 a1bb fcfb 39be
00000180: 6a28 233e 2405 1f3e d8ba d6bd 3cb3 45be
00000190: a48d 5e3e 98bd 413e 8869 06be 84cb aa3d
000001a0: f415 37be d484 55be a0ae 4f3e bc0d 493e
000001b0: 4878 08bd 7409 593e 6c65 05be 9e4d 6a3e
000001c0: ec6c ce3d 5055 cebd 408a e6bb 28f2 133d
000001d0: 8619 3bbe 945c c5bd b8cb bd3d d626 743e
000001e0: 6061 a83d 84be 913d ee79 74be aa18 63be
000001f0: 10de 7abe e825 9c3d 2c8a c23d f6a7 203e
00000200: b8af 223d a06c bcbd fc85 10be 566f 56be
00000210: 9041 b73d a238 45be 807a 7abc c8e8 05bd
00000220: d84b 663e e823 94bd 501a c2bc f20b 20be
00000230: 3889 d4bd e441 ddbd aca7 693e 92e4 443e
00000240: 4c23 f0bd 08b3 52bd 4020 2bbd 60d1 2f3c
00000250: 80f3 36be 3401 e8bd b0f7 f3bd 206f 6ebe
00000260: 2205 313e 58ff 31bd 8875 5f3d 562f 623e
00000270: 020d 223e b83e a03d 3e30 7ebe 64f2 733e
00000280: 0018 d93c da37 323e 56cd 363e 849a 46be
00000290: e299 70be 20a7 b83d 98c5 dfbd d045 40bd
000002a0: a42b 02be 7a5c 263e 0cbc dd3d f8de f6bd
000002b0: 502b cb3d c0e5 ccbc c03b 363e 70da d93c
000002c0: 102a 31be b8fc 63bd 50c9 cebc d85a 81bd
000002d0: ec63 3ebe d40a 32be 8010 e6bb 4803 0dbd
000002e0: c478 433e 1818 7e3d 76dd 633e 1acf 383e
000002f0: ac85 93bd ccdd 7abe 244e fbbd cab5 07be
00000300: 04e4 95bd b24f 653e 8c10 ad3d 0425 e0bd
00000310: e0af e13d 66f4 67be c070 f93b b6ed 563e
00000320: beba 0cbe 4460 3abe 2a01 23be 666c 3dbe
00000330: a498 46be 706d dcbd e81d 983d 522d 56be
00000340: f82e 4e3e d0a1 dbbd d85f 0abd 90c1 6fbd
00000350: 60ad fdbc 9669 6d3e fc1b 103e 7ec7 72be
00000360: 0229 3fbe 4624 5a3e 90ab 883d 208c 573e
00000370: 3afa 69be 7e07 6f3e 7856 bfbd 6602 5b3e
00000380: c61a 7f3e f084 5c3e bc65 0dbe 6802 363e
00000390: bc96 6dbe 38ec 063d f062 7cbe 94c4 c23d
000003a0: 8886 d9bd 98d7 343d 907d 143d 5082 aa3d
000003b0: ee94 41be 5043 64bd 205b 71bc 101a d8bc
000003c0: 8c5b 5c3e d409 473e c428 a9bd 00fa 55bd
000003d0: 04f1 763e 2ada 7a3e 4e24 49be 6036 4dbd
000003e0: 60a9 44bd b44c 673e f886 67be 70bd 8d3d
000003f0: a411 373e 1c50 663e 14ab ae3d 80c9 fbbb
0.09820026 -0.17778161 0.1741238 0.096018374 0.19121945 -0.20204577 0.112930596 0.22533771
-0.13713941 0.006317079 0.18436843 0.067895204 0.22347295 -0.13466987 0.22648355 -0.08498222
0.14211783 0.09990144 0.19153613 -0.07722363 -0.047184914 -0.20105496 0.22082478 0.18600658
-0.17055023 0.24485949 0.20708203 -0.030361623 0.041420132 -0.13770622 0.05247119 -0.18646893
-0.1389291 -0.19337684 -0.13277239 -0.23494843 -0.24332139 -0.077331126 0.09329134 -0.18108785
-0.23581356 -0.042107344 -0.22047573 0.2184183 -0.24166158 -0.08592841 0.10393584 0.012325138
-0.064457506 -0.23671454 -0.20286632 0.03517136 0.016204447 -0.04721245 0.031996697 -0.14755628
-0.20746481 -0.09239641 0.23000923 -0.15435481 -0.19791463 0.1355842 -0.103090286 0.18510285
0.024224192 0.12909833 0.18057111 0.17121652 0.041704237 -0.12492213 -0.22431013 0.20927554
-0.1244646 -0.15732333 -0.13330197 -0.069054365 0.018868536 0.24268937 -0.00058698654 -0.16857097
0.08611217 0.10655534 0.24700207 0.0054944754 0.11320093 -0.074117124 0.18365985 0.21565792
-0.052012205 -0.015931457 0.17309874 -0.15338334 -0.15791357 0.23447078 -0.0049162805 -0.1816253
0.15933385 0.15529305 -0.10484856 -0.19306654 0.21733719 0.1891998 -0.13126194 0.08339599
-0.17879468 -0.20851451 0.20281458 0.19634145 -0.033317834 0.21195012 -0.1302697 0.22881171
0.10079369 -0.10074866 -0.0070355237 0.03611961 -0.18271455 -0.096367985 0.09267372 0.2384294
0.08221698 0.07116416 -0.23874637 -0.22177377 -0.24498773 0.076244175 0.094990104 0.15689072
0.03971836 -0.09200406 -0.14113611 -0.20940909 0.08948052 -0.19259885 -0.015287995 -0.0326927
0.2248987 -0.07233411 -0.023694187 -0.15629557 -0.10377735 -0.10803583 0.22817868 0.19227818
-0.11725482 -0.05144027 -0.041778803 0.010731071 -0.17866325 -0.113283545 -0.11912477 -0.23284578
0.17287114 -0.043456405 0.054555446 0.2208837 0.15825275 0.07824463 -0.2482309 0.23822933
0.026500702 0.17404118 0.17851767 -0.1939488 -0.23496202 0.090162516 -0.1092636 -0.04694158
-0.1271196 0.16246215 0.10826883 -0.12054247 0.099203706 -0.025011897 0.1779623 0.026593417
-0.17301202 -0.055660933 -0.025242478 -0.06316155 -0.18592805 -0.17386943 -0.00702101 -0.034426957
0.19089037 0.062034696 0.2225245 0.18047753 -0.0720323 -0.24498671 -0.122707635 -0.13252941
-0.07318881 0.22393683 0.08450422 -0.1094456 0.110198736 -0.22651824 0.007612318 0.20989117
-0.13743111 -0.18200785 -0.15918413 -0.18498382 -0.19394165 -0.10763061 0.07427579 -0.20915726
0.20135105 -0.10724223 -0.03378281 -0.058534205 -0.03096646 0.23184809 0.14073175 -0.23708913
-0.18667987 0.213029 0.06673348 0.21049547 -0.2284936 0.23342702 -0.093426645 0.21387634
0.24912557 0.21535087 -0.1380834 0.17774355 -0.23202032 0.03294012 -0.24647117 0.095101506
-0.10621363 0.04415092 0.03625256 0.083256364 -0.18904468 -0.055728257 -0.014731199 -0.026379615
0.21519297 0.19437343 -0.082597286 -0.05224037 0.24115378 0.24497285 -0.19642755 -0.050100684
-0.04801309 0.22587854 -0.2261008 0.06920898 0.17877823 0.22491497 0.08528724 -0.007683933

net.10.bias f4 [16]
00000000: 4887 a8bd 0064 e03d f0fc f8bd c097 ddbc
00000010: 989f 683e 983e 12bd 9ac6 2d3e 6438 acbd
00000020: 7c22 903d 10ac 903d 68c6 c23d ec33 53be
00000030: ac35 1d3e c035 f03c a2be 2bbe c821 1f3e
-0.08228928 0.109565735 -0.12157619 -0.0270499 0.2271713 -0.035704225 0.16970292 -0.08409193
0.070378274 0.07064068 0.09510499 -0.20625275 0.15352505 0.029322505 -0.1677194 0.1554023

net.12.weight f4 [16, 16]
00000000: f852 b2bd 5089 463e 4861 6bbe f429 59be
00000010: f87a df3d 6cec 87bd ac46 12be 5e99 73be
00000020: 98df 063d ba94 483e 60e7 f53c eaf6 7b3e
00000030: 3612 103e 5c5c 9fbd d0fe 453e b0a5 ef3d
00000040: b271 06be fef6 7c3e a00a 0a3c 6818 f03d
00000050: b876 323d 4899 7dbd 70d1 f03c 1006 58be
00000060: 4add 57be 20d7 a43c 2210 223e 505c 15be
00000070: ce9e 563e 88b9 05be e85a 4bbe bc8d 543e
00000080: 86fb 41be 406e c3bd 54c8 57be c252 303e
00000090: 40f7 12be 6e36 41be e4ac f3bd 1c20 aebd
000000a0: cc67 763e a08c 213d 7010 f73d 8eda 72be
000000b0: 2015 c13d 4eda 59be 5440 313e dcbe 40be
000000c0: e037 4fbe c0f9 733c 2086 123e 685d a8bd
000000d0: bede 063e dea3 2e3e 7060 82bd f443 24be
000000e0: ca88 063e e6da 41be d46f 113e 3af2 743e
000000f0: 80da 953c 801a 5b3b a0e4 aabd 7876 44bd
00000100: 3040 1cbe 14de eabd 64a7 653e b405 a6bd
00000110: 3a61 143e 8834 2abe 8ccb d53d 30e0 f33c
00000120: 2018 c93c b070 6b3d 804e 8d3b 40ed be3d
00000130: b089 97bd 600d 47be ecd9 7d3e 9cc1 68be
00000140: 3834 a9bd 6ce7 223e 9cfe 7a3e b8f5 773e
00000150: 0e1d 353e 2ce1 42be 90e3 bd3d 00c5 82bc
00000160: 8010 c13c b636 753e 1c23 dcbd 10a8 5cbd
00000170: e405 f63d 92d7 71be 90a8 b73c 7cdc c63d
00000180: 50d3 2dbd ca2c 45be fe4f 73be 5c80 183e
00000190: 6876 f93d f8bf 5a3d 6eb3 6bbe 001a 2d3d
000001a0: 584a 36be 944f 8b3d aed6 72be faaa 68be
000001b0: c01e e3bb 1e1d 093e 7886 68be d0cc 44be
000001c0: c0c7 26bd 1c1d 353e 6cfe 2b3e 98f1 323e
000001d0: b0fe c6bc 6080 55bd 4e29 24be d8bf 3abe
000001e0: b8f7 ac3d c419 c6bd a2e1 12be a8a4 c73d
000001f0: 9840 56be 344d 48be 60b4 743c 00e2 dcba
00000200: b809 0e3d c090 cd3c e402 41be c2f2 70be
00000210: 884f 153d ce23 423e 9697 173e f603 603e
00000220: bac4 2c3e 54da 9fbd 9479 d43d c0e0 6e3e
00000230: 4020 223c 9ebe 17be c07c afbd 5408 12be
00000240: 94c1 893d f21d 4dbe fc43 7e3e d2c1 62be
00000250: 905e 763e 2c78 b23d 3846 a03d 08b2 653d
00000260: c040 683c 585a b43d a8a8 6ebe 0cbc 9fbd
00000270: d8b4 6f3e f4f6 32be dc09 1b3e 8c66 bd3d
00000280: cad4 7bbe 80b6 d8bb ccf3 6ebe 82a1 763e
00000290: 9ef9 20be 5cfd 3ebe d08e 1fbd c852 29bd
000002a0: 0ca8 2abe 006d 9dbd b803 6cbd 00c8 acb9
000002b0: 281a 703d dc50 98bd 7c84 51be 7246 68be
000002c0: 9062 083e 9e86 45be 985c a53d 72eb 2abe
000002d0: 70db 6cbe de84 783e 86c8 603e 6e37 4a3e
000002e0: 807e 613d c220 4c3e c09d cebc 60f7 713c
000002f0: d488 0c3e d884 193d e0a0 353e 30fa 4dbe
00000300: 6cce c23d 540c 0fbe a0c9 2c3c 6803 aa3d
00000310: 4a41 693e 1842 723e 20dd c3bd eae0 653e
00000320: 14c4 d13d 149d 063e 00b4 09bc dcbc 2dbe
00000330: f468 7b3e 4857 773d eca5 3bbe 0050 aeb9
00000340: 7041 20be 7420 e1bd 0c38 e2bd 94f7 b1bd
00000350: 28da 8abd a862 04bd 00f8 8f3a 2890 2abe
00000360: f81e 33bd b675 1cbe 98f6 503d b076 e33c
00000370: 0020 42bd b2b6 013e 0062 793b f831 3d3e
00000380: 38fa b63d cce9 d63d 0cb3 28be 3c38 323e
00000390: 72bf 3bbe c048 d8bb 1015 27bd 64b7 bebd
000003a0: 58a7 00be d0e6 b9bc e0ac e6bd 90fc d9bd
000003b0: 0699 08be e44f babd d06d dcbc 7c90 183e
000003c0: 40c8 bb3d 30a0 5cbe 3812 d1bd 20a6 c8bc
000003d0: 30a7 0ebe 969b 36be a4bb de3d 5674 493e
000003e0: bc61 9dbd 84b1 7abe 40a0 153c 3ac9 46be
000003f0: 1800 a53d 364a 5bbe 30c4 ca3c 4e2d 7c3e
-0.08707231 0.19388318 -0.22986329 -0.2120741 0.10912126 -0.06636891 -0.14284772 -0.23788974
0.03292808 0.19587985 0.030017555 0.24605909 0.14069447 -0.07781288 0.19335485 0.11701524
-0.13129309 0.24703595 0.008425385 0.11723405 0.04357025 -0.06191376 0.029396743 -0.21096063
-0.21080509 0.02012211 0.15826467 -0.14585996 0.20959017 -0.13059056 -0.19858897 0.20757192
-0.18943605 -0.09542513 -0.21072513 0.1721907 -0.14352131 -0.1886842 -0.11898211 -0.08502218
0.24063033 0.03944075 0.12063682 -0.23716184 0.094278574 -0.21274683 0.17309695 -0.18822807
-0.20236158 0.014891088 0.14308977 -0.08220941 0.13170907 0.17054698 -0.0636605 -0.16041547
0.13138118 -0.1893116 0.14202815 0.23920527 0.018292665 0.0033432543 -0.08344388 -0.047964543
-0.1525886 -0.11468139 0.22427136 -0.081065565 0.14490214 -0.16621602 0.10439214 0.029769987
0.024547637 0.057480514 0.0043123364 0.093225956 -0.07399309 -0.19438696 0.24790162 -0.22730106
-0.08261913 0.15908593 0.24511188 0.24214828 0.17686865 -0.19031209 0.0927192 -0.015963078
0.023567438 0.23946652 -0.10748884 -0.053871214 0.12012842 -0.2361739 0.022419244 0.09710023
-0.04243785 -0.19255367 -0.23760983 0.14892715 0.12180787 0.053405732 -0.23017666 0.042261124
-0.17801797 0.06802288 -0.23714706 -0.22721472 -0.006931156 0.13390014 -0.22707546 -0.19218755
-0.04071784 0.17686886 0.16796273 0.17474973 -0.024291366 -0.05212438 -0.16031381 -0.18237245
0.08445686 -0.09672883 -0.14343885 0.097482026 -0.20923078 -0.195607 0.014935583 -0.0016852021
0.034677237 0.025093436 -0.18848759 -0.23530105 0.0364528 0.18958971 0.14803919 0.21876511
0.1687192 -0.07805315 0.10374752 0.23327923 0.009895384 -0.14818808 -0.08568716 -0.1426099
0.06726375 -0.20030954 0.24830621 -0.22144249 0.2405951 0.08714327 0.07825893 0.056077987
0.014175594 0.08806294 -0.23306525 -0.07799539 0.2340883 -0.17477018 0.1514048 0.09248075
-0.24592891 -0.0066135526 -0.23335189 0.24085048 -0.15720221 -0.18651336 -0.038954556 -0.041338712
-0.16665667 -0.07686806 -0.057620734 -0.00032955408 0.058618695 -0.07437298 -0.20460695 -0.22683123
0.13318849 -0.19289634 0.080743015 -0.16691378 -0.23130584 0.24269435 0.21951494 0.19747707
0.05505228 0.19934371 -0.025221705 0.014768451 0.13724071 0.037480205 0.1773715 -0.2011497
0.09512028 -0.13969547 0.010546118 0.08301431 0.22778812 0.23658025 -0.095636606 0.22449079
0.10242477 0.13145858 -0.008404732 -0.16966575 0.24551755 0.060385972 -0.18325013 -0.0003324747
-0.15649962 -0.10992518 -0.11045846 -0.086898 -0.06779891 -0.03232065 0.0010983944 -0.16656554
-0.043730706 -0.15279278 0.05101642 0.027766556 -0.0473938 0.12667349 0.0038052797 0.18476093
0.08934444 0.10493812 -0.16474551 0.17404264 -0.1833475 -0.0066004694 -0.04079157 -0.09312323
-0.12563837 -0.022693068 -0.11263442 -0.106438756 -0.13339624 -0.09097269 -0.026907831 0.14898866
0.09169054 -0.21545482 -0.10208553 -0.024493277 -0.13930964 -0.17832789 0.10875633 0.19673285
-0.07684657 -0.2448178 0.009132445 -0.194127 0.080566585 -0.21415028 0.024751753 0.24626657

net.12.bias f4 [16]
00000000: 6237 62be 90c2 1fbd 509b bd3c 007f 5cbb
00000010: 5a94 733e 2608 2b3e 24ec 93bd 8023 9b3d
00000020: 18d4 ce3d 645a 9bbd aadc 1e3e 80bc 503e
00000030: 4069 afbd 1647 793e 5072 afbd 70f5 b4bc
-0.2209144 -0.03900391 0.023145348 -0.0033645034 0.2378706 0.16702327 -0.072227746 0.075751305
0.100990474 -0.075856 0.15513864 0.20384407 -0.08564997 0.24343523 -0.08566725 -0.02208969
