AE_multidim/model/ae_7.pth (torch, 11102 bytes, 18 tensors)

net.0.weight f4 [16, 20]
000000 7e 16 64 3e 52 a3 df bd d8 91 c2 3d 62 32 47 be
       0.22274205 -0.10919823 0.09500474 -0.19452813
000010 f8 0c 3a be 60 8e 27 be 58 b0 26 3d 60 6d 31 bc
       -0.1816901 -0.16362906 0.04069552 -0.0108293
000020 b8 1c b5 bd 82 e6 43 3e 96 15 05 be f4 30 aa 3d
       -0.08843368 0.191309 -0.12996516 0.08310118
000030 28 f4 3f 3d 2a b2 28 be 30 45 5a 3e 29 12 ed bd
       0.046863705 -0.16474214 0.21315455 -0.115757294
000040 1c 05 b5 bd 68 58 a3 3d 80 3f 37 3e e6 9f 4b 3e
       -0.08838865 0.079758465 0.17895317 0.19885215
000050 04 32 42 3e 8e da 4b 3e c2 23 a6 bd b7 d0 33 be
       0.18964392 0.19907591 -0.08112289 -0.17560087
000060 f8 1d 91 3c 48 13 e4 3d 6a ff 23 3e 76 75 28 3e
       0.017714486 0.1113649 0.16015401 0.16451058
000070 40 9c 09 bb 58 4b 42 bd b6 cc 3b 3e 1e 64 43 3e
       -0.0020997673 -0.047435135 0.1833981 0.1908116
000080 2c fa 3d 3e dc 13 4a 3e 5e 81 36 3e f7 06 a7 3d
       0.18552464 0.19734138 0.17822787 0.08155625
000090 13 66 3a be 4f cc 1b 3c c4 47 4f 3e 38 19 98 bc
       -0.18203 0.00950916 0.2024222 -0.018566713
0000a0 a4 6e 93 3d 00 7d b0 3d 86 df bf bd d8 cd 6f 3d
       0.071988374 0.08617592 -0.093688056 0.058545917
0000b0 7e 04 bc bd 2c 44 4e be 84 c3 a9 3d 76 36 52 3e
       -0.09180544 -0.20143193 0.08289245 0.20528588
0000c0 40 52 86 3c d6 d7 17 be 9c c8 1b bd 25 ce 61 be
       0.016396642 -0.14828429 -0.038033113 -0.22051294
0000d0 b4 67 57 3e 8c 56 4e bd 40 b7 7a bb 60 7f 58 bd
       0.21035653 -0.050375506 -0.0038256198 -0.05285585
0000e0 ac 85 0f be 96 90 2c 3e ea d7 43 be 18 ae 44 bd
       -0.14015836 0.1685203 -0.19125333 -0.04801759
0000f0 8a bb 3d 3e 6c 45 3b be 78 bd b3 3d c8 d1 55 3d
       0.18528572 -0.18288201 0.08776373 0.052202016
000100 8a 17 5d 3e 70 00 61 3e d8 86 e9 3d 20 50 de bc
       0.2159101 0.21972823 0.114026725 -0.027137816
000110 a0 8c 4d 3e 6e 3c cf bd 10 f5 40 3c 68 ca f4 bc
       0.20073175 -0.10118948 0.011777177 -0.029881671
000120 e7 98 f2 bd e8 eb 20 3e b0 ab 1c be bb 6f 37 3e
       -0.1184557 0.15714991 -0.15299869 0.17913716
000130 a0 0f a2 bd b7 86 20 be 58 67 01 3d 28 12 57 be
       -0.079131365 -0.1567639 0.031592697 -0.2100302
000140 1f e1 4d be 56 26 61 be 40 09 37 be dc be 5b bd
       -0.20105408 -0.2198728 -0.17874622 -0.053648815
000150 70 49 96 bc 00 70 7d b8 30 10 65 3d ae 08 57 3e
       -0.018345565 -6.042421e-05 0.05592364 0.20999405
000160 ee 77 93 bd 54 c1 d6 3d a8 1f 96 3d b0 04 51 bd
       -0.07200609 0.10486093 0.07330257 -0.05102986
000170 10 3e dc 3c 08 38 4c be 05 27 dd bd ed 7a 49 be
       0.026885062 -0.19943249 -0.10798458 -0.19675799
000180 46 2b 59 be 10 5a d9 3d f2 50 62 3e 80 ce 25 bd
       -0.21207914 0.10612881 0.2210119 -0.040480137
000190 b0 59 82 bc b4 84 f9 3d 79 a7 55 be 11 c1 60 be
       -0.015911907 0.12183514 -0.20864667 -0.21948649
0001a0 ee d4 29 be 83 71 e6 bd 36 5c 5a be 30 21 89 3d
       -0.16585132 -0.112521194 -0.21324238 0.06695783
0001b0 eb b4 11 be d0 9d be bc 34 45 07 bd 9e 3f 39 be
       -0.14229171 -0.02326861 -0.03302498 -0.18090674
0001c0 55 e2 d6 bd b8 30 07 3e 38 5b 6d bd 5a a3 14 3e
       -0.10492388 0.13202178 -0.05794832 0.14515439
0001d0 44 30 4a 3e 2f bf 41 3e 90 86 dd 3c 30 b2 cf 3c
       0.19744974 0.18920587 0.027041703 0.025353521
0001e0 40 d2 41 bc e8 2c 8d bd f8 7c 44 be a8 fe fa 3d
       -0.011829913 -0.06893331 -0.19188297 0.12255603
0001f0 94 92 13 be fe 4f 95 bd 2c 89 0f bd 98 10 9f bc
       -0.14411384 -0.07290648 -0.035042927 -0.019417092
000200 94 d2 14 bd 2c ec 57 3e a2 68 82 bd f0 0c 63 3e
       -0.036333635 0.21086186 -0.063676134 0.22172904
000210 f9 9d 52 be 28 d2 ac 3d 60 a6 0e 3e 64 e3 aa bc
       -0.20568074 0.084385216 0.13930655 -0.020860381
000220 30 ed 82 3d 38 ed df 3d b2 ec 61 be 90 3e b5 bd
       0.06392896 0.10933918 -0.22062948 -0.088498235
000230 a4 0d 2d 3e 80 19 43 3d ba 78 33 3e fe 12 81 bd
       0.16899735 0.04763174 0.17526522 -0.063024506
000240 2c 5e 02 be 90 ea 5e be 34 5e c5 bd b8 19 5f 3e
       -0.12731236 -0.21769166 -0.096371084 0.21787155
000250 04 f7 00 bd 87 9f 50 be 28 5d 1a be 76 40 55 be
       -0.031485572 -0.20373355 -0.15074599 -0.20825371
000260 2a 1d 17 be 82 f8 14 be fc 3b 56 bd 87 c6 fe 3d
       -0.14757219 -0.14547923 -0.0523033 0.1244021
000270 ee d0 2b be d4 7b 5b be 50 25 f6 3c 71 35 11 be
       -0.16778919 -0.21433955 0.030047089 -0.14180543
000280 5c fe 61 be b0 b4 0c 3d ac 5e c0 bd 00 fc 01 ba
       -0.22069687 0.034352005 -0.09393057 -0.00049585104
000290 bc 0a a5 3d 70 30 09 bd 3a 90 0d 3e fa ab 13 3e
       0.08058688 -0.03349346 0.1382455 0.14421073
0002a0 80 2a db ba f6 81 60 be ca bc a7 bd 90 59 a2 3c
       -0.001672104 -0.21924576 -0.081903055 0.019818097
0002b0 e1 60 d6 bd 46 31 3f 3e a2 4c 3e be 7e 8e 2d bc
       -0.10467697 0.1867114 -0.1858392 -0.010593055
0002c0 f0 4a 0a bd c4 73 5b be d9 3c 56 be a0 2b 35 be
       -0.033762872 -0.2143088 -0.20921649 -0.17692423
0002d0 34 7c 42 be b8 b9 b1 bc d3 af ed bd d0 a6 d8 3c
       -0.18992692 -0.021695003 -0.116058014 0.02644673
0002e0 ee 63 46 be 6d 0e 54 be 10 fd 61 3e ac 46 d6 3d
       -0.19374058 -0.20708628 0.22069192 0.10462698
0002f0 60 bb f2 bc a4 58 85 bd fc 6c cd 3d 2a ea f0 bd
       -0.029630363 -0.065110475 0.10030553 -0.11763413
000300 d8 cc 99 3c 1a d3 14 3e a2 33 15 be e6 3e 0c be
       0.018774435 0.14533654 -0.14570478 -0.13695869
000310 e0 b1 e5 3d ce dd c8 bd 2a ff 9a bd da 72 4f 3e
       0.112155676 -0.09807931 -0.075682 0.20258656
000320 bc 44 94 3d 0a 0c 87 bd b0 97 7c 3d 90 38 53 bd
       0.072396725 -0.06594093 0.061668098 -0.051567614
000330 08 b5 a8 bc f8 03 9a bc 4a 4f 0b 3e fb 10 0e be
       -0.020594135 -0.01880072 0.13604465 -0.13873665
000340 c0 c0 16 3b b8 5b 81 3d de 4a 1d be 8c 17 ca 3d
       0.0023003072 0.06316322 -0.15360591 0.098677725
000350 f9 bd 46 be 46 a3 57 3e dd c5 59 be 24 da 57 3e
       -0.19408406 0.21058378 -0.21266885 0.21079308
000360 6c 09 8e 3d 58 9c 82 be fc 85 f5 bd e4 4a d3 bd
       0.06935391 -0.25509906 -0.11988446 -0.10317019
000370 e8 d5 32 3e 88 b9 56 be b0 b9 b5 3d bc c3 43 3e
       0.17464411 -0.20969212 0.08873308 0.19117635
000380 cb 8f e5 bd 34 d5 13 be 6c 7d 5d be 08 7a 2c 3d
       -0.11209067 -0.144368 -0.21629876 0.042108566
000390 64 07 eb bd 96 4f 29 3e 65 32 14 be 6c 4d 2e 3e
       -0.11476019 0.16534266 -0.14472349 0.17021722
0003a0 56 77 46 3e a0 b6 1e 3d 40 f6 41 3d 60 71 40 bd
       0.1938146 0.038748384 0.047353983 -0.046983123
0003b0 06 16 e5 bd b3 63 ee 3d 1c c1 42 be 48 ff 77 bd
       -0.11185841 0.1164011 -0.19018978 -0.06054619
0003c0 fc 87 fc 3d 18 d2 6d 3d 1c f4 01 3e 8e 4a c4 bd
       0.123306245 0.05806169 0.12690777 -0.09584533
0003d0 4e a3 9a bd 37 30 fc bd 6c e3 88 bd 28 91 5e 3d
       -0.07550679 -0.12313884 -0.06684002 0.05433765
0003e0 40 9a 7e bc c0 d2 6c 3d fc bd 32 3e 90 c1 67 3d
       -0.015539706 0.057818174 0.17455286 0.05658108
0003f0 91 49 38 be 84 61 18 bd e4 6a d4 3d 0c 65 fe bd
       -0.17996813 -0.037202373 0.1037195 -0.12421617

net.0.bias f4 [16]
000000 8a 81 14 bc 9a 2b 0b 3e 5c 18 09 be 44 bc 9c 3d
       -0.009064088 0.13590851 -0.13388199 0.07653096
000010 44 5d 51 bd ed 60 a9 bd d3 0c c7 3d 5f 89 63 be
       -0.051114336 -0.0827044 0.09719243 -0.22220372
000020 69 24 e4 3d c2 d2 9c bd 16 f1 3e 3e 99 0e 61 3e
       0.11139757 -0.07657386 0.18646654 0.21978225
000030 5c 63 55 bd e1 ad 29 3e 21 2e 61 3d 03 39 91 3d
       -0.05209671 0.16570236 0.054975633 0.07090952

net.2.weight f4 [8, 16]
000000 9c fc b4 3d 80 c9 c0 3d b0 1c ef bd a2 ed 41 be
       0.08837244 0.09413433 -0.116753936 -0.18938306
000010 ea 6b 20 3e 08 10 02 3d 00 3d c0 bd ec 78 6c be
       0.15666166 0.03175357 -0.09386635 -0.23093003
000020 1c a0 aa 3d da 26 51 3e c0 a1 3f bd c0 6d 8d 3c
       0.0833132 0.20424977 -0.046785116 0.017264247
000030 86 c0 18 be d8 d0 55 3e f0 39 7d 3d 92 c0 52 be
       -0.14917192 0.20880449 0.06182283 -0.20581272
000040 72 52 ac bd b1 02 ae bd 3c 34 05 be 7a e8 c7 bc
       -0.08414163 -0.08496607 -0.13008207 -0.024402846
000050 26 79 65 be 34 86 25 be f0 8b 78 bd ab 25 ef 3d
       -0.22409496 -0.16164476 -0.06068033 0.116771065
000060 d6 bf 17 bd 54 ff 56 be 5b bb d1 3b f4 76 18 3e
       -0.037048183 -0.20995837 0.0064005083 0.14889127
000070 c0 09 1d be b0 6d 74 bd 70 94 1a 3e c2 ff 15 bd
       -0.1533575 -0.05967492 0.15095687 -0.036620863
000080 d1 e0 8e bd a8 6a 37 be 60 4d 98 bc ba 1a 7a 3e
       -0.06976474 -0.1791178 -0.018591583 0.24424258
000090 a8 c0 09 3e ee 48 74 be 91 5a 31 3e f1 03 9c bd
       0.13452399 -0.23855945 0.17319705 -0.07617939
0000a0 d3 a4 30 bd 68 71 48 be 76 69 7d 3e 47 15 36 3c
       -0.04312594 -0.19574511 0.24747261 0.011113471
0000b0 d2 d9 1d 3e c8 ff 59 3e b7 2d 85 3e ba 90 4a 3c
       0.15415123 0.21288979 0.2601144 0.012363607
0000c0 4c 0f 5a be 34 c3 62 be 78 d5 4e bd 1c 19 c0 bd
       -0.21294898 -0.22144777 -0.05049655 -0.09379789
0000d0 e0 8d ea bc 18 3c 04 be 20 b4 b2 bd f0 fb 70 bd
       -0.028632104 -0.12913549 -0.08725762 -0.058834016
0000e0 44 87 7a 3e c0 e1 07 bc 6c 0e b7 bd 04 e0 82 3d
       0.24465662 -0.008293569 -0.08938298 0.06390384
0000f0 e4 90 97 3d 60 82 41 be a8 04 4b 3e 1a 9a 55 3e
       0.074006826 -0.1889739 0.19825995 0.20859566
000100 b6 d1 13 3e b0 0e af bd c8 7e f0 bd 08 18 2b be
       0.14435467 -0.08547723 -0.117429316 -0.16708386
000110 bc f0 2a 3e 64 f7 9e 3d 60 80 b6 3c e0 74 24 be
       0.16693395 0.0776203 0.02227801 -0.1606021
000120 18 8c 3d 3d 56 c6 7b be 60 86 f2 bd 74 2e d3 bd
       0.046276182 -0.24587378 -0.11842036 -0.103115946
000130 fc e8 23 be 6a 9a 0d be 50 65 35 be 86 7b 3b be
       -0.16006845 -0.13828436 -0.17714429 -0.18308839
000140 00 f6 62 bc f2 f4 67 be 40 3e 0b 3e 80 9c d4 bc
       -0.013852596 -0.22652033 0.13597965 -0.025953531
000150 94 b1 35 3e 7e 0f 6e 3e a8 61 65 bd 1a bd 64 be
       0.17743522 0.23248097 -0.056001335 -0.22337762
000160 ea db 6d be 54 3d a6 bd f0 90 0c be 7e ff 79 be
       -0.23228422 -0.08117166 -0.13727164 -0.24413869
000170 28 ec 8c bd 4e 8b 56 be 7e 2e 25 3e 40 4e b8 3b
       -0.06880981 -0.20951578 0.16131017 0.0056245625
000180 dc a8 9c 3d d0 92 64 bd b0 86 f2 3d 60 ee 39 bc
       0.07649395 -0.055804074 0.11842096 -0.011348337
000190 60 e4 64 3c fa 9b 01 be 64 06 44 be 24 ba 29 3e
       0.0139704645 -0.12657157 -0.19143063 0.16574913
0001a0 04 1b f8 bd c0 31 58 3d 0a 90 4d be b2 36 2a be
       -0.12114528 0.05278182 -0.20074478 -0.16622427
0001b0 20 16 e8 bd b4 61 ba 3d 18 a1 51 3e 7c 1b 43 be
       -0.11332345 0.09100667 0.20471609 -0.19053453
0001c0 e0 db 40 be 4f e0 17 be e0 60 74 bc 97 71 fb 3d
       -0.18833876 -0.1483166 -0.014915675 0.12277525
0001d0 40 9a 53 bd 58 56 aa bc d6 2d 8f 3e 56 2d b5 3d
       -0.051660776 -0.020793125 0.27964658 0.08846538
0001e0 65 83 9a 3e bc 18 b0 bd f0 16 c1 3d 68 25 78 3e
       0.3017837 -0.08598468 0.09428203 0.2423302
0001f0 e4 1c fc bd b6 97 32 bd 82 82 37 bd 4d 99 e0 bd
       -0.12310198 -0.043601714 -0.044802196 -0.1096674

net.2.bias f4 [8]
000000 88 f3 af bd 23 50 e0 3d 27 91 b1 3d b6 4a 56 be
       -0.08591372 0.10952785 0.08670264 -0.20926937
000010 e0 27 5d bc f4 fa 49 be 08 36 68 be 14 5d 8d 3e
       -0.0134982765 -0.19724637 -0.22676861 0.27610075

net.4.weight f4 [4, 8]
000000 1c 93 b8 3d c1 fa a8 3d 6c 73 a0 be c0 fb ae 3c
       0.09012434 0.082509525 -0.3133806 0.021360278
000010 18 c8 3a 3d 0c 94 b5 bd b6 43 6b 3e 28 05 2e 3e
       0.04560098 -0.08866128 0.22975048 0.16994154
000020 0b ec 17 be 2c 71 87 be 1b 7e 3c be 4e de 2e 3e
       -0.14836137 -0.2645353 -0.1840748 0.1707699
000030 80 96 64 3b 89 f3 9d 3e fc a8 27 be 10 17 6f 3d
       0.0034879744 0.30849865 -0.16373056 0.058371603
000040 02 c8 4f 3e b7 11 87 3e 85 c4 f3 3d c5 44 a6 3e
       0.2029114 0.26380703 0.119027175 0.32474342
000050 80 70 83 bb 6c c2 9d be a7 74 8b 3e 3a 23 bd 3e
       -0.004011214 -0.30812395 0.27237436 0.36940938
000060 30 2b c9 3c 93 42 13 3e 7d 23 c4 bd 00 d2 7c bd
       0.024556726 0.14380865 -0.09577081 -0.06172371
000070 dc 4d 1e be 74 65 9e bd 83 cf 83 be 5f 05 92 be
       -0.15459388 -0.077341944 -0.25744256 -0.28519723

net.4.bias f4 [4]
000000 54 99 51 3e 90 4d de bc dc 6e 2b bd ab bd 43 3e
       0.20468646 -0.027136594 -0.04185377 0.19115321

net.6.weight f4 [2, 4]
000000 20 2b f1 bd 1e 7a de 3e 70 3e 97 be a2 f2 ca 3e
       -0.117758036 0.43452543 -0.29539824 0.3963824
000010 7d c2 56 bb d8 34 bd 3e a7 a8 3e be 41 c6 dd 3d
       -0.0032769733 0.3695438 -0.18619023 0.108288296

net.6.bias f4 [2]
000000 5e 9f f2 be 7b 50 b7 3d
       -0.47387213 0.08950897

net.8.weight f4 [4, 2]
000000 7e 94 91 be 8c 11 fd 3e aa 75 ae 3e a8 c2 67 be
       -0.28433603 0.4942745 0.34074146 -0.22632849
000010 05 dd 0e 3f b2 ee e1 be 6a 78 2a bf 63 86 30 bf
       0.55806 -0.44127423 -0.6658999 -0.6895506

net.8.bias f4 [4]
000000 2d 36 0b 3d 64 a0 6a be 5f ea 24 3e 90 ac 31 bd
       0.033987213 -0.22912747 0.1610503 -0.04337746

net.10.weight f4 [8, 4]
000000 9e a1 91 bd c0 a7 02 bc 55 6f 6e be b0 88 ff 3e
       -0.07110904 -0.007974565 -0.23284657 0.49908972
000010 c7 33 97 3e 12 76 cd 3e 97 ea eb be b4 85 06 3e
       0.2953169 0.40129143 -0.46077415 0.13136941
000020 a4 8d b6 be 40 f2 58 3e ad f6 51 3e 80 f5 e8 3b
       -0.35654938 0.21186161 0.20504256 0.007109344
000030 57 2b 84 be 24 02 a0 be 52 28 87 be 10 66 f9 3e
       -0.25814316 -0.31251633 -0.2639795 0.4871068
000040 16 f6 d0 be 5c 78 b7 be 4a 89 b0 3e dc 36 db be
       -0.4081275 -0.35834014 0.34479743 -0.42815292
000050 9c 3b 99 be 74 2d 79 3e fe e5 58 3c ce e1 c7 be
       -0.2992829 0.24333745 0.013238428 -0.39039463
000060 d5 a7 cc be bc 60 21 3e 22 88 94 3e 5a 91 85 3e
       -0.39971796 0.15759557 0.2901011 0.26087457
000070 7e 2b ea 3e 66 cc ed 3e ec 1c 19 3e 30 b7 52 be
       0.45736307 0.46445006 0.14952439 -0.20577693

net.10.bias f4 [8]
000000 38 56 b4 3e 47 b3 ce 3e 02 d6 b7 3e 7f 44 8c 3e
       0.3522203 0.40371153 0.35905463 0.27396008
000010 e6 8a 87 be 0c 6f 15 3e 39 c7 df 3e c4 58 ce be
       -0.2647316 0.14593142 0.43706682 -0.40302098

net.12.weight f4 [16, 8]
000000 23 e8 84 3e 98 55 89 3d b3 81 87 3e 7a 5f 33 3e
       0.25958356 0.06705779 0.2646614 0.1751689
000010 61 90 9b 3e 30 a1 56 3d eb 77 55 be 04 80 66 be
       0.3038359 0.052399814 -0.20846526 -0.22509772
000020 9c 25 1d bd 54 b1 a6 3e aa 70 8e 3e a6 5a 95 be
       -0.038365945 0.32557166 0.2782033 -0.29170722
000030 6e ae 3e be dd e1 a1 bd ab bb 85 bb 40 7f 49 be
       -0.18621227 -0.07904408 -0.0040812097 -0.19677448
000040 10 48 ec 3d 46 8a ab be b2 b8 18 3e 30 62 cb bd
       0.11537182 -0.33503932 0.14914206 -0.09930837
000050 40 83 f0 bb 60 7a 3f be d0 25 cf bc 46 19 57 3e
       -0.007339865 -0.18699026 -0.025286585 0.21005735
000060 72 29 c1 be ed f4 27 3d 7e 07 8b be 77 3b c3 bc
       -0.37726933 0.041005064 -0.27154154 -0.023832066
000070 7d 11 1c be b1 6f 5b be 71 e7 18 3e 20 9c 8c bd
       -0.15241046 -0.21429326 0.14932038 -0.06865716
000080 58 18 0e 3e f2 48 66 be da ee 52 bd 5f 1b 03 be
       0.13876474 -0.22488764 -0.051497318 -0.1280341
000090 dc 7c ab 3d f5 0d d5 3e 5e e3 eb bd 32 26 27 3e
       0.083734244 0.4161221 -0.11517976 0.16323164
0000a0 52 89 86 be e7 5f a3 3e 31 a7 12 be 68 da 83 be
       -0.26276642 0.31909105 -0.14321591 -0.25752568
0000b0 04 ce c1 3d 69 c2 9d be 56 56 68 3e 48 55 05 3d
       0.094631225 -0.30812386 0.22689185 0.032552034
0000c0 80 e9 c7 3b d0 81 9f 3c e5 17 a8 be 20 78 96 bd
       0.0061008334 0.01947108 -0.3283073 -0.07347131
0000d0 40 1f d7 3c a0 76 06 bd ed 20 b4 be 96 e2 47 3e
       0.026260018 -0.032827973 -0.3518137 0.1952003
0000e0 0e 7a 09 3e 0b bb b3 3e a0 7d 9b bc a0 c3 d6 3d
       0.13425466 0.3510364 -0.018980801 0.10486531
0000f0 da 5f a7 be e6 61 78 3e 70 07 90 be c7 88 12 be
       -0.32690316 0.24256095 -0.28130674 -0.14309989
000100 de 11 5a be c5 df 33 3e 55 e8 b7 3c ba 12 bd 3e
       -0.21295878 0.1756583 0.022449652 0.3692835
000110 72 ad 4d be 47 2a 95 3e c0 c6 85 3e d0 b2 47 3d
       -0.20085695 0.29133818 0.26128197 0.048754513
000120 21 8f 1a 3e 9b 7f 50 3e a4 01 b8 3e 68 ee 06 be
       0.15093662 0.20361178 0.35938752 -0.13176882
000130 a8 6f 16 bd d8 61 88 be e0 10 3b 3e de 6b 5c 3e
       -0.036727577 -0.2663715 0.18268156 0.21525523
000140 f2 50 4f 3e cb b0 45 bd e5 ba 92 be 42 84 04 3e
       0.20245722 -0.048264306 -0.28658214 0.12941077
000150 06 cc 34 3e c2 7c 56 be dc aa 4a be 97 6c 93 3e
       0.17655954 -0.20946029 -0.1979174 0.28793785
000160 60 c0 a8 3d 71 f7 44 be 90 59 87 bd 4f 14 83 3e
       0.082398176 -0.19235016 -0.066088796 0.25601432
000170 5c 27 8e 3d e0 31 9a be 5b a6 09 be ef c5 a6 3e
       0.06941101 -0.30116177 -0.13442366 0.32572886
000180 51 d5 21 be 10 ce 2e bd 0c 37 c0 be ad 0a 47 be
       -0.1580403 -0.042676985 -0.37541997 -0.19437666
000190 e6 98 a7 be a3 81 94 bd db 88 22 bd 04 ae 98 3d
       -0.3273384 -0.07251289 -0.039681297 0.07455066
0001a0 c6 ed 4e 3e 0c 62 e4 3d b1 cd 0d be 6b 50 03 be
       0.20207891 0.111515135 -0.13847996 -0.12823646
0001b0 00 8d 62 3d bc d9 88 3d 18 f7 c0 3d 06 cc 73 3e
       0.05531025 0.066821545 0.094221294 0.23808298
0001c0 5e a4 01 be 57 ed 8b 3e 8d b5 ba bc ec 29 46 3e
       -0.12660357 0.27329513 -0.022791648 0.1935193
0001d0 ca 25 97 be 4a bb 81 be 5c 02 88 bd fc c5 a2 be
       -0.29521018 -0.25338203 -0.06641075 -0.31791675
0001e0 8e a7 20 3e a2 c6 57 3e 45 ba 3b be f0 78 9e bc
       0.15688917 0.21071866 -0.18332775 -0.019344777
0001f0 1b 17 a3 3e f9 98 32 be 4e 36 5c 3e b5 2d 37 be
       0.31853566 -0.17441167 0.2150509 -0.1788853

net.12.bias f4 [16]
000000 5b 46 98 be 0e f6 25 be d8 03 76 be bf 6f 10 3e
       -0.29741177 -0.16207144 -0.24024904 0.14105128
000010 a0 db b0 3e dc b8 a5 bd 70 01 40 bd 89 51 4f be
       0.3454256 -0.080919 -0.04687637 -0.20245947
000020 55 6b 75 3e b4 05 08 3e c5 f8 93 3e d0 6d 63 be
       0.23966725 0.13283426 0.28900734 -0.22209859
000030 38 42 5c 3e 80 88 8d be 74 e7 62 3e fe 46 47 be
       0.21509635 -0.27643204 0.22158605 -0.19460675

net.14.weight f4 [20, 16]
000000 b8 03 29 3e 60 87 b4 bd 40 66 f5 bb e0 2a 82 bd
       0.16505325 -0.08814883 -0.007488996 -0.06355834
000010 00 38 64 be 6c 77 1d 3e 40 95 e5 bc cc f6 54 3e
       -0.22286987 0.15377587 -0.02802527 0.2079727
000020 00 ac a9 3c 00 47 c0 3a a8 29 70 be 56 89 35 be
       0.020711899 0.0014669597 -0.2345339 -0.17728171
000030 80 51 61 bd 8c 88 7e 3e d0 bb 69 be d8 70 28 3d
       -0.055009365 0.24856776 -0.22825551 0.04112324
000040 8e 0d 04 be d8 2c fc bd b8 30 62 be 1c b2 73 be
       -0.12895796 -0.12313241 -0.22088897 -0.23798412
000050 fc 21 dc 3d 56 85 2e 3e ba b7 77 3e 64 1b 36 3e
       0.107486695 0.17043051 0.2419118 0.17783886
000060 68 c1 e9 3d 48 61 4d 3d ac 66 3e 3e 22 b7 6e 3e
       0.114138424 0.050141603 0.18593854 0.23312047
000070 d0 94 e0 3c 80 7c 20 bc 8c de f4 3d 1c cd 7b be
       0.02741471 -0.009795308 0.1195651 -0.24589962
000080 d8 eb b3 3d 0c 17 76 be 3c fe 5a be 80 09 f8 3b
       0.08785218 -0.24032229 -0.21386045 0.007569492
000090 88 71 fb 3d dc ab a3 bd 3c 5d ae bd a8 e4 6c 3d
       0.12277514 -0.07991764 -0.08513877 0.05783525
0000a0 e8 4c 4c 3e 1c a2 a4 bd 98 58 54 3e 52 b5 7d 3e
       0.19951212 -0.080387324 0.20736921 0.247762
0000b0 4c 5a 6d 3e 20 c6 3d be 5c 7b c4 3d 58 c6 1c 3d
       0.23178977 -0.1853261 0.095938414 0.038275093
0000c0 f6 e9 49 be 20 39 3b be 44 75 5d be cd d0 05 3d
       -0.19718155 -0.1828351 -0.21626765 0.03266983
0000d0 d7 45 9d bd a8 b9 0c 3d 6e 37 28 3e a8 78 1a bd
       -0.076793365 0.034356743 0.16427395 -0.037712723
0000e0 c7 5e fc bc 13 b2 22 3e 27 37 43 be b4 a1 43 3e
       -0.030806912 0.15888242 -0.19064008 0.19104654
0000f0 68 45 24 be 0a 6f 0e 3e 86 08 c6 3d f0 92 de bc
       -0.16042101 0.13909546 0.096695945 -0.027169675
000100 56 04 72 3e 5a 86 b9 3d cc 65 62 3e 57 3f 20 3e
       0.23634467 0.09058829 0.22109145 0.15649162
000110 76 fd 30 3d 5a f2 25 be 30 f7 14 3e 52 dd 57 3e
       0.04321047 -0.16205731 0.1454742 0.21080521
000120 47 3d 13 3e 19 2e 07 be 23 62 a1 3d 60 20 3c 3d
       0.14378844 -0.13201179 0.07880046 0.045929313
000130 dc 78 7d be bc 18 10 3e ef 33 48 3e 98 fa 04 bd
       -0.24753135 0.14071935 0.19551061 -0.032465547
000140 ec f9 58 be f8 31 06 3e 60 da ac 3d be 69 0b be
       -0.21189088 0.13104999 0.08440089 -0.13614556
000150 38 7a cf 3d ac dd 10 3e 32 4a 18 3e 3c fe da 3d
       0.10130733 0.14147061 0.14872053 0.106930226
000160 38 d0 ec bd 90 f4 af 3c a6 02 50 be 30 6c e1 3c
       -0.11563152 0.021478921 -0.2031351 0.027517408
000170 50 b5 17 3e 5e d8 19 be a0 6f d8 3c c0 f5 6a be
       0.14815259 -0.15023944 0.026420414 -0.22945309
000180 28 e6 50 3e 02 61 4f 3e 90 d6 70 bd 5e 00 50 3e
       0.20400298 0.2025185 -0.058798373 0.2031264
000190 78 9c 2b bd 94 a4 15 3e a8 a6 47 be 88 9e 5c 3e
       -0.041897267 0.14613563 -0.19497168 0.2154485
0001a0 e0 00 13 bd 20 1b 27 3c e4 db 13 be 9a 86 60 3e
       -0.035889506 0.010199338 -0.1443935 0.21926346
0001b0 06 6f 4b be 20 fe 60 bd ec 05 18 be b8 6f 7b 3e
       -0.19866571 -0.054929852 -0.14846009 0.24554336
0001c0 44 96 ee bd 19 13 23 3d 54 77 a3 3d a3 26 6b 3c
       -0.11649755 0.039813135 0.079817444 0.014352473
0001d0 67 e2 a1 3e 5a 7a 6a be d8 5f e7 bd 1e 1f 5f be
       0.31618044 -0.22898236 -0.112975776 -0.21789214
0001e0 46 5d 14 3e 35 45 a0 3e ae 61 28 be 64 a9 ee 3d
       0.14488706 0.313028 -0.16443512 0.116534024
0001f0 4d 3d 2f 3b 4c 4d d5 3d e9 bb 11 be d4 06 a0 3d
       0.002673942 0.10415134 -0.14231838 0.07813802
000200 8c e4 99 bd 22 1c 51 be 82 94 58 be 5a 80 41 3e
       -0.07514295 -0.20420888 -0.21150401 0.18896618
000210 9c 39 a5 3d 6c 5a 46 be a6 8a 6c 3e 26 e9 60 be
       0.08067629 -0.1937043 0.23099765 -0.21963939
000220 62 98 6c be b0 20 b8 bd 18 79 96 bd c4 89 ef 3d
       -0.23105004 -0.0899061 -0.073473155 0.116961986
000230 70 94 62 bd b4 13 88 3d 22 44 59 be d0 94 91 3d
       -0.055317342 0.06644383 -0.21217397 0.07108462
000240 70 ca 1c be 80 b6 8b bc 80 f9 8a bc d6 ea 35 3e
       -0.15311599 -0.017054796 -0.016964674 0.17765364
000250 1c d3 ed 3d e0 fc e5 3c b0 71 f4 3c c8 3d 69 be
       0.116125315 0.028074682 0.029839367 -0.22777474
000260 d0 38 af bc a0 cf 45 be 48 21 27 3d d4 19 d7 bd
       -0.021389395 -0.19317484 0.040803224 -0.10502973
000270 c4 3b ac 3d ee 3e 71 3e 38 e1 19 bd b0 e4 50 bd
       0.08409837 0.23559162 -0.0375683 -0.050999343
000280 bc 36 6b be 8c 70 74 3e 84 9b 29 be 70 1b b5 bc
       -0.22970098 0.23871058 -0.16563231 -0.02210781
000290 8a 54 7d be e6 35 2a be 22 10 5d 3e 44 1e 96 bd
       -0.2473928 -0.16622123 0.21588185 -0.073299915
0002a0 2c 41 3e be a8 79 56 3e 2c 19 dd 3d f0 a1 fb bd
       -0.18579549 0.20944846 0.10795817 -0.122867465
0002b0 a4 1a 75 3e 20 12 75 bd 80 81 45 bd 18 9d ea bd
       0.23935944 -0.05983174 -0.048219204 -0.114557445
0002c0 c0 03 f4 bc 28 52 ba 3d 00 20 d7 3c e2 e0 04 3e
       -0.029786944 0.09097701 0.026260376 0.12976411
0002d0 9a 22 49 be be 0f 37 be a4 81 b2 3d c4 f0 38 be
       -0.19642106 -0.17877099 0.08716133 -0.18060595
0002e0 7c b2 6b be 8e 1a 4f be 68 e3 3f 3e de bd 04 be
       -0.23017305 -0.20224974 0.18739092 -0.12963054
0002f0 80 fd 6c 3c 00 7e 38 bb 38 71 e7 bd c4 d0 eb 3d
       0.014464736 -0.0028151274 -0.11300892 0.11514428
000300 94 26 37 3e 80 10 4a 3c 88 49 53 be 1e 07 55 3e
       0.1788581 0.0123330355 -0.20633519 0.20803496
000310 18 91 06 3d 68 d9 89 bd 12 1b 48 3e 54 9b 41 3e
       0.032853216 -0.0673092 0.19541577 0.18906909
000320 f2 e9 37 3e c0 c3 8e bb fc 2c 38 be d0 69 ff 3d
       0.17960337 -0.0043568313 -0.1798591 0.12471354
000330 f2 22 5c be b0 d0 94 bd 10 93 4c 3d c0 0b 53 bd
       -0.21497706 -0.072663665 0.049944937 -0.051524878
000340 b8 c8 80 3d 00 45 b9 ba 68 3b eb 3d 08 ad fc bd
       0.06288284 -0.0014134943 0.1148594 -0.123376906
000350 7e 0a 36 3e 08 2b e9 3d a0 92 f8 bd 40 13 d8 bd
       0.1777744 0.11385161 -0.121373415 -0.10550547
000360 5e d5 75 be 98 fa ae bd 00 d4 85 3c 00 b4 8c 3b
       -0.24007174 -0.08543891 0.016336441 0.0042939186
000370 c6 3a 22 be 96 61 1f be 98 b1 47 bd 7c d5 59 be
       -0.15842733 -0.1556457 -0.04875335 -0.21272844
000380 2e 89 1a be 50 6a ed 3c f0 dd 1a 3e 46 0d 1d be
       -0.15091392 0.028981358 0.15123725 -0.15337095
000390 a4 d0 20 be c8 f9 b6 bd 20 de 80 bd 3c 08 ea bd
       -0.1570459 -0.08934361 -0.06292367 -0.11427352
0003a0 80 8c 51 be 1c 20 7f be 2c 4a f1 3d e0 f9 54 3c
       -0.20463753 -0.24914593 0.11781725 0.012999028
0003b0 2c 3e 97 3d 1c 12 82 bd 40 bc 16 be ea 8d 25 be
       0.07384905 -0.0635111 -0.14720249 -0.16167417
0003c0 10 1d 77 bd 98 f0 97 3d 20 f2 a8 bd aa 40 26 be
       -0.06033045 0.074189365 -0.08249307 -0.16235605
0003d0 a0 8e 67 3e 24 97 9a bd 04 cc 3e 3e 74 7f d9 3d
       0.22613001 -0.07548359 0.18632513 0.10620013
0003e0 6e 46 3a 3e c8 b0 b7 3d f0 1e 8f 3d 88 4a 1d bd
       0.1819093 0.08969265 0.06988323 -0.038401157
0003f0 5e 7a 5e be 5c 92 92 3d ff c9 81 3e a0 7d 90 bd
       -0.21726367 0.07156822 0.25349423 -0.07055211

net.14.bias f4 [20]
000000 48 91 38 3d 06 d4 31 be 7a e4 65 be a3 d9 20 bd
       0.045060426 -0.17366037 -0.22450438 -0.039270055
000010 43 ee 02 3e 98 69 19 be a0 f2 06 bd da 22 1a 3e
       0.12786202 -0.14981687 -0.03294623 0.15052357
000020 24 de 0a 3e e0 63 73 bd 50 bb ff bc dc 00 10 be
       0.13561302 -0.05942142 -0.031217247 -0.14062828
000030 f2 36 0b be 18 ec 15 3d 22 73 77 be ae ef 1a bd
       -0.13595179 0.03660211 -0.24165013 -0.037826233
000040 79 15 90 3e e0 66 79 3c 1c 6c b5 bd 24 04 df 3d
       0.28141382 0.015222281 -0.08858511 0.10889462

net.16.weight f4 [20, 20]
000000 6e 2a a2 bd 19 cd ea bd f0 b7 2c 3d e7 71 4d 3e
       -0.07918249 -0.114649005 0.042167604 0.20062982
000010 54 9e 7a 3e 30 7f 6b bc ba e4 06 be a8 5f 71 3c
       0.2447446 -0.014373586 -0.1317319 0.014732279
000020 aa e7 28 3e b2 da 8e bd 28 2b 8b 3d 7c a6 46 3e
       0.16494623 -0.069753066 0.06795341 0.19399446
000030 bc 1f a0 3d 3b bd 32 be f0 e9 1e 3d e7 18 3d 3d
       0.07818553 -0.17454998 0.03879732 0.046166327
000040 8c 41 35 bc 79 02 14 be 80 32 08 bb 55 b5 19 3e
       -0.011062991 -0.14454068 -0.0020782053 0.15010579
000050 40 14 28 3d ca 27 15 3e 84 a2 63 be 27 cb 7f 3e
       0.041034937 0.1456596 -0.22229964 0.2497984
000060 f6 c8 ed bd 66 66 5f 3e b4 c9 a6 3d f0 b2 91 3e
       -0.11610596 0.21816406 0.081439406 0.2845683
000070 96 1c 4e 3e 2c 52 48 bd 7e a6 a4 bd 30 6b 7a 3c
       0.20128092 -0.04890649 -0.08039568 0.015284345
000080 c8 f8 ff bd b0 e9 c5 3d cc a6 2d bd 5f e5 d4 3d
       -0.12498623 0.09663713 -0.042395398 0.103953116
000090 b5 58 08 be 21 5e e0 bd 33 4d 42 be 4b 5b 16 3e
       -0.13315089 -0.10955454 -0.18974762 0.14683263
0000a0 2c 24 73 bd 12 a7 0a 3e 70 08 e4 3d 13 0a 0c 3e
       -0.059360668 0.13540295 0.11134422 0.13675718
0000b0 6b 01 04 3e c0 ff 3a bd 50 dd 74 3d 49 f7 9f bd
       0.12891166 -0.04565406 0.059781373 -0.07810838
0000c0 6a 34 1a 3e eb 8a 63 be 58 14 7f bd b0 78 48 bc
       0.15059057 -0.22220962 -0.06227526 -0.012235805
0000d0 14 11 0e be 7c 45 3f 3e e2 41 40 be 98 f0 a0 be
       -0.13873702 0.1867885 -0.18775132 -0.31433558
0000e0 a8 f2 4a be 0c ca fe 3d 74 74 40 be cd 5e 2b 3d
       -0.19819129 0.12440881 -0.18794423 0.041838456
0000f0 96 ca 32 3e c0 c0 03 3d d6 3e 94 bd 7d 48 4a be
       0.17460093 0.032166243 -0.072385475 -0.19754215
000100 dd 5f 2b 3e e2 e4 c1 bd 44 c0 9e bd 48 44 1d bd
       0.16735788 -0.09467484 -0.077515155 -0.038395196
000110 d4 2c 04 3e d3 8a 0d be 08 4c 32 3d 68 d0 a5 3d
       0.12907726 -0.13822488 0.04352954 0.08096391
000120 e0 37 57 bd cc c3 d0 3d 8e cd a1 bd 8b 2d 56 be
       -0.05254352 0.10193595 -0.079005346 -0.20915811
000130 47 a6 81 bd fc 15 64 3e 98 af 66 bd 40 e9 16 3e
       -0.06330543 0.22274011 -0.056319803 0.14737415
000140 27 08 e1 bd a5 28 4d be 02 32 1a 3e e3 16 20 3e
       -0.10987883 -0.20035036 0.15058139 0.1563373
000150 58 14 d0 3d 22 ee 58 3e f0 04 0b be e3 fe 9e be
       0.1016013 0.2118459 -0.13576102 -0.31053838
000160 20 c8 4b 3c 00 5b 56 3b 80 01 60 be 58 59 55 3e
       0.01243785 0.0032708049 -0.21875572 0.20834863
000170 e9 23 f9 bd 48 ee 45 3d a4 3c dc 3d 3c dc da bd
       -0.121650524 0.048322946 0.10753754 -0.106865376
000180 4c fc d7 3c 80 ba 4e bd 03 65 00 be aa 12 b2 3d
       0.026365422 -0.05047083 -0.12538533 0.08694966
000190 e4 aa 80 bd a4 08 d7 3d c6 06 43 3e d6 78 55 bd
       -0.06282595 0.10499695 0.19045553 -0.05211719
0001a0 df 8f 25 be 98 a8 d6 bc 98 2c 3d 3e 02 8e 08 3d
       -0.16168164 -0.026203439 0.18474042 0.033338554
0001b0 1c 27 57 bd 51 a5 30 be bc 46 81 3d 20 bb e1 bd
       -0.052527532 -0.17250563 0.0631232 -0.110220194
0001c0 04 aa b3 3d f0 0d 48 3e 60 e2 8d 3d ff 67 8b bb
       0.08772662 0.19536567 0.06927943 -0.0042543407
0001d0 a0 d7 0c be 5a b3 ab bd 8e 03 46 be 12 48 0d be
       -0.1375413 -0.08383818 -0.19337294 -0.13797024
0001e0 60 22 b1 3b f0 21 40 3e fe 4a 56 3e c8 1b a7 bd
       0.005405709 0.18762946 0.20927045 -0.08159596
0001f0 00 23 0a 3d 30 f6 75 3d 3c 59 af bd 79 fc 77 3e
       0.033724785 0.060049236 -0.08561942 0.24217404
000200 70 b3 62 3d 5e 1c 0e 3e 20 77 04 3e cc b3 1e bd
       0.055346906 0.13878009 0.12936068 -0.038745686
000210 8c d6 96 bd 10 aa 42 3d ef e6 27 be 92 9a e0 bd
       -0.0736514 0.047525465 -0.16396688 -0.10966982
000220 b4 77 64 3c 20 0e 53 be 58 5e ae bc c5 8f 67 3e
       0.013944555 -0.20610857 -0.021285221 0.22613437
000230 0a 7f 40 3e 66 88 0d be f8 fb 35 3e 6e be b7 3d
       0.18798462 -0.13821563 0.177719 0.089718685
000240 24 33 bd 3c 6a 71 e0 bd 71 48 0d be 2b 00 b4 3d
       0.023095675 -0.10959132 -0.13797165 0.087890945
000250 60 a2 f1 bb 78 ef b6 3d ac 5a fc 3d 5b 23 18 be
       -0.007374093 0.08932394 0.12321982 -0.14857237
000260 d8 ba 25 3d b4 ec 17 be 80 42 33 3d 9f 3a c1 bd
       0.04046139 -0.14836389 0.04376459 -0.09435009
000270 c0 46 be 3d b4 d6 ff 3d aa 1f 24 3e 53 7d 1b 3e
       0.09290838 0.12492123 0.16027704 0.15184526
000280 08 12 c8 3c 50 9b 01 bd e8 cd dc bc 6b 14 3d be
       0.02442266 -0.03164226 -0.026953653 -0.1846482
000290 e3 cf 76 bc e4 a0 e1 bd 84 0f 59 bd 94 2f b7 3c
       -0.0150642125 -0.110170156 -0.052993312 0.022361554
0002a0 f2 70 3c 3e 10 01 39 3d 14 85 ec 3d 32 ad 00 be
       0.1840246 0.04516703 0.1154882 -0.12566069
0002b0 c0 3b 29 3e 48 09 4f be 72 85 b6 bd c4 82 51 bd
       0.16526699 -0.20218384 -0.089121714 -0.0511501
0002c0 70 d5 4f 3e c8 dd 2a be b8 aa e2 bd 06 0a c4 3c
       0.20296264 -0.16686165 -0.11067718 0.02393056
0002d0 86 ee 4d be d8 f5 34 3e 86 a8 5b be 32 6a e0 bd
       -0.2011052 0.17671907 -0.21451005 -0.10957755
0002e0 f5 25 21 3e 1e a8 03 3e 20 fb 7d bd e3 82 0e be
       0.15737136 0.128571 -0.06200707 -0.13917117
0002f0 c4 b1 34 3e c9 20 fb bd c4 ac 23 3e a8 c6 a6 3c
       0.17645937 -0.12262113 0.15983874 0.020358399
000300 ee 38 02 be e8 ae 4f 3d 6c de 10 be f4 ef dd bd
       -0.1271703 0.050703913 -0.14147347 -0.10836783
000310 c5 58 bc bd 04 b1 ac 3d fa c3 55 3e f6 59 8f 3d
       -0.09196619 0.084322006 0.2087554 0.069995806
000320 98 e1 2a bd 11 2f 49 be 90 b1 94 3d 4f 75 0a 3e
       -0.04171905 -0.1964686 0.0726043 0.13521312
000330 3e 3e 5d be e0 a0 a9 3b 8c ca 16 be 41 5b c3 3d
       -0.21605775 0.0051766485 -0.14725703 0.0953889
000340 fc 85 85 3d 20 09 ee bb 2c bd da 3d 28 f0 9a bc
       0.06519696 -0.0072642714 0.10680613 -0.018913344
000350 b8 7a fc bd 40 3b cf 3d 00 81 ea bc f7 41 ce bd
       -0.12328094 0.10118723 -0.028625965 -0.100711755
000360 5c 33 75 be 5c 54 e8 3d d0 56 99 bd 3e 56 9d 3d
       -0.23945373 0.11344215 -0.07487261 0.07682465
000370 38 7f 1b 3d e4 9c 38 be 40 79 f0 3d a7 f8 22 be
       0.037963122 -0.18028599 0.117418766 -0.15915166
000380 ab b4 89 bc 0a 34 5e 3e ec 48 60 3e 85 08 c4 3d
       -0.016809782 0.21699539 0.21902817 0.095719375
000390 10 5c 26 3d 18 17 63 3e 92 fa 0b 3e e0 d8 5f 3e
       0.04061514 0.22176778 0.13669804 0.21860075
0003a0 d0 89 c7 bc c0 6f 29 bd 84 77 19 be 7f 46 31 3e
       -0.024357706 -0.04136634 -0.14986998 0.17312048
0003b0 13 b1 71 3e b3 b6 ce bd c0 ee c7 3b 95 30 70 bd
       0.23602705 -0.10093441 0.0061014593 -0.05864008
0003c0 00 e4 12 3b b8 52 46 3d 88 9e 1e 3d 1e 35 b0 bc
       0.002241373 0.04841873 0.038725406 -0.021509703
0003d0 10 c9 09 3d 36 12 b2 bd c6 5d 98 bd 52 0f 0e be
       0.033639014 -0.0869488 -0.07439761 -0.13873032
0003e0 e4 18 a2 3d e0 c8 4d 3e d8 49 41 3d 44 d7 33 bd
       0.07914904 0.20096159 0.047189564 -0.043906465
0003f0 27 d0 de bd 58 b9 9d bc 30 03 86 3d 6b d2 4c 3e
       -0.10879546 -0.019253418 0.06543577 0.20002143

net.16.bias f4 [20]
000000 63 61 85 bd 16 5f 82 bd e0 e8 04 3e ed a6 2d 3d
       -0.06512716 -0.063657925 0.1297946 0.04239552
000010 cb 5f de 3d 91 9a 83 3d 40 42 9e bd b4 79 35 bd
       0.10858115 0.064259656 -0.0772748 -0.04430552
000020 25 ef 5f bd 9b 5d 8d 3d 1c 71 d6 3d 75 76 0f be
       -0.054671425 0.069026195 0.10470793 -0.14010032
000030 36 f6 88 bd 9c 65 d1 bd 39 5f 79 bd 70 6c bd bd
       -0.06687586 -0.102244586 -0.060881827 -0.092491984
000040 32 eb b9 bd f4 28 ae 3d 46 40 28 bd 17 4d e0 bd
       -0.09078063 0.08503905 -0.04107692 -0.10952204
