AE_multidim/model/wdgrl_5.pth (torch, 277812 bytes, 53 tensors)

net.0.weight f4 [16, 16]
000000 4c ef 0d 3e 34 cf 72 be cc fd 2e be e6 b2 4e be
       0.13860816 -0.23711854 -0.17089003 -0.20185432
000010 94 39 7b 3e ac 23 37 3e e8 74 50 3d 98 ab d5 3d
       0.24533683 0.17884701 0.05089274 0.104331195
000020 80 55 a7 3c 34 da b5 bd 68 3a b6 bd d4 85 26 3e
       0.020426512 -0.088795096 -0.08897859 0.16261989
000030 2c 90 b3 bd 30 56 58 3d 04 3a 36 be aa bb 2d 3e
       -0.08767733 0.05281657 -0.17795569 0.1696612
000040 04 1c f8 3d 60 03 3a bc f4 7c b6 bd 0e 02 16 be
       0.121147186 -0.011353344 -0.08910552 -0.14649221
000050 bc f7 82 bd cc 2e bb 3d ca 4e 4d 3e e8 36 b9 bd
       -0.06394908 0.09139785 0.20049587 -0.09043676
000060 20 49 66 bd a0 6c cf bd a2 c4 28 3e 9c d1 4d be
       -0.05622208 -0.101281404 0.1648126 -0.20099491
000070 1c b1 fd bd e0 d7 88 bd 94 f5 f0 bd 14 42 1d 3e
       -0.123872966 -0.066818 -0.1176559 0.15357238
000080 00 1b 24 bb 80 e0 ce bb 74 86 d9 3d b0 f8 4a 3e
       -0.0025040507 -0.0063133836 0.10621348 0.19821429
000090 a8 35 14 be 0a 2d 77 3e 32 92 24 3e 52 4e 54 be
       -0.14473593 0.24138275 0.16071394 -0.20733002
0000a0 40 8a 07 3c 44 76 10 be e0 01 13 bd e0 65 36 3c
       0.008272707 -0.14107615 -0.03589046 0.011132687
0000b0 c8 ac 2f be 78 f4 57 3d 78 ca 09 bd 04 db be bd
       -0.17155755 0.052723378 -0.033640355 -0.09319118
0000c0 98 3e 6b bd 10 30 ea bc ba 68 25 be ea a4 3f 3e
       -0.05743274 -0.028587371 -0.16153231 0.18715253
0000d0 dc 1f 54 be 80 6b ef 3c 08 6f f3 bd c8 1c b5 bd
       -0.20715278 0.029226065 -0.11886412 -0.0884338
0000e0 94 7f e0 bd 64 c4 81 3d 64 6d 14 be 40 86 bb 3b
       -0.109618336 0.06336287 -0.14494854 0.005722791
0000f0 2c 82 b4 bd 10 7b 10 3d 80 d9 c8 3d 7c c7 8b bd
       -0.08813891 0.03527361 0.0980711 -0.06825158
000100 82 32 24 be 10 02 17 be 30 ca 6d 3e 54 60 8a bd
       -0.16034892 -0.1474688 0.2322166 -0.067566544
000110 ee 00 5e be 22 a6 5e 3e 4c bf 72 be 54 da ae bd
       -0.21680042 0.21743062 -0.23705786 -0.085377365
000120 40 82 e3 3b 70 f9 4d be 08 21 41 3d c6 11 41 be
       0.0069430172 -0.20114684 0.04715064 -0.18854436
000130 60 4f b5 3d 6c 08 aa bd 50 24 2e 3e f6 0b 22 be
       0.0885303 -0.083023876 0.1700604 -0.15824875
000140 ce b7 29 be d8 02 47 3d 94 14 85 bd a0 e2 cf 3c
       -0.16574022 0.048586696 -0.064980656 0.025376618
000150 fc 50 78 3e 20 3a e7 3c 34 ea 98 bd f4 0e 49 be
       0.24249643 0.028225958 -0.07466546 -0.1963461
000160 a4 99 e4 3d 2e 5e 7e be f8 80 da 3d bc de 1b be
       0.11162117 -0.24840614 0.1066913 -0.15221685
000170 3e 9b 28 be 76 c6 74 be c6 d2 44 be f0 a2 c8 3c
       -0.1646547 -0.23903832 -0.19221029 0.024491757
000180 56 ec 1d 3e 50 d2 e5 bd 30 29 3c 3e 30 97 76 3e
       0.15422186 -0.112217546 0.18375087 0.24081111
000190 38 21 68 bd d8 5e 7c be 42 80 42 3e c6 c2 0a 3e
       -0.056672305 -0.24645555 0.18994239 0.13550863
0001a0 e0 4c 57 3c 5c 66 98 3d 50 27 c3 3c 56 69 60 3e
       0.013140887 0.074413985 0.023822457 0.21915182
0001b0 48 50 73 be dc f3 17 3e 52 7a 0e be 80 cd 15 bd
       -0.23761094 0.14839119 -0.13913849 -0.036572933
0001c0 aa 05 6f 3e 00 98 53 3e 90 33 df 3d e8 ce 74 bd
       0.23342004 0.20663452 0.10898507 -0.059767634
0001d0 24 9b 1f 3e 48 0e 67 3d b0 25 80 bd 6c 45 04 be
       0.15586525 0.056410104 -0.06257188 -0.12917107
0001e0 a0 1c 34 bc e4 ac 8b 3d 06 fd 11 be 20 b8 62 be
       -0.010993153 0.06820086 -0.14256677 -0.2214055
0001f0 fc 08 33 3e 4c b5 84 bd 6e 0e 38 be 04 14 df 3d
       0.17483896 -0.06479892 -0.17974254 0.108924896
000200 f6 be 73 3e 20 7d 0a 3d f4 d3 7f be ca 08 4c 3e
       0.23803315 0.033810735 -0.24983197 0.19925228
000210 1c 7a 81 3d 68 db c5 3d a0 9a eb 3d 14 d0 23 be
       0.06322119 0.09660989 0.11504102 -0.15997344
000220 38 5d 39 bd 70 92 1d 3d 20 e9 31 be 44 0d 5c 3e
       -0.045254916 0.03846973 -0.17374086 0.21489435
000230 5e 7b 46 be e8 1c fe 3d 7c a5 26 be 98 ea b2 bd
       -0.19382998 0.12407857 -0.16274065 -0.087361515
000240 54 eb 89 3d ba 44 5d 3e 00 55 a9 bc b0 21 0c 3e
       0.067343384 0.21608248 -0.020670414 0.13684726
000250 e8 35 75 be f2 78 4a 3e aa 8a 7a be 50 9a f6 bc
       -0.23946345 0.197727 -0.24466959 -0.030102879
000260 52 d9 2e 3e 9e 0e 00 be 2c 9a 1f 3e e0 ec d1 bd
       0.17075089 -0.12505576 0.15586156 -0.102502584
000270 1e 3c 30 3e 54 aa 0b be 3e d1 5e 3e e0 d1 ff bd
       0.17210433 -0.13639194 0.21759507 -0.12491202
000280 60 5d 2f bd 9e 55 7c 3e 0e f5 6d be 4e ac 05 be
       -0.04281366 0.24642035 -0.23238012 -0.1305401
000290 80 30 51 3b 1c 0e 7c 3e 60 44 14 bc 30 56 3f 3e
       0.0031919777 0.24614757 -0.009049505 0.18685222
0002a0 cc 23 9f bd d2 7b 3d 3e 8c 54 4f be fc 3c 91 bd
       -0.077704996 0.18504265 -0.20247096 -0.0709171
0002b0 08 7c a2 bd d0 4a 76 be 70 57 ac bd 9c c0 94 3d
       -0.07933813 -0.24051976 -0.08415115 0.072633
0002c0 f0 d8 a8 bc 28 a2 b9 bd ec fd cc 3d 94 59 43 3e
       -0.020611256 -0.09064132 0.10009369 0.1907714
0002d0 9c 81 02 3e 92 63 2d 3e d8 3f 30 3e 84 24 38 3e
       0.12744755 0.16932514 0.17211854 0.1798268
0002e0 92 be 38 be ba 9a 74 be 70 99 6e 3d 22 ce 11 3e
       -0.18041447 -0.23887148 0.0582518 0.1423879
0002f0 10 9e 0c 3e f0 04 69 3e 58 ad 07 3e 4c 38 d6 bd
       0.13732171 0.2275579 0.13249719 -0.104599565
000300 a0 df d7 bc ee ce 4c be b0 ce f8 3c ac 51 19 be
       -0.02635175 -0.20000812 0.030371994 -0.14972562
000310 c0 d3 2d 3c 60 26 4d 3e 2e 65 21 be c0 15 7f be
       0.010609567 0.2003417 -0.15761253 -0.2491064
000320 88 dc 24 bd 08 ea 34 be 90 ee 53 be 16 53 78 be
       -0.040249377 -0.17667401 -0.20696473 -0.24250445
000330 04 cb 61 3e 00 5e b9 bc 8c bd e1 bd 52 4a 23 3e
       0.220501 -0.02262783 -0.11022481 0.1594632
000340 64 42 0b be e4 5d ca bd fe bd 29 be b2 94 13 3e
       -0.13599545 -0.098811895 -0.16576383 0.14412192
000350 a8 a8 31 3e 92 0b 5e be 54 6e 6c 3e 6e f0 04 be
       0.17349494 -0.21684101 0.23088962 -0.12982342
000360 80 68 d2 bc 38 f2 a1 bd 1c a9 2c be a4 15 bd bd
       -0.025684595 -0.07907528 -0.16861385 -0.09232643
000370 28 a4 c4 3d ac 3c 4d be 84 d1 9f 3d 60 06 60 3d
       0.09601623 -0.20042676 0.07803634 0.05469358
000380 e0 9e ec bd 98 88 b4 3d e6 4e 37 3e a0 25 a3 3c
       -0.115537405 0.08815116 0.17901191 0.019915402
000390 04 e2 21 3e 10 ad 35 3d 3a 3c 50 3e 98 1b 63 bd
       0.15808874 0.0443545 0.20335475 -0.055446237
0003a0 54 3e 33 be 82 fb 33 3e c4 06 78 3e 20 b6 23 be
       -0.17504245 0.17576411 0.24221331 -0.15987444
0003b0 b8 86 11 be 94 f6 7d be 9c df b6 bd 24 b5 ab bd
       -0.14211547 -0.24801093 -0.08929369 -0.08384159
0003c0 9a c4 01 3e 10 90 7b be 14 d2 7e be 06 44 75 3e
       0.12672654 -0.24566674 -0.24884826 0.2395173
0003d0 c4 9e 3b 3e f8 a4 0a 3d 9c d9 d1 3d 08 32 ed bd
       0.18322283 0.033848733 0.10246584 -0.11581808
0003e0 80 fd 2b bd fa b1 36 3e 8c c2 a3 3d c4 59 f6 bd
       -0.041989803 0.1784133 0.07996091 -0.1202884
0003f0 82 27 6b 3e d4 68 0e 3e 56 3e 32 be 80 c3 f9 3b
       0.2296429 0.13907176 -0.17406592 0.0076221824

net.0.bias f4 [16]
000000 ea 1d 4a be c0 6f 55 bc d2 17 71 be 0e 4f 66 be
       -0.19737974 -0.013027132 -0.23544243 -0.22491094
000010 22 f0 79 be 4c 07 d7 3d 98 b1 1a 3d 5e 19 2c be
       -0.2440801 0.10499439 0.037767023 -0.16806552
000020 e0 03 33 bd 7a 06 12 3e 58 bf b2 bd 00 de 60 bd
       -0.043704867 0.14260283 -0.08727902 -0.054899216
000030 7e fa 64 3e 24 a8 dd bd c0 6c 38 3d e4 50 73 be
       0.2236118 -0.10823086 0.045025587 -0.23761326

net.2.weight f4 [32, 16]
000000 74 80 2a be 30 ca 94 3c 60 74 68 bd 20 7f 10 3c
       -0.16650563 0.018162817 -0.05675161 0.008819371
000010 9a 51 1c 3e 14 59 57 be c4 ef 7f be 3c 94 de bd
       0.15265504 -0.21030074 -0.24993807 -0.10868117
000020 3c 06 ce bd f4 a4 34 be c0 a8 29 be b6 7b 59 be
       -0.10059783 -0.1764105 -0.1656828 -0.21238598
000030 e4 b9 5f be 70 a7 af 3c e2 e8 4b 3e 40 64 dc bc
       -0.21848255 0.021442145 0.19913056 -0.026903272
000040 14 21 02 be b4 ab ee 3d d8 c1 74 be fa f4 03 3e
       -0.12707931 0.116538435 -0.2390207 0.1288642
000050 fc 5e f4 bd 44 b6 ef bd 58 ba de 3d cc 66 b5 bd
       -0.11932179 -0.11704686 0.10875386 -0.088574976
000060 48 db 60 be 50 73 21 3e 60 fa 60 3c a4 a3 2d 3e
       -0.21958649 0.15766644 0.013731569 0.16956955
000070 e0 23 7d 3d 58 87 6b 3e 90 df 56 3e ea 1e 16 be
       0.06180179 0.23000848 0.2098372 -0.1466023
000080 f4 6a 27 3e 88 ea f3 bd e4 10 11 be 80 80 e5 bc
       0.16349393 -0.11909968 -0.141666 -0.028015375
000090 c0 66 bf bc 5c 3d eb 3d e4 89 b3 3d 50 1e 36 bd
       -0.023364425 0.11486313 0.08766535 -0.044462502
0000a0 7c 30 e4 3d 5c 9a 13 be aa de 0d be 16 6c 08 3e
       0.1114206 -0.14414352 -0.13854471 0.13322482
0000b0 44 54 5e be 98 59 1a bd 24 e9 27 3e 1a de 20 3e
       -0.21711832 -0.0376831 0.1639753 0.15709725
0000c0 d6 ec 04 be a4 24 98 3d 34 62 65 be e2 c1 17 3e
       -0.1298097 0.07428864 -0.22400743 0.14820054
0000d0 2a b8 40 be 26 89 2b 3e a8 8c 21 3e 10 c7 f9 3d
       -0.18820253 0.16751537 0.15776312 0.12196171
0000e0 f8 66 2b be c0 33 90 bd d0 f9 dc 3c 98 e9 81 bd
       -0.16738498 -0.070411205 0.026974589 -0.063433826
0000f0 2c 7c 63 3e d4 3a e2 3d b8 48 fb bd d4 77 45 be
       0.22215337 0.11046377 -0.122697294 -0.19283992
000100 54 eb 34 3e 3a cc 13 3e b8 cb 35 be de a1 72 be
       0.17667896 0.14433375 -0.17753494 -0.2369456
000110 a8 12 57 3d 54 74 8c bd 58 60 8f 3d 7e fe 59 be
       0.052508026 -0.06858125 0.07000798 -0.21288487
000120 20 06 21 be d4 42 5e 3e ea c9 11 be c0 1f c7 bc
       -0.15724993 0.2170518 -0.1423718 -0.024307132
000130 a4 d8 3c be d8 ba a5 bd 58 24 90 3d d6 19 46 be
       -0.18442017 -0.08092278 0.07038182 -0.19345793
000140 b8 bd 15 be 02 51 1d 3e 24 24 82 3d f8 59 ca bd
       -0.14623153 0.15362933 0.063545495 -0.098804414
000150 1a cf 4a 3e dc 3e f6 bd c0 a3 cf bb 36 27 46 3e
       0.19805565 -0.12023708 -0.006336659 0.19350895
000160 38 2d 35 3d ea 16 3d 3e 7c 62 96 3d 22 2f 14 be
       0.044232577 0.18465772 0.07343003 -0.14471105
000170 62 2e 33 be b0 f9 d0 3d 74 7c 1e 3e d0 c8 70 3d
       -0.17498162 0.10203874 0.15477163 0.05878526
000180 7a 72 0a be 9c 30 35 3e f6 7b 1b 3e 64 b4 2e 3e
       -0.13520232 0.17694324 0.15184006 0.17061001
000190 b8 99 70 3e 34 af ea 3d 78 c0 67 bd 00 b9 64 be
       0.23496139 0.114591986 -0.056580037 -0.22336197
0001a0 a4 53 c3 3d 62 04 75 3e 00 e8 0c ba 0c a5 8a 3d
       0.095374376 0.23927453 -0.0005375147 0.067697614
0001b0 d2 96 51 3e bc 0c 2b 3e a8 a7 6f be 20 58 71 3e
       0.2046769 0.16704077 -0.234038 0.23568773
0001c0 d8 76 52 be 00 98 1e bd 56 f2 14 3e 94 97 f3 bd
       -0.20553148 -0.038719177 0.14545569 -0.118941456
0001d0 00 cf 2b 3d 3e 43 70 3e 10 99 df bd f8 55 06 3e
       0.041945457 0.23463151 -0.10917866 0.13118732
0001e0 d0 d0 0b bd c0 91 fb 3b 74 1b 6c be 6c bc f9 3d
       -0.034134686 0.007677287 -0.23057348 0.12194142
0001f0 dc 14 92 bd b4 80 0b be 8a e9 6c be c4 b2 f1 3d
       -0.07132885 -0.13623315 -0.23135963 0.11801675
000200 c0 26 70 bc c0 50 cf bc 52 56 2e be c8 33 1b 3d
       -0.014657676 -0.02530706 -0.17025116 0.03789118
000210 c0 50 06 3c 38 63 2f be 00 54 17 bb c8 67 1f 3e
       0.008197963 -0.17127693 -0.002309084 0.15566933
000220 c0 21 90 bc 46 13 59 3e f4 34 59 be 44 6d ab 3d
       -0.017594218 0.21198758 -0.21211606 0.0837045
000230 70 88 f9 3d 68 d5 1b be e4 c8 ae bd 60 7d ff bc
       0.121842265 -0.15218127 -0.085344106 -0.031187713
000240 9a 1d 22 3e a8 d0 61 bd 80 76 0e bb 00 1c 3e 3b
       0.15831605 -0.05513063 -0.0021738112 0.0029008389
000250 2c 99 8a bd 76 bc 58 3e 4c 48 1e 3e b0 46 b3 bd
       -0.067674965 0.21165642 0.15457267 -0.08753717
000260 fa 75 2a be ca f0 5d be 30 a5 63 bd b0 05 6c 3d
       -0.16646567 -0.21673885 -0.055577457 0.05762261
000270 a8 63 e4 3d f6 6d 6a be e0 b9 4a 3c 08 53 2f bd
       0.111518204 -0.2289351 0.012373418 -0.042803794
000280 30 7b 71 be 64 d1 9b 3d 88 65 16 3d 40 ee ee bc
       -0.23582149 0.076082975 0.03671792 -0.02916634
000290 04 02 ec 3d 1c c7 7d 3e 9e 3c 63 3e 66 2c 23 3e
       0.11523822 0.24782985 0.22191092 0.15934905
0002a0 f0 57 95 bc b8 41 9d 3d 8a 47 6d 3e da 7e 20 be
       -0.018230408 0.076785505 0.23171821 -0.1567339
0002b0 c2 9c 1f 3e 40 98 83 bc 48 08 b6 3d 14 3c 00 3e
       0.15587142 -0.01606381 0.08888298 0.12522918
0002c0 40 b8 bc bb 50 de 6f bd 54 a9 3e 3e 2c f8 c4 3d
       -0.005759269 -0.058561623 0.18619281 0.096176475
0002d0 80 31 b0 bd 98 fc 7f 3e 80 07 d6 bb ba ea 5d be
       -0.086031914 0.249987 -0.006531656 -0.21671572
0002e0 f0 fa ac 3c 7c 1e 6e 3e 3e c4 3f 3e f4 6f 94 bd
       0.02111575 0.23253816 0.18727204 -0.07247916
0002f0 cc e0 61 3e dc e4 97 bd a8 fb 50 3d 0a f2 07 be
       0.2205841 -0.07416698 0.051021248 -0.13275924
000300 b4 01 13 3e de 30 25 be 50 8d 90 3c d8 ea 17 bd
       0.14356118 -0.16131923 0.017645508 -0.0370892
000310 d0 4f ac 3d f6 06 52 3e f4 8f 1e 3e 00 72 06 bd
       0.084136605 0.20510468 0.15484601 -0.032823563
000320 8c 7c fa bd 3c 47 1b be ca ef 31 be 90 ee 0f be
       -0.12230787 -0.15163893 -0.17376629 -0.14055848
000330 66 73 17 be aa 7c 2e 3e a4 1a 18 be a0 70 5c be
       -0.14790115 0.17039743 -0.14853913 -0.21527338
000340 b8 6e 03 bd 40 d3 81 bd 48 a3 0b bd d4 08 55 be
       -0.03208801 -0.06339121 -0.034091264 -0.20804149
000350 90 32 6c bd 44 1e 5b be 40 1b d8 3c d6 6e 00 3e
       -0.057665408 -0.21398264 0.026380181 0.1254228
000360 28 d9 4e be 90 78 2e 3d 8a e9 71 3e cc 85 b6 3d
       -0.20200026 0.042595446 0.23624244 0.089122385
000370 ac bb 55 3e c0 70 d5 3b ea 07 3b 3e b0 1d a8 3c
       0.20872372 0.006513685 0.18264738 0.020521969
000380 d4 84 2b 3e 28 2b 45 3e b4 31 8d 3d 74 7c c4 bd
       0.16749889 0.19254744 0.06894246 -0.0959405
000390 58 6c 44 3d 80 3a 1c 3c bc 95 dc 3d 3c 61 89 bd
       0.047954887 0.009535432 0.10770747 -0.06707999
0003a0 78 03 1c be 5c f8 0a be 8c cd 1b be 20 83 3e bc
       -0.15235698 -0.13571304 -0.15215129 -0.011627942
0003b0 f4 b4 1a 3e 54 13 03 be f8 69 1c bd 3e b2 21 3e
       0.1510809 -0.12800342 -0.038186997 0.1579065
0003c0 4c 5f 6e be f4 c2 2b 3e 00 7f 80 3a 1c e2 f2 3d
       -0.2327854 0.16773587 0.0009803474 0.11859533
0003d0 cc 59 bc 3d 50 bd 04 3e e6 b2 3b be b4 d9 70 3e
       0.09196815 0.12962842 -0.18329963 0.23520547
0003e0 98 d9 02 3d 00 94 40 bb 20 fd d6 3d 52 88 45 be
       0.031945795 -0.002938509 0.104974985 -0.19290283
0003f0 fc d4 14 3e 18 34 f0 bd 34 33 f8 3d e6 4f 0b 3e
       0.14534372 -0.11728686 0.12119141 0.13604698

net.2.bias f4 [32]
000000 f0 38 77 3e a6 cf 3a 3e 16 c2 33 be 70 4c 70 3e
       0.24142814 0.18243274 -0.17554507 0.23466659
000010 ce fb 41 be 36 01 4e be 48 1c e8 3d b8 7f 42 3e
       -0.18943712 -0.2011765 0.11333519 0.18994033
000020 70 62 59 be 0c f1 25 be cc da c9 bd b0 2e cd bd
       -0.21228957 -0.16205233 -0.09856185 -0.100186706
000030 a0 ce 02 bc 20 f9 99 3c 8c e2 3e be 1e 7d 17 3e
       -0.007983834 0.01879555 -0.18641108 0.14793822
000040 f8 18 bf bd c0 50 53 be 1a cd 2d be 58 1e 54 3d
       -0.09330934 -0.20636272 -0.16972771 0.05178675
000050 f8 a5 04 3d ec 34 8d bd 30 ea 75 bd e6 81 01 be
       0.032384843 -0.0689486 -0.06003779 -0.12647209
000060 8a a0 2a 3e 84 d8 4e be 0c 8d 5a be 7a 60 19 be
       0.16662803 -0.20199782 -0.21342868 -0.14978209
000070 f4 0f a3 3d 10 3f 2c be 62 0b 09 3e c6 dc 43 be
       0.07962027 -0.16820931 0.13383248 -0.19127187

net.4.weight f4 [64, 32]
000000 50 61 f9 3c c0 49 60 3b 9a e2 18 be e2 40 a7 3d
       0.03044191 0.0034223646 -0.14930192 0.08166672
000010 66 7f 17 be 4e 34 ed 3d 54 c3 54 bd 39 0c 0b 3e
       -0.14794692 0.11582242 -0.051944092 0.13578881
000020 a9 09 8c bd b6 bf 16 be a0 5c 88 3b 36 e3 81 bd
       -0.0683778 -0.1472157 0.0041614324 -0.06342165
000030 bd dd 27 3e 22 49 fe bd 72 0c 7b bd c0 de f6 3b
       0.1639318 -0.12416293 -0.061291166 0.007533878
000040 05 c2 16 be 20 eb 7f 3d 9a cb b0 3d ce 99 94 bd
       -0.1472245 0.062480092 0.08632584 -0.072558984
000050 18 36 bb 3c 40 3d 4b bb 92 7e af 3d 8c 6f 27 bd
       0.022852942 -0.003101185 0.08569063 -0.040877864
000060 c0 a4 5f bb 52 ec 16 be 79 9e 2b be d2 7c 90 bd
       -0.0034125298 -0.14738587 -0.16759671 -0.070550576
000070 00 ed 90 3c 9d a4 19 3e 94 aa f2 bd 68 2f e4 3c
       0.017691135 0.15004201 -0.118489414 0.027854636
000080 cb 6f a3 bd 5c 2c 7f bd b8 b9 59 3d c9 77 22 3e
       -0.07980307 -0.062298164 0.05315563 0.15866007
000090 d8 ff 92 3d 67 21 12 3e 76 12 9c 3d cf 98 08 3e
       0.071777046 0.14270554 0.07620709 0.13339542
0000a0 14 88 f9 bd 98 f2 7f bd 28 6b 8a bc 35 8c 05 3e
       -0.12184158 -0.062487215 -0.0168968 0.13041766
0000b0 c3 90 27 3e 3d e3 27 3e f2 92 29 be 4c 05 1c bd
       0.16363816 0.16395278 -0.16559961 -0.03809099
0000c0 7e 7c fc 3d eb 9a de bd bc 43 81 bd a2 39 22 be
       0.123284325 -0.10869392 -0.063117474 -0.15842298
0000d0 b3 59 cf bd a0 0d ee bb 80 dc 53 bc 3e 11 d2 3d
       -0.10124531 -0.007264808 -0.012930989 0.10257195
0000e0 26 d4 06 be d6 76 dd bd df 8f 15 be 40 5a 57 bb
       -0.13166866 -0.10813682 -0.14605664 -0.003286019
0000f0 50 ed e3 3c a4 9b 2e bd e5 e4 e1 bd 9e 72 eb 3d
       0.02782312 -0.0426289 -0.11029986 0.11496471
000100 a8 46 58 3d d0 9e 06 3c 6f db 02 3e a0 4e f9 bc
       0.052801758 0.008216575 0.1277902 -0.030433
000110 f4 10 0f bd 00 b7 2f be a2 a2 fa 3d d5 d8 24 3e
       -0.034928277 -0.17159653 0.12238051 0.1609834
000120 d4 ed 89 bd 9c 8e 69 bd ec ce 65 3d 77 f1 0a be
       -0.06734815 -0.05702077 0.05610554 -0.13568674
000130 68 cb 5d 3d 64 db 83 3d b0 ce b5 bc b2 2f ed 3d
       0.05414906 0.0643833 -0.022193283 0.11581363
000140 d0 4a 80 bd 72 e3 db 3d 38 e4 81 3d d8 aa 5e 3d
       -0.06264269 0.10736741 0.063423574 0.054362148
000150 60 7b e4 bb 8c b4 43 3d f2 4f a2 bd 12 20 22 be
       -0.0069727153 0.047779605 -0.079254046 -0.15832546
000160 40 74 b7 bb 80 48 d0 bd 10 56 61 3c c0 18 b4 bb
       -0.005598575 -0.10170078 0.013753429 -0.0054961145
000170 6a 68 d0 3d 44 18 ef bd 9a 5f 00 be 9f 6f 15 3e
       0.101761654 -0.1167455 -0.12536469 0.14593361
000180 2a f9 f7 bd 58 50 d5 bd 39 70 06 be 52 f7 ba 3d
       -0.12108071 -0.10415715 -0.13128747 0.09129204
000190 05 71 c9 bd be 47 f8 bd 00 3e 24 ba 35 19 1b 3e
       -0.0983601 -0.12123059 -0.0006265342 0.15146334
0001a0 14 1d 5c 3d 74 57 07 3d 81 e4 89 bd d8 ad 85 3d
       0.05373867 0.033042386 -0.06733037 0.06527299
0001b0 42 d5 1f be c0 9b 63 3b 50 4f 5d 3d f7 45 10 be
       -0.15608695 0.0034730285 0.054030716 -0.1408919
0001c0 00 2d f5 3a fc d4 15 3d 41 65 2c 3e 24 12 4d 3d
       0.0018705428 0.03658007 0.168355 0.05006613
0001d0 80 c0 eb bc a8 a8 36 bd 70 6e ee bd f1 47 16 3e
       -0.028778315 -0.044594437 -0.11642158 0.14675881
0001e0 ae cf 0b be f8 20 16 3d 80 f8 89 bc 26 f3 c0 3d
       -0.13653442 0.036652535 -0.016842127 0.09421377
0001f0 e0 0e dd bc 36 40 00 be 74 d8 3b 3d 00 80 f9 ba
       -0.026984632 -0.12524495 0.045860723 -0.0019035339
000200 c0 dc c4 bc 46 c2 e9 3d 04 44 4a 3d 02 9e c1 bd
       -0.024031043 0.11414008 0.04938127 -0.09453966
000210 62 0e b5 3d de 92 c1 3d 5c 89 20 bd a8 20 a8 3c
       0.08840634 0.09451841 -0.039193496 0.020523384
000220 80 f5 e7 3a 7e a9 ee 3d fc 70 8c 3d de 2f dc bd
       0.0017697066 0.11653422 0.068574876 -0.107513174
000230 3c 7e 4c 3d 78 e0 62 3d 6c 73 16 3d c0 d4 64 3d
       0.049925074 0.05538985 0.03673117 0.055866957
000240 70 c2 98 3c a8 55 bd 3c 3e 97 a9 3d 10 82 32 3d
       0.018647403 0.023112133 0.082808 0.04358107
000250 6c 3a 75 3d 19 13 e4 bd 47 4c 04 3e c1 0c 33 be
       0.05987017 -0.11136455 0.12919722 -0.17485334
000260 ab e7 14 be ee c6 ec 3d 00 a0 c0 3c e8 90 84 bd
       -0.145415 0.1156138 0.023513794 -0.06472951
000270 d0 97 5e bc 1e 6d 99 3d f0 24 25 be a6 7b 16 be
       -0.013586 0.074915156 -0.16127372 -0.14695606
000280 09 30 bc bd fd 42 29 be 26 42 bd bd fd b9 a7 bd
       -0.091888495 -0.1652946 -0.092411324 -0.08189771
000290 8f e6 9e bd 5f b4 14 3e bb 61 cf bd f0 71 f7 bc
       -0.07758819 0.14521931 -0.101260625 -0.030205697
0002a0 67 e0 17 3e 58 0e 38 bd eb a8 23 3e b7 ea 12 be
       0.14831696 -0.044935554 0.15982406 -0.14347349
0002b0 6f 0f 33 be 82 80 ec 3d 89 42 28 3e 5b 3a b3 bd
       -0.17486356 0.115479484 0.16431631 -0.08751365
0002c0 e2 11 bd 3d c7 05 00 3e e6 f7 15 be d9 4e f5 bd
       0.092319265 0.12502204 -0.14645347 -0.119779296
0002d0 0a 34 23 be 40 ce 33 3c 88 48 62 bd 7d e9 0f be
       -0.1593782 0.010974467 -0.055244952 -0.14053912
0002e0 40 00 77 bb 22 21 e9 3d e4 9f 13 bd 21 d5 ae bd
       -0.0037689358 0.11383273 -0.036041155 -0.08536745
0002f0 e5 31 26 be 18 1e 80 bc 93 fe 2c 3e 48 d2 a6 bc
       -0.16229971 -0.01563935 0.16893987 -0.020363942
000300 d8 57 94 3c d8 65 e8 bc f0 80 1f bc c4 ea 34 be
       0.018108293 -0.028368875 -0.009735331 -0.17667681
000310 ed fd ea bd 32 65 9b bd 32 18 97 3d 42 b7 28 be
       -0.11474214 -0.07587661 0.07377662 -0.16476157
000320 d8 61 f3 3c 38 7a 13 3d 24 e8 0d 3d f1 1d 1c 3e
       0.029709741 0.03600523 0.034645215 0.15245797
000330 60 42 69 3c 37 ef 33 3e 0d 9b 13 3e ea e6 c3 3d
       0.014237016 0.17571722 0.14414616 0.09565528
000340 c9 4e 29 be 70 1b e1 3c e0 36 cd bd ab 9e 1c 3e
       -0.1653396 0.027478904 -0.10020232 0.15294902
000350 02 29 eb 3d 08 e1 ee bc d8 61 db bd c0 66 64 3d
       0.11482431 -0.029160038 -0.107120216 0.055762053
000360 2a 38 b1 3d 40 ee 53 3d 0a c7 af 3d c7 50 0d 3e
       0.086532906 0.051740885 0.085828856 0.13800345
000370 8c 08 27 be 20 f3 c0 bc 1e 44 82 bd 32 6f ee 3d
       -0.16311854 -0.023553431 -0.063606486 0.116423026
000380 00 7f 7b bd 3c 4e 45 bd a8 71 ac bc 81 43 34 3e
       -0.061400414 -0.048170313 -0.02105029 0.17603876
000390 9e 07 b0 bd e7 bf 00 3e 38 c4 2d be a0 3d 11 3d
       -0.08595203 0.12573205 -0.16969383 0.03545916
0003a0 04 c5 2e be 80 1d 2d 3b e5 95 1f be 27 15 0e be
       -0.17067343 0.0026415288 -0.15584524 -0.13875256
0003b0 56 56 73 bd 04 36 75 3d 92 0c d8 3d 90 63 ef bc
       -0.05940851 0.059865966 0.105492726 -0.02922228
0003c0 d5 a5 11 3e 68 ed b4 3c f8 e1 1d be 60 a0 1d 3d
       0.14223416 0.02208586 -0.15418231 0.038483024
0003d0 6a 68 92 bd 3a 0d 87 3d 05 89 25 3e b4 66 0f 3d
       -0.07148822 0.0659432 0.1616555 0.035010055
0003e0 82 c5 ac bd 96 27 d9 3d db be 10 3e db fd 2b 3e
       -0.08436109 0.106032535 0.14135306 0.16796057
0003f0 ae 93 95 3d 82 fd ed 3d f6 b1 e4 3d b0 dc 33 3d
       0.07303558 0.116206184 0.11166756 0.043911636

net.4.bias f4 [64]
000000 86 7e ed bd c7 08 d8 bd 6b 15 a7 bd 9e eb 2a be
       -0.11596398 -0.10548549 -0.08158382 -0.16691443
000010 de d0 e5 3d 0e d3 1b be a1 5f d6 bd 70 b9 5b bd
       0.11221479 -0.1521723 -0.104674585 -0.053643644
000020 80 d3 c6 3c 70 a2 70 bd 77 b0 01 3e 62 f1 c6 3d
       0.024270773 -0.058748662 0.12664972 0.09714009
000030 8b e5 05 3e 9c 90 1f bd ee 5a ed 3d 00 9e ab b9
       0.13075845 -0.03895627 0.11589609 -0.0003273338
000040 08 1a e7 bc 8f a3 0e 3e 3f 5d 19 be 8d 98 30 be
       -0.028210655 0.1392958 -0.14976977 -0.17245694
000050 dc 1e 53 3d c6 78 e6 3d 40 3a ca 3b 28 80 04 bd
       0.0515431 0.112535045 0.0061714947 -0.03234878
000060 70 00 fe bc 50 64 09 be e1 41 0d 3e 9f b4 b1 bd
       -0.031006068 -0.13417172 0.13794662 -0.08677029
000070 61 14 d1 bd c0 30 74 bd 69 6e 1b be d6 01 c7 3d
       -0.10208965 -0.059616804 -0.15178837 0.09717147
000080 10 60 03 be 63 90 04 3e 32 1c 68 bd a0 d5 c0 bb
       -0.12829614 0.12945704 -0.056667514 -0.005884841
000090 80 ab d8 3c 92 13 09 be 40 b1 94 bc c0 10 43 bc
       0.026448965 -0.13386372 -0.018150926 -0.011905849
0000a0 08 82 2d bd 48 67 1e be a0 85 cb 3b 24 f2 00 be
       -0.042360336 -0.15469086 0.0062109977 -0.1259237
0000b0 fe aa 66 bd d8 7f 4c 3d 71 48 c2 bd 70 77 42 3d
       -0.056315415 0.04992661 -0.09486473 0.047477186
0000c0 a8 7b b6 3c c0 f3 48 bb 00 9a 1b bc 9d ff 10 3e
       0.02227576 -0.0030662864 -0.009497166 0.14160009
0000d0 07 66 02 3e 6d 9f 0a 3e 7d 5e 95 bd 32 65 1a be
       0.12734233 0.13537379 -0.07293413 -0.15077665
0000e0 f0 d1 bd bc be 00 f1 3d 81 5e e0 bd e0 b9 06 be
       -0.023171395 0.1176772 -0.10955525 -0.13156843
0000f0 24 80 0a 3d 21 ca 0b 3e 20 f4 ea 3c e8 07 ec bd
       0.03381361 0.13651325 0.028680861 -0.115249455

net.6.weight f4 [64, 64]
000000 ac d3 63 bd c8 4f d1 3d 4e 74 f0 3d c0 b6 45 3d
       -0.055621788 0.10220295 0.11740933 0.048269987
000010 02 1f b7 bd 50 e6 b6 3c 10 86 cf 3d ba 57 f1 3d
       -0.08941461 0.022326618 0.10132992 0.11784311
000020 b8 ab 59 bd 70 56 3e 3d 10 9f 80 3c 18 04 dc 3d
       -0.05314228 0.046469152 0.015700847 0.10742968
000030 f8 ce 0d bd 3c ef 38 bd 10 39 60 bc b0 7c 23 3c
       -0.03462121 -0.045150027 -0.01368548 0.009978458
000040 c0 62 0e bd 7e a2 b6 bd 24 4a 6a bd 5c 0f b7 bd
       -0.034762144 -0.08917712 -0.057199612 -0.089384764
000050 a0 25 b6 3d 6e 9a 94 bd 90 ea ba 3d 58 55 9f 3d
       0.08893895 -0.072560176 0.091267705 0.0777995
000060 20 10 3d bd 1c fd 4c bd 20 41 c1 bc bc 60 0e 3d
       -0.046157956 -0.05004607 -0.023590624 0.03476022
000070 0e 84 81 bd 9a 09 f1 3d 48 4d 81 bd 38 82 ea bc
       -0.063240156 0.117694095 -0.06313568 -0.028626546
000080 52 f3 99 bd e8 31 8d bd 18 84 fc bc f0 c5 80 bc
       -0.07517113 -0.068942845 -0.030824706 -0.015719384
000090 f4 aa e5 bd 72 42 e3 3d 60 a9 23 bc 00 fd 7a bd
       -0.11214247 0.11096658 -0.009989113 -0.061276436
0000a0 7c 4f 30 bd 70 a9 f5 3d 70 c4 4a 3c d4 c8 4d 3d
       -0.043044552 0.11995208 0.012375936 0.050240353
0000b0 90 c7 fc bc 1e fc e0 3d f6 11 fb 3d f0 fb 48 bc
       -0.030856878 0.109855875 0.12259285 -0.012267098
0000c0 50 10 d3 bc 24 bf df bd 60 a1 e3 bc ac c1 3c 3d
       -0.025764614 -0.10925129 -0.02778691 0.046083137
0000d0 9e 67 9f bd c0 43 93 3b 24 bd c6 3d 90 57 3c 3d
       -0.07783435 0.0044941604 0.097040445 0.045981944
0000e0 10 05 53 3c 6e b6 a9 bd 70 6b 7d bc b0 87 67 3c
       0.012879625 -0.08286749 -0.01546751 0.0141314715
0000f0 4c 88 c4 bd 00 8f 9b bb 56 28 bf bd 74 a8 74 bd
       -0.09596309 -0.0047472715 -0.09333865 -0.059730962
000100 00 e2 89 ba 00 6c a2 3c c8 ab f1 3c 30 71 a0 bc
       -0.0010519624 0.019826889 0.029500857 -0.019585222
000110 00 5d d7 bc a0 94 12 bd e8 69 a0 3d 38 fd df 3d
       -0.026289463 -0.03578627 0.078327 0.109369695
000120 5a fa bb bd a8 5c 7d bd 20 9a 90 bd 0a 0c fc bd
       -0.0917861 -0.061855942 -0.07060647 -0.12306984
000130 20 2b 95 bc 74 76 cb 3d 40 a5 bf 3b f0 cd 02 bc
       -0.01820904 0.099347025 0.0058485568 -0.00798367
000140 c8 b4 a4 3d 38 2a 5a bd f8 45 e4 3d 20 9d cb bc
       0.08042294 -0.05326292 0.11146158 -0.024855196
000150 92 ec 9f bd b8 f2 96 3d a6 bd bc 3d e8 60 e5 3d
       -0.07808794 0.07370514 0.0921586 0.11200124
000160 a8 01 f7 3c e4 bf 6c 3d 60 f2 8f 3b 38 11 54 bd
       0.030152157 0.05780019 0.004392907 -0.051774234
000170 e0 51 9e bc 86 f1 a9 3d 1a d4 e4 bd 64 97 6c 3d
       -0.01932615 0.0829802 -0.11173268 0.057761565
000180 f0 3c 61 bd 84 91 f5 bd 88 f8 97 3c 68 bb 04 bd
       -0.054989755 -0.119906455 0.018551126 -0.032405287
000190 c0 da c2 3d 00 c7 4b bd f6 0b a9 bd 10 10 47 3c
       0.095143795 -0.049750328 -0.082542345 0.012149826
0001a0 c0 cb ae bc 60 2b c8 bb 70 93 56 bd 00 65 4e 3c
       -0.02133739 -0.0061086863 -0.0523867 0.012597322
0001b0 60 b2 85 bb de 9d a6 3d 36 81 85 3d 00 5a ae 3d
       -0.004080102 0.081355795 0.06518786 0.0851326
0001c0 d0 f6 4d 3c 4c 86 db bd 28 60 a3 bc a0 21 c6 bc
       0.012571052 -0.107189745 -0.019943312 -0.024185956
0001d0 24 15 ee bd 12 d1 9d bd 1e af b9 bd e8 13 82 bc
       -0.11625126 -0.077058926 -0.09066604 -0.015878633
0001e0 68 cf dd bc 42 6c a5 3d 74 52 09 bd dc 5d 22 bd
       -0.027076438 0.08077289 -0.0335259 -0.039640293
0001f0 80 a1 96 bc 20 ec b0 bc b4 47 81 bd 78 48 a5 3c
       -0.018387556 -0.021596968 -0.063125044 0.020176157
000200 48 46 42 bd f0 33 c0 bc 5c 73 33 3d 80 20 db 3b
       -0.047430307 -0.023462266 0.043811187 0.006687224
000210 0a 24 f8 3d 50 84 98 bc f8 80 b9 3c bc a9 9a 3d
       0.12116249 -0.018617779 0.022644505 0.075519055
000220 f8 c2 f0 3d a8 b3 fe 3c 5c ae 38 3d 86 73 9d bd
       0.11755937 0.031091526 0.045088157 -0.0768805
000230 20 d3 b6 3d 40 4c 21 3d 6a 32 ed bd a4 4d d7 3d
       0.08926988 0.03937936 -0.11581881 0.10512856
000240 10 1b 69 bc 70 ae 6c bd 14 3e c6 3d 60 2f 36 bd
       -0.014227644 -0.057783544 0.09679809 -0.044478774
000250 bc a2 14 bd 8c 1b da 3d d4 f9 5e bd d0 9f dd bc
       -0.036288008 0.106497854 -0.054437473 -0.027053744
000260 22 71 df bd b8 3b fb 3c 54 0d dc 3d 38 0d a3 bd
       -0.1091025 0.030668125 0.1074473 -0.07961506
000270 46 a9 c0 bd 94 fe bb bd d4 65 19 bd 72 02 e0 bd
       -0.09407286 -0.09179416 -0.037450626 -0.109379664
000280 90 df ac bc 20 2f 52 3c 40 57 00 bb fe 00 9d bd
       -0.021102697 0.012828618 -0.0019583255 -0.07666205
000290 a0 87 a3 3c 04 81 da bd a6 58 98 3d 5c 71 cf bd
       0.019962132 -0.10669139 0.07438783 -0.101290435
0002a0 86 54 ed 3d 44 41 f2 bd e2 6b 83 3d f8 13 a0 bc
       0.11588387 -0.11828855 0.064170614 -0.019540772
0002b0 fc d9 ab 3d 98 3e d6 3c 34 b8 05 3d e0 af 0c bc
       0.083911866 0.026152894 0.032646373 -0.008586854
0002c0 b8 46 92 bd e6 ab df bd ba 73 87 3d 70 80 29 bd
       -0.07142395 -0.10921459 0.0661387 -0.041382253
0002d0 8e 33 ff 3d 88 dd 48 3d 50 39 55 3c 78 48 39 3d
       0.12461005 0.049039394 0.013014153 0.045235127
0002e0 fc 0d 2a bd 8c ad d1 3d 28 35 dc bd ae b3 fb 3d
       -0.041517243 0.102381796 -0.10752326 0.122901306
0002f0 80 c2 c9 bc 34 df 83 bd 64 e5 12 3d 9c 56 bd bd
       -0.024628878 -0.06439057 0.035863295 -0.09245035
000300 8a 09 ec bd 0c be 47 3d ba 7b 94 bd 5c b7 03 bd
       -0.11525257 0.048765227 -0.072501615 -0.032157287
000310 c0 07 30 bb 7e 9f a7 3d b0 0b 70 3c 7c 3a a4 bd
       -0.0026860088 0.081847176 0.014651224 -0.080189675
000320 9e 11 99 3d 60 51 e2 bb 48 da fa 3d c6 e3 d5 bd
       0.07474063 -0.0069066733 0.12248665 -0.10443835
000330 00 36 e9 ba f8 d8 6c bd 00 88 77 3a f2 b4 e9 3d
       -0.0017792583 -0.057824105 0.0009442568 0.11411466
000340 de 4c c6 3d 44 6f 62 3d bc de 7d bd 00 d1 5c bc
       0.0968263 0.055281892 -0.061979994 -0.013477564
000350 be 93 9d 3d 5c 6b d9 bd 20 ed a2 bd 70 d3 ae 3d
       0.07694195 -0.1061618 -0.07955384 0.08536422
000360 be ee ec 3d 7c 37 d0 3d 14 ef 19 bd c4 03 16 bd
       0.11568974 0.10166833 -0.03758152 -0.036624685
000370 24 0b 5d bd 9a 74 9b bd 04 41 9b bd 54 8b 1f bd
       -0.053965703 -0.07590599 -0.0758076 -0.038951233
000380 d4 d3 5e bd c8 98 86 bc 98 63 a1 3c ba 64 9c bd
       -0.054401234 -0.016430274 0.01970081 -0.076363996
000390 a4 35 92 3d a0 96 67 bc 6c 58 aa bd 7a 2a ce 3d
       0.071391374 -0.014135033 -0.083176464 0.100666955
0003a0 a0 7e aa 3d 28 69 a4 bc b4 2a 06 bd 46 26 8c bd
       0.08324933 -0.020069674 -0.03275557 -0.068432376
0003b0 da 5f 92 bd 98 bd 18 bd b4 ef 87 3d 08 4c fd 3d
       -0.071471885 -0.037290186 0.066375166 0.123680174
0003c0 58 39 8b bc ec 7e e8 3d b4 06 a8 3d dc d3 63 bd
       -0.016995117 0.113523334 0.082044035 -0.055621967
0003d0 fe c1 d4 bd 3c f4 d2 bd 80 cc 5f bb a8 99 99 3d
       -0.103885636 -0.1030049 -0.003414899 0.07500011
0003e0 ac 4e 0c bd 52 c3 b3 bd 9c d8 43 3d 80 3f 33 bb
       -0.034254715 -0.08777489 0.047813997 -0.0027351081
0003f0 d2 95 de 3d 10 c6 11 bc 18 0d b5 3c d4 e6 05 bd
       0.1086842 -0.008897319 0.02210097 -0.032690838

net.6.bias f4 [64]
000000 f0 8c f6 bd 8a 26 a0 3d f4 fe 1c bd f8 77 c7 3d
       -0.120386004 0.07819851 -0.03832908 0.09739679
000010 b0 fe 68 3c d6 2e 93 3d 08 4a 99 bc ec af 8c bd
       0.0142208785 0.071866676 -0.018712059 -0.06869492
000020 08 be ca bc 18 aa 79 3d c0 1b 93 bc a4 9d 6d 3d
       -0.024748817 0.06095323 -0.017957568 0.058011666
000030 2c e9 d7 bd 42 89 f3 3d de 73 f9 3d c2 f0 c4 3d
       -0.10542521 0.11891414 0.12180303 0.096162334
000040 38 71 95 3d ac 6d 8b bd bc 87 25 3d 80 1e 4a bc
       0.072969854 -0.068080276 0.04041265 -0.012336373
000050 30 ed 12 bc 30 f0 78 3c ac a5 20 3d 2a e2 83 bd
       -0.008967683 0.015193984 0.039220497 -0.06439622
000060 84 2a 3b 3d f4 55 c5 3d 38 41 da bd a0 8c 68 3d
       0.045694843 0.09635535 -0.10656971 0.056774735
000070 50 52 ea 3c da de ec 3d 76 03 9b 3d 1a ad f5 3d
       0.028603703 0.11565943 0.075690195 0.11995907
000080 e4 3e 80 bd 30 4f 17 bd f6 13 8f 3d 24 72 83 3d
       -0.062619954 -0.036940753 0.06986229 0.06418255
000090 ea 58 dc 3d 80 ef 21 3b bc 8e 67 bd 5e a0 d1 bd
       0.107591465 0.0024709404 -0.056532606 -0.10235666
0000a0 f0 4d f4 bc 00 71 f1 bd a2 55 cc 3d e6 a0 82 bd
       -0.02982232 -0.11789131 0.09977271 -0.06378345
0000b0 a2 41 ff bd da 00 ff 3d 10 62 0a bd 00 25 db 3a
       -0.1246369 0.12451334 -0.033784926 0.0016719401
0000c0 62 4d 89 3d 1a 74 e8 bd 62 44 d2 bd 1e b6 f9 bd
       0.06704213 -0.113502696 -0.10266949 -0.12192939
0000d0 10 44 3c bd 20 a1 83 bb 36 bf 9d bd 8e bf e9 3d
       -0.045963347 -0.0040170103 -0.07702486 0.11413489
0000e0 90 75 8d bd d6 1f eb bd 80 e0 c3 3a e8 c5 ca 3c
       -0.06907189 -0.114806816 0.0014944226 0.024752572
0000f0 da 5b eb 3d 2c 4c f0 bd 6a 3e e6 bd f8 aa 60 3d
       0.11492129 -0.11733279 -0.11242373 0.05485055

net.8.weight f4 [64, 64]
000000 7c dd f2 bd 90 ed 3b bd 08 52 b8 3c b8 a0 90 3d
       -0.11858651 -0.045880854 0.022500053 0.07061905
000010 a4 6d f5 bd f0 b7 a2 3d d4 1c 75 bd 68 71 d7 bd
       -0.11983803 0.079452395 -0.059841946 -0.105196774
000020 40 27 a4 3d 08 87 ba 3c 4c a0 1b 3d d0 47 49 bc
       0.08015299 0.022769466 0.037994668 -0.012285188
000030 bc 4b d2 bd 4c 60 f5 3d de 2e cf 3d 90 45 9d 3d
       -0.102683514 0.11981258 0.10116361 0.076792836
000040 90 d3 f2 bd 52 38 b6 3d 38 ce d3 3c d8 aa e2 bc
       -0.118567586 0.08897461 0.025855169 -0.027669355
000050 28 07 db bd 80 d2 c4 ba 6a ce e1 bd d2 51 ed 3d
       -0.10694724 -0.0015016347 -0.110256985 0.115878716
000060 0e cd cb 3d d8 08 80 bd 5c 87 d4 bd e0 4f 09 bd
       0.099512205 -0.06251687 -0.1037738 -0.03352344
000070 20 10 e6 3d 38 57 b4 bd 90 81 56 bc c0 a0 08 bd
       0.11233544 -0.08805698 -0.013092414 -0.03335643
000080 d0 d9 99 3d 74 a3 ac bd 2c 54 d8 bd 98 6b eb 3d
       0.075122476 -0.08429614 -0.105629295 0.11495131
000090 84 f5 11 3d 28 f5 aa 3d 70 64 de 3d e4 f6 ff 3d
       0.035634533 0.08347541 0.10859001 0.124982625
0000a0 8c 2e f0 bd 8c 75 29 bd e0 ff 12 bd 4e 2a a4 bd
       -0.11727628 -0.041371867 -0.035888553 -0.080158815
0000b0 e8 54 f8 3d d0 72 9f bd 6a ca fe 3d 28 94 ce 3c
       0.121255696 -0.077855706 0.12440951 0.02521713
0000c0 34 74 b8 3d 78 39 f7 3d 40 e7 23 3d 16 12 e0 3d
       0.09006539 0.12071508 0.04001546 0.109409496
0000d0 d8 0a 0b bd 60 06 81 3d 40 9d 2a 3c b0 e5 f7 bc
       -0.03394589 0.06300044 0.010413468 -0.03026089
0000e0 10 53 c0 3d 24 85 8b 3d de 91 9d bd 00 e1 fb bb
       0.09390843 0.06812504 -0.076938376 -0.007686734
0000f0 10 3d c4 bc 28 ae 81 3d 90 a1 ca bd 80 d2 72 3c
       -0.023954898 0.06332046 -0.09894097 0.014820695
000100 c2 0d f9 3d 70 3e 1e bd 04 18 44 bd a8 21 fa bc
       0.12160827 -0.038633764 -0.047874466 -0.030533627
000110 44 cc 8f bd a8 20 88 bd 56 4d c2 3d 84 48 3a bd
       -0.070213825 -0.06646854 0.09487407 -0.045479313
000120 a4 c1 0b bd 56 53 ea bd 8c 32 b2 3d 20 a5 e9 3d
       -0.034120217 -0.11441676 0.08701047 0.11408448
000130 a0 be e1 3b 0c cb 40 3d 10 e2 e6 bd e2 f8 fc 3d
       0.0068891793 0.04706864 -0.11273587 0.12352158
000140 9c 5c 8e 3d b8 88 bd bc e8 e7 76 3d 7c e1 0b bd
       0.069512576 -0.023136482 0.060279757 -0.034150586
000150 de e1 a1 3d 90 d5 e0 bd f4 c4 be bd 3c be 2e 3d
       0.07904409 -0.10978234 -0.093149096 0.04266189
000160 60 3d e4 bd 4c 46 61 bd 78 90 9f bc 98 22 4e 3d
       -0.11144519 -0.05499868 -0.019478068 0.05032596
000170 e8 7e 1a bd 28 7a dc bc b6 94 e2 3d 14 ae bf bd
       -0.037718683 -0.026913717 0.110635206 -0.09359375
000180 28 a7 2c bd c8 85 41 bd 00 f0 f7 bd 38 53 ca bc
       -0.0421516 -0.047246724 -0.12106323 -0.024697885
000190 e0 cd a9 3b 9c ac f2 bd 10 63 3c 3d 50 43 22 bd
       0.005182013 -0.11849329 0.04599291 -0.039614975
0001a0 98 19 dc bc 8c ef c9 bd c6 af ab 3d 8c 0a 96 3d
       -0.026867673 -0.09860143 0.083831355 0.073262304
0001b0 b4 2b 9b 3d a0 30 e0 3c d8 77 33 3d 10 71 4a 3c
       0.07576695 0.027366936 0.043815464 0.012356058
0001c0 82 81 ca 3d 20 8e 9a bc c8 d2 4e bd ae 50 ba bd
       0.09887983 -0.018866599 -0.050493985 -0.0909742
0001d0 a8 60 47 3d 00 b8 43 bc 4a 5a a9 bd 3c 43 54 bd
       0.048676163 -0.0119457245 -0.082691744 -0.051821932
0001e0 c0 53 94 3c 98 59 0a bd 6a 2f fa 3d 20 7c 96 bd
       0.018106341 -0.03377685 0.12216075 -0.07347894
0001f0 54 4e f7 bd de a1 85 bd 10 43 36 bc b8 09 aa bd
       -0.12075487 -0.06525014 -0.011124387 -0.08302635
000200 a8 38 7e 3d dc d8 a3 bd be 85 96 3d 18 be 97 bd
       0.06206575 -0.08000347 0.07349728 -0.074093044
000210 6c 94 cc 3d 2a 84 da bd 02 e6 a1 3d e0 c6 16 3c
       0.09989247 -0.106697395 0.07905199 0.009202689
000220 0e be 8a bd 28 84 60 3d c4 95 73 3d 28 79 3a 3d
       -0.06774531 0.054813534 0.059469 0.0455257
000230 b0 2f 48 bd 64 d0 f5 3d 54 3f 5d bd 28 8d 58 3d
       -0.048873603 0.12002638 -0.054015473 0.052868992
000240 60 f8 36 bd fa dd 94 bd 44 ec 8c bd 58 8d 82 bc
       -0.044670463 -0.07268901 -0.068810016 -0.015936539
000250 60 be 09 bc 80 bf bc 3c c2 dd bd 3d 48 d4 ab 3d
       -0.008407205 0.023040533 0.092708126 0.08390099
000260 fe 71 a1 bd 7c d4 1f 3d c8 e2 eb bd aa 75 fe 3d
       -0.078830704 0.039021 -0.115178645 0.124247864
000270 12 11 ed 3d 2e d8 db bd c4 f0 b7 bd 76 41 e6 3d
       0.115755215 -0.107345924 -0.08981469 0.112429544
000280 e4 f4 42 bd 2c 1c 86 3d 6c 7c ff bd 34 1e 97 bd
       -0.047596827 0.06548342 -0.124749035 -0.07378808
000290 58 e2 9c bd 44 6b c1 3d 10 a8 33 3d 44 48 0b 3d
       -0.07660359 0.094442874 0.04386145 0.034004465
0002a0 30 32 12 3d bc 89 4d bd ae 86 d4 bd 00 ad 9d bc
       0.035692394 -0.05018018 -0.103772506 -0.019247532
0002b0 70 60 8d bd 34 5f 2c bd b0 74 ea bd 80 38 b6 bd
       -0.069031596 -0.04208298 -0.114480376 -0.08897495
0002c0 ee 1e e6 3d cc 0e b3 bd e0 e7 6a bd 80 88 6f 3c
       0.11236368 -0.08743057 -0.05735004 0.0146199465
0002d0 00 fe 31 bd 4e d7 db bd 7e d1 eb bd a0 c0 40 3d
       -0.043455124 -0.107344255 -0.11514567 0.0470587
0002e0 e0 a7 e6 3b 96 fe af bd 00 76 b2 3d a8 79 e4 bd
       0.007039055 -0.0859348 0.08713913 -0.111560166
0002f0 04 f7 38 3d 38 08 a4 bd e0 4e 7d bd a0 75 eb bb
       0.045157447 -0.0800938 -0.0618428 -0.007185653
000300 62 58 f9 3d 48 b2 f6 bc 08 43 f9 3c 98 11 a2 3c
       0.12175061 -0.030114308 0.03042747 0.01978378
000310 3c 94 b7 3d 80 05 ed 3c 98 3f 29 3d e2 4f ff 3d
       0.0896382 0.028933287 0.041320413 0.12466408
000320 a0 cb 8f 3b ec 5e 10 3d c0 a1 37 bc 58 8f ac bc
       0.0043882877 0.035246775 -0.011207998 -0.021064445
000330 be b8 de bd 0c 0a 2d bd b0 12 64 bd 8c 6c 1f 3d
       -0.108750805 -0.04224591 -0.055681884 0.038921878
000340 a4 12 24 bd 68 57 03 bd 7e b3 97 bd e4 bf 26 3d
       -0.04005684 -0.03206578 -0.07407282 0.040710345
000350 6c 82 ff 3d 10 97 4c 3d 44 92 62 3d 88 a7 66 bd
       0.12476048 0.049948752 0.05531527 -0.056312114
000360 40 25 28 3d 30 29 5c bd 84 b6 18 3d 80 64 b7 ba
       0.04105115 -0.053750217 0.037283435 -0.0013991743
000370 2c 6e 1f 3d f6 bf ce bd e6 cf a2 3d c8 25 bd 3d
       0.038923427 -0.100952074 0.0794981 0.09235722
000380 c0 10 78 3b c6 8c 94 3d 9c 42 c7 3d d0 0c dd 3d
       0.003785178 0.07253413 0.097295016 0.107934594
000390 b8 a3 81 bc 20 d9 8b bb 7c 96 24 3d de cb 8a bd
       -0.015825137 -0.0042678267 0.040182576 -0.06777166
0003a0 c8 73 95 3d 94 09 4d 3d fc 42 3d 3d 08 5b 86 3c
       0.07297474 0.050057963 0.04620646 0.016400829
0003b0 dc bc 9a bd 32 9b be 3d 38 a1 bb bd 84 8a c2 3d
       -0.07555553 0.09306945 -0.091616094 0.09499076
0003c0 80 9e 36 bb 14 9d 40 3d 78 c0 bf bc 80 8e 7b 3b
       -0.002786547 0.0470248 -0.023407206 0.0038384497
0003d0 74 9e df 3d 6c d7 6f bd 80 30 75 3b c0 e6 01 bb
       0.109188944 -0.05855505 0.0037412941 -0.0019821376
0003e0 4e 0d c3 bd 8c 24 d5 bd d0 7c 94 3d 60 af 44 bc
       -0.09524022 -0.104073614 0.072503686 -0.012004703
0003f0 b8 78 8a bc 0e 00 f1 bd 3a bc ae 3d 58 c1 33 bd
       -0.016903266 -0.117675886 0.08531995 -0.04388556

net.8.bias f4 [64]
000000 40 1d 34 bc 38 69 fc 3d 40 cd e6 3d fc 83 cd 3d
       -0.010993302 0.123247564 0.11269617 0.1003494
000010 d4 e1 85 bd b0 fe 4c 3c 9e b3 8d 3d 4c 2a 5f bd
       -0.06537214 0.012511894 0.06919025 -0.054483697
000020 70 07 9f bd 1e ab 99 bd 20 36 a0 bb c0 e7 d9 3d
       -0.077650905 -0.07503341 -0.0048892647 0.10639906
000030 ca c5 a1 bd 74 87 2a 3d e0 61 04 bd 4a bb a1 3d
       -0.078990534 0.041633084 -0.032319903 0.07897051
000040 40 7b 5c 3b d0 1f d5 3c 48 5e 93 bd 06 b9 e0 bd
       0.0033642799 0.026016146 -0.07195717 -0.109727904
000050 70 59 6f bc 0e 43 9f 3d 62 4a 9d bd 40 82 0f 3c
       -0.014608726 0.077764615 -0.07680203 0.008759081
000060 10 50 b9 bc 1c dc 64 3d a0 ff d2 3c 72 25 c3 3d
       -0.022621185 0.055873975 0.025756657 0.095286265
000070 b0 c7 dc 3c f0 d5 93 3d e8 8b 8b bd 7c 9d 8d bd
       0.026950687 0.0721854 -0.068137944 -0.069148034
000080 9c bd 61 3d c0 e0 26 3b d4 0c b1 3d 7a 6a c4 3d
       0.055112466 0.0025463551 0.08645025 0.09590621
000090 fc bc 51 bd 58 37 f8 bd c6 ad a1 3d a8 8a ea 3d
       -0.05120562 -0.12119931 0.07894473 0.11452228
0000a0 90 07 39 3c ac 88 5b 3d 94 93 75 bd cc 46 58 bd
       0.011293307 0.053597137 -0.059955195 -0.052801892
0000b0 f4 24 e0 3d 50 56 11 bc a2 f1 e3 bd fc fe c3 3d
       0.10944548 -0.008870676 -0.11130072 0.09570119
0000c0 a0 56 b6 bb 66 04 ca bd 68 cc 51 bd 50 3a 4c bc
       -0.0055645257 -0.0986412 -0.051220328 -0.012465075
0000d0 28 8c 71 bd dc fe 6e bd 00 fe be 3d e2 21 d7 bd
       -0.058971554 -0.05834852 0.093257904 -0.105045095
0000e0 a4 62 2f bd fc 33 c9 3d d0 36 fc bc 8c 3b 7d 3d
       -0.04281868 0.09824368 -0.030787855 0.061824366
0000f0 1c 86 98 3d d6 e7 ce bd 8c 88 f6 3d e8 97 cc 3d
       0.07447454 -0.10102813 0.12037763 0.09989911

net.10.weight f4 [64, 64]
000000 c0 9e a5 3d b8 7a 0a bd 24 d6 e1 3d b4 20 6c bd
       0.0808692 -0.03380844 0.11027172 -0.057648376
000010 10 e4 28 bd 68 f8 df 3c dc 21 ab bd 62 e9 ab 3d
       -0.041233122 0.027340129 -0.083560675 0.083941236
000020 9a 5b 9c bd 16 34 b7 bd 78 ce 01 bd a0 d6 1a bc
       -0.07634659 -0.089454815 -0.031691045 -0.009450585
000030 1a 5e c3 3d 50 f4 fb 3c 80 f0 f1 3b 00 d6 89 3c
       0.09539433 0.030756146 0.007383406 0.016825676
000040 f0 9b 48 bc 60 8e 8d bd 6e 16 e3 3d 22 e7 8f 3d
       -0.01224421 -0.069119215 0.110882625 0.07026507
000050 32 ab e7 bd 46 b9 88 bd e8 0c fb 3d 38 14 38 3d
       -0.1131195 -0.06675963 0.12258321 0.044941157
000060 70 9e b6 3c d4 d0 91 3d 4e 3d a2 bd 22 96 a4 bd
       0.022292346 0.07119909 -0.07921849 -0.08036448
000070 4a 1d bd 3d 46 35 86 3d 80 53 14 3d dc 69 ef bd
       0.09234102 0.0655313 0.036212444 -0.11690113
000080 30 e4 d0 3d ce 12 b7 bd 68 44 1a 3d 8e 63 c6 3d
       0.10199773 -0.089391336 0.037662894 0.09686957
000090 58 d5 32 3d e6 af b5 bd a0 b1 a6 3d 74 76 13 bd
       0.04366049 -0.088714406 0.08139348 -0.036001638
0000a0 dc e2 f8 bd e8 3f 6c bd e0 d9 fb bb 44 d9 f8 3d
       -0.12152645 -0.057678133 -0.007685885 0.12150815
0000b0 a0 36 8d 3d 80 d4 c0 bb 68 e8 7b 3d 3e d3 b1 bd
       0.068951845 -0.005884707 0.061500937 -0.086828694
0000c0 c0 31 bc bb 98 78 c9 3d 32 37 85 bd a2 fb 91 3d
       -0.0057432353 0.098374546 -0.06504668 0.07128073
0000d0 06 da b8 3d fc 56 08 bd d0 4a 38 3d 40 83 80 3d
       0.0902596 -0.03328608 0.04499322 0.06275034
0000e0 a0 e5 95 3c 9c cf 86 3d 42 d9 d6 bd 42 e7 8c bd
       0.01829797 0.06582567 -0.104906574 -0.068800464
0000f0 fc 77 50 bd 68 9a f1 bc 3e 91 ba 3d 10 96 72 bc
       -0.050895676 -0.029492572 0.09109734 -0.0148062855
000100 50 d3 fe 3d 22 39 ba 3d ac b3 16 3d ac 6b 0b bd
       0.124426484 0.090929285 0.036792442 -0.03403823
000110 48 02 91 3d 60 4f 5a 3d b0 e3 e7 bc 6a 24 ca 3d
       0.07080513 0.053298354 -0.028306812 0.09870227
000120 4c e9 5d bd bc c3 cf 3d b8 81 06 3d c0 b9 f4 3b
       -0.054177567 0.10144755 0.032838553 0.007468432
000130 58 13 e2 bd d0 b0 25 bc 34 e1 9c 3d 58 4b 2d 3d
       -0.11038846 -0.010112956 0.076601416 0.04230818
000140 00 f4 8f 3b 02 1f 87 3d dc 23 a5 bd 4e 42 ed bd
       0.0043931007 0.06597711 -0.0806348 -0.11584912
000150 60 68 ad 3b f8 73 e1 bd aa 0a 9b 3d 28 dc 5a 3d
       0.0052919835 -0.110084474 0.075703934 0.053432614
000160 90 2f 8d 3c 10 da 32 3d 06 aa 9f 3d 10 c1 17 bc
       0.017234594 0.04366499 0.07796101 -0.009262338
000170 60 57 8a bd ec 3f 5f 3d b0 75 7e 3d be 8b c5 3d
       -0.06754947 0.05450432 0.062123954 0.09645794
000180 48 a8 0c 3d 70 3b 63 bd be e1 b4 3d 60 4a e7 bc
       0.034340173 -0.055476606 0.088321194 -0.028233707
000190 54 11 95 3d cc 27 ea 3d fc b9 32 bd 96 6e c8 3d
       0.07278696 0.11433372 -0.0436344 0.097867176
0001a0 92 5c bb 3d 36 bc 95 3d 04 e8 cb bd 7c e0 ab bd
       0.09148516 0.07311289 -0.09956363 -0.08392426
0001b0 b2 7a 81 3d a4 95 ad 3d 10 1e 40 bc c0 bd b2 bd
       0.063222304 0.08475807 -0.011725917 -0.08727598
0001c0 08 d9 82 bd 9c 07 8f bd ca 3a 8e bd 54 59 14 3d
       -0.06389052 -0.06983873 -0.06944807 0.036218002
0001d0 c0 35 f1 bd 34 35 5a 3d c2 5a f9 3d 5a eb 85 3d
       -0.1177783 0.053273395 0.12175514 0.065390304
0001e0 e8 93 ec 3c a0 ca ac bc 6c b1 62 bd f0 fb 30 3d
       0.028879121 -0.021092713 -0.055344984 0.043209016
0001f0 e0 3c 34 3d 3c 7c ae bd 14 81 f2 3d 7e 9f 9d 3d
       0.044003367 -0.085197896 0.11841026 0.07696436
000200 8c 83 6b 3d 38 20 ff 3c 56 34 ea 3d 10 7b e4 3d
       0.0574985 0.031143293 0.114357635 0.11156285
000210 c6 68 a9 bd fe ff da 3d da c0 e3 bd 1c 4c 03 bd
       -0.08271937 0.10693358 -0.11120768 -0.032055005
000220 00 ae dc 3a 00 4d 68 bc f0 19 96 3d 48 af f9 bd
       0.0016836524 -0.0141785145 0.07329166 -0.12191635
000230 fc 8f f6 3d 68 a0 e7 bc d2 ad b7 3d fc b5 fe 3d
       0.120391816 -0.02827473 0.089687005 0.124370545
000240 c0 c5 73 3d be d6 a2 3d e8 c2 df bd 38 48 fd 3c
       0.05951476 0.07951115 -0.10925847 0.030918226
000250 0c 09 ef 3d 56 ea c4 bd 22 76 f5 3d 0e fa 92 3d
       0.116716474 -0.096150085 0.11985423 0.071766004
000260 40 56 fe bb 60 be 48 bd c0 bc 70 bd 64 70 16 3d
       -0.0077617466 -0.04900968 -0.058773756 0.036728278
000270 40 ec 48 3b e0 6b bf 3d 80 37 34 bb 7e 0d 8e 3d
       0.0030658394 0.093467474 -0.00274989 0.06936167
000280 78 e4 55 bd 60 b3 fa bd 00 50 d6 bd 00 e2 5c ba
       -0.052219838 -0.12241244 -0.104644775 -0.00084260106
000290 f0 12 15 bc 4c dc a2 bd 68 13 a8 bc 40 12 11 3d
       -0.009098753 -0.079521745 -0.020517066 0.035417795
0002a0 ec 9b 93 bd ce b3 f7 3d 48 05 d1 3c 56 61 dd 3d
       -0.07207474 0.12094842 0.025515214 0.10809581
0002b0 7c 51 46 bd 50 b4 b4 bc 96 6b 93 3d 88 ff a2 3c
       -0.048417553 -0.022058636 0.07198255 0.019897237
0002c0 f0 58 9a bc 20 45 cf bc 54 ed 2c 3d 90 cd dc 3d
       -0.018841237 -0.025301516 0.04221852 0.107813954
0002d0 70 8c 9a bc 70 0e 63 3c 3a 4e ad 3d 3c 8e ba 3d
       -0.018865794 0.013858423 0.08462186 0.0910916
0002e0 fa 10 99 bd ac 96 6f 3d b0 a4 df bc f0 a6 fe 3c
       -0.07473941 0.0584933 -0.027300209 0.031085461
0002f0 dc f8 74 bd ee 7b f4 3d e4 b2 d6 3d 00 28 37 ba
       -0.059807643 0.119377 0.104833394 -0.00069868565
000300 b2 a5 9a 3d 10 69 88 3d 7a b1 8e 3d 44 8f 63 3d
       0.07551135 0.06660664 0.06967445 0.05555655
000310 ae 88 a6 3d d0 45 fc bc e4 38 94 bd 7a f6 8d bd
       0.08131538 -0.030795008 -0.072374135 -0.06931777
000320 30 67 f9 3d 40 04 4d bb 14 b9 33 bd 3a 90 d0 bd
       0.121778846 -0.003128305 -0.043877676 -0.10183759
000330 d0 e2 b0 bc d0 96 b0 3c ca 18 f5 bd b0 61 23 3c
       -0.021592528 0.021556288 -0.11967619 0.009972021
000340 94 5d bc bd 0e 89 ce 3d 10 b9 c6 3d 5c 05 f5 bd
       -0.09197536 0.10084735 0.097032666 -0.11963913
000350 10 4d e9 bc 70 3b b4 bc c8 9d ea 3d 8e 5b af 3d
       -0.02847913 -0.022000998 0.11455876 0.085623845
000360 96 c8 df 3d 70 fc e8 bc a6 de a3 3d aa 2f df 3d
       0.109269306 -0.028440684 0.08001451 0.10897763
000370 16 b7 ae 3d ec 14 21 3d 28 81 27 bd 40 b5 e5 bb
       0.085310146 0.039326593 -0.040894657 -0.007010132
000380 56 52 b9 bd a0 83 e0 3c 46 5b f3 3d f4 d1 64 3d
       -0.090489075 0.027406514 0.118826434 0.05586429
000390 0e c4 d5 3d d8 a7 35 3d 40 99 75 3b 40 e8 4e 3c
       0.10437785 0.04434952 0.0037475377 0.012628615
0003a0 38 bb e0 bd 62 4a a6 bd bc 81 5b bd d2 84 c2 bd
       -0.10973209 -0.08119656 -0.05359052 -0.0949799
0003b0 f8 09 e2 3d 54 0c 89 bd a0 05 d1 3b 30 2e fa 3d
       0.11037058 -0.066918045 0.0063788444 0.12215841
0003c0 68 92 74 bd 34 a6 6a 3d 3c bb af 3d 00 24 4d b9
       -0.059709936 0.05728741 0.08580634 -0.00019563735
0003d0 04 03 37 3d 30 ae 9c bd d8 89 6c 3d ee f1 cc 3d
       0.04468061 -0.07650411 0.057748646 0.10007082
0003e0 c8 19 16 bd 2a e4 85 bd 80 ea 5e bb 8a 12 f1 bd
       -0.03664568 -0.065376595 -0.0034014285 -0.11771114
0003f0 96 f9 81 3d 94 24 05 bd 20 a2 76 3c dc 0e 53 bd
       0.06346433 -0.032505587 0.015053302 -0.051527843
