AE_multidim/model/wdgrl_2.pth (torch, 275892 bytes, 53 tensors)

net.0.weight f4 [32, 16]
000000 54 70 98 bd d0 73 4c 3e 4c e5 7f be 1c 11 7f 3e
       -0.074433 0.19966054 -0.24989814 0.2490887
000010 4a db 76 3e d4 1a 83 3d 4c 10 4e be 4c b8 14 be
       0.2410709 0.064016014 -0.20123404 -0.14523429
000020 a0 75 6d bc fa 58 3d be f8 9c 58 bd 30 f7 09 3d
       -0.014493376 -0.18490973 -0.052884072 0.033683002
000030 fa b0 2b be 70 d6 8f bd 40 f5 53 bc d0 47 0a 3e
       -0.1676673 -0.070233226 -0.01293689 0.13503957
000040 ce c5 6e 3e c8 26 e7 3d 4c be 17 be bc bf 18 3e
       0.23317644 0.11286694 -0.14818686 0.14916891
000050 20 38 67 bc 20 d0 bd 3d c8 ef 75 3d 60 ce 80 bd
       -0.014112502 0.09268212 0.060043126 -0.06289363
000060 d0 85 83 bc ac 1b 40 3e 60 b6 6d be 96 b7 76 3e
       -0.016055018 0.18760556 -0.23214102 0.2409347
000070 a8 78 bc bd b8 ba 63 3e 18 a1 31 3e 70 c0 00 be
       -0.09202701 0.22239196 0.17346609 -0.12573409
000080 c2 e6 7b be 42 29 51 be 84 ce bb 3d 7c 0f 27 be
       -0.24599746 -0.20425895 0.09170249 -0.163145
000090 a2 58 20 3e dc 2f f6 3d e0 59 7a bc cc 16 1a 3e
       0.1565881 0.12020847 -0.015280217 0.15047759
0000a0 08 00 3b be a0 60 11 3c 00 62 be bc 68 69 78 3d
       -0.1826173 0.008873135 -0.02324009 0.0606474
0000b0 50 f7 f4 bc 24 c4 4b be 7a 52 31 3e 80 29 86 bb
       -0.029903084 -0.1989904 0.17316619 -0.0040943027
0000c0 e8 28 24 be 80 22 0a bd 8e 38 58 3e e0 b4 04 3e
       -0.1603123 -0.033724308 0.21115324 0.12959623
0000d0 52 7e 5d 3e b8 68 cf bd 08 52 3e bd 04 76 7a be
       0.21630219 -0.101273954 -0.04646495 -0.24459082
0000e0 e4 76 70 be 7e c6 27 3e b0 4e 87 3d c0 1b 2a 3e
       -0.23482853 0.16384313 0.06606805 0.16612148
0000f0 10 cf 3a be a8 79 b9 3d b8 ff f5 3d 40 5d 03 3e
       -0.1824305 0.09056407 0.12011665 0.12828541
000100 00 85 ed ba a8 64 76 3e c0 73 f1 3b 94 5b e6 bd
       -0.0018121302 0.24061835 0.007368535 -0.11247936
000110 f0 09 99 3d e4 42 ba 3d 92 53 17 be b8 14 5d be
       0.074725986 0.090947896 -0.14777973 -0.21589935
000120 88 69 d5 bd ee 42 45 3e b0 da 72 3d f4 b5 21 be
       -0.10420519 0.19263813 0.059290588 -0.15792066
000130 e6 e7 46 3e d4 b0 78 3e e6 99 37 be a0 83 37 3d
       0.194244 0.24286205 -0.17929801 0.04480326
000140 c4 fd 13 be 98 f0 8b bd 90 be ae bd b8 f8 2e 3e
       -0.14452273 -0.06832999 -0.08532441 0.17087066
000150 28 c0 22 3e 90 32 1c bd 28 49 09 3e c0 3d 47 bc
       0.15893614 -0.038134158 0.13406813 -0.012160718
000160 cc 3f d9 bd 94 4a f7 3d b8 48 2e be d8 ae 48 be
       -0.106078714 0.120747715 -0.17019928 -0.19597948
000170 f0 4c d5 bc 78 13 6d 3e 96 25 43 be 64 7d e9 bd
       -0.026037663 0.23151958 -0.19057307 -0.114008695
000180 38 ce 1b 3d 38 5d 15 3e ac 44 66 be 00 b6 47 bb
       0.038038462 0.14586341 -0.22487134 -0.003047347
000190 62 8c 2b 3e 3c cf 15 3e 08 62 db bd 40 6d 80 3c
       0.1675277 0.14629835 -0.10712057 0.015677094
0001a0 70 9d 06 bd 98 fe 1a be 54 99 b2 3d 78 ad a1 bd
       -0.032864988 -0.15136182 0.08720651 -0.07894415
0001b0 20 d2 58 3e 1c ef 93 bd b4 c5 9f 3d 1e 11 7b 3e
       0.21173906 -0.07223341 0.07801381 0.24518248
0001c0 5c e9 58 be 84 78 31 3e 1e 63 2b 3e d0 d7 bb 3c
       -0.2118277 0.1733113 0.16737029 0.022930056
0001d0 c6 1e 34 3e 58 e9 06 bd 60 04 43 bc d0 06 9f 3d
       0.17589864 -0.032937378 -0.011902899 0.07764971
0001e0 30 d5 0b be 48 39 1a 3d 1c 42 c7 bd 66 19 7f be
       -0.13655543 0.037652284 -0.09729406 -0.24912032
0001f0 00 24 1c bd 80 19 ac bb 0a 9b 03 be c0 35 05 bc
       -0.03812027 -0.0052520633 -0.12852111 -0.008130491
000200 aa a3 04 be b8 fa a6 3d ac 09 2e 3e 0e 6f 28 3e
       -0.12953058 0.081532896 0.16995877 0.16448614
000210 d8 aa 49 3d 18 15 ea 3d c8 b3 20 3e f8 cd 39 bd
       0.049235195 0.114298046 0.15693581 -0.045362443
000220 6a c3 01 be 62 4d 15 3e 90 91 47 3e a0 20 d9 bd
       -0.12672201 0.145803 0.19489121 -0.10601926
000230 50 1f 1c 3e 1c 54 e5 bd c0 47 2f be 08 09 09 3d
       0.1524632 -0.11197683 -0.17117214 0.03345588
000240 18 f0 39 bd 48 6a 7e be f0 7c 37 be 00 10 51 3a
       -0.045394987 -0.2484523 -0.17918754 0.00079751015
000250 5a 15 3e be e0 0e 89 bd 92 a0 4c be 3c 74 70 3e
       -0.18562832 -0.0669229 -0.19983128 0.2348184
000260 ae 74 77 be ba 9a 62 3e c4 87 9f 3d e0 dc 27 be
       -0.24165604 0.22129336 0.07789567 -0.16392851
000270 90 d4 78 be 38 8d ad 3d 40 00 4d be f8 a7 bd bd
       -0.24299836 0.08474201 -0.20019627 -0.09260553
000280 58 22 d6 bd 2e f5 76 be 38 33 06 3d 30 2e 2d bd
       -0.10455769 -0.24116966 0.03276369 -0.042280376
000290 ac aa bb 3d 68 be 7b bd a4 fc 00 3e 48 01 03 3e
       0.091634125 -0.061460882 0.12596375 0.12793458
0002a0 44 cd e0 3d 84 ea 08 3e be d9 6c be de 0d 1d be
       0.10976651 0.1337071 -0.23129937 -0.15337321
0002b0 28 a2 98 3d 56 35 36 be 00 57 8b 3a 28 1b 5c 3d
       0.07452804 -0.17793784 0.0010630786 0.053736836
0002c0 72 3c 49 3e 60 ef 05 bd fa c9 17 be 5a fd 35 3e
       0.19651964 -0.03269899 -0.14823142 0.17772427
0002d0 f0 02 52 3d f0 d3 00 3d aa 9a 63 3e 20 7b 80 bd
       0.051272333 0.03145212 0.22226968 -0.06273484
0002e0 f8 6f 3f be 40 26 c0 bd 16 0f 6d 3e ec 7b 8a bd
       -0.18695056 -0.093822956 0.23150286 -0.067619175
0002f0 94 72 97 bd de 2a 16 3e a8 30 19 bd 30 d1 35 bd
       -0.07394901 0.1466479 -0.037399918 -0.04438895
000300 04 f5 ee bd 18 d5 99 3d 14 d9 07 3e 58 57 12 be
       -0.11667827 0.075113475 0.13266402 -0.14291131
000310 00 00 ee b8 c0 d7 be 3c f8 1e e2 bd 38 0c 5c 3e
       -0.000113487244 0.023296237 -0.11041063 0.21489036
000320 f6 79 61 3e f4 e7 cc bd b8 8a 01 bd 80 84 42 be
       0.2201918 -0.10005179 -0.031626433 -0.18995857
000330 80 6e a7 bb c0 d7 c9 bd fc e5 d4 3d fc 60 04 be
       -0.005109608 -0.09855604 0.103954285 -0.12927622
000340 f8 18 42 bd 26 66 0d be e2 73 66 3e 48 6d 89 bd
       -0.047387093 -0.13808498 0.22505143 -0.06710297
000350 7e 2d 1a be 88 d7 d8 bd 18 14 31 3d 74 b9 0b 3e
       -0.15056416 -0.10587984 0.043232054 0.13644964
000360 20 81 10 3e 5c bb 25 3e 96 41 5c 3e 6a fd 19 be
       0.14111757 0.16184753 0.21509394 -0.15038076
000370 b8 44 4f bd fc 83 63 be f2 50 70 3e b4 b3 7f be
       -0.050602645 -0.22218317 0.23468378 -0.24970895
000380 2c 20 18 be a4 dd 93 bd 00 84 8e 39 b2 b0 16 be
       -0.14856023 -0.07220009 0.00027182698 -0.14715841
000390 ac e9 fd 3d 70 d8 0a 3e 50 65 17 3e 64 b8 7d 3e
       0.12398085 0.13559127 0.14784741 0.2477737
0003a0 0e 12 38 3e 10 d8 94 3c 00 b5 2c be 90 bd bb 3d
       0.17975637 0.018169433 -0.16865921 0.091670156
0003b0 64 03 36 3e d8 a8 12 3d 22 18 78 3e 88 94 6f bd
       0.17774731 0.035805553 0.24227956 -0.05849126
0003c0 0e dc 4a 3e 22 30 75 be 00 6a 72 3d e2 6b 2a be
       0.19810507 -0.23944142 0.05918312 -0.16642717
0003d0 8c e7 c1 bd 4e a7 49 be d4 69 e8 bd ea 2b 03 3e
       -0.09467992 -0.19692728 -0.1134831 0.1280972
0003e0 84 e6 71 be 20 5e ee 3d 72 82 39 be ca 79 0e be
       -0.23623091 0.11639047 -0.18116167 -0.13913646
0003f0 00 2b b2 3d 9c 54 f2 bd 94 f9 2f 3e 3c 2a 35 3e
       0.08699608 -0.11832544 0.1718505 0.17691892

net.0.bias f4 [32]
000000 38 81 14 3e 5e 92 0c be 48 6d d6 3d 48 9e aa bd
       0.14502418 -0.1372771 0.104700625 -0.08330971
000010 12 35 15 be 36 f5 3e be c4 e8 41 be 04 c2 aa bd
       -0.14571026 -0.18648228 -0.1893645 -0.08337787
000020 10 39 2b 3d 94 4d 00 3e 38 84 7e 3e c6 7f 2c 3e
       0.041802466 0.12529594 0.24855125 0.16845617
000030 78 83 04 bd 08 82 41 3d 40 fc 0b be 10 ec de 3d
       -0.03235194 0.047243148 -0.13670444 0.10884869
000040 ee 24 61 3e e8 c3 1e 3d a0 c8 fd bd 60 cb 2e 3c
       0.21986744 0.03876105 -0.12391782 0.010668606
000050 5e b1 61 3e 9a ee 1d be cc 9b a2 3d d0 48 46 be
       0.22040316 -0.1542305 0.07939872 -0.19363713
000060 62 a7 06 be b4 b4 26 3e d4 bf d1 3d c8 c1 31 3e
       -0.13149789 0.1627987 0.102416664 0.17359078
000070 a2 19 27 be fc 5d 31 be 12 37 4f 3e f4 cc 37 3e
       -0.16318372 -0.17321008 0.20235851 0.17949277

net.2.weight f4 [64, 32]
000000 3f f5 20 3e 20 b6 a0 bc 16 15 95 3d ee 28 a0 3d
       0.15718554 -0.019618094 0.072794124 0.07820307
000010 3a 46 9c 3d 88 1e e2 bc 50 2b e5 bc a4 ea c3 bd
       0.07630582 -0.027602449 -0.027974755 -0.095662385
000020 43 2b 22 be 32 7d 95 3d cc 57 0a bd ee 7c c8 3d
       -0.15836816 0.0729927 -0.033775136 0.097894534
000030 eb ec 1f be 53 42 06 3e 38 e2 fc bc 13 d0 ba bd
       -0.15617721 0.13111238 -0.030869588 -0.09121718
000040 08 31 1b bd ba 43 99 3d 48 ab ea bd a5 95 18 be
       -0.037888557 0.07483621 -0.114584506 -0.14900835
000050 a8 ed c8 bc 40 7d 30 bd d3 4b 1e be 4c db 31 be
       -0.024527386 -0.043088198 -0.15458612 -0.17368811
000060 b4 63 19 be 16 48 a9 3d e8 37 9d bc 40 7f 9b 3c
       -0.1497944 0.082657024 -0.019191697 0.018981576
000070 9e 1e ad 3d de 41 2e be 38 d8 21 be 6f ca 2c be
       0.084531054 -0.17017314 -0.15805137 -0.16874097
000080 54 79 00 3d 1a 61 e8 3d b7 f1 21 be ae 94 1c be
       0.031365708 0.11346646 -0.15814863 -0.15291092
000090 58 8b 23 3d cb fa 95 bd 0b f2 80 bd 86 36 cc bd
       0.03992781 -0.073232256 -0.06296166 -0.09971337
0000a0 cc 96 81 3d 1a f5 23 be 70 ca 24 3d 53 ff 9f bd
       0.0632759 -0.16011468 0.040232122 -0.07812371
0000b0 13 c9 09 3e 9b 8d 1e 3e 38 42 c9 3c 10 ee 89 bd
       0.1345561 0.15483706 0.024567708 -0.0673486
0000c0 4b ac 86 bd c0 16 1b bb ce ab c8 bd 92 dd 17 be
       -0.06575831 -0.0023664683 -0.09798394 -0.14830616
0000d0 d0 a8 8f 3c 1a ab a1 3d 58 29 87 bc a7 ee 07 be
       0.01753655 0.07893963 -0.016499206 -0.13274632
0000e0 32 7d 2f be ed f0 93 bd f0 80 be bc 02 bc b2 3d
       -0.17137602 -0.07223687 -0.023254842 0.08727266
0000f0 29 ba 15 3e 98 c8 30 bd c8 b2 96 bc 29 b4 27 3e
       0.14621796 -0.04316005 -0.018395796 0.1637732
000100 a2 37 65 bd 1e e1 2d be 0d da 13 3e c9 10 c5 bd
       -0.05596126 -0.16980407 0.14438649 -0.09622342
000110 d8 6a 02 bd 14 9b 8f 3d 8c 71 40 bd fa ab b8 3d
       -0.031840175 0.07012001 -0.046983287 0.09017177
000120 d1 d9 0b 3e 55 3b 2a 3e 72 53 07 be 7f b0 1b 3e
       0.13657309 0.16624196 -0.13215426 0.15204047
000130 f8 77 56 bd 7a 76 29 be 76 cf db 3d cd 82 ba bd
       -0.052360505 -0.16549101 0.107329294 -0.091069795
000140 a8 0a c3 3c 2e 32 d3 3d 3a 99 a9 3d 28 29 e8 bc
       0.023808792 0.103123054 0.08281179 -0.028339937
000150 eb e5 be bd 3d 81 c9 bd 75 58 18 be 90 2d 30 3c
       -0.09321197 -0.09839103 -0.14877494 0.01075305
000160 ce 97 d0 3d 80 73 29 bd 31 dd 2a 3e c1 e9 27 be
       0.101852044 -0.041369915 0.1668594 -0.16397764
000170 c9 c4 1d 3e 6c 37 2e be 2d f2 05 be dc 4e 01 be
       0.15407099 -0.1701333 -0.13080664 -0.12627739
000180 36 55 d6 bd f5 79 fe bd 10 8a 12 be 9c 25 87 3d
       -0.104654714 -0.12425605 -0.14310479 0.0659897
000190 36 42 9d 3d 80 3b 7e bd 3b c4 1a 3e 73 61 2a 3e
       0.07678644 -0.062068462 0.15113918 0.16638736
0001a0 e3 bc 14 3e 24 0f 68 3d 9f 21 24 be a1 c9 30 3e
       0.1452518 0.056655064 -0.1602845 0.17264415
0001b0 90 d1 09 3c 00 90 ff bb 4d b5 06 3e 2d 5b 02 3e
       0.00841178 -0.0077991486 0.13155098 0.12730093
0001c0 38 5e 30 be 45 a1 a7 bd ba 47 2f be 40 01 45 3b
       -0.17223442 -0.081850566 -0.17117205 0.003006056
0001d0 5b 5e 2c be 8b b0 2b 3e 35 a8 13 3e 66 34 f4 3d
       -0.16832869 0.16766565 0.14419635 0.11924057
0001e0 80 f9 cc bc 80 bc 9e 3c 8e cb 9c bd 78 a6 88 bc
       -0.025021315 0.019376993 -0.076560125 -0.016680941
0001f0 09 d1 13 3e d4 a0 25 be f5 aa 19 3e 1e 9a ad 3d
       0.1443521 -0.16174632 0.15006621 0.08476661
000200 50 00 64 3c 15 c0 28 3e 8a 7c b2 3d 48 22 30 be
       0.01391609 0.16479523 0.0871516 -0.17200577
000210 61 92 0f 3e 18 b4 c4 3c 8c b4 32 3d 7e 14 66 bd
       0.14020683 0.024011657 0.043629214 -0.056171887
000220 33 58 30 be 40 ed 7f 3d 24 7c 1c 3d 0a 3f f3 3d
       -0.17221145 0.06248212 0.038204327 0.11877258
000230 e0 39 9e bb 18 1a 8c bc 4b 7e 0a 3e c0 4e 24 be
       -0.0048286766 -0.017102286 0.1352474 -0.16045666
000240 1a 76 9e 3d 0f 49 c7 bd f0 4f 29 be c5 94 e7 bd
       0.0773737 -0.09730732 -0.165344 -0.113076724
000250 b8 e9 85 3d 00 5c 81 3d 5b 9b aa bd c8 6b c6 3c
       0.06538719 0.06316376 -0.08330413 0.024221316
000260 4b e1 b9 bd 95 5b cc bd 32 d5 2c be 80 73 f7 ba
       -0.09076174 -0.099784054 -0.16878203 -0.0018879026
000270 00 f1 5d 3d bd 74 02 3e 8c 17 15 be f3 ed 25 3e
       0.054184914 0.12739845 -0.14559764 0.16204052
000280 60 fa 92 3b 67 d4 0c 3e f4 6a 7b 3d 88 6b 12 bd
       0.0044854134 0.137529 0.061381295 -0.03574708
000290 34 fe 0a be 52 43 54 bd 06 68 dc 3d cf 82 2e 3e
       -0.13573533 -0.051822014 0.107620284 0.17042087
0002a0 c6 2f f7 3d f1 0b 34 3e 6e 8e bf 3d 1b 63 0f be
       0.12069659 0.1758268 0.09353338 -0.1400265
0002b0 f1 6f 1d be db 40 1b 3e f0 3b 48 bd 96 cb f4 3d
       -0.15374734 0.15161459 -0.048885286 0.119528934
0002c0 f4 ff 91 bd e8 01 27 be 6c 51 0c 3d 59 6e 8e bd
       -0.07128897 -0.16309321 0.034257337 -0.06954641
0002d0 80 44 f0 3a be e5 08 be f4 5b 3b bd b0 78 15 3d
       0.0018330961 -0.1336889 -0.04574199 0.03649205
0002e0 4d c5 e4 bd f0 13 3f 3c 1d 83 23 be c0 89 26 bc
       -0.11170445 0.011662468 -0.15967984 -0.010164678
0002f0 f7 eb 23 3e 58 6a a6 bd f8 a3 1b be f9 f7 01 3e
       0.16007982 -0.08125752 -0.15199268 0.1269225
000300 00 a1 08 be fd dc 27 3e ab e1 a4 bd 03 90 e2 bd
       -0.13342667 0.16392894 -0.08050855 -0.11062624
000310 99 e8 0b 3e 85 62 01 3e 7a 8d f4 bd 66 52 c8 3d
       0.13662948 0.12635238 -0.11941047 0.09781341
000320 31 e8 15 3e d7 f8 1d 3e 26 aa d5 3d 04 a9 0b bd
       0.14639355 0.15426956 0.10432844 -0.034096733
000330 4a ca 61 bd d4 5d 67 bd 9a bc da 3d ec 78 5d bd
       -0.05512456 -0.056485966 0.10680504 -0.0540704
000340 b6 4a f8 3d a1 6c 32 be 02 66 aa 3d 7c 28 46 3d
       0.12123625 -0.17424251 0.08320238 0.048378453
000350 d8 f3 73 bd 4e 5a 9b 3d ae 3d ce 3d a8 ae 4a bd
       -0.05955872 0.075855836 0.10070358 -0.04948297
000360 b0 52 7b 3d 35 46 12 3e 36 74 56 bd 91 8b d2 bd
       0.061358154 0.14284594 -0.05235692 -0.102805264
000370 5d 49 08 3e 2a 0d 65 bd 1a aa 14 be 58 9a ab bd
       0.13309236 -0.055920757 -0.14518014 -0.08379048
000380 ce 1b 2a be 7f 59 29 3e 96 78 a3 3d 46 cf 97 3d
       -0.16612169 0.16538046 0.07981984 0.07412581
000390 18 56 9d 3c f3 1e d6 bd 8a 7e 7e bd f6 dc 9f 3d
       0.019206092 -0.10455122 -0.062132396 0.07805817
0003a0 7a f4 a7 3d 80 8b 8c 3c 08 73 98 bc d2 56 ad 3d
       0.08200927 0.017156363 -0.018609539 0.08463825
0003b0 6a 61 f8 3d 00 56 c7 39 d6 40 a9 3d 00 81 1e be
       0.12127955 0.00038020313 0.082643196 -0.15478897
0003c0 aa cc ea 3d 5d 3f 05 3e 24 09 d4 bd fa e6 ec bd
       0.11464818 0.13012452 -0.10353306 -0.11567493
0003d0 36 9f c0 3d 51 d7 e9 bd 00 a8 fd bc 70 83 1f bc
       0.09405367 -0.114180215 -0.030963898 -0.009735927
0003e0 cc 41 51 bd 7e 25 f0 3d e0 1e 29 be b8 e2 ad 3c
       -0.05108814 0.11725901 -0.16515684 0.021226272
0003f0 c5 16 d9 bd 17 c4 0b 3e 31 75 e3 bd 9e 6d f7 3d
       -0.10600046 0.13649021 -0.11106337 0.12081455

net.2.bias f4 [64]
000000 6a f9 bc 3d 9e de e0 3d 21 09 34 3e 40 fd 39 bd
       0.092272595 0.10979961 0.17581607 -0.045407534
000010 70 19 bf bc d0 0c ff bd ba 91 ea 3d 7a 8f 74 bd
       -0.02332756 -0.12453616 0.114535764 -0.059707142
000020 62 a3 ab bd a2 6f 85 bd c6 2d 24 be c0 59 80 3c
       -0.08380772 -0.06515433 -0.16033086 0.015667796
000030 ba a3 d6 3d 8a b0 0f be de 29 c3 bd ad f5 32 3e
       0.10480447 -0.14032188 -0.0952947 0.1747653
000040 74 e7 58 3d 4b 88 05 3e 5d 03 17 3e 33 20 1d 3e
       0.052955106 0.13040273 0.14747377 0.15344314
000050 45 51 00 be 9c 1c 1c be 1c f6 58 bd 90 e5 d0 3c
       -0.12531002 -0.15245289 -0.052969083 0.025500089
000060 b0 ae e4 bc 28 7c fa bd 80 2a 08 bb 00 77 01 3c
       -0.027915329 -0.12230712 -0.0020777285 0.007901907
000070 a1 d8 0f be 24 a1 30 be 38 5c ad bc 30 a2 88 bc
       -0.14047481 -0.1724897 -0.021162137 -0.0166789
000080 f6 a0 fa 3d 20 73 5a bc 8a fd 8d 3d 7a 86 2f be
       0.12237732 -0.013333112 0.06933124 -0.17141142
000090 34 02 5d 3d 32 86 a9 3d 5a 13 e1 3d e0 6b ee 3b
       0.05395718 0.08277549 0.10990019 0.0072760433
0000a0 cc b4 ea bd d8 6e a0 3c 44 c1 51 bd c8 c0 0d be
       -0.114602655 0.019584104 -0.051209703 -0.13843071
0000b0 60 42 aa 3c 19 cc 15 3e a2 05 cb 3d e6 7d b3 bd
       0.020783603 0.14628638 0.09913184 -0.087642476
0000c0 4a 1d fc 3d 72 14 1b be 23 44 1c 3e 66 d4 ea 3d
       0.12310274 -0.15144518 0.15260367 0.11466293
0000d0 8c 30 2d bd 2a c3 a9 3d b8 cb 9a 3c c5 77 21 3e
       -0.042282626 0.08289178 0.018895969 0.15768345
0000e0 88 67 59 3d 4c 20 50 bd 8d 17 21 be ee ff ff 3d
       0.05307725 -0.05081205 -0.1573164 0.124999866
0000f0 9c e4 14 3d 41 19 10 3e 38 4c 2c bd aa 51 05 be
       0.03635083 0.14072134 -0.042064875 -0.13019434

net.4.weight f4 [64, 64]
000000 5a 82 d0 bd 20 9f 64 3d 9c 53 fa bd 96 e7 99 3d
       -0.101811126 0.055815816 -0.122229785 0.07514875
000010 b6 cd cc 3d 9e bb b9 bd 70 db 0f bc 98 83 e1 bc
       0.10000174 -0.09068988 -0.008780345 -0.02752857
000020 a4 9a d7 3d 94 04 eb bd f8 95 cf 3c b8 e7 a6 3c
       0.10527542 -0.114754826 0.025340065 0.020374164
000030 b2 11 90 bd b0 a8 81 3c e6 86 e2 3d 06 4a d3 bd
       -0.07034625 0.015827507 0.11060886 -0.10316853
000040 00 a0 48 bb a0 6e ee 3d 84 63 5f bd be d5 eb 3d
       -0.0030612946 0.11642194 -0.054538265 0.115153775
000050 e4 31 ca 3d 70 27 8e bc 2a e6 c6 bd 96 80 86 3d
       0.09872797 -0.01735279 -0.09711869 0.065674946
000060 18 b8 a4 bc 08 01 ab bd fe cf ee bd 60 55 f6 3b
       -0.020107314 -0.08349806 -0.11660765 0.0075175017
000070 3c 8d df bd 6c ca 06 3d d0 4c c8 bc 3c 6a 31 bd
       -0.1091561 0.03290789 -0.02445069 -0.043314204
000080 c0 fb d2 3c 58 e1 7d 3d ac 6d b4 3d 86 e1 f3 bd
       0.02575481 0.061982483 0.08809981 -0.119082496
000090 c0 a7 12 3c 06 db 85 bd e0 27 93 3c 40 42 b8 bc
       0.0089511275 -0.06535916 0.01796335 -0.022492528
0000a0 c0 17 55 bb 98 59 9e 3c 22 31 cb 3d 5e 0e c7 3d
       -0.0032515377 0.019329831 0.09921481 0.09719537
0000b0 e0 5d 1c 3c 94 f8 85 3d d0 14 ac 3d c0 91 cf 3c
       0.009543866 0.06541553 0.08402407 0.025338054
0000c0 54 40 11 bd e0 8f 2a 3c f8 a3 bf 3d 62 87 ce bd
       -0.03546174 0.010410279 0.093574464 -0.10084416
0000d0 ec e8 82 3d 72 8e bc bd c4 c5 b0 3d fe 6f b4 3d
       0.063920826 -0.09206857 0.08631471 0.08810423
0000e0 94 8f b3 bd fc a5 03 bd b4 63 12 bd 86 81 e4 bd
       -0.0876762 -0.032140717 -0.035739616 -0.11157517
0000f0 c0 48 c1 bd 00 45 8d bd 00 00 4c 39 ec a3 b8 3d
       -0.09437704 -0.06897926 0.00019454956 0.090156406
000100 54 99 88 bd 90 b5 f0 bc 34 7a b3 3d 66 50 f0 bd
       -0.0666987 -0.02938345 0.08763543 -0.11734085
000110 5e c8 b8 bd 0a 3d a3 3d e8 d7 37 3d 08 ac 43 bd
       -0.09022592 0.07970627 0.04488364 -0.047771484
000120 86 eb b8 3d 92 09 8d 3d 56 b5 f7 bd d4 8b 55 bd
       0.090292975 0.06886591 -0.12095134 -0.052135304
000130 24 c3 90 3d 90 14 43 3d 80 63 e3 3a 1c 7f fe bd
       0.0706847 0.04762703 0.0017348379 -0.12426588
000140 ee 01 89 bd 80 a0 ba bc 84 17 39 bd a2 e3 cb 3d
       -0.06689821 -0.02278161 -0.045188442 0.09955527
000150 18 1b f2 3d c4 7f 96 bd 06 b7 dc bd 7c 14 a6 3d
       0.11821574 -0.07348588 -0.107770965 0.08109376
000160 82 57 9f bd 60 59 c9 3c d0 3a a9 bd f8 f9 82 3d
       -0.07780363 0.02457875 -0.08263171 0.06395334
000170 3c 43 18 3d 28 db 25 3d 24 c7 2d bd 90 d7 a7 bd
       0.037173495 0.040492207 -0.042426243 -0.08195412
000180 30 0f 53 bd 60 a6 84 bb 88 1d bc 3c 00 02 5f 3d
       -0.051528156 -0.0040481538 0.0229633 0.054445267
000190 f4 a7 e0 3d 26 32 ba bd 28 79 f8 3c 4a e0 ad 3d
       0.109695345 -0.09091596 0.03033121 0.08490045
0001a0 80 9b 8b 3c f0 0b fe bc 38 a8 e5 3d a8 f4 dd 3c
       0.017041922 -0.031011552 0.11213726 0.0270942
0001b0 0e ad d6 3d d0 ca a0 3d 0e ec be bd b8 ce e3 3c
       0.10482226 0.078511834 -0.093223676 0.027808532
0001c0 6a f7 a9 bd 1a 88 fd 3d 42 e8 fa 3d 78 63 bd 3d
       -0.082991436 0.12379475 0.12251331 0.09247488
0001d0 fe 1a 93 bd 64 7d 87 3d d4 24 06 bd 38 34 8e 3c
       -0.07182883 0.06615713 -0.032749966 0.017358884
0001e0 a8 c2 46 3d 70 f5 c6 3c c4 95 dd 3d c0 83 9c 3b
       0.048525482 0.024286956 0.10819581 0.004776448
0001f0 00 7b 0c 3b 4e 4d 9a 3d 18 f6 15 3d ec 6f 92 3d
       0.0021435618 0.07534276 0.036611646 0.07150254
000200 70 49 50 3d 18 a6 fb 3c c8 4b 7d bd c8 47 e5 bc
       0.050851285 0.030718848 -0.06183985 -0.02798833
000210 20 62 ab bb ec 76 3b bd 3e 52 c2 bd 34 7d e2 bd
       -0.0052302033 -0.04576771 -0.09488343 -0.11059037
000220 a4 a5 e2 bd a8 78 39 bd ae e3 ed bd c8 76 29 3d
       -0.1106675 -0.045281082 -0.11615692 0.041373044
000230 a8 36 e2 3d 02 90 b9 3d 50 18 c4 bd 84 53 2c bd
       0.11045581 0.090606704 -0.0957495 -0.042071834
000240 a6 fd b7 bd 48 e8 4d 3d 68 bc 68 bd a8 5b 01 bd
       -0.089839265 0.05027035 -0.056820303 -0.03158155
000250 d4 25 80 bd e8 7c 27 bd fe 8f b9 3d 8e 99 e3 3d
       -0.06257215 -0.040890604 0.090606675 0.111132726
000260 30 3c c3 bc e0 76 c2 bc 98 53 e5 bc 80 b2 33 bc
       -0.02383241 -0.023738325 -0.027993962 -0.010967851
000270 d0 bc 43 3c 8e 4a e2 3d fc de 95 bd f2 cf bf 3d
       0.011946872 0.110493764 -0.073179215 0.09365834
000280 bc d9 36 3d 30 84 e4 3c 36 34 c8 3d 58 1b d0 bc
       0.04464124 0.027895063 0.097755834 -0.025403664
000290 cc cb 91 bd 66 d0 a7 3d 10 90 05 bd 30 49 2e 3d
       -0.07118949 0.08194046 -0.03260809 0.042550266
0002a0 1a 20 b4 3d a4 ee b2 3d f8 0c a6 bd ca 10 bf bd
       0.087951854 0.08736923 -0.08107942 -0.09329374
0002b0 66 83 a6 bd e8 75 de bc fc e4 e9 3d 58 d5 cc bd
       -0.08130531 -0.027155831 0.114206284 -0.100016296
0002c0 20 88 3c 3d 3c 96 b6 bd 74 28 84 bd 5e e7 9e 3d
       0.046028256 -0.08915374 -0.06453028 0.077589735
0002d0 60 85 55 bc 70 be 95 bd cc 98 43 bd 50 c5 2c 3c
       -0.013032287 -0.07311714 -0.04775314 0.01054509
0002e0 e8 6a 5e 3d e8 24 b3 bd 3a fa cf 3d 74 d6 93 bd
       0.054301172 -0.08747274 0.10155149 -0.07218638
0002f0 d0 16 b7 bd 60 1c 03 3d d2 84 86 bd 90 be 72 bd
       -0.08939898 0.032009482 -0.06568302 -0.059263766
000300 04 21 18 bd 80 dc 60 bc 84 a5 d4 bd 40 88 f3 bd
       -0.03714086 -0.013724446 -0.10383132 -0.11891222
000310 44 2a 13 bd f0 fd ab bd b8 90 ae 3d 10 19 5b 3d
       -0.03592898 -0.08398044 0.08523697 0.0534907
000320 66 d2 d3 3d 18 7f 76 bd 04 be f0 3d c0 bc 01 3d
       0.10342865 -0.0601798 0.117549926 0.031674147
000330 f8 a7 99 bc 80 34 53 3c 0e 16 81 3d 24 11 4e 3d
       -0.018756852 0.012890935 0.06303035 0.050309315
000340 f8 4d 77 3d 5c 13 b5 bd de af fa bd 78 fd 9f bd
       0.06037709 -0.08841583 -0.12240575 -0.07812017
000350 68 b5 d2 bd c8 64 e8 bd c8 a1 9b 3c 28 81 9c 3d
       -0.10288507 -0.113473475 0.018998042 0.07641822
000360 30 62 8e bd 62 e2 c8 3d 00 28 e6 3d 28 5f ae bc
       -0.069523215 0.09808804 0.11238098 -0.021285608
000370 d0 2c 78 bd 60 36 72 3d 54 f0 73 bd c2 b7 d5 bd
       -0.06058961 0.059133887 -0.059555367 -0.1043544
000380 22 57 d3 3d 1e 54 f6 bd 38 1c bc 3c 04 d8 0e 3d
       0.10319354 -0.12027763 0.022962674 0.034873977
000390 58 c9 8e bc aa 38 b7 bd 6c 60 8d bd b0 24 59 3c
       -0.017429993 -0.08946355 -0.06903157 0.013253376
0003a0 00 9a 43 bd 90 be e2 bc e8 b9 0f 3d e0 e7 a7 3d
       -0.047754288 -0.027678758 0.035089403 0.081985235
0003b0 d0 25 e9 3d 52 2c 96 bd 12 1e 84 bd d0 43 13 3d
       0.11384165 -0.07332672 -0.06451048 0.035953343
0003c0 d8 69 34 3d 00 a4 ce 3a 90 cc 6e bc c8 c1 b3 bc
       0.044046253 0.0015765429 -0.014575139 -0.021942988
0003d0 30 2c e2 3d 78 69 bf bc 8e fc fd 3d f8 f6 e4 bd
       0.11043584 -0.023365721 0.124016866 -0.11179918
0003e0 60 a1 38 3d 78 68 9a 3d 74 ee 36 3d 48 bd 2f 3d
       0.045075774 0.07539457 0.044661 0.042905122
0003f0 80 a8 2e 3b c0 57 fd 3b 3e 68 e0 bd 48 1e 61 bd
       0.0026650727 0.007731408 -0.109573826 -0.05496052

net.4.bias f4 [64]
000000 60 9d 55 bc 3a b5 96 bd 00 ec 2a 3c 50 60 57 bc
       -0.013038009 -0.07358785 0.010432243 -0.013145521
000010 38 f3 e9 3c f0 7d ca bd fc cd 26 3d 52 19 bb bd
       0.028558359 -0.09887302 0.040723786 -0.09135689
000020 a8 d5 c7 3d 10 e7 eb 3d 28 a4 ec 3c 6e 83 e4 3d
       0.097575486 0.11518681 0.02888687 0.11157881
000030 50 7e 18 3d 48 21 22 3d 80 4c ad bc 74 86 c3 3d
       0.037229836 0.03958252 -0.021154642 0.09547129
000040 7c c2 f0 3d 00 93 2a bb 70 27 54 bc 88 18 38 3d
       0.11755845 -0.002602756 -0.012948856 0.04494527
000050 d8 12 d7 3c 60 4f 45 bd ec 37 a4 3d d0 20 9d bc
       0.026254103 -0.0481714 0.08018479 -0.019180685
000060 02 ff 94 bd 5a 43 d1 3d c0 0b 85 bc 08 4a f0 bc
       -0.072752014 0.102179244 -0.016240954 -0.029332176
000070 4c e5 78 bd f0 d9 07 bc c6 be c5 bd 94 87 20 bd
       -0.06076555 -0.008291706 -0.09655528 -0.039191797
000080 e4 11 c5 3d a8 dc f8 bc 44 31 ba 3d 56 d9 80 bd
       0.09622553 -0.030378655 0.09091428 -0.062914535
000090 30 9e f4 3d 80 f7 80 ba a2 e8 e5 3d 70 e8 12 bd
       0.11944234 -0.0009839386 0.11226012 -0.0358662
0000a0 70 84 a2 bd fe 4a 8e 3d 2a 6b b2 bd 70 99 51 bc
       -0.07935417 0.069478974 -0.08711846 -0.01279293
0000b0 60 7f 26 3d 40 29 d9 3c 22 96 80 bd ac 05 aa bd
       0.040648818 0.026508927 -0.062786356 -0.08301863
0000c0 90 a0 1a bc 36 a5 d4 bd d8 53 90 3c b8 e0 1a 3d
       -0.009437695 -0.10383074 0.017618105 0.037811965
0000d0 70 e2 b5 3c 20 bf e2 bb 30 25 0e 3c cc d5 75 bd
       0.0222027 -0.0069197565 0.008675858 -0.060018346
0000e0 c0 7d 3a 3b 76 4c 86 bd a8 a5 c7 bc a8 02 d7 bc
       0.00284563 -0.065575525 -0.024370983 -0.026246384
0000f0 d0 2b 90 bc c0 dc f0 bb 24 fe be bd a0 db f7 3b
       -0.017599016 -0.007350534 -0.09325817 0.007564023

net.6.weight f4 [64, 64]
000000 5c 9e 0f 3d 06 eb d9 3d 1c a6 60 bd 08 43 be 3c
       0.035063133 0.1064053 -0.054845914 0.023225322
000010 e0 4d bf 3b 74 5e 1f 3d 9a dd ad bd 04 d9 7b bd
       0.005838141 0.038908437 -0.08489533 -0.06148626
000020 00 20 91 3b 42 85 80 bd c0 ed 60 bd 30 5d 75 bd
       0.0044288635 -0.06275417 -0.054914236 -0.059903324
000030 3c 2e ef 3d c6 c7 a2 3d a0 ba b7 bd d8 b7 cf 3c
       0.116787404 0.0794826 -0.08971143 0.025356218
000040 80 66 d4 bb 9a 08 f7 bd a0 89 f9 3b c6 77 b4 3d
       -0.0064819455 -0.120621875 0.007615283 0.088119075
000050 60 d0 a6 3c 78 ef b5 3d 10 14 99 bd 38 60 1b bd
       0.020363033 0.08883566 -0.0747453 -0.03793356
000060 bc 01 42 3d 8e 88 ad bd 00 cd 31 3c d6 b1 a3 bd
       0.047364935 -0.08473311 0.010852098 -0.07992904
000070 28 61 8e bd 10 58 11 3c a4 38 43 bd a0 c9 72 bc
       -0.06952125 0.008871093 -0.04766144 -0.014818579
000080 34 d6 5c 3d 1c 1e a3 bd 20 85 c4 3d ec aa 93 3d
       0.053915218 -0.07964727 0.09595704 0.07210335
000090 86 28 9e 3d cc b7 eb 3d 5a c9 ae 3d ec bf 5d 3d
       0.07722573 0.11509666 0.085344985 0.05413811
0000a0 00 03 be 3b 50 a6 fa 3d e0 c2 e7 3d 60 9e e3 bc
       0.0057986975 0.12238753 0.11316466 -0.02778548
0000b0 ac 19 b8 3d 78 3d 80 3d 04 d1 10 bd 1a 2b c1 3d
       0.089892715 0.06261724 -0.035355583 0.09432049
0000c0 90 f1 70 bc 30 5c a5 3c 5c 0d 84 bd d8 3d 98 3c
       -0.0147060305 0.02018556 -0.064478606 0.018584177
0000d0 d0 9f ca bd cc e6 b4 bd 46 3d e3 bd 5c 05 f7 3d
       -0.09893763 -0.088330835 -0.11095671 0.12061569
0000e0 d8 50 5e 3d 92 ee 85 3d bc 0b 5b bd 38 7a e3 bc
       0.054276317 0.06539644 -0.053477988 -0.02776824
0000f0 00 35 0d 3d 72 1e 95 bd 28 5f 9f bd a0 2b 27 3c
       0.034474373 -0.072811976 -0.077818215 0.010203272
000100 a2 b7 bf bd e2 c7 b9 3d de 6e 8d bd a0 36 23 3d
       -0.09361197 0.09071328 -0.06905912 0.039847016
000110 da 6f 9b bd 00 64 40 3a 42 20 94 3d 00 ea 6c 3b
       -0.07589693 0.000733912 0.07232715 0.0036150217
000120 fa 30 c1 bd b6 60 fd bd fe 44 b8 bd 60 d4 72 3d
       -0.0943317 -0.12371962 -0.08997534 0.059284568
000130 30 d8 42 bc c8 52 a8 bd c4 ef f1 bd d4 86 0d 3d
       -0.011892363 -0.08218914 -0.1181331 0.03455241
000140 dc 9f fb 3d b8 8a 57 bd 20 7d f9 3b 74 7b 9b 3d
       0.1228635 -0.052622527 0.007613793 0.07591906
000150 f2 2d cb 3d 80 0c ef 3b b8 de 16 3d 52 2b b8 bd
       0.09920873 0.0072951913 0.036833495 -0.08992638
000160 b0 bb e5 bc c8 1e be 3c 08 20 ac bc d0 66 ee 3d
       -0.028043598 0.023208037 -0.021011367 0.11640704
000170 be 2e be bd dc 05 fa bd 66 4c e5 3d e6 a0 aa bd
       -0.09286259 -0.12208149 0.111962125 -0.0833147
000180 9a a6 8c 3d cc 75 b4 bd 00 e4 95 39 06 80 87 bd
       0.06867714 -0.088115305 0.00028589368 -0.066162154
000190 a4 d0 96 3d 68 c7 cf bc b8 48 0e 3d 02 f0 91 bd
       0.07364014 -0.025363639 0.03473732 -0.07125856
0001a0 00 75 99 bb 88 00 88 3c 80 fc e0 3a 94 ee cf 3d
       -0.004683137 0.016601816 0.0017165095 0.10152927
0001b0 38 8b ab 3c 24 de 3e bd e4 f6 3a 3d 78 48 de 3d
       0.020940408 -0.04659857 0.04564561 0.10853666
0001c0 98 06 22 3d 30 79 86 bd 1e 35 b9 3d fc 00 87 3d
       0.03955707 -0.065660834 0.090433344 0.06591985
0001d0 8c 12 6d 3d a4 ac 61 3d f8 56 d5 bc 10 8f f5 bc
       0.057879016 0.055096284 -0.026042446 -0.029975444
0001e0 20 36 ee 3b 78 a5 fe bc fa c7 84 bd 9e 6a ff 3d
       0.007269636 -0.031084761 -0.06483455 0.124715075
0001f0 b8 6a 0a 3d 88 aa 95 3d b0 f5 cc bc fc 57 db 3d
       0.03379318 0.07307917 -0.025019497 0.10710141
000200 c0 d4 6f bd b4 b0 0d 3d 18 e1 aa bc b2 fc 86 3d
       -0.058552504 0.034592345 -0.020859286 0.065911666
000210 a4 e0 7a bd 30 e6 18 3d 5c 08 a4 3d cc 4c d2 bd
       -0.06124939 0.0373289 0.08009407 -0.10268554
000220 66 66 c5 bd bc 4b 55 bd a0 ac 7f bc d4 06 f4 3d
       -0.096386716 -0.05207418 -0.015605122 0.11915365
000230 4a f9 9c 3d 00 92 74 3a e6 30 e8 3d 86 25 84 bd
       0.076647356 0.0009329617 0.11337452 -0.064524695
000240 c2 59 b9 bd 34 ed 99 3d 0c 34 bf bd c0 64 6f 3d
       -0.09050323 0.07515946 -0.09336099 0.058445692
000250 08 b5 7a 3d ee b3 a0 3d 6a 91 ec bd 28 34 ad bd
       0.0612078 0.07846819 -0.11551173 -0.08457214
000260 80 6c c8 3d 60 45 3a bc ca af 99 3d 20 ea c9 bd
       0.0978632 -0.011369079 0.07504232 -0.09859109
000270 c4 3e 0b bd 84 2f 89 bd 2e e7 f2 3d c2 de c3 bd
       -0.033995405 -0.06698516 0.118605 -0.09563972
000280 3a f6 b4 3d a0 37 5c bc 16 5c a2 3d b0 e3 95 3d
       0.088360265 -0.013440996 0.0792772 0.073188186
000290 48 70 f3 bc 2a 20 c8 bd 38 33 ac bc 34 7c 76 3d
       -0.029716626 -0.0977176 -0.021020517 0.060177043
0002a0 00 80 a2 bc 58 fb 4a bd 4e a6 b1 bd c0 30 4a bb
       -0.019836426 -0.049556106 -0.08674298 -0.0030851811
0002b0 00 32 c0 ba 6c 8a 7c 3d 24 76 07 bd 10 65 cd bd
       -0.0014663339 0.061655447 -0.033071652 -0.10029042
0002c0 24 5e c9 bd 72 86 d6 3d 24 d8 54 3d 68 f7 e1 bd
       -0.09832409 0.10474862 0.05196394 -0.11033517
0002d0 08 5c 9f 3d 00 e2 65 bb 58 5d bd bd 70 fd b6 bc
       0.077812254 -0.0035077333 -0.092463195 -0.022337645
0002e0 08 b2 f9 3d e8 70 91 bc 1c 63 be 3d e0 e2 d5 bd
       0.1219216 -0.017754033 0.09296247 -0.104436636
0002f0 06 f2 dd bd 6c 72 94 3d 24 81 53 3d 54 08 44 3d
       -0.10837178 0.07248387 0.05163683 0.047859505
000300 a0 3b 8e bb 20 6c 14 bd d2 8c a8 bd f8 57 15 3d
       -0.004340604 -0.03623593 -0.08229984 0.036460847
000310 80 bd a6 bb 20 5f 3b bd 00 52 56 3c dc 4d 28 bd
       -0.005088508 -0.045745015 0.013081074 -0.041089877
000320 78 fc be bd e0 08 82 bd 4a a5 f3 bd 44 2f 3c bd
       -0.09325498 -0.06349349 -0.11896761 -0.045943514
000330 68 e6 91 3c d8 f4 d1 bd 10 9d 89 3d 38 3f 95 3d
       0.017810062 -0.10251778 0.067194104 0.07287449
000340 cc ce 9c 3d d6 97 e0 3d 20 73 db 3b 4c ea d9 3d
       0.07656631 0.109664604 0.0066970736 0.10640392
000350 b8 a5 41 3d ba ec df 3d e0 25 19 3d a6 15 bd bd
       0.047277182 0.10933824 0.037389636 -0.09232645
000360 c0 0b cf 3b 80 2f 00 bd d0 d3 97 3d 80 60 bb bb
       0.0063185394 -0.0312953 0.07413447 -0.005718291
000370 c8 7d f2 3c bc 08 be bd d2 30 e3 bd d0 7e 06 bc
       0.029600993 -0.0927901 -0.11093296 -0.008208945
000380 48 3a 17 3d 70 09 55 bc e0 70 95 bd d4 46 23 bd
       0.036920816 -0.013002738 -0.0729692 -0.03986247
000390 98 d3 1f bd 26 a3 ff bd 6c 3b 2e bd 46 a3 aa 3d
       -0.03902015 -0.1248229 -0.042537138 0.08331923
0003a0 76 be ca bd d0 46 a2 3d 72 b5 a7 3d 00 fb 24 bc
       -0.09899609 0.07923663 0.08188905 -0.010069609
0003b0 52 bc e6 3d 9c 4a 2f 3d 00 ed f8 bd 68 d5 ea bc
       0.11266388 0.042795762 -0.12154579 -0.028666213
0003c0 3c 78 d6 3d f2 3c d0 3d de 07 9b bd 04 d6 77 3d
       0.10472152 0.101678744 -0.0756986 0.060506836
0003d0 36 31 c2 bd d8 9d 7a bd 48 c1 d1 3c ee a9 cb bd
       -0.094820425 -0.061185688 0.025604859 -0.09944521
0003e0 a8 06 7e bd c4 bb a8 bd 36 b8 ed 3d 26 53 c8 bd
       -0.062018067 -0.082389385 0.11607401 -0.09781484
0003f0 5c 25 bf 3d dc 39 84 bd 60 f9 c5 3d 10 49 2e bd
       0.093332976 -0.06456348 0.09666705 -0.042550147

net.6.bias f4 [64]
000000 36 8a 9d 3d 94 03 c4 bd e2 90 a7 bd 30 c8 d6 3c
       0.07692377 -0.09570995 -0.08181931 0.026218504
000010 00 75 49 3b 10 94 5d bc 0e a2 d3 3d 78 9b 91 3d
       0.0030739903 -0.01352407 0.10333644 0.071097314
000020 2c c2 40 3d c8 3e 18 3d 18 63 72 bd 38 f3 bf 3d
       0.047060177 0.037169248 -0.059176534 0.09372562
000030 a6 0a fa 3d 3c 18 2c 3d 90 37 b9 3d 1e 6e 82 3d
       0.12209062 0.0420153 0.09043801 0.063686594
000040 64 a7 d6 3d 6e c4 fd 3d 40 14 c7 bd 68 d5 ca bd
       0.10481146 0.123909816 -0.09720659 -0.09903985
000050 10 2c 79 3c 5c 59 09 3d 94 0f 1e bd 6e b6 f7 3d
       0.015208259 0.033532485 -0.038589075 0.120953426
000060 c0 5b 6d bb 48 e8 f6 bd a0 b7 a0 bc 00 e2 91 bc
       -0.0036218017 -0.12056023 -0.01961881 -0.01780796
000070 dc fa 71 bd 06 d8 f3 bd 40 16 25 bd b2 39 ba bd
       -0.05907713 -0.119064376 -0.040304422 -0.09093036
000080 ac 47 24 3d 60 2d 28 bc 10 c4 56 bd c4 1b e3 3d
       0.040107414 -0.0102647245 -0.052433074 0.1108928
000090 c8 fa 1b bd 82 f3 c3 3d 38 be dc bc 78 3f ba bc
       -0.03808096 0.0956793 -0.026946172 -0.022735342
0000a0 bc 62 82 3d 90 6a 7b bc 2e 25 91 bd 78 34 51 bd
       0.06366488 -0.015345231 -0.070871696 -0.05107543
0000b0 6c fe f5 3d de 63 b9 3d 0a 47 ba 3d 96 3a e4 bd
       0.12011418 0.09052251 0.09095581 -0.11143987
0000c0 e0 14 98 3b 16 87 d8 bd 16 48 a1 3d 30 5e 51 bc
       0.0046411604 -0.105726406 0.078750774 -0.012778804
0000d0 00 9e 98 39 50 72 fd bc 28 48 c0 bd ee 0b df bd
       0.00029109418 -0.030938298 -0.09388763 -0.10890947
0000e0 04 fb b7 3d 30 2f b1 bd 28 83 91 3d c8 07 7e 3d
       0.08983424 -0.086515784 0.07105094 0.06201914
0000f0 c4 67 52 bd be d8 9b bd 2a b3 f3 3d 4c e4 90 bd
       -0.05136849 -0.076097 0.11899407 -0.07074794

net.8.weight f4 [64, 64]
000000 bc 3b 7a bd 56 44 b8 3d 14 4b 12 3d 04 e0 0e bd
       -0.061092123 0.08997409 0.03571613 -0.034881607
000010 e4 70 4d bd 3c e6 39 bd 20 d6 df bc 08 b6 df bd
       -0.05015649 -0.045385584 -0.027323782 -0.109233916
000020 60 7a ed bb 98 cb d7 bc 9e 14 91 3d 10 39 9b 3d
       -0.0072472543 -0.026342198 0.070840105 0.07579243
000030 d8 55 15 bd 7a be b1 bd 74 4a bd 3d c8 8d 0c 3d
       -0.03645882 -0.08678909 0.092427164 0.0343149
000040 60 03 cd 3c 80 ca de bd 30 55 40 3c 02 53 f7 bd
       0.025026023 -0.108784676 0.01173906 -0.12076379
000050 64 0e 4a 3d 22 07 eb 3d dc df 90 3d 00 32 a5 ba
       0.04933013 0.1147597 0.07073948 -0.0012603402
000060 90 a9 06 3c 88 af ce 3c 08 15 06 3d 96 0b e1 3d
       0.008219138 0.025230184 0.0327349 0.10988538
000070 6e d2 a1 bd 2c 3c 08 bd e8 43 86 bd 68 49 c1 bc
       -0.079014644 -0.03326051 -0.06555921 -0.023594573
000080 28 35 96 bd 80 6f 51 3b 10 fd bc bd 78 e8 f3 3d
       -0.073343575 0.0031957328 -0.09227955 0.11909574
000090 44 98 b3 3d bc 79 c6 3d 68 69 98 3d 62 43 b1 bd
       0.08769277 0.09691188 0.0744198 -0.086554304
0000a0 02 57 ca 3d 2a 72 bb bd 6e 85 a4 bd 18 6e cd 3c
       0.09879877 -0.091526344 -0.08033262 0.02507691
0000b0 68 82 18 3d 40 1f 0c 3d e0 c8 d8 bc a6 bb 85 3d
       0.03723374 0.03420949 -0.026462972 0.06529932
0000c0 5e 6b 9d 3d a8 5d 87 bc 08 8e e9 3d e8 56 34 3d
       0.07686494 -0.016524151 0.114040434 0.044028193
0000d0 b4 e8 d9 bd da 26 b6 3d 4a d7 de 3d 30 2a b1 3c
       -0.10640088 0.08894129 0.10880907 0.021626562
0000e0 54 6b c3 3d 36 25 b1 bd e2 c0 f8 bd ec c4 76 bd
       0.095419556 -0.086496755 -0.121461645 -0.060246393
0000f0 70 76 9b 3d f8 5e 32 bd 74 31 cb 3d 38 f5 55 bd
       0.075909495 -0.0435476 0.09921542 -0.052235812
000100 70 0d 20 bc c0 06 50 3b 50 d4 b2 bc e4 04 c5 3d
       -0.009768829 0.0031742305 -0.021829754 0.096200734
000110 34 a6 5b bd 08 ec 99 bc c6 73 c0 bd 80 ca 31 bc
       -0.0536253 -0.018789306 -0.09397082 -0.010851502
000120 5a eb e0 3d 5e d1 d7 3d b0 5f 34 3c 38 de a2 3d
       0.1098239 0.105379805 0.011009142 0.07952541
000130 20 f0 7d bc c0 41 2e bd 28 87 af 3c 30 c7 e7 bc
       -0.015499145 -0.042543173 0.021426752 -0.028293222
000140 4a b4 ae bd 42 17 92 bd 04 99 96 bd b4 db f6 3d
       -0.08530481 -0.07133342 -0.07353404 0.12053624
000150 50 e3 b9 3d 96 d5 de bd 74 8e dd 3d f8 ea 98 bd
       0.090765595 -0.10880582 0.108181864 -0.07466692
000160 3a 4c e8 bd 28 f6 55 bd 40 fc 9e bb b0 a5 10 bc
       -0.11342664 -0.052236706 -0.004851848 -0.0088285655
000170 12 b0 d7 bd a0 cf e0 3b f0 0c a8 bd 20 8d eb 3d
       -0.105316296 0.0068606883 -0.08205593 0.11501527
000180 10 e8 dc 3c 40 ce d1 bb 44 3f f8 3d f0 a0 24 bd
       0.026966125 -0.0064027607 0.12121442 -0.040192544
000190 3e cb a3 3d ca 01 d9 3d fa 3a ba 3d fc ae 59 3d
       0.0799775 0.10596044 0.0909328 0.053145394
0001a0 e0 15 f1 bd b0 a4 a8 bd 2e dd db 3d 44 78 f5 bd
       -0.117717505 -0.08234537 0.10735546 -0.119858295
0001b0 48 84 aa bc d8 45 1f bd 5a c9 92 bd 04 8b a3 bd
       -0.02081503 -0.038884968 -0.07167311 -0.079854995
0001c0 8e 90 c8 bd c0 27 48 3c a0 73 41 3d 90 05 15 bc
       -0.097931966 0.012216508 0.04722941 -0.0090955645
0001d0 04 19 52 bd 50 ec 2e bd 5e e9 a7 3d 16 24 cd bd
       -0.051293388 -0.042705834 0.08198808 -0.100166485
0001e0 78 b7 91 bc 7c f1 12 bd 20 1a 27 bd 66 2b 99 bd
       -0.01778768 -0.03587483 -0.0407964 -0.07478981
0001f0 44 ce 18 bd 00 36 f5 bb a0 b6 f6 3c 7c 5a 96 bd
       -0.037306085 -0.007483244 0.03011638 -0.07341477
000200 20 5d 7f bd ac 77 d2 bd 9e dd bf bd 32 f3 d3 3d
       -0.06234467 -0.10276732 -0.09368442 0.1034912
000210 d0 91 a5 bd 94 e3 0a bd f2 5e f3 3d 80 17 98 bc
       -0.08084452 -0.03390844 0.11883344 -0.018565893
000220 7c 22 77 3d 10 4f c3 3d 98 18 d0 bd 1e 95 95 bd
       0.06033562 0.09536564 -0.10160941 -0.073038325
000230 ec e5 5c bd 4c f3 31 3d a0 58 9b bc 3a 8f a1 bd
       -0.053930208 0.043444917 -0.018963158 -0.078886464
000240 3c 0d 32 bd 4c c3 99 3d 4c 29 a3 3d 30 4e 52 bc
       -0.043469653 0.07507953 0.07966861 -0.012836024
000250 46 0b f9 bd c6 1d be 3d b0 a8 e9 3c 74 b8 08 bd
       -0.12160353 0.092830226 0.02852282 -0.033379033
000260 5a 65 d6 3d 4c 48 22 3d 9a c8 88 bd 40 0f 24 3c
       0.1046855 0.03961973 -0.06678887 0.0100134015
000270 26 80 88 bd 80 41 e2 3a a4 da 09 3d 4e eb d2 3d
       -0.066650674 0.0017261952 0.033655778 0.10298787
000280 20 75 cf 3d 90 4f f1 bd 98 4a 9a bc 7e 5f 9e bd
       0.10129762 -0.117827535 -0.018834397 -0.077330574
000290 28 87 aa 3d 12 66 8f 3d 82 c5 92 bd 60 9f aa 3b
       0.0832656 0.0700189 -0.07166578 0.0052069873
0002a0 ae 89 c3 3d 3c fb d5 3d f6 9c e5 bd 90 6a ed bc
       0.09547745 0.1044831 -0.112115785 -0.028981477
0002b0 70 ca 63 3d 00 2d 02 bd 62 d1 c8 bd 94 e6 00 3d
       0.05561298 -0.031781197 -0.098055616 0.031469896
0002c0 e0 52 75 3c 92 54 97 bd 9c e3 9a 3d 88 fc e6 bc
       0.014973372 -0.073891774 0.07562944 -0.028196588
0002d0 58 43 d3 bc e2 fb c3 bd 3c 5f 49 3d ec 94 be bd
       -0.025788948 -0.09569527 0.04916309 -0.09305748
0002e0 50 06 47 bd 40 bc b8 bd 90 98 80 bd 86 f0 8d bd
       -0.048590004 -0.09020281 -0.06279099 -0.06930642
0002f0 4e 2b ab 3d 30 d5 80 3c 6e 56 b4 bd 7c cc 8c 3d
       0.08357869 0.015726656 -0.08805548 0.0687494
000300 84 9e a7 bd 9c de 1c bd 48 4c f8 3d 74 b5 ed bd
       -0.08184531 -0.038298234 0.121239245 -0.11606875
000310 46 08 a9 3d c8 95 e9 3c ee cd ca bd 40 08 48 bb
       0.08253531 0.028513804 -0.09902559 -0.0030522496
000320 a8 ce 80 3c 20 19 8d 3c 2c df b9 bd 16 dd b5 bd
       0.015723541 0.017223895 -0.0907577 -0.088800594
000330 20 b5 33 3c f0 28 93 3c 2c d0 87 3d 58 f5 9d 3d
       0.0109684765 0.017963856 0.066315025 0.07712811
000340 42 31 d4 bd 80 31 5f 3b 1e 47 af bd 8a bf fb 3d
       -0.10360958 0.0034056604 -0.085584864 0.122923926
000350 c0 d8 05 bb 3c 50 94 bd 00 22 b5 bc a6 87 80 bd
       -0.0020423383 -0.07241866 -0.022110939 -0.06275873
000360 d6 d3 9a 3d d8 17 a7 bd de 85 ec bd 6c f9 84 3d
       0.07559936 -0.08158845 -0.11548971 0.06492886
000370 38 bb 7a bd 7a 39 fe bd 2e 15 8c 3d 72 ee cd bd
       -0.061213702 -0.124133065 0.06839977 -0.100552455
000380 58 0b 70 3d 80 48 b6 bc c0 23 8b 3d d8 20 3c 3d
       0.05860457 -0.022251368 0.06793928 0.04592976
000390 b8 20 28 bd 48 2c 80 3d 42 01 a5 3d 38 f3 95 3d
       -0.041046828 0.06258446 0.080568805 0.07321781
0003a0 b8 ea 0e bd 5c 1b 13 bd 5e a4 8e bd 96 9d df 3d
       -0.034891814 -0.035914764 -0.06964944 0.10918729
0003b0 98 67 f6 3c dc 0c 68 3d 60 1c 55 bc e8 31 7b 3d
       0.030078694 0.05665289 -0.013007253 0.06132689
0003c0 ac dd 08 3d d6 e0 97 bd 12 66 9f 3d 84 c6 d1 bd
       0.033414528 -0.07415931 0.0778314 -0.10242942
0003d0 40 fe 51 bb 00 15 b2 3d 54 64 c7 bd b0 89 cc 3c
       -0.0032042414 0.08695412 -0.09735933 0.024967998
0003e0 fa 82 f8 3d 00 bf c1 bc 0e 0b a1 bd 76 7b 9d 3d
       0.12134357 -0.023650646 -0.07863437 0.07689564
0003f0 a0 a6 47 bd 28 a0 14 bd 60 85 90 bb c0 53 4b 3d
       -0.04874289 -0.03628555 -0.004410431 0.049640417

net.8.bias f4 [64]
000000 60 d0 9f bb e8 63 cb bd 88 0d 23 bd 5c 3c 55 3d
       -0.004877135 -0.09931165 -0.039807826 0.052059516
000010 5c 4e 85 3d 88 fe 80 3d 32 3c b5 bd 2c 89 48 bd
       0.065090865 0.06298548 -0.08849372 -0.048958942
000020 60 7e e9 3c 58 6a 8c bd f4 32 32 bd 90 a6 40 3c
       0.028502643 -0.06856221 -0.043505624 0.011758462
000030 a4 89 38 bd 44 be a8 bd 42 b7 c2 3d 80 0c 73 3b
       -0.04505314 -0.08239415 0.0950761 0.0037086308
000040 04 6f 0a bd c0 4a 1a 3c 68 ab fe 3c 46 99 d3 3d
       -0.03379728 0.009417236 0.031087592 0.10331969
000050 5e 76 ab 3d b0 6e aa 3c 98 b8 f2 3d 68 d1 df 3d
       0.08372186 0.020804733 0.11851615 0.10928613
000060 b4 b1 15 3d 2c 81 d5 3d 68 50 f6 bc d8 0d 52 3d
       0.036546424 0.10425028 -0.030067638 0.051282734
000070 82 61 8e 3d ec 00 4e bd 10 22 86 bd 04 c2 25 bd
       0.06952192 -0.050293848 -0.06549466 -0.04046823
000080 00 f8 c7 ba 1c 3b 8f bd 70 eb aa 3d 34 34 99 bd
       -0.0015256405 -0.06993696 0.083456874 -0.0748066
000090 de ca e8 bd 02 ee e6 bd 4c 4e a0 bd 10 d7 dd bc
       -0.11366819 -0.11275865 -0.07827434 -0.027080089
0000a0 d0 ab bf 3c 80 ab 3c bc 26 cc b0 3d 60 6e c9 bd
       0.023397356 -0.011515498 0.08632688 -0.098355055
0000b0 88 28 b5 bd be 35 91 bd 78 a7 8b 3c 0c 31 d1 3d
       -0.08845621 -0.07090329 0.017047629 0.10214433
0000c0 88 ac de bd 1c 54 1c bd d8 9a 8b 3c c0 eb 9f 3b
       -0.108727515 -0.03816615 0.017041609 0.0048803985
0000d0 b4 10 37 bd a8 c6 75 3d 28 83 8e 3c 9e 84 a8 3d
       -0.044693664 0.060003906 0.017396525 0.0822842
0000e0 04 65 07 bd 02 7e 97 3d be fb f9 3d 00 91 de bb
       -0.03305532 0.07397081 0.12206219 -0.0067921877
0000f0 6e 4e ef bd 90 35 f8 bd 06 19 de 3d e6 02 8a 3d
       -0.11684881 -0.12119591 0.108446166 0.06738834
