AE/model/wdgrl_1.pth (torch, 4594 bytes, 11 tensors)

net.0.weight f4 [4, 1]
000000 b6 47 38 3f a8 96 14 3e b8 0e 69 3e b8 00 b5 3e
       0.7198442 0.14510596 0.22759521 0.3535211

net.0.bias f4 [4]
000000 a4 8d 73 3f 3c 2e bd be 80 bc 2e 3e 60 2b 0d 3d
       0.95138 -0.36949337 0.17064095 0.034465194

net.2.weight f4 [4, 4]
000000 a4 62 c1 3e c0 17 2f be 0c 67 52 3e e2 40 92 3e
       0.3777057 -0.17098904 0.20547122 0.28565127
000010 ac fe 69 be 0c 6a ac 3e 2a f3 9b be 9a 37 90 be
       -0.22851056 0.33674657 -0.30458957 -0.2816742
000020 88 2f f5 be 10 b4 f7 3e aa b3 9d 3e 3c be aa be
       -0.47887826 0.48379564 0.30801135 -0.33348262
000030 0c e2 e1 3e dc 0e e6 3e 70 8e 06 3d e8 7c 5a 3e
       0.44117773 0.44933212 0.032850683 0.2133671

net.2.bias f4 [4]
000000 a8 ac f3 bd 00 2d 4c be 80 d8 8a be ac 01 ab 3e
       -0.11898166 -0.19939041 -0.271183 0.33399713

net.4.weight f4 [2, 4]
000000 ea 3d b5 3e 00 2f d4 bc e0 ff 33 be 00 a4 87 ba
       0.353988 -0.025901318 -0.17578077 -0.0010348558
000010 48 ce a9 3d a0 39 da bd 56 8a 9a be ec b3 ca 3e
       0.08291298 -0.10655522 -0.30183667 0.39590394

net.4.bias f4 [2]
000000 80 c7 a3 3d fc 52 86 be
       0.07997036 -0.26235187

net.0.weight f4 [4, 2]
000000 ed 50 19 3f 70 17 16 be 2b 5d 0c 3f ed 18 19 3f
       0.5988911 -0.14657378 0.54829663 0.5980366
000010 d4 39 4f be c9 fa 0e 3f 32 e9 f1 3e b8 7c cd 3d
       -0.20236903 0.5585142 0.47248226 0.10033554

net.0.bias f4 [4]
000000 60 dc 56 be c9 2c b4 be 91 e3 1b bf 86 ad b2 3e
       -0.20982504 -0.35190418 -0.60894114 0.34898013

net.2.weight f4 [2, 4]
000000 dc df 03 3e 32 43 db be 10 3e c8 3e 50 ed ed be
       0.12878364 -0.42824703 0.3910985 -0.46470118
000010 68 37 a1 3e 50 b0 a9 3d 70 90 ff bd 64 70 42 3e
       0.31487584 0.08285582 -0.12478721 0.18988186

net.2.bias f4 [2]
000000 84 fa e3 be 68 16 52 be
       -0.44527066 -0.2051636

net.4.weight f4 [1, 2]
000000 34 b8 10 3e 80 24 2a be
       0.14132768 -0.16615486
