MAD_multidim/model/wdgrl_3.pth (torch, 4594 bytes, 11 tensors)

net.0.weight f4 [4, 4]
-0.2514868 0.20396578 0.028631391 -0.31830758 0.37430897 -0.5262053 -0.450521 0.12520783
0.16959667 0.2194889 -0.15106258 -0.23742725 0.25368136 0.2031531 -0.17204651 0.28051484
00000000: e1c2 80be 68dc 503e 618c ea3c 36f9 a2be
00000010: 6da5 bf3e 64b5 06bf b0aa e6be 7b36 003e
00000020: c0aa 2d3e b3c1 603e 26b0 1abe 2120 73be
00000030: 86e2 813e 5e07 503e f62c 30be a49f 8f3e

net.0.bias f4 [4]
-0.08854834 -0.23959006 -0.59000885 -0.2701105
00000000: d558 b5bd 1957 75be d20a 17bf ec4b 8abe

net.2.weight f4 [4, 4]
0.47884262 0.005303938 0.34769827 -0.2762809 -0.23256229 -0.413015 -0.00038394425 0.30450797
-0.22954202 0.045877166 0.22222614 -0.09708006 -0.22154914 -0.18806525 -0.12780954 0.06629556
00000000: dc2a f53e a8cc ad3b 8205 b23e b174 8dbe
00000010: cf24 6ebe b476 d3be 204c c9b9 78e8 9b3e
00000020: 100d 6bbe b2e9 3b3d 408f 633e e9d1 c6bd
00000030: c7dd 62be 2d94 40be 81e0 02be f7c5 873d

net.2.bias f4 [4]
0.4079024 0.3680008 0.5304808 0.085074365
00000000: 95d8 d03e 9a6a bc3e 97cd 073f 783b ae3d

net.4.weight f4 [2, 4]
-0.034565322 0.13412811 0.04255922 0.19035101 -0.342283 0.059390314 0.27649617 0.43302816
00000000: 5e94 0dbd e158 093e 9452 2e3d 60eb 423e
00000010: b83f afbe 4243 733d e890 8d3e deb5 dd3e

net.4.bias f4 [2]
0.20332746 -0.50032866
00000000: 1335 503e 8a15 00bf

net.0.weight f4 [4, 2]
0.6593699 0.5600371 -0.54478264 -0.12150109 -0.13661441 -0.5959809 -1.0501258 0.31512558
00000000: 77cc 283f 975e 0f3f e076 0bbf 90d5 f8bd
00000010: a6e4 0bbe 3492 18bf 866a 86bf 2458 a13e

net.0.bias f4 [4]
-0.0036867314 -0.2734035 -0.23066305 -0.2785861
00000000: 179d 71bb 8bfb 8bbe ef32 6cbe d6a2 8ebe

net.2.weight f4 [2, 4]
-0.22101575 0.09858614 0.14515156 -0.09276736 -0.47117227 -0.3286841 -0.6063104 -0.33908397
00000000: f451 62be 88e7 c93d 9ca2 143e d0fc bdbd
00000010: 7e3d f1be 4849 a8be 2937 1bbf 6a9c adbe

net.2.bias f4 [2]
-0.08980602 0.7569552
00000000: 38ec b7bd d1c7 413f

net.4.weight f4 [1, 2]
-0.41815296 0.84757715
00000000: 2518 d6be d1fa 583f
