MAD_multidim/model/wdgrl_4.pth (torch, 6368 bytes, 17 tensors)

net.0.weight f4 [4, 1]
0	0x3d2699c0	0.04067397
1	0x3f54a99a	0.8307129
2	0xbedac888	-0.42731118
3	0x3f620058	0.88281775

net.0.bias f4 [4]
0	0xbf29d0ea	-0.663344
1	0xbef12738	-0.47100234
2	0xbe1c8068	-0.15283358
3	0x3f3ebc64	0.7450621

net.2.weight f4 [4, 4]
0	0xbecefc08	-0.4042666
1	0x3e2ed33c	0.17072767
2	0xbeff7106	-0.49890918
3	0xbe038bc0	-0.12846279
4	0xbcf87920	-0.030331194
5	0x3ed817f6	0.4220578
6	0xbeed27d2	-0.46319443
7	0x3e488534	0.19582063
8	0xbe2712f4	-0.16315824
9	0xbe0d0340	-0.13770771
10	0x3e30241c	0.17201275
11	0xbd95e110	-0.07318318
12	0x3ea10cba	0.31455022
13	0x3ec930b6	0.39294976
14	0xbed37e7c	-0.41307437
15	0xbe5dff94	-0.21679527

net.2.bias f4 [4]
0	0xbe82f17e	-0.2557487
1	0x3e3e96f4	0.18612272
2	0xbeeee7b6	-0.46661156
3	0xbdaaa378	-0.083319604

net.4.weight f4 [4, 4]
0	0x3e73c350	0.23804975
1	0xbeab6a18	-0.3347938
2	0x3e745510	0.23860574
3	0xbe2c4824	-0.16824394
4	0x3ef3dea2	0.47630793
5	0xbeaea35c	-0.34109008
6	0xbea4052e	-0.32035202
7	0x3e943218	0.28944468
8	0x3e69c348	0.228284
9	0x3e8cfd94	0.27537215
10	0xbdbd0728	-0.092298806
11	0xbe9b41ce	-0.30323642
12	0x3ed4686e	0.41485924
13	0xbef0ecbe	-0.4705562
14	0x3e011fa0	0.1260972
15	0x3e8660ac	0.2624563

net.4.bias f4 [4]
0	0xbeb19cb2	-0.34689862
1	0xbd84bcd8	-0.064813316
2	0x3e3c0854	0.18362552
3	0xbd98a978	-0.074541986

net.6.weight f4 [4, 4]
0	0x3dbf6470	0.09345329
1	0x3ed7a5d6	0.4211871
2	0x3eab5580	0.3346367
3	0x3e5c73b0	0.21528506
4	0xbe5d44c4	-0.21608263
5	0xbef94424	-0.486848
6	0xbef44d88	-0.47715402
7	0x3e488c68	0.1958481
8	0xbdb22268	-0.08697969
9	0xbe19dc68	-0.15025485
10	0x3eab9790	0.3351407
11	0xbd8cd4e8	-0.06876546
12	0xbea7429a	-0.32668
13	0xbe42ccb4	-0.190234
14	0x3efadc10	0.4899602
15	0xbe802ed8	-0.2503574

net.6.bias f4 [4]
0	0x3ed81f48	0.42211366
1	0xbe028548	-0.12746155
2	0x3db74308	0.08948332
3	0x3e0a4374	0.13502294

net.8.weight f4 [4, 4]
0	0xbe99d2a0	-0.30043507
1	0xbec67cea	-0.38767177
2	0xbd914cf8	-0.07094759
3	0xbee248da	-0.44196206
4	0x3e8786d4	0.26470053
5	0x3edee8dc	0.43537033
6	0xbec9f286	-0.39442843
7	0xbeaf8816	-0.34283513
8	0xbe67a254	-0.22620517
9	0xbeeccbb4	-0.46249163
10	0xbea68a48	-0.32527375
11	0x3ed1630a	0.40895873
12	0x3eced670	0.40397978
13	0x3e4e5348	0.20148957
14	0xbcb0c440	-0.021577954
15	0x3d323010	0.043502867

net.8.bias f4 [4]
0	0x3dabcd10	0.08388722
1	0xbe1081c0	-0.14111996
2	0xbe723d90	-0.23656297
3	0x3da00f98	0.07815474

net.10.weight f4 [2, 4]
0	0xbee142fe	-0.43996423
1	0x3ece89da	0.40339547
2	0x3e86eaa2	0.26350886
3	0xbe4b47a4	-0.19851547
4	0xbdd74150	-0.10510504
5	0x3ed761c4	0.42066777
6	0x3cce4480	0.025179148
7	0xbe0bf858	-0.13668954

net.10.bias f4 [2]
0	0x3e352b20	0.17692232
1	0x3d97f480	0.074196815

net.0.weight f4 [4, 2]
0	0xbf317498	-0.6931853
1	0xbeabea75	-0.33577314
2	0x3e4bc660	0.19899893
3	0xbf179714	-0.592149
4	0x3ea40812	0.32037407
5	0x3ee405de	0.44535726
6	0x3e1e1df8	0.1544112
7	0xbf0c8fec	-0.5490711

net.0.bias f4 [4]
0	0xbedea9d8	-0.43488955
1	0x3ee5dae2	0.44893557
2	0x3efa792a	0.48920566
3	0xbea8e5ca	-0.32987815

net.2.weight f4 [2, 4]
0	0x3eef6778	0.46758628
1	0xbef27d8c	-0.4736141
2	0x3e5b3dcc	0.21410292
3	0x3d3480f0	0.044068277
4	0x3efde820	0.4959116
5	0x3ee0f144	0.4393407
6	0xbe9285dc	-0.28617752
7	0x3ee14a06	0.44001788

net.2.bias f4 [2]
0	0x3ed22ef0	0.41051435
1	0x3eb6c7b6	0.35699242

net.4.weight f4 [1, 2]
0	0x3dadf8b8	0.08494705
1	0xbeee52e0	-0.46547604
