MAD_multidim/model/wdgrl_6.pth (torch, 42248 bytes, 25 tensors)

net.0.weight f4 [32, 16]
00000000: ccca 18be 14c0 6abe 14ad 843d 8a13 32be
00000010: 98d3 f43d 6cae 353e 2c1f c73d dc53 1abe
00000020: f4e6 46be d84b 17bd 68e3 f0bd 00a6 07bb
00000030: 10f6 10be 9440 27be 04c0 a8bd accd f93d
00000040: 94f2 d3bd 2656 2fbe f297 4cbe 9040 95bc
00000050: 78cc 303d 94ba 01be f03d 293e 9629 363e
00000060: 0ad7 23be 10cd 6cbe 44a2 e83d 8a38 3abe
00000070: fa3c 173e 2227 5ebe c079 9abb 38e3 84bd
00000080: bce9 f63d 360e 623e 0028 a73d 5838 7d3e
00000090: daee 7ebe 382b 133e c0bb 953d 7060 283e
000000a0: 529f 36be ac8b d03d ba86 05be 3454 0abe
000000b0: b8f7 f23d c283 533e 2854 6c3d 0098 81bd
000000c0: b8bb 6b3d 54aa 7fbe 4cbb 9bbd 1421 5bbe
000000d0: d401 54be 3c0a 13be ecde 9d3d 88ac 423d
000000e0: 0262 173e 6ca7 e33d 0aa4 25be 1484 87bd
000000f0: f011 16be c42b 5d3e 4083 963c e8cb 233d
00000100: 68cc 04bd 800f 683e d885 7ebe 2483 f2bd
00000110: 30fa 45be 0088 f3ba 60da 153d 0048 083a
00000120: b8db bcbd 9219 3cbe e4d1 7dbe 2a38 47be
00000130: 4a17 463e 2cf2 d63d 2005 f53c a053 733e
00000140: c09c ea3d b44a cbbd 3018 69be c41b cf3d
00000150: dc39 063e b4ed ffbd 2a39 1e3e b831 5b3e
00000160: ecc2 243e bedc 6abe 3cc0 fabd 0aa0 7f3e
00000170: 6cbc ee3d 78e1 ea3d 80ca df3d 22bd 13be
00000180: 3c0a 9d3d 465d 023e f6ab 6e3e b809 1e3e
00000190: 5041 f3bd 307e d23c 404a b8bd 80e7 23bb
000001a0: 6848 07be a846 803d d496 77be 780b 423d
000001b0: b436 89bd 70bb d2bd 2887 da3d 322e 0b3e
000001c0: 8899 febd b043 a93d a0b9 3fbd a833 073d
000001d0: 605a 143e 8499 febd d297 0e3e ce2a 393e
000001e0: 644c 50be 3e33 763e be40 653e 2ef6 2dbe
000001f0: 408c 0c3d a479 173e 64eb 11be 90ff c8bc
00000200: 0a59 093e d2b8 32be 20a2 6fbd 50b7 51be
00000210: 4a41 7ebe d8e0 773e 1416 2fbe 5c74 8e3d
00000220: 4082 cebb aef1 2e3e 42ce 623e decf 26be
00000230: ccd7 e6bd 4076 74bc 2899 da3d 3cd0 3dbe
00000240: 20a9 afbd 78c4 17be 5e87 1c3e 28e4 84bd
00000250: c850 e43d b8ea 70be a234 1dbe bc85 6f3e
00000260: 4034 e4bb 7a43 283e f0c1 12be 00bb 7bbc
00000270: 848e 24be c868 20be a041 d2bd 3e8c 733e
00000280: 0093 f8bc fa3e 3abe 70d0 4cbe d66b 023e
00000290: 5005 2f3d 30c9 c8bc 8053 e7bc 70f0 643e
000002a0: e03e 63bc c0b5 bebd b0ab 9dbd b6e1 01be
000002b0: d8bb 873d 801e 483d 2822 b8bd 00a6 413b
000002c0: 807c 40bb 0624 49be bcb3 523e 1843 b9bd
000002d0: 28bb d13d 9c2f 693e 7adf 32be 3c9f 713e
000002e0: 4451 523e 1615 46be 166f 183e 7066 29be
000002f0: f465 213e 8447 3c3e 787e 793d b6c3 2bbe
00000300: 821a 703e d0a7 da3d 3086 a23c d26c 713e
00000310: d443 1abe 9005 1cbe d06c 57bd 849e 0b3e
00000320: b8eb cabd 72b1 05be 949a 96bd 4a37 583e
00000330: c06b 173e a047 4abd 6e24 25be 482f 3dbd
00000340: 1a03 02be 089f 603d 8ae4 383e 22d3 5ebe
00000350: 7021 28be 8052 163b 3831 263e 701c 36bd
00000360: 1a8a 483e cc26 453e be1e 0ebe 20af dbbd
00000370: aa5e 53be 9c96 4dbe d263 67be 14fa 25be
00000380: d477 063e 181c 1e3d 7e4c 5cbe a01b 403e
00000390: 88b0 36bd 6af3 213e 38d8 a6bd b483 453e
000003a0: 3469 173e aa2e 12be 0c5a 1f3e 8284 6b3e
000003b0: cc0a 38be 7ea3 593e e0fb a0bd ba92 363e
000003c0: c87d 733d d400 d33d fc5b 38be 9c2b fe3d
000003d0: d2d0 69be c0c6 27bd 8051 06bb 0cee 0ebe
000003e0: c07f 05be 2c7f 7a3e 6010 57be 8018 cabd
000003f0: c25c 493e c89e 33be 9620 523e 22de 62be
-0.14921111 -0.22924834 0.064783245 -0.17390266 0.11954421 0.17742318 0.097227424 -0.15071052
-0.19424039 -0.036937565 -0.11762124 -0.002069831 -0.14156365 -0.16333228 -0.08239749 0.12197432
-0.103490025 -0.17122707 -0.19979838 -0.018219262 0.043163747 -0.1266883 0.16527534 0.17789301
-0.16 -0.231251 0.11359075 -0.1818563 0.14769354 -0.21694615 -0.0047142208 -0.06488651
0.120563 0.22075734 0.08161926 0.24728525 -0.24895802 0.14371955 0.07311201 0.16443038
-0.17834213 0.1018289 -0.13039675 -0.13508683 0.11863655 0.2065573 0.057697445 -0.0632782
0.05755207 -0.24967319 -0.076040834 -0.21399337 -0.20703822 -0.14359373 0.077085346 0.04752782
0.14783481 0.111159176 -0.16175857 -0.06616989 -0.1465528 0.21598727 0.018373132 0.039989382
-0.0324215 0.22662163 -0.24855745 -0.11841419 -0.1933372 -0.001857996 0.03658521 0.0005198717
-0.092215955 -0.1836913 -0.24787098 -0.19455019 0.19344822 0.10495409 0.02990967 0.23762369
0.11455679 -0.09926358 -0.22763133 0.10112718 0.13108009 -0.1249651 0.15451494 0.21405685
0.16089982 -0.22935769 -0.12243697 0.24963394 0.11657032 0.11468786 0.10927296 -0.14427617
0.07667968 0.12730893 0.23307785 0.15433395 -0.11877692 0.025694937 -0.08998537 -0.002500981
-0.13211215 0.062634766 -0.2417863 0.04737422 -0.06699887 -0.10289657 0.1067031 0.13591841
-0.124316275 0.082648635 -0.046807885 0.033008248 0.144876 -0.124316245 0.13925102 0.18082735
-0.2034164 0.24042985 0.22387978 -0.16988441 0.03431344 0.14792496 -0.1424995 -0.024535924
0.13412872 -0.17453316 -0.058504224 -0.20480084 -0.24829593 0.24206865 -0.17098266 0.069557875
-0.006302148 0.17084381 0.22148994 -0.16290233 -0.11271629 -0.014920771 0.106737435 -0.18536466
-0.0857718 -0.1482104 0.15286013 -0.0648883 0.1114822 -0.23527038 -0.15352109 0.2339086
-0.0069642365 0.1643199 -0.14331794 -0.0153644085 -0.1606999 -0.15664971 -0.10266423 0.23783967
-0.030343533 -0.18188086 -0.20001388 0.12736449 0.042729676 -0.024509996 -0.028238058 0.22357345
-0.013869971 -0.0931201 -0.076987624 -0.12683758 0.06627625 0.048857212 -0.0899089 0.0029548407
-0.0029371083 -0.19642648 0.20576376 -0.09046 0.10240775 0.22772068 -0.17468062 0.235959
0.20538813 -0.19343981 0.14886126 -0.16542983 0.15761548 0.18386656 0.060911626 -0.16773877
0.23447612 0.10676539 0.019839376 0.23576668 -0.15064937 -0.15236497 -0.052594006 0.13634688
-0.09908241 -0.13055971 -0.07353702 0.21114841 0.14787197 -0.049384713 -0.16127178 -0.04618767
-0.12696496 0.054839164 0.1805593 -0.21760228 -0.16419005 0.0022937357 0.16229713 -0.044460714
0.19583932 0.19253081 -0.13878915 -0.10726762 -0.2064158 -0.20076984 -0.22596672 -0.16208678
0.13131648 0.03860101 -0.21513554 0.18760538 -0.044601947 0.15815511 -0.08146709 0.19288522
0.14786226 -0.14275613 0.15561694 0.22999766 -0.17972869 0.21253774 -0.07860541 0.17829409
0.059446126 0.10302892 -0.18003839 0.124106616 -0.22833565 -0.040961027 -0.0020495355 -0.13957995
-0.13037014 0.24462575 -0.2100234 -0.09867954 0.1966429 -0.17541039 0.20520243 -0.2215505

net.0.bias f4 [32]
00000000: 68a6 e13d 2085 21be 7667 3f3e d013 e43c
00000010: 0e81 68be e872 f6bd 9cd0 d33d 5625 2fbe
00000020: 2078 df3c 9491 bcbd 4405 523e b854 a8bd
00000030: 9884 e73d 1433 c3bd 32b0 77be 8052 03bb
00000040: 667e 0f3e 507f 7c3d 00ad a6bd a8fd 033e
00000050: 00ed a13a 4874 1e3e 8ce3 19be 4c59 f63d
00000060: d664 0ebe e4c5 353e 00b8 fc3c 56af 31be
00000070: 9c33 993d 6ca6 4b3e 1819 cabd 78c0 49bd
0.110180676 -0.1577344 0.18691811 0.027841479 -0.2270548 -0.120336354 0.103425235 -0.17104086
0.02727896 -0.09207454 0.20509821 -0.08219284 0.11304587 -0.09531227 -0.24188307 -0.0020038188
0.14013061 0.061644852 -0.08138466 0.12889731 0.0012353957 0.15474045 -0.15028208 0.12028751
-0.13905653 0.1775127 0.030849457 -0.17352042 0.07480547 0.19887704 -0.098680675 -0.049255818

net.2.weight f4 [32, 32]
00000000: c914 e3bd c7e1 cebd f0ff 013d 05dc 34be
00000010: 0d56 dcbd 8dba cdbd 5e00 d33d bf6e 323e
00000020: fae4 16be 91ed b3bd 0db3 013e d2c7 df3d
00000030: a04f c43b 2804 e2bc a41e 08bd 65c9 0e3e
00000040: c068 613d 8fc1 2b3e b1eb 103e 0257 6dbd
00000050: 2075 40bd 5f5f 123e 1ddb 2cbe 8fb4 103e
00000060: a72d 11be 54fc e9bd f67d e33d 95a2 26be
00000070: 77cd 183e 060d 8a3d d8b5 44bd ee19 c93d
00000080: d128 c7bd d4f3 783d e02b 5bbc 1fa8 9fbd
00000090: 65f7 293e 8ecc efbd a21b cf3d 9c3e 12bd
000000a0: 5c31 a7bd b229 74bd 1cc2 d9bd 514d 043e
000000b0: 6f13 1b3e b064 3b3c 0ec1 8f3d 32a0 1abe
000000c0: 6f32 0b3e 1242 c23d 7870 5b3d b3a7 0dbe
000000d0: a81f 60bd 1464 5a3d 4093 ea3c a08e c53b
000000e0: e00d 623c 0a20 da3d 2326 85bd 3968 bfbd
000000f0: a351 2ebe 00e2 15bb dc01 1b3d 80ca d7bc
00000100: fee5 e0bd 51d8 193e 9812 9d3c 6c11 3fbd
00000110: 020b bd3d 4048 623b 9820 41bd 60b5 14bd
00000120: 526e d2bd bacb 2dbe c2cb b43d 8e44 903d
00000130: f3b6 313e f446 7c3d 7894 303d dc56 1bbd
00000140: c890 703d cf72 273e beb2 11be 402b 473b
00000150: cab3 d73d 81e8 0f3e 82d5 a33d 76d8 db3d
00000160: e1a2 f8bd 72f3 cc3d 4a35 9a3d 9266 ed3d
00000170: def2 89bd 6883 d03c 4a42 f53d 6a13 dfbd
00000180: fcb0 113d 6a56 f63d 380e 853d 8d0b 86bd
00000190: 3cf4 8e3d 009a b2b9 f813 0f3d 4462 06be
000001a0: 8810 fabc aecb 22be 7054 e0bd a86e abbc
000001b0: 45e1 163e 6098 713d d695 d63d 3c13 15bd
000001c0: 5f04 0d3e 905f e6bc 3ea8 c63d 5ed6 ca3d
000001d0: d2f5 eb3d 6e05 a5bd 410d 00be 307a 23bc
000001e0: 3d02 223e 0950 2c3e 0a22 f53d cc7a 22be
000001f0: 6298 9a3d 3071 e0bc 50e0 28be ef3a d2bd
00000200: 59af 163e dea4 eb3d 10e6 9c3c 62e5 e0bd
00000210: 8e7d ca3d dedc 7bbd 6486 793d 4079 97bc
00000220: b603 f4bd 7748 ffbd 825b 99bd e867 11be
00000230: d616 6abd efcc 88bd 5fd4 cdbd da1a 8cbd
00000240: 042c b7bd f811 05bd 7000 72bc c58d 273e
00000250: ff19 85bd 7654 1dbe 30fb 9ebd a77d 133e
00000260: 1afb 05be ff2e 313e cdfd 8abd c885 4a3d
00000270: c20f fd3d c814 3abd da2f de3d 9b98 34be
00000280: c0dc 29bd a0bb f53b 5e7d cf3d d2fd e93d
00000290: 6645 c63d 5b53 303e 1cb0 81bd 3ff0 2d3e
000002a0: d398 33be 778b cabd bad5 2dbe e03e d5bd
000002b0: e077 f73c 6ca7 44bd 8016 a8ba fac4 62bd
000002c0: c8ef 2bbd 0486 03bd aef9 0bbe 7d02 1a3e
000002d0: 4de0 2e3e 5296 c43d 8b4e 0b3e 6f05 213e
000002e0: b20f babd 28c4 32be a055 acbc 7055 2cbc
000002f0: f844 bcbc 81a9 0a3e e0bb 7a3d aad9 5ebd
00000300: c0c7 0f3b e050 18bc 9bbb 163e 4cc6 033d
00000310: d8d1 86bc 4093 fc3b a006 a3bb ed8f 293e
00000320: 3ae6 8d3d 4ec5 f8bd 5d59 1c3e 8e8c 6dbd
00000330: 445b 14be c4f3 653d 883c 153d 1aa9 eb3d
00000340: 2645 8b3d d098 8a3c aee5 f93d e01a e13c
00000350: aa70 e7bd b4c6 38bd b6ae cd3d 0cc2 733d
00000360: 31d5 273e 32ad c73d e2ae 81bd eb16 efbd
00000370: 8849 d2bc 80b3 f53c 6899 f4bc d5ba 16be
00000380: 2f26 073e 3672 06be 8fdb 153e e6a7 fd3d
00000390: b28c 05be 1f6a a8bd d4ca 18be d7a3 f8bd
000003a0: d42d adbd a922 a6bd 4840 cebd 720f ac3d
000003b0: 04be 533d 7269 c6bd adc0 0dbe 859a dabd
000003c0: c009 00be c827 e8bd a4d0 5fbd 6c2e 943d
000003d0: 72e5 e53d 6875 9fbc a285 05be ffb1 22be
000003e0: 4704 233e 65e8 2b3e fdad 01be 4ead 05be
000003f0: f29a ebbd a8ab 2f3d e693 82bd 5917 86bd
-0.11087949 -0.10101657 0.03173822 -0.17662056 -0.107586004 -0.10045347 0.103028044 0.17425059
-0.14735785 -0.087855466 0.12665959 0.109267846 0.0059909374 -0.027589872 -0.033232346 0.13944013
0.055031538 0.16773055 0.14152409 -0.057944305 -0.0469867 0.14294194 -0.1688046 0.14131378
-0.14177571 -0.11425081 0.111080095 -0.16272958 0.14922129 0.06740765 -0.048024982 0.09819399
-0.09724582 0.060779408 -0.01337716 -0.077957384 0.1659828 -0.117089376 0.101126924 -0.03570424
-0.081637114 -0.059610076 -0.106327266 0.12920119 0.15144132 0.01143758 0.07019244 -0.15100172
0.13593458 0.09485258 0.053574055 -0.13833503 -0.05471769 0.0533181 0.028634667 0.006028965
0.013797253 0.10650642 -0.065014146 -0.09346051 -0.1702333 -0.0022870302 0.03784357 -0.026341677
-0.109813675 0.15023924 0.019173905 -0.046647474 0.09230615 0.0034527928 -0.047150224 -0.036305785
-0.10274948 -0.16972247 0.08827926 0.07044326 0.17354946 0.061591104 0.04311034 -0.037924632
0.058731824 0.1635239 -0.14228341 0.003039077 0.10532339 0.14053537 0.07999708 0.10734646
-0.12140442 0.10007371 0.07529695 0.11591829 -0.06735776 0.025453284 0.11975534 -0.10892375
0.035569176 0.12028201 0.06496853 -0.06545172 0.06980178 -0.00034065545 0.034931153 -0.13123423
-0.03052546 -0.1589801 -0.10953605 -0.020926788 0.14734371 0.058983207 0.10477798 -0.036395296
0.13771199 -0.02812174 0.097000584 0.099041685 0.11521496 -0.08057676 -0.12505056 -0.009977862
0.15821166 0.16827406 0.11969383 -0.15867156 0.07548596 -0.027397722 -0.16491818 -0.10265147
0.14715327 0.11506055 0.019152671 -0.10981251 0.09887229 -0.061489932 0.06091918 -0.018490434
-0.1191477 -0.124649934 -0.07488157 -0.14199793 -0.057150684 -0.06679713 -0.10050272 -0.06841059
-0.08943942 -0.03248784 -0.014770612 0.16362675 -0.06499099 -0.1536425 -0.07762754 0.14403401
-0.13084069 0.17303084 -0.0678669 0.04944399 0.12356521 -0.045429975 0.10848971 -0.1763634
-0.04147029 0.0074991733 0.10131334 0.114253655 0.096812055 0.17219298 -0.06332418 0.16986178
-0.17538767 -0.09889882 -0.16976061 -0.10412383 0.030208528 -0.04801123 -0.0012824088 -0.055363633
-0.04197672 -0.03211023 -0.13669464 0.15040012 0.17077751 0.09598984 0.1360418 0.15724729
-0.09085025 -0.1745764 -0.021036923 -0.010518417 -0.022982106 0.13541223 0.061214328 -0.0544068
0.0021939129 -0.009296626 0.14720003 0.032171533 -0.016457483 0.0077079833 -0.004975155 0.1655881
0.06928678 -0.12147008 0.15268464 -0.05799537 -0.1448794 0.056140676 0.03643468 0.11506863
0.068002984 0.01691857 0.12202011 0.027478635 -0.11300786 -0.045111373 0.10043089 0.05951123
0.1638992 0.09749831 -0.063321844 -0.11674293 -0.025669828 0.029992819 -0.029858306 -0.14719708
0.1319816 -0.13129506 0.14634536 0.1238554 -0.13041952 -0.08223366 -0.14921123 -0.12140625
-0.08456007 -0.0811208 -0.100708544 0.084013835 0.051694885 -0.09688081 -0.13843031 -0.106740035
-0.1250372 -0.11335713 -0.054642335 0.07235417 0.11225404 -0.019465163 -0.13039258 -0.15888213
0.159196 0.1678787 -0.12664028 -0.13054392 -0.11504163 0.042888314 -0.06375866 -0.06547422

net.2.bias f4 [32]
00000000: 7a6a 14be 87cf fabd 6dec 17be 7763 2f3e
00000010: 808a eebd 1a80 f33d 2a47 10be e4a9 13bd
00000020: 625c e63d 5a0e f93d 3288 59bd 3aa3 b53d
00000030: af00 203e e842 30be 6a86 d43d 4046 473b
00000040: fff5 dbbd ba5e c33d 28e7 c2bd 325c 993d
00000050: 433b d7bd f088 c43c 28ed e8bc 206c 443d
00000060: 8822 a93c 2864 2b3d 6047 61bc fcce 453d
00000070: f147 0e3e 7712 053e 8e81 af3d 82cf f13d
-0.14493743 -0.12246614 -0.14836283 0.17127787 -0.116475105 0.11889668 -0.14089647 -0.036050692
0.112480894 0.121609405 -0.0531084 0.088690236 0.15625261 -0.17213023 0.103772 0.0030406862
-0.107402794 0.09539552 -0.09516746 0.07488288 -0.1050935 0.023991078 -0.028433397 0.04795468
0.020646349 0.041843563 -0.013749927 0.0482931 0.13894631 0.12995325 0.085696325 0.11807157

net.4.weight f4 [32, 32]
00000000: 9005 193d b620 e93d 725f a83d cdf5 113e
00000010: 5a20 f53d e3ea d1bd 1e0d acbd aa24 fbbd
00000020: cb06 9cbd e8b0 24bd 20d9 14bd b85e b5bd
00000030: d3d2 d5bd 2f8a 273e 70fc 673d a633 e03d
00000040: 848f 09be d8f5 d73c 9031 043d f092 273c
00000050: 4834 b23c 8833 eebc 3acf a4bd e82b 30bd
00000060: 00cc 3c3c 40c5 6ebc 03e6 263e 0e4e f2bd
00000070: df80 1d3e 36ce b93d 15aa 083e f864 f03c
00000080: 0ec0 c23d 948c 75bd febe 2fbe cc95 b7bd
00000090: 1862 26be f033 933c 0002 a73a 411a 84bd
000000a0: d805 013d 0265 0abe 5038 4e3c c89b c93c
000000b0: 7a71 06be 969d e33d 8e57 833d 2605 a13d
000000c0: 008b 5abc 7c4a 04bd 02df 9e3d 80b5 f53a
000000d0: 8478 a9bd b85b ae3c 47e5 94bd a4bc 60bd
000000e0: e09c 1ebe 747d 663d 59e5 203e c07d 0bbe
000000f0: a0a9 c23c a9ce 333e a6d9 9b3d 8a39 c93d
00000100: 5e64 fcbd 6055 263c 8494 0abe 904d 243d
00000110: 9118 193e 4f3a 2f3e ce37 9c3d 941d acbd
00000120: a12f a4bd 725e a8bd 5b7c 05be 963c d83d
00000130: ed9b 87bd 4c30 4b3d 0041 23bd 8dc5 19be
00000140: 98fc c3bc 6020 61bc 4854 e4bc 07d6 0b3e
00000150: 0676 913d ca84 04be ccdf 96bd 8f57 143e
00000160: 5e30 75bd 2517 043e 9adf a2bd 86d8 79bd
00000170: 86df 29be e103 82bd 9cbd b0bd 3ef7 f33d
00000180: da9e a63d 5611 12be a062 06bd c9be 0f3e
00000190: 546a 313d a0af 5e3d d8f1 f5bc 6a60 edbd
000001a0: a072 adbb 70d5 33bc a01f 3ebd 130c e6bd
000001b0: 0028 8fba 9ca5 fcbd 1487 03be a0ef c83c
000001c0: 50bb 7bbc 009f 5c3d 309b 31bd 607b f73b
000001d0: 60d8 3bbc 4056 703d d6d1 23be bd42 33be
000001e0: e09d ba3b d0cf 38bc e699 95bd 9aa4 d33d
000001f0: 2988 2a3e aef4 ffbd 30ae babd 160f e2bd
00000200: 72ad e13d 7a3f e3bd 7ea0 e03d 6fbf 25be
00000210: 101c d8bc 2659 08be 58b3 fa3c 5b55 2f3e
00000220: e6ae cc3d c0be 5f3b f841 13bd ae58 a43d
00000230: 3209 f43d a8e9 9ebc 5b0e 063e 3357 093e
00000240: c03d efbb 38fd 543d 7b48 1d3e f1b1 8abd
00000250: fe07 efbd f852 e5bc e493 68bd 1c96 21be
00000260: 8260 c53d 00a9 d53b b896 b6bc c945 d4bd
00000270: 24ec 80bd 251b 0abe d187 00be 90b9 27be
00000280: 7ae5 09be a6d1 f03d a995 133e 483f 93bc
00000290: fa51 8c3d b825 9c3c 11da 02be 302e 2f3d
000002a0: 8e82 e33d aa09 cc3d 9590 0ebe 2c69 1d3d
000002b0: defb 1fbe e802 4f3d de78 d03d 008e 403d
000002c0: 59f6 0bbe 8092 4abd 1b2b 10be 20c5 6bbc
000002d0: 3888 ccbd e01f b9bc 0a85 15be dcd6 f6bd
000002e0: dc72 5c3d d000 4abc 842a 93bd 6a21 cc3d
000002f0: 7130 293e 34c2 843d 435f 2c3e 4218 833d
00000300: 54e7 13be 5836 1bbe 5f8c 8fbd d88e f43c
00000310: 86cc 19be 1893 24be 5c26 63bd 4db1 033e
00000320: 14ef f0bd b0d2 d03c 0002 cebc 9ce3 23be
00000330: 672e 2e3e 0018 66bc b262 f53d a084 423d
00000340: 01a7 073e fc10 6c3d 0085 1fbc 05b0 1cbe
00000350: b07c 403c 9a6a 903d d07a 713d b662 d73d
00000360: ecb6 14bd e641 6bbd 204c d0bd 4422 58bd
00000370: 36d1 9b3d e8c4 de3c 8a2f d53d 68ab a33c
00000380: 514f 1c3e 8a8b 19be 5801 4abd c42d 33bd
00000390: 03e5 abbd ecd9 24bd c272 f63d e82d dcbc
000003a0: fac3 9f3d 705a 6c3c 6096 003c 133e aabd
000003b0: 69d4 183e ddf1 2e3e a053 72bc 383d 37bd
000003c0: 372f 263e 14b4 81bd 1409 f5bd f84a d8bd
000003d0: c01e 26bd a8b2 eabc 7494 efbd d8d2 2dbe
000003e0: 3edc b33d eb6b 2ebe ecf5 17be 8cb5 78bd
000003f0: 00c6 6e3d 2637 c33d b2a3 a6bd 297f 193e
0.03735882 0.11383192 0.0822133 0.14253922 0.11969061 -0.10249879 -0.084009394 -0.122628525
-0.07618483 -0.040207773 -0.03633988 -0.08855957 -0.10440602 0.16361307 0.056637228 0.10947351
-0.13433653 0.026362345 0.03227383 0.010227904 0.021753445 -0.029077306 -0.08047338 -0.043010622
0.011523247 -0.014573395 0.1629868 -0.11831294 0.15381192 0.09072535 0.13346131 0.02934502
0.09509288 -0.05994852 -0.17162701 -0.08964118 -0.16248357 0.017969102 0.0012741685 -0.0645032
0.031499714 -0.13515094 0.012586668 0.024610415 -0.13129225 0.111140415 0.06413184 0.0786231
-0.013338804 -0.032297596 0.07757379 0.0018746108 -0.0827494 0.02128397 -0.07270294 -0.0548674
-0.1548953 0.056271985 0.15712489 -0.13622189 0.023762524 0.17559303 0.076098725 0.09825428
-0.12323831 0.010152191 -0.13533217 0.040113032 0.14950778 0.17112087 0.076278314 -0.08404079
-0.08016897 -0.08221139 -0.13035719 0.10558431 -0.06621537 0.049606606 -0.03985691 -0.15016766
-0.023924157 -0.013740629 -0.02787222 0.13655864 0.07102589 -0.1294128 -0.073669046 0.14486526
-0.05986058 0.12899454 -0.07952805 -0.06099751 -0.16589174 -0.06348396 -0.08629915 0.11912392
0.08135767 -0.14264426 -0.0328089 0.14037623 0.043314293 0.054366708 -0.030022547 -0.11590655
-0.0052932054 -0.01097618 -0.04641688 -0.11232772 -0.0010921955 -0.12336275 -0.12844497 0.024528325
-0.015364483 0.05386257 -0.04336089 0.0075525492 -0.011465162 0.058676004 -0.15998015 -0.17505927
0.0056950897 -0.011280015 -0.073047444 0.1033413 0.16653503 -0.12497841 -0.09115255 -0.11038034
0.1101941 -0.110960916 0.109681115 -0.16186307 -0.026380569 -0.13315257 0.030603096 0.17122404
0.09994297 0.0034140795 -0.035951585 0.08024727 0.11915816 -0.019398525 0.13091414 0.1341217
-0.0073010623 0.0519993 0.1535968 -0.06772221 -0.11671446 -0.027993664 -0.056781664 -0.15779918
0.09637548 0.0065203905 -0.022288665 -0.10364873 -0.0629504 -0.13486917 -0.1255181 -0.1637938
-0.13466445 0.11758737 0.1441256 -0.01797451 0.06851573 0.019060954 -0.12778498 0.042768657
0.11108886 0.09962781 -0.13922341 0.038430378 -0.15623423 0.05053988 0.101793036 0.04701042
-0.13668193 -0.04945612 -0.14078943 -0.01439026 -0.09986919 -0.022598207 -0.14601532 -0.120527
0.053820476 -0.012329295 -0.071858436 0.09967311 0.16522385 0.06482354 0.16833214 0.06401111
-0.14443713 -0.15157449 -0.070091955 0.02985327 -0.15019426 -0.16071737 -0.055456504 0.12860604
-0.117643505 0.025491089 -0.025147438 -0.16004795 0.17009889 -0.014043808 0.11981715 0.047489762
0.132473 0.057633385 -0.0097362995 -0.15301521 0.011748478 0.07051583 0.058955014 0.105168745
-0.03630726 -0.057435893 -0.1017077 -0.052767053 0.07608263 0.027193502 0.10409458 0.019979194
0.15264632 -0.14994636 -0.049317688 -0.043744817 -0.0839329 -0.04024689 0.12033607 -0.026877359
0.078010514 0.014425859 0.007848352 -0.08312621 0.14924778 0.17084451 -0.014790446 -0.044736117
0.16228949 -0.06333175 -0.11964622 -0.10561174 -0.04055667 -0.028649643 -0.11698237 -0.16974962
0.08782242 -0.17033355 -0.14839906 -0.06072001 0.058294296 0.09532003 -0.08136691 0.14989914

net.4.bias f4 [32]
00000000: 00da 9fbb 709c 853c e280 a93d 6060 c83b
00000010: 7db7 193e c02c 2ebc 998c 1c3e 4781 8fbd
00000020: d4f9 5e3d 4339 16be 0075 ae3b 50d4 77bd
00000030: c499 1abe 12df c33d b678 14be fc5e 6f3d
00000040: 0f94 0d3e 2ed7 bebd e377 8dbd 60db b3bc
00000050: 42d7 e13d d3ba 273e 71db 8cbd b9ff 30be
00000060: 8b87 163e 30fc e33c da74 14be c86d fe3c
00000070: bf25 2d3e c0df 3bbc 862a 813d bfcd 193e
-0.0048782825 0.016309947 0.082765356 0.0061150044 0.15011401 -0.010630786 0.15288009 -0.070070796
0.054437473 -0.14670281 0.005324006 -0.06050521 -0.1509772 0.09564032 -0.14499173 0.058440194
0.13826011 -0.09318386 -0.06907632 -0.021955192 0.11027385 0.16379862 -0.068777926 -0.1728505
0.14700143 0.027830213 -0.144977 0.031058207 0.1690893 -0.01146692 0.06306939 0.15019892

net.6.weight f4 [32, 32]
00000000: f8ea d73c 955c 293e 7c77 523d bf11 103e
00000010: 1d9e 1fbe 7fa8 bebd 9070 12bc 0098 343a
00000020: 3866 cc3c fc90 003d df2b 85bd c471 1abd
00000030: 358f 083e 717e 323e 0040 fdba 60a7 773d
00000040: 0b81 85bd 30a7 1c3d 9d16 2b3e 0de2 263e
00000050: d465 3dbd 7d1d 163e 9fc3 063e 9235 f7bd
00000060: d87a 9a3c e0c2 f3bc f44b 45bd 90c7 97bd
00000070: 8031 5dbb f666 1ebe 009f 623d 4299 aa3d
00000080: 4334 d0bd 1eb2 ca3d 60c6 b7bc 8293 a03d
00000090: eb7c 223e 00ae 333d f03e 523c 3812 b33c
000000a0: a08a 8e3b 2012 ccbb 36f1 21be 1a61 f53d
000000b0: a49f 373d 28c7 9f3c b8e0 073d c00f 5cbc
000000c0: e53e 1f3e 28ed 923d 351f 123e 61f6 2c3e
000000d0: 0b8a 093e 261a 04be e946 043e b47d 40bd
000000e0: ae2c 823d 571b 21be ae7c f83d 806c ec3b
000000f0: c0fc 733d 68bf fcbd 76e7 af3d e18c 293e
00000100: ee60 963d c02c 3bbb 8778 0d3e 3586 2b3e
00000110: d0c8 073d 88d5 c23c 61ed 093e e8db 2e3d
00000120: df3c 2dbe ea55 c83d 5853 1cbe fa1e b43d
00000130: 6215 ca3d 78f0 ca3c c03c 2fbd e9c3 1ebe
00000140: de2b b13d def5 b13d ca15 e03d b29a b73d
00000150: 9875 17be a013 5b3d 1034 59bc c838 373d
00000160: a0a9 12bd a8fe 19be 805b 00bb 1a3f e53d
00000170: 2a62 14be 062c b83d a6db 913d 2a18 e7bd
00000180: 7a73 833d 90f8 14be 9d57 c6bd 380a ff3c
00000190: 6875 823d 1d0b 103e 59c5 243e be7e 17be
000001a0: f8de 933d a80a e7bc d9be e0bd 4323 2c3e
000001b0: 1ee6 aa3d 824b 17be 13fd f9bd 3c73 25bd
000001c0: 5fed b0bd 8096 69bb 8465 233d 4436 0abe
000001d0: 8d75 e0bd a0d0 47bc 0090 e8bc fb00 13be
000001e0: 0e7d 27be 7165 253e 8e46 da3d cace df3d
000001f0: d615 0ebe 32c8 e93d e0e3 d7bd 60f7 b73c
00000200: c2f6 f13d 80bb 003b cad5 8bbd 3532 88bd
00000210: e40d 2b3d 9094 743c d7e0 183e 1eed a13d
00000220: 4509 303e 7553 083e ac08 7f3d 3bd4 8fbd
00000230: bee2 af3d 5a7d 7dbd 00df 833b 8634 89bd
00000240: f2c4 30be 0d08 c0bd 624b eabd 50ab 3fbd
00000250: 7a23 db3d 00bd 963a e089 2e3d 80de 7a3b
00000260: 8082 9d3c ba67 da3d 4a48 72bd 3994 1f3e
00000270: 55e4 1ebe 5e11 34be a339 083e f37d fbbd
00000280: 80ec 37bb 5da2 10be be53 58bd 385e 2cbe
00000290: b0cc 0fbc 499a 073e dc52 153d fc11 1fbd
000002a0: b4c1 6cbd 0011 d33b 0cee 023d cf92 323e
000002b0: e48e 3ebd e008 393c 523f 7fbd 8894 a5bd
000002c0: 67da 23be 287c 75bd 8283 09be ac3b 2ebe
000002d0: a016 b4bb 2a68 f8bd 6d7b 2e3e 1cc8 1bbd
000002e0: 080f dc3c 1d4f d1bd 103f 8e3d 8c6a a9bd
000002f0: 8a84 eb3d 0ea3 a33d 8113 153e 00f6 b7b9
00000300: b869 38bd b2c0 21be 14e0 f3bd 4e4b 89bd
00000310: 5ef2 ffbd 0c50 6dbd bec1 9c3d 5a7e 883d
00000320: 1589 c3bd 9a42 9f3d d482 0c3d 69da 30be
00000330: 66c5 d23d c8cc 783d e7cd 273e 1d3d 143e
00000340: 6667 a83d e803 cd3c d0f2 d23c 4049 813c
00000350: d5ae 283e 94e9 76bd 898d 303e 20d1 eb3b
00000360: 99c5 193e 5050 0d3c 59a4 173e 7d3f a8bd
00000370: 6f6b 0c3e 15f4 adbd d0cb 33be f7b3 c9bd
00000380: 00c7 963c 5251 e13d 1153 0d3e 855b 1e3e
00000390: 1eb5 a03d 90c6 1abe 12fd c63d 7fa4 123e
000003a0: b0de 24bc 3e7f d33d 4a68 8f3d 2752 2d3e
000003b0: ec81 c3bd 6e96 9f3d c6a8 993d 3c6e 6c3d
000003c0: 6ff5 bfbd c354 1cbe 6081 7dbd 835c 093e
000003d0: 3d98 193e 083c 9abc 145c a2bd d239 b53d
000003e0: dbab 0e3e 8865 f3bc f49f 763d b62b 2fbe
000003f0: d09b 763d 5b5c 2d3e e9b4 073e a4cd 11bd
0.026357159 0.16539223 0.05138348 0.1406927 -0.15587659 -0.09309482 -0.00893797 0.0006889105
0.024951085 0.031388268 -0.06502508 -0.03770615 0.13335879 0.17431046 -0.0019321442 0.060462356
-0.065187536 0.03824538 0.16707845 0.16297169 -0.04623969 0.14659686 0.13160561 -0.120707646
0.018857405 -0.02975601 -0.048168138 -0.074111104 -0.0033751428 -0.15468964 0.055327415 0.08330013
-0.10166218 0.098972544 -0.02243346 0.07840635 0.15867965 0.04386711 0.012832388 0.021859273
0.0043500215 -0.0062277466 -0.15814671 0.11981411 0.04482998 0.019504145 0.033173293 -0.0134314895
0.15551336 0.0717414 0.14269717 0.16890861 0.13431565 -0.129006 0.12917675 -0.04699488
0.06356178 -0.15733086 0.12133156 0.0072150826 0.059567213 -0.12341195 0.085890695 0.16557647
0.073427066 -0.0028560609 0.13815509 0.16750415 0.033150494 0.02378346 0.13469459 0.042690188
-0.16917752 0.09782012 -0.15266168 0.08794971 0.0986736 0.024772868 -0.042782545 -0.15504421
0.08650945 0.086894736 0.10941656 0.08965053 -0.14790952 0.053485513 -0.013257042 0.044731885
-0.0358063 -0.1503855 -0.0019585788 0.11193676 -0.14490572 0.08992772 0.07121973 -0.11283906
0.0641851 -0.14547944 -0.0968468 0.031132802 0.0637005 0.1406674 0.16090907 -0.14794442
0.07220262 -0.028203323 -0.10973901 0.16810326 0.083446726 -0.14774898 -0.12206473 -0.0403931
-0.08639025 -0.0035642684 0.039891735 -0.13497263 -0.10959921 -0.012195736 -0.028388977 -0.14355843
-0.16356298 0.16151978 0.106579885 0.10928114 -0.13875517 0.11415137 -0.105415106 0.022456825
0.118146434 0.0019643009 -0.068278864 -0.06650201 0.041761294 0.014927998 0.1492952 0.07906555
0.17191036 0.13313086 0.06226413 -0.070229016 0.085881695 -0.061887123 0.0040243864 -0.06699471
-0.17262629 -0.093765356 -0.114401594 -0.046794236 0.10700126 0.0011500418 0.042611957 0.0038279593
0.019227266 0.106643155 -0.05915097 0.15583886 -0.1551679 -0.1758475 0.13303237 -0.12279882
-0.002806455 -0.14124437 -0.052814238 -0.16832817 -0.008776829 0.13242449 0.036455974 -0.03883551
-0.057801917 0.0064412355 0.0319653 0.17438816 -0.04652299 0.01129362 -0.062316246 -0.08084971
-0.16001283 -0.059932858 -0.13429072 -0.1701495 -0.005495861 -0.12129243 0.1703927 -0.038032636
0.026862636 -0.10220168 0.06945622 -0.08272275 0.11499889 0.079900846 0.14558221 -0.00035087764
-0.045022696 -0.15796164 -0.11907974 -0.06703816 -0.124974 -0.057937667 0.07654141 0.06664725
-0.09547631 0.07776375 0.034304455 -0.17270817 0.10291557 0.06074217 0.1638714 0.14476438
0.08222847 0.025026277 0.025750548 0.015781999 0.16472943 -0.06028135 0.17241491 0.0071965605
0.15016784 0.008625105 0.14808787 -0.082152344 0.13712858 -0.084938206 -0.17558217 -0.09848779
0.018405437 0.11001839 0.13801219 0.154646 0.07847045 -0.15114808 0.09716238 0.14320563
-0.010062858 0.10327004 0.070023134 0.1692587 -0.09546265 0.07792364 0.07502894 0.057722315
-0.093729846 -0.15266709 -0.06189096 0.13414197 0.1499948 -0.018827453 -0.07927719 0.08848919
0.13932745 -0.0297115 0.060211137 -0.17106518 0.060207188 0.16929762 0.13252605 -0.035596505

net.6.bias f4 [32]
00000000: b8b7 743d ea99 c53d a081 3ebc 7c65 16bd
00000010: 4b32 2b3e 300f bebc 955c b4bd 8cd5 0bbd
00000020: fc04 11bd 000f 573d a8b5 0cbe f154 033e
00000030: eedc b23d 882c f5bc 60fe 163c 3e48 14be
00000040: 4a53 d33d 2e4f df3d 93e7 0c3e ef5d 253e
00000050: 802d 72bc 7a34 d3bd 6a31 953d 6cb2 09bd
00000060: bce6 4a3d ea4c 9c3d 9e79 8cbd 9670 18be
00000070: deca fc3d 68a4 5e3d dbcc 0dbe 0ad7 c53d
0.05974552 0.096484974 -0.011627585 -0.036717877 0.16718404 -0.023200601 -0.08806721 -0.0341392
-0.035405144 0.05250454 -0.13741171 0.12825371 0.08733545 -0.02992846 0.009215921 -0.14480683
0.103186205 0.10903774 0.13760214 0.16149114 -0.014781356 -0.103127435 0.072848156 -0.033617422
0.04953645 0.07631858 -0.06859134 -0.14886698 0.12343381 0.05435601 -0.13847677 0.09660156

net.8.weight f4 [32, 32]
00000000: 706c a5bc e39c 323e f5e8 263e e0f2 8b3c
00000010: a885 4c3d a360 2f3e 52a8 a7bd 6836 48bd
00000020: ebc0 dfbd e220 27be 406b 0dbc 99c8 f8bd
00000030: 4770 d4bd a04e 22bd d8de d3bd 361a 7cbd
00000040: 3147 33be 9549 293e 8316 2e3e 3be0 33be
00000050: 7aeb 0bbe 8864 01bd f852 d1bc d2c3 e13d
00000060: 00fc 13be 600d 223d e0a9 0c3c 8068 c2bb
00000070: 346a 26be 9929 31be 0614 ce3d 0048 f238
00000080: 8ed0 8e3d 4083 b0bd 85c8 053e a072 12bd
00000090: 8c30 453d 025f ce3d 8076 e2ba c850 6cbd
000000a0: 66b4 18be 5489 33bd bd6e b1bd ffbe e1bd
000000b0: 3a4d 893d 1877 483d 285e dcbc d41e 1fbd
000000c0: 1e69 f43d 52cd 75bd 0022 1fbe 07c5 87bd
000000d0: 34fb 16be 2c11 463d b089 2b3d 0060 ff39
000000e0: a1a7 323e 3832 b83c 9e7a fc3d d8bd 983c
000000f0: 10c9 74bd d915 debd 4049 42bb a2af 9e3d
00000100: bbc7 22be 1b41 bebd 1e94 7cbd 7fd4 103e
00000110: a805 fcbd 74fe 92bd c648 05be f85d de3c
00000120: 90a3 493d d044 603c 2005 e1bc d9cc 1f3e
00000130: af96 263e 0705 093e 2f0e 023e c01d cf3c
00000140: 4880 b1bc 0689 93bd 8333 2dbe d4d6 2bbd
00000150: 6a09 f0bd 8918 fbbd 24d8 723d 14d2 623d
00000160: 890f 313e 000d ecbd a132 123e 1451 293d
00000170: d104 afbd 02cd 803d 2c5f 1b3d 860a dabd
00000180: 28da efbc d82d 00bd f4ca 2cbe 28bc 84bc
00000190: 60bf a33b 5e02 c23d 6873 ca3c 9ada 96bd
000001a0: 6c70 80bd 7e18 9b3d 6001 b53b 4ee8 0ebe
000001b0: 11e0 9bbd a0d5 053c 080b e83c 88d7 bc3c
000001c0: b20f df3d c684 08be 4636 56bd 1ec8 04be
000001d0: 91dd 023e 5a86 11be 31bd 233e 4ada db3d
000001e0: 747c 403d c0a1 1bbe 7e51 9c3d b7ed 013e
000001f0: babd be3d d843 fe3c 5004 d6bd 747e 603d
00000200: 4d4b 293e 2367 0dbe f8e1 023d 60c5 15bc
00000210: 87c6 17be dec0 d93d a8ec 43bd 3dd0 1c3e
00000220: 0939 2d3e b054 f83c b5ca 193e 6b11 a5bd
00000230: a838 f43c 404a cf3c 5df6 063e 659f 2ebe
00000240: 6c0c 95bd a259 0bbe aecc f83d 3460 22be
00000250: 00c0 e63b baa9 fe3d 1028 f03c 1290 dbbd
00000260: 6a69 fc3d 6c96 563d 704d 1b3d 1256 a6bd
00000270: 3966 1b3e 8d86 1c3e 4b30 333e ae69 fd3d
00000280: 665c dfbd 6e48 fdbd 573c cbbd 9c4f 13bd
00000290: 5606 8cbd 20ce 02be 3580 e3bd cb95 0d3e
000002a0: 79ff 94bd 111f 103e be87 b3bd e24e 94bd
000002b0: 4c57 0abe d766 13be 96e3 fe3d 2344 343e
000002c0: 9bf2 303e f8f9 db3c 011b 113e 3a22 ef3d
000002d0: 0809 dabc e9c4 84bd 3cbc 2fbd 9227 c23d
000002e0: 2d0e cebd 4e68 a23d 1871 18bd 7ca8 05bd
000002f0: 45fa 8bbd 8013 1f3c 79d4 123e 1a00 983d
00000300: ca4d fb3d ce33 b7bd 3137 0a3e 5afc b73d
00000310: d0df 35bc dc51 0abe d8aa f6bd 661e fb3d
00000320: 4a34 15be 20f9 b8bc aa1d db3d 6ea2 b73d
00000330: 9898 06be c04a 533d e0c4 12be 10fa 1d3c
00000340: 1295 e43d d9b8 2e3e 46c2 863d 532a 1d3e
00000350: 107b 2ebe 5c81 6bbd fd16 113e 8255 2abe
00000360: 33ad 15be d0dd 4dbc a467 313d 0601 2fbe
00000370: 7096 7cbc 68e1 8c3d 4ace 10be 232a 1f3e
00000380: 22df e8bd 9c38 2ebd db3d f5bd 10e3 69bd
00000390: 3fe4 a5bd 101e 643d 0ec2 fe3d 2e64 f13d
000003a0: 2c15 1a3d 8043 8a3c 8083 97ba 94b8 fcbd
000003b0: 3ae3 d73d 68fe 1dbe 9ef5 c93d 38ec 303d
000003c0: 9fba 073e 0050 243c c329 bebd e0e4 5a3c
000003d0: 50d4 38bd 3825 fabc 8c7b 44bd 109c 15bd
000003e0: ae99 0dbe 3bef 273e bd05 0b3e bf3a fabd
000003f0: 6101 333e 7c02 4d3d 9223 7dbd a21c 92bd
-0.020193309 0.1744266 0.16299804 0.017083585 0.049932152 0.17126708 -0.081864014 -0.04888001
-0.10925468 -0.16321138 -0.008631527 -0.12147636 -0.10372978 -0.039625764 -0.103452384 -0.061548434
-0.17507626 0.16531976 0.17000775 -0.17566006 -0.13664046 -0.031590015 -0.025552258 0.11023678
-0.14451599 0.039563537 0.008585423 -0.0059328675 -0.16251451 -0.17301024 0.10062413 0.0001155287
0.069733724 -0.08618784 0.13064773 -0.035753846 0.048142 0.10076715 -0.0017277747 -0.057694227
-0.14912567 -0.04383214 -0.086637 -0.11022758 0.06704183 0.0489417 -0.026900366 -0.03884776
0.11934112 -0.06001026 -0.15540314 -0.06629377 -0.14744264 0.04835622 0.041879356 0.00048708916
0.17446758 0.022484884 0.12328075 0.018645212 -0.05976206 -0.10844011 -0.0029645711 0.07748343
-0.15896504 -0.09289762 -0.061664693 0.14143561 -0.12305766 -0.07177439 -0.13016042 0.027144417
0.04922825 0.013688281 -0.027468264 0.15605487 0.16268419 0.13380824 0.12700723 0.02528274
-0.021667615 -0.072038695 -0.16914181 -0.041952923 -0.117205456 -0.12260539 0.05928816 0.055376127
0.17291082 -0.11525917 0.14277126 0.041337088 -0.085458405 0.06289102 0.03793256 -0.106465384
-0.02927883 -0.03129372 -0.16874295 -0.016203001 0.004997179 0.09473108 0.024713233 -0.07365914
-0.06271443 0.07573031 0.0055238456 -0.13955805 -0.07611097 0.008168608 0.028325573 0.023051992
0.108916655 -0.13331899 -0.052297853 -0.12966964 0.12779833 -0.14211407 0.1599014 0.10734995
0.046993688 -0.15198421 0.07632731 0.12688337 0.09313531 0.03103821 -0.10450041 0.054808095
0.16532631 -0.13808875 0.03195378 -0.009141296 -0.14821826 0.106324896 -0.047833115 0.15313812
0.16916288 0.03031382 0.15018733 -0.08059963 0.029812172 0.02530396 0.13179918 -0.17052992
-0.0727776 -0.13608411 0.121484146 -0.15857011 0.007041931 0.124347165 0.029315978 -0.107208386
0.12324794 0.052389547 0.037915647 -0.08121885 0.15175714 0.15285702 0.17498891 0.123736724
-0.109062955 -0.123673305 -0.09923618 -0.035964593 -0.06837146 -0.12773943 -0.11108438 0.13826673
-0.0727529 0.14074351 -0.08766125 -0.07241608 -0.13509864 -0.14394699 0.12445752 0.17604117
0.17280047 0.026852593 0.14170457 0.1167645 -0.026615635 -0.0648287 -0.042904124 0.09480204
-0.100612976 0.07930051 -0.03721723 -0.032631382 -0.068348445 0.009709239 0.14338864 0.07421894
0.122706965 -0.08945428 0.13497616 0.08983679 -0.011100724 -0.1350779 -0.120443046 0.122616574
-0.14570728 -0.02257973 0.10699017 0.08966528 -0.13144147 0.05158496 -0.14332914 0.009642139
0.111612454 0.17062701 0.065800235 0.15348177 -0.17039132 -0.057496414 0.14168926 -0.16634181
-0.14616852 -0.012565091 0.04331173 -0.17090234 -0.0154167265 0.0687893 -0.14141193 0.15543418
-0.11370684 -0.042534456 -0.119746886 -0.05710131 -0.08100175 0.055692732 0.12439357 0.11786686
0.037617847 0.01687789 -0.0011559576 -0.12339893 0.10541387 -0.1542908 0.09861301 0.043194026
0.13254784 0.010028839 -0.09285309 0.013360232 -0.045124352 -0.030535325 -0.047969386 -0.036525786
-0.13828155 0.16399853 0.13576408 -0.12218236 0.17480995 0.050051197 -0.0618015 -0.071343675

net.8.bias f4 [32]
00000000: 5ca8 3c3d ec03 31be 8ac5 f33d aa52 d83d
00000010: 029f aa3d 3f6c 2e3e cb18 0c3e e838 fbbd
00000020: 9983 05be d592 a9bd 8c3c 533d 006a c539
00000030: 3ea6 08be 76b6 33be 2089 613c 70d5 d6bd
00000040: a797 1fbe 2aca 943d 106c c03c 78a7 08bd
00000050: 9caf 3dbd b70a 113e b0a4 313d 5029 4cbd
00000060: b4b7 723d 2232 cbbd d6e5 c63d 0f4a 0dbe
00000070: 8769 88bd e896 07be efaa a8bd 815b 293e
0.046058998 -0.17286652 0.11902912 0.10562642 0.083311096 0.1703348 0.13681333 -0.122667134
-0.13038482 -0.08279959 0.051571414 0.00037653744 -0.13344666 -0.17550072 0.013765603 -0.10489929
-0.15585195 0.07265122 0.023489028 -0.033362836 -0.046310052 0.14164244 0.04336995 -0.049844086
0.059257224 -0.099216715 0.097118065 -0.13797782 -0.06660753 -0.1324116 -0.08235728 0.16538812

net.10.weight f4 [16, 32]
00000000: a5cb d1bd fdc4 233e 2d9a 033e 3880 6f3d
00000010: 1cbb 12bd a5c6 84bd ce44 d93d 8203 f63d
00000020: d84e 2dbe 3430 7abd e4b6 4bbd af8e dcbd
00000030: c029 26bd e3a2 c0bd 5f5b 283e 08cf 0fbe
00000040: 1f85 263e a8cb 753d f05c 153d 8038 eabb
00000050: a0f1 eabc a030 493c 90b0 4a3d 357f babd
00000060: 60dc 41bc 002f 9abc 061b df3d 44c7 22be
00000070: 2a5a e63d dfc2 96bd 049c 043d a667 18be
00000080: 36a5 ca3d 96e8 61bd da92 c83d 2e9a f33d
00000090: 1ca6 33bd b8c4 43bd 934c 87bd 34ad 09be
000000a0: ca89 cd3d b0d7 b3bd fa7d 913d e0dd 383d
000000b0: c9a3 82bd a622 56bd 7025 b83c d812 7ebd
000000c0: c18a e8bd e0e7 ddbd 081d 13be 6cae 30bd
000000d0: 1e70 fe3d 7266 b83d 7109 303e 2984 273e
000000e0: a981 8cbd b03b 9fbd 0ca3 433d 701b 703d
000000f0: 0cc6 893d e667 ae3d 798d 1abe f39a 1f3e
00000100: ad44 29be d819 80bd ec2b 06be b445 20be
00000110: 89ff 293e a18f 89bd 861c a03d 60c0 e7bc
00000120: 4e49 aa3d fd11 073e ec18 033d f247 afbd
00000130: 7003 53bd f8d1 c5bc 0c33 0e3d 165a 11be
00000140: 5483 1f3d c8fc d13c facb 21be 789d d7bc
00000150: 26a0 b13d 0dcd 29be a26b c93d 4da1 1cbe
00000160: 086b 02be fc85 7fbd 8bc0 21be 7f40 88bd
00000170: 64fc 633d 63c4 8bbd e0b6 8a3b 80cd 3e3d
00000180: 002b 61ba 6048 843c da37 c93d 114b 93bd
00000190: 6880 8a3c faf8 cf3d afef 2fbe 5d5b 0c3e
000001a0: 9826 e8bc 2171 a8bd 60a4 e53c 489b fd3c
000001b0: 982c 1fbd b9a6 233e 4cec 1d3d b931 8ebd
000001c0: 1541 2f3e 4a5e 8fbd d922 bdbd ab32 203e
000001d0: 729a f93d cc84 33be 30ba 1d3c 42b2 01be
000001e0: 1fab 14be 385a 263d c6c1 8e3d 5881 2a3d
000001f0: 3294 a73d 2dd7 323e 8804 1cbd fe97 bf3d
00000200: 8835 e5bc 9f10 c1bd 9669 0abe 3d7c e6bd
00000210: 286f fbbd 67f1 053e 8056 313b c048 8b3b
00000220: 6242 ed3d 08e5 e23c cfa8 31be 5354 153e
00000230: 8099 9fbc 64d0 61bd b019 603d e220 9bbd
00000240: e4e2 0e3d 79cf 043e e32f 2dbe 4e7d df3d
00000250: c165 1bbe 6290 b43d eafc ee3d 2c99 22bd
00000260: e4fd 243d a6e8 04be a8f1 63bd 3240 18be
00000270: ba90 9f3d 20ed 473c bc5f b9bd e566 1ebe
00000280: 7b2f 2ebe 6662 22be e0e2 0bbe b001 98bc
00000290: 6a72 57bd 72d9 f0bd 70f8 533d fe34 ca3d
000002a0: e762 123e 02e0 dc3d 14cc 03bd 20b9 d2bc
000002b0: 385e 4bbd 51cc 113e f068 5c3c 6d9e 16be
000002c0: 3cba cebd 89ea a9bd 6275 fb3d 0d56 cfbd
000002d0: 38ea ee3c 6008 4c3c 1886 5c3d 702e d4bd
000002e0: e737 203e 9036 e63c 8090 b13b e731 0a3e
000002f0: 0008 c6ba 3dc9 28be 50f6 be3c 70f2 70bc
00000300: 3041 613c 64f7 acbd 3e4f 80bd 40e6 e93c
00000310: b8db 1dbd 7676 e53d 8486 753d 3888 f5bc
00000320: e758 313e 74a6 02be 47e8 0f3e c734 ddbd
00000330: 5863 31bd d075 663d 080e 533d 5015 2d3c
00000340: d990 84bd 9d27 163e f80a 66bd dd52 1e3e
00000350: 48e0 5c3d 92ef ab3d a0b4 16bd 706b 57bc
00000360: d85f 41bd ebe9 303e 03f3 f2bd eebe 8d3d
00000370: 96fe a3bd 6004 a8bc 17c3 013e 40d3 27bc
00000380: 00e5 843a 8e3c 1cbe 9b3d 2c3e 789d b8bd
00000390: c419 0dbe 708c 713d 7c85 063d d072 4e3d
000003a0: 7040 143c 0041 26bd 7cd9 33be 5515 303e
000003b0: 0c49 aebd 09f9 c8bd 8bb4 ccbd 0577 173e
000003c0: 2748 21be e873 95bc b992 81bd 9992 143e
000003d0: 9860 f4bc de94 c93d 3a6f f03d f788 27be
000003e0: 8a5f e83d dbfa 213e 6825 183d 963d fcbd
000003f0: 06ac aa3d 04b1 1abe d928 023e 3c0a 45bd
-0.1024392 0.15993114 0.12851782 0.05847189 -0.035822973 -0.06483201 0.106088266 0.12012388
-0.16924608 -0.061081126 -0.049734965 -0.10769402 -0.04056716 -0.09406068 0.16441105 -0.1404382
0.16261719 0.060008675 0.036465585 -0.0071478486 -0.028679669 0.0122796595 0.04948479 -0.09106294
-0.011832327 -0.01882124 0.10893826 -0.15896326 0.11247666 -0.073613875 0.03237535 -0.14883289
0.09894793 -0.05515345 0.09793635 0.11894642 -0.043859586 -0.047795027 -0.06606402 -0.13444978
0.10036047 -0.087813735 0.07104106 0.04513347 -0.06378896 -0.052279137 0.02247879 -0.06202969
-0.1135459 -0.10835242 -0.14366543 -0.04313509 0.124237284 0.09003915 0.17191102 0.16359009
-0.06860668 -0.07775056 0.047762915 0.058619916 0.067272276 0.08515911 -0.1509303 0.15586452
-0.16530104 -0.06254929 -0.13102692 -0.1565159 0.16601385 -0.06716848 0.078179404 -0.028289974
0.08314763 0.13190456 0.03200619 -0.08558644 -0.05151695 -0.024147972 0.03471665 -0.14194521
0.038943604 0.02563323 -0.15800467 -0.026320204 0.08673124 -0.16582127 0.098349825 -0.15295906
-0.12736142 -0.062383637 -0.15796106 -0.06652927 0.05566062 -0.06824567 0.004233226 0.0465827
-0.00085894763 0.016147792 0.09825106 -0.07192052 0.016906932 0.101549104 -0.17181276 0.13706727
-0.028338715 -0.082247026 0.028032482 0.030957833 -0.038860887 0.15981568 0.03855543 -0.069430776
0.1711467 -0.07000406 -0.09235162 0.15644328 0.12187661 -0.17531127 0.00962691 -0.12665656
-0.14518403 0.040613383 0.06970553 0.041627258 0.08182563 0.17464896 -0.03809026 0.09355162
-0.027979627 -0.09426998 -0.1351684 -0.11254165 -0.12277061 0.13080369 0.0027059615 0.004250616
0.11584927 0.027697101 -0.17349552 0.14582948 -0.019482374 -0.055130377 0.054711998 -0.07574631
0.03488435 0.1296977 -0.16912799 0.10912572 -0.15175535 0.08816601 0.11669333 -0.039696857
0.04028119 -0.12979373 -0.055650383 -0.14868239 0.07791276 0.012202531 -0.09051463 -0.15468939
-0.170103 -0.15857849 -0.13660765 -0.018555492 -0.052599348 -0.117602244 0.0517506 0.09873389
0.14295541 0.107849136 -0.032177046 -0.02572304 -0.0496504 0.14238097 0.013452753 -0.14708872
-0.10094115 -0.08296687 0.12278248 -0.10123835 0.029164419 0.012453169 0.05383882 -0.1036042
0.15646325 0.02810219 0.005418837 0.13495599 -0.0015108585 -0.16483016 0.02331081 -0.014706239
0.013748452 -0.084456235 -0.06265114 0.028552175 -0.03853962 0.11204235 0.059942737 -0.02997218
0.1731907 -0.1275881 0.1405345 -0.10801082 -0.043307632 0.0562647 0.051527053 0.010564163
-0.0647294 0.14663549 -0.056162804 0.15461297 0.05392483 0.08395304 -0.03679335 -0.013148174
-0.047210544 0.17276733 -0.11862757 0.069211826 -0.08007543 -0.020509899 0.12672077 -0.010243237
0.0010139048 -0.15257475 0.16820376 -0.0901441 -0.1377936 0.058971822 0.032842144 0.050402462
0.009048566 -0.040589333 -0.17563432 0.17195638 -0.08510026 -0.09813125 -0.09995373 0.14791496
-0.1575018 -0.018243745 -0.06326813 0.14509048 -0.029831216 0.09842847 0.11739965 -0.16360842
0.11346348 0.1581835 0.03714505 -0.12316434 0.08333592 -0.15106589 0.12710895 -0.048105463

net.10.bias f4 [16]
00000000: 4a53 9e3d d2c9 09be 611b 233e dfda 283e
00000010: 07f4 22be 0a08 8a3d ca7d 873d 6cac 783d
00000020: 9ef7 f13d cc38 2bbd 654d b5bd 4266 a33d
00000030: 0d7c 0f3e 9574 c0bd ca45 963d 20ee 20bd
0.0773073 -0.13455895 0.15928413 0.16489743 -0.15913402 0.067398146 0.06615789 0.06071131
0.11814807 -0.041802213 -0.088526525 0.079784885 0.14012165 -0.09397236 0.0733753 -0.039289594

net.12.weight f4 [8, 16]
00000000: 5282 043e 58d8 ba3d 86ca 2abe b2fd 1f3e
00000010: 38f7 b0bd 982e 96bd 4678 203e 1847 883d
00000020: baf3 0fbe 2402 2a3e d891 c9bd e85e 5e3d
00000030: 50ba c13d 404a 7c3e 3844 cebd 020d 18be
00000040: dee3 783e 6a70 0bbe e27f 733e 000e 61bb
00000050: 2079 8fbc dcb2 52be 7cb2 003e 50ba 8f3c
00000060: f071 cd3c 8067 20bc c2e5 133e 9cf0 043e
00000070: 3227 0fbe ec74 6bbe 481c dcbd dc9f 4fbe
00000080: 8a5e 6f3e b8da 22bd bc48 4fbe 1242 2d3e
00000090: d053 65bd 0863 343d 206b 37bc e873 ac3d
000000a0: d646 2bbe 92af 053e 7054 bd3c 8c48 5bbe
000000b0: 2821 a9bd 463a 003e 3860 3b3e 20ea 77bc
000000c0: e849 e03d 4488 983d 3848 cf3d 2cb6 76be
000000d0: d0fb 453e b66f 71be 2e82 7b3e 388c 6dbd
000000e0: 00bc 043c e0d5 d4bc bced 3c3e 8c91 9e3d
000000f0: 8ca1 f13d a8f6 14be 0095 95ba 7067 823d
00000100: 2ca0 05be 7c93 053e e409 433e fc59 8d3d
00000110: 40d4 fdbb 003f 0bbb 7041 3b3d ec61 623e
00000120: f611 463e 2e46 1bbe d0fb 873d 0642 083e
00000130: 3c28 1bbe 8631 4abe 60da 913d 3ec9 2ebe
00000140: 9027 b73c 5ce1 763e 044e 2fbe f078 dabc
00000150: a40b b7bd 7c2b 253e 2c40 be3d 0632 283e
00000160: a295 4d3e b073 913c ec0a 82bd 8827 02bd
00000170: d816 1abd 1a4d 533e 4875 553d b6ac 3ebe
00000180: aae1 7cbe d0f9 c0bd c8f0 57bd f49c d93d
00000190: c0c3 fdbc eef0 1e3e c41e b2bd 06e4 693e
000001a0: f480 a3bd f8c9 01be 40f8 c8bd e689 3cbe
000001b0: 98a0 9b3d 42b9 03be 7a32 07be da78 643e
000001c0: 9479 34be 94ed 8cbd c889 e33d 8229 0c3e
000001d0: 00f8 ccbc f6c6 773e 309e 94bc e2ef 603e
000001e0: cc76 aabd 5478 703e cc87 483e 96e5 423e
000001f0: 1c01 1b3e c00a 0bbe 807e ef3d 70fe 97bc
0.12940338 0.091232955 -0.16678819 0.15624121 -0.08640903 -0.07333106 0.1567088 0.06654185
-0.14057818 0.16602379 -0.098422706 0.05428973 0.094593644 0.24637699 -0.100716054 -0.14848712
0.24305674 -0.13617101 0.23779252 -0.003434062 -0.017513812 -0.20576042 0.12568086 0.017544895
0.025078744 -0.009790301 0.14443114 0.1298241 -0.13979796 -0.22993821 -0.10747582 -0.20275825
0.23375908 -0.039759368 -0.2024259 0.16919735 -0.055988133 0.044039756 -0.011194974 0.08420545
-0.1672624 0.13055256 0.023111552 -0.21414393 -0.08258277 0.1252223 0.18298423 -0.015131503
0.109515965 0.074478656 0.101211965 -0.2409293 0.1933434 -0.2357777 0.24561378 -0.05799505
0.008101463 -0.02598089 0.18450063 0.077426046 0.11798391 -0.14547217 -0.0011412203 0.063673854
-0.13049382 0.13044542 0.19046742 0.06901929 -0.0077462494 -0.0021247268 0.045716703 0.22107667
0.19342789 -0.1516349 0.06639826 0.13306436 -0.15152067 -0.19745454 0.0712173 -0.17068955
0.022357732 0.24109405 -0.17119604 -0.026668996 -0.08937767 0.16129869 0.092895836 0.16425332
0.20076612 0.01775536 -0.063497394 -0.03177598 -0.03761944 0.2063488 0.0521138 -0.18620571
-0.24695459 -0.09422648 -0.05271986 0.106256396 -0.03097713 0.15521595 -0.08697274 0.2284089
-0.0798358 -0.12674701 -0.09812975 -0.18411979 0.0759899 -0.12863639 -0.13202849 0.22311726
-0.17624503 -0.06881252 0.11110264 0.13687709 -0.0250206 0.24196991 -0.018141836 0.21966508
-0.0832344 0.23483402 0.19583052 0.19032893 0.15137142 -0.1357832 0.1169405 -0.018553942

net.12.bias f4 [8]
00000000: 600c 98bc 84b6 5f3e d8fa 193e 121b 253e
00000010: 2474 493e ba1c 693e c271 30be 3ee2 60be
-0.018560588 0.21846968 0.15037096 0.16123608 0.1967321 0.22764865 -0.17230895 -0.21961305
