MAD/model/wdgrl_3.pth (torch, 4594 bytes, 11 tensors)

net.0.weight f4 [4, 1]
0	0x3e97fe5e	0.29686254
1	0x3ec23160	0.37928295
2	0xbf962241	-1.1729203
3	0xbe7206b8	-0.23635375

net.0.bias f4 [4]
0	0x3d819a8e	0.06328307
1	0xbe2fa579	-0.17152967
2	0xbf383e9a	-0.7197052
3	0xbf1cd29e	-0.61258876

net.2.weight f4 [4, 4]
0	0x3e675776	0.22591957
1	0xbc21bb99	-0.009871387
2	0xbe85175e	-0.2599439
3	0xbeaff2cc	-0.34364927
4	0x3e36bb7e	0.1784496
5	0x3ef91cbe	0.4865474
6	0xbf02893b	-0.5099065
7	0x3e06c290	0.13160157
8	0xbe64160d	-0.22274037
9	0x3dfb2f79	0.12264914
10	0x3f0268db	0.50941247
11	0xbe950002	-0.29101568
12	0xbeb9336f	-0.36172053
13	0xbf3b53c8	-0.73174715
14	0x3e70797b	0.23483841
15	0x3ea01226	0.31263846

net.2.bias f4 [4]
0	0xbedebda1	-0.4350405
1	0x3f0994f7	0.5374293
2	0x3d97ad46	0.07406096
3	0x3ef3d89e	0.47626203

net.4.weight f4 [2, 4]
0	0x3eadcf8a	0.33947402
1	0x3daa2b78	0.08309072
2	0xbe2418e4	-0.1602512
3	0xbe6fa9a0	-0.2340455
4	0xbd492cc9	-0.049114976
5	0x3ea3d31f	0.3199701
6	0xbf20388d	-0.6258629
7	0xbef4d5be	-0.47819322

net.4.bias f4 [2]
0	0xbef363ee	-0.47537178
1	0x3eadba0a	0.33931

net.0.weight f4 [4, 2]
0	0xbf660680	-0.8985367
1	0x3edb4df1	0.42832902
2	0x3dd5c9b5	0.10438863
3	0x3ef9715a	0.48719293
4	0x3dae3f18	0.08508128
5	0xbe838d2d	-0.25693646
6	0xbd632365	-0.055453677
7	0x3ebec0e1	0.3725653

net.0.bias f4 [4]
0	0x3e1598cc	0.14609069
1	0x3ec2e086	0.38061923
2	0xbe34c948	-0.17654908
3	0x3ec350da	0.38147622

net.2.weight f4 [2, 4]
0	0x3f0413f5	0.5159295
1	0xbe958465	-0.29202572
2	0x3ec90a4a	0.39265662
3	0x3dc868ae	0.09785591
4	0x3d58f5ec	0.052968904
5	0x3bd1bcf2	0.006400698
6	0xbc5a7580	-0.013333678
7	0xbd92bfdf	-0.07165503

net.2.bias f4 [2]
0	0x3ed162d2	0.40895706
1	0x3e97702e	0.29577774

net.4.weight f4 [1, 2]
0	0x3ede0428	0.43362546
1	0x3e2724ef	0.16322683
