MAD/model/wdgrl_3.pth (torch, 4594 bytes, 11 tensors)

net.0.weight f4 [4, 1]
00000000: e4f0 d6be 82ab 553f c0a3 743f a46b babe
-0.4198066 0.83464825 0.9556236 -0.36410248

net.0.bias f4 [4]
00000000: 3ccb 6abf e05a f3bd e4db 473f ecb9 8dbe
-0.9171636 -0.118825674 0.780699 -0.2768091

net.2.weight f4 [4, 4]
00000000: c08f ad3e 461d ebbe 10b7 bbbe 503d d93d
00000010: e455 46be 802d 193d b096 e3bd 18cd 9abd
00000020: 800c f7bd 38b4 873e a0df 1f3d 3a93 d1be
00000030: 9024 853d 00b9 b2bb 6852 f83d a019 a63d
0.33898735 -0.4592077 -0.36663103 0.106073976 -0.19368702 0.037396908 -0.11112726 -0.0755865
-0.12062931 0.26504683 0.039031625 -0.40932637 0.06501114 -0.0054541826 0.12125093 0.08110356

net.2.bias f4 [4]
00000000: a6ff f2be c0eb 4d3e aea8 9dbe 782c ef3e
-0.4746067 0.20109463 -0.30792755 0.46713614

net.4.weight f4 [2, 4]
00000000: f8bf f63d 14f2 6dbe 8c6d 873e e2de a2be
00000010: 0e61 9e3e aaeb b53e e4bb 00be d8e6 0cbe
0.12048334 -0.23236877 0.26450765 -0.3181067 0.30933422 0.3553136 -0.12571675 -0.13759935

net.4.bias f4 [2]
00000000: a84a aebd cc93 ff3e
-0.08510333 0.49917448

net.0.weight f4 [4, 2]
00000000: 0627 d93e 32b1 e03e a53f efbe 3f25 27bf
00000010: 1a63 f53e 9c92 5c3e 3987 253f 30a8 883d
0.42412585 0.4388519 -0.46728244 -0.6529121 0.4792717 0.21540302 0.6465946 0.06672704

net.0.bias f4 [4]
00000000: a039 533e 6ca7 aabe 84e6 4bbe 2ad3 05bf
0.20627451 -0.33330858 -0.19912153 -0.52275336

net.2.weight f4 [2, 4]
00000000: 3c1b cebe f251 a93e 8253 9f3e 1c4d a33e
00000010: c8bb b03d 204f 423e c29f d7be 92f7 f23e
-0.40255153 0.33070332 0.311184 0.31894767 0.086295664 0.18975496 -0.42114073 0.47454506

net.2.bias f4 [2]
00000000: 1091 a33d d46d 323e
0.07986653 0.17424709

net.4.weight f4 [1, 2]
00000000: a2bf e73e f030 463e
0.45263392 0.19354606
