GPU_AE/model/ae_1.pth (torch, 4354 bytes, 11 tensors)

net.0.weight f4 [2, 2]
0	0x3c371dc0	0.011176527
1	0xbe20633c	-0.15662855
2	0x3e1ecedc	0.15508598
3	0x3efcf3b2	0.49404675

net.0.bias f4 [2]
0	0xbe7e179e	-0.24813697
1	0xbe1113e0	-0.14167738

net.2.weight f4 [2, 2]
0	0xbf23ec65	-0.64032584
1	0x3ea8ca06	0.32966632
2	0x3ed22e82	0.41051108
3	0x3f28d52f	0.6595029

net.2.bias f4 [2]
0	0x3ea776be	0.3270778
1	0x3dd62d98	0.10457915

net.4.weight f4 [1, 2]
0	0x3e64858c	0.22316569
1	0x3ea0fc32	0.3144241

net.6.weight f4 [2, 1]
0	0x3f5db04a	0.8659712
1	0xbd2b78c0	-0.041863203

net.6.bias f4 [2]
0	0xbf6ef4b2	-0.93342125
1	0xbec17840	-0.37787056

net.8.weight f4 [2, 2]
0	0xbf01659f	-0.50545686
1	0x3f26363b	0.649265
2	0x3cb00460	0.021486461
3	0x3f04754f	0.517415

net.8.bias f4 [2]
0	0xbebfc24d	-0.37452927
1	0x3e5844cf	0.21119998

net.10.weight f4 [2, 2]
0	0x3f054e37	0.5207247
1	0x3e2e0fac	0.16998166
2	0x3ed20e76	0.41026658
3	0x3e082615	0.13295777

net.10.bias f4 [2]
0	0x3e2fb10d	0.17157383
1	0x3d96718e	0.073458776
