GPU_AE/model/ae_3.pth (torch, 27130 bytes, 56 tensors)

net.0.weight f4 [10, 10]
-0.1091128 -0.051530123 -0.14086288 0.27155647 0.24614784 0.08799577 0.21477744 -0.12882946
-0.07430984 -0.20166318 0.19562796 0.21878007 -0.046286643 -0.079959154 0.20865801 -0.26898307
-0.25792044 0.01206544 0.07078469 0.2541156 -0.043262005 -0.018780887 0.07111654 0.050855577
0.24531099 0.057935476 -0.029897332 -0.18881162 -0.22051677 0.162501 0.23121658 -0.10235168
-0.12999997 0.11380094 -0.104073495 -0.0707597 -0.07538466 -0.2929387 -0.13908063 0.311188
0.24198553 0.19048777 -0.031622857 -0.11107302 0.28834125 0.08620095 -0.064254284 0.18849137
-0.2933579 0.11345124 0.0060011446 -0.20287986 -0.1261834 -0.23912162 -0.27456355 0.15605342
0.31010583 -0.25394547 0.13319284 -0.23395419 -0.26936424 -0.2799283 0.072484374 -0.29054078
0.25141105 0.051594496 0.06519613 -0.065738946 0.0030892491 -0.26118404 -0.14787391 0.021543294
-0.30503476 0.11926201 0.27543738 0.095540464 0.2743291 0.07423934 -0.19296363 0.17295733
-0.17397904 0.0460335 -0.16122863 -0.16878986 0.2810394 -0.26592696 -0.10287857 -0.23668732
-0.08823593 0.018080294 0.1015529 0.107804626 0.031934917 -0.1743821 -0.14470752 -0.018794209
0.15773383 -0.27531543 0.21869817 0.07627317
00000000: 8876 dfbd 4011 53bd 5c3e 10be 7309 8b3e
00000010: 2e0e 7c3e 2037 b43d 9eee 5b3e dfeb 03be
00000020: c22f 98bd cb80 4ebe b252 483e e207 603e
00000030: 1097 3dbd a0c1 a3bd 72aa 553e 26b8 89be
00000040: 260e 84be 20ae 453c 90f7 903d 711b 823e
00000050: 8033 31bd 60da 99bc 8ca5 913d f04d 503d
00000060: ce32 7b3e c04d 6d3d 40eb f4bc d557 41be
00000070: 26cf 61be aa66 263e 0ac4 6c3e c29d d1bd
00000080: b61e 05be 7810 e93d 7c24 d5bd 76ea 90bd
00000090: 4663 9abd 10fc 95be 276b 0ebe 0954 9f3e
000000a0: 0ecb 773e 3a0f 433e f886 01bd 407a e3bd
000000b0: 77a1 933e 208a b03d c097 83bd e203 413e
000000c0: 0233 96be 2059 e83d 40a5 c43b bdbf 4fbe
000000d0: 3936 01be 4cdc 74be 9893 8cbe 78cc 1f3e
000000e0: 31c6 9e3e 2405 82be b463 083e b091 6fbe
000000f0: 1cea 89be c352 8fbe b072 943d c3c1 94be
00000100: f3b8 803e c054 533d 8c85 853d 24a2 86bd
00000110: 0075 4a3b eab9 85be 426c 17be 907b b03c
00000120: 842d 9cbe a43f f43d 2106 8d3e b8aa c33d
00000130: dd74 8c3e cc0a 983d 4298 45be ba1b 313e
00000140: 9027 32be a08d 3c3d 1e19 25be 40d7 2cbe
00000150: 65e4 8f3e 9427 88be 00b2 d2bd 295e 72be
00000160: 0ab5 b4bd 201d 943c f8fa cf3d acc8 dc3d
00000170: 30ce 023d 3991 32be 352e 14be 50f6 99bc
00000180: fa84 213e 25f6 8cbe 6af2 5f3e 1c35 9c3d

net.0.bias f4 [10]
-0.08490032 0.24836406 -0.1808478 -0.05179113 0.18451312 0.1937904 0.17680523 0.28352448
0.16215932 0.041429847
00000000: 38e0 adbd 2653 7e3e 2a30 39be f022 54bd
00000010: 02f1 3c3e fe70 463e 6e0c 353e 1f2a 913e
00000020: 180d 263e 58b2 293d

net.2.weight f4 [10, 10]
-0.29562038 -0.16504113 0.11644691 0.03534618 0.102493495 0.13325915 0.2591165 0.048263878
0.02011928 0.18714014 0.25951013 0.18806776 0.123098075 0.100904375 -0.26351747 -0.05503732
-0.040226728 0.17789671 -0.18567038 0.10760552 0.10830933 -0.03305179 0.30658415 -0.040001094
0.030575246 0.14979362 0.24367765 0.22197703 -0.26859584 -0.21967646 -0.09459317 -0.23135424
0.0767346 -0.25312972 -0.21266001 -0.29017687 -0.10590261 0.067973256 0.14205834 -0.10999189
0.17870533 -0.072267696 0.18040034 -0.19020762 -0.24198568 -0.0037910342 0.3044863 -0.30188066
-0.045101464 -0.018918246 -0.02641347 0.30448827 -0.0821463 0.08753419 0.044205457 -0.19534075
-0.1009547 -0.037681162 0.3124574 -0.27986017 0.24307844 0.30470392 -0.049046934 0.23475018
0.2917218 0.15084079 0.106995255 -0.08801812 0.21975198 -0.20710996 0.24567536 0.13742882
0.23344865 0.10734126 -0.26559234 -0.2531154 -0.053929806 -0.17631635 -0.1376089 -0.021637917
0.18105286 0.13192791 -0.23481694 0.142948 0.29733947 -0.13500315 0.024494529 -0.21452497
-0.23186281 0.08508244 -0.2598168 -0.15692298 0.014650047 0.18715397 -0.28592077 0.2523894
-0.057409495 -0.102448374 -0.30779114 -0.070566565
00000000: 8e5b 97be 8b00 29be b87b ee3d 28c7 103d
00000010: 1ce8 d13d 1675 083e ebaa 843e 58b0 453d
00000020: 30d1 a43c aaa1 3f3e 83de 843e d694 403e
00000030: d81a fc3d f4a6 ce3d c3eb 86be d06e 61bd
00000040: c8c4 24bd 8e2a 363e 6020 3ebe 4860 dc3d
00000050: 48d1 dd3d 5061 07bd 99f8 9c3e 30d8 23bd
00000060: f078 fa3c 8063 193e a286 793e f24d 633e
00000070: 6585 89be def2 60be 10ba c1bd 20e8 6cbe
00000080: 0827 9d3d 389a 81be 8cc3 59be 1092 94be
00000090: 78e3 d8bd 9035 8b3d be77 113e 6e43 e1bd
000000a0: 88fe 363e 1601 94bd deba 383e c9c5 42be
000000b0: 18cb 77be 0073 78bb a1e5 9b3e 1a90 9abe
000000c0: 50bc 38bd 70fa 9abc 1061 d8bc e3e5 9b3e
000000d0: 523c a8bd 2045 b33d c810 353d 6807 48be
000000e0: 56c1 cebd 9057 1abd 6bfa 9f3e d549 8fbe
000000f0: 8ee9 783e 2702 9c3e 70e5 48bd 5a62 703e
00000100: 8f5c 953e 0276 1a3e 5420 db3d d842 b4bd
00000110: aa06 613e a214 54be 5292 7b3e 24ba 0c3e
00000120: 2a0d 6f3e bcd5 db3d b8fb 87be 5798 81be
00000130: 80e5 5cbd 468c 34be 59e9 0cbe 0042 b1bc
00000140: ec65 393e 1c18 073e da73 70be f660 123e
00000150: e13c 983e 443e 0abe c0a8 c83c 6fac 5bbe
00000160: 726d 6dbe b43f ae3d b506 85be 6bb0 20be
00000170: c006 703c 4aa5 3f3e 3564 92be 2f39 813e
00000180: 3826 6bbd 74d0 d1bd cd96 9dbe 3485 90bd

net.2.bias f4 [10]
-0.19831397 0.09994048 0.25994554 -0.063948095 0.0026213229 0.052377492 0.2873071 0.22166708
0.07083413 -0.108533055
00000000: d112 4bbe 98ad cc3d 9517 853e 38f7 82bd
00000010: 80ca 2b3b c889 563d eb19 933e b2fc 623e
00000020: 7c11 913d 9446 debd

net.4.weight f4 [10, 10]
0.28771535 -0.06565717 -0.2869689 0.07435566 -0.10872686 -0.063384116 -0.08962968 0.041354895
-0.047299266 -0.085265756 0.06924456 -0.2435132 0.036875337 0.2840813 0.27753487 -0.0768003
-0.09307276 -0.15024939 0.07757801 0.016641378 0.13172606 0.06224096 -0.15302591 0.122508496
-0.2731806 0.22524473 0.2143732 0.13887686 -0.2660539 0.15736178 0.25347516 -0.020762205
-0.051707685 0.1427477 -0.07705189 -0.21725684 -0.03574246 0.0041980147 -0.16099392 -0.20042464
0.30603072 0.22375193 -0.31281626 0.10963434 -0.03663683 0.104267836 0.09235507 0.18533483
0.299315 0.19598404 0.30817297 -0.108841345 -0.27300003 0.24810252 0.0804421 0.16976166
0.08724022 0.026010275 -0.116895854 0.107087225 -0.04355812 -0.13509016 -0.24818254 0.30308124
0.22888932 -0.21571735 -0.26728463 0.03982371 -0.04209566 -0.18239957 0.05461818 0.05195269
0.07473099 0.17846078 0.3042197 0.19251713 0.0949918 -0.10547343 0.25766626 -0.22801954
-0.22726059 0.061353743 0.25744203 -0.07023619 0.014879733 0.065868706 0.0870415 0.011315554
-0.09682006 -0.24966136 0.18161282 -0.15550387 -0.1254721 -0.10003887 0.2363821 0.018320292
0.20212111 -0.18908544 -0.019895881 -0.1554917
00000000: 6d4f 933e 4477 86bd 96ed 92be c847 983d
00000010: 30ac debd 88cf 81bd c48f b7bd c063 293d
00000020: e0bc 41bd d09f aebd 18d0 8d3d 865b 79be
00000030: 980a 173d 1b73 913e 0d19 8e3e 7a49 9dbd
00000040: ee9c bebd fada 19be 38e1 9e3d 8053 883c
00000050: 32e3 063e 60f0 7e3d d3b2 1cbe bce5 fa3d
00000060: 54de 8bbe 8ea6 663e a684 5b3e bc35 0e3e
00000070: 3738 88be 7223 213e 7fc7 813e 8015 aabc
00000080: 70cb 53bd 742c 123e 62cd 9dbd 9478 5ebe
00000090: b066 12bd 808f 893b 97db 24be 1e3c 4dbe
000000a0: 0fb0 9c3e 3a1f 653e 7429 a0be f887 e03d
000000b0: 8010 16bd 608a d53d a824 bd3d 6ac8 3d3e
000000c0: d13f 993e 0ab0 483e d9c8 9d3e 36e8 debd
000000d0: a9c6 8bbe 960e 7e3e d4be a43d 00d6 2d3e
000000e0: 00ab b23d 8013 d53c 1867 efbd 8c50 db3d
000000f0: 006a 32bd 1355 0abe 9023 7ebe 772d 9b3e
00000100: f661 6a3e 02e5 5cbe 88d9 88be 301e 233d
00000110: 806c 2cbd f4c6 3abe 50b7 5f3d 58cc 543d
00000120: 900c 993d 6cbe 363e afc2 9b3e 3623 453e
00000130: 108b c23d 7402 d8bd d5ec 833e f47d 69be
00000140: 00b7 68be 104e 7b3d 71cf 833e fed7 8fbd
00000150: 20ca 733c 2ce6 863d d042 b23d e064 393c
00000160: 9849 c6bd 3aa7 7fbe b6f8 393e 683c 1fbe
00000170: c27b 00be 2ee1 ccbd 260e 723e 7014 963c
00000180: d6f8 4e3e 9d9f 41be b0fc a2bc 3739 1fbe

net.4.bias f4 [10]
-0.19158892 0.10228121 -0.3137527 0.0056969523 0.041759193 0.16380844 0.19845268 -0.28310478
0.3008937 -0.28949597
00000000: e32f 44be d078 d13d 32a4 a0be 80ad ba3b
00000010: b00b 2b3d 66bd 273e 2e37 4b3e 1cf3 90be
00000020: bd0e 9a3e d138 94be

net.6.weight f4 [10, 10]
0.2677814 0.23357621 -0.0174357 -0.13632993 0.075312704 -0.021382302 -0.052320242 0.23678163
-0.0355511 -0.25214076 0.033927977 -0.097131014 -0.072873384 -0.21981555 0.21769759 -0.074460626
0.24710801 0.22070596 -0.31543484 0.13279381 0.005745828 0.2068269 -0.2779827 0.24681869
-0.010723263 -0.15148364 0.25371286 -0.16005412 0.25070634 0.14598876 0.27045646 0.26299766
0.24121776 0.23686841 0.13328212 -0.21961765 0.06446284 0.30763766 0.14115748 -0.13767295
-0.03134051 0.30858108 -0.08281468 0.2879468 -0.24682185 0.046083927 -0.22100928 -0.0029987693
-0.0937645 0.13573337 -0.15495278 0.19516799 -0.26664743 0.16477889 0.24468884 -0.18718773
-0.23461084 -0.2746637 -0.012375146 0.2690136 0.18884292 -0.10832368 0.2826865 0.0059820414
0.30091318 -0.23421904 -0.13088197 -0.29707566 0.14054435 -0.24537997 0.27346292 -0.04283482
-0.31249592 0.105154514 0.13794044 -0.0731698 0.22973165 -0.17451431 0.03967029 0.2730405
-0.042457074 -0.046605885 -0.056254447 -0.1362611 -0.2547223 -0.053646624 0.16530052 0.007967383
-0.24869221 -0.03628227 0.28585514 0.10078013 0.24982998 -0.22822559 -0.19028738 0.080871135
0.29827026 0.08033711 0.09588516 0.28811398
00000000: a51a 893e 9a2e 6f3e 50d5 8ebc 139a 0bbe
00000010: 8c3d 9a3d f029 afbc c04d 56bd e276 723e
00000020: 089e 11bd 9818 81be 10f8 0a3d a0ec c6bd
00000030: a43e 95bd 5417 61be 1eec 5e3e d07e 98bd
00000040: e209 7d3e be00 623e ad80 a1be 1afb 073e
00000050: 8047 bc3b 6eca 533e c053 8ebe 0abe 7c3e
00000060: a0b0 2fbc 871e 1bbe a7e6 813e 3ae5 23be
00000070: 955c 803e 147e 153e 4579 8a3e a1a7 863e
00000080: ca01 773e a28d 723e 1c7b 083e 73e3 60be
00000090: 1805 843d af82 9d3e 968b 103e 23fa 0cbe
000000a0: e85e 00bd 57fe 9d3e be9a a9bd c36d 933e
000000b0: debe 7cbe 80c2 3c3d 4250 62be 0087 44bb
000000c0: 9a07 c0bd b0fd 0a3e f1ab 1ebe 1eda 473e
000000d0: 0386 88be ccbb 283e b68f 7a3e 24ae 3fbe
000000e0: d33d 70be b8a0 8cbe 20c1 4abc 27bc 893e
000000f0: 0a60 413e ced8 ddbd 49bc 903e 0005 c43b
00000100: 4b11 9a3e 1ed7 6fbe ec05 06be 4d1a 98be
00000110: dcea 0f3e e344 7bbe 5503 8c3e 9073 2fbd
00000120: 77ff 9fbe 405b d73d 4240 0d3e 0cda 95bd
00000130: c63e 6b3e e1b3 32be 507d 223d f7cb 8b3e
00000140: 78e7 2dbd d0e5 3ebd 106b 66bd 0888 0bbe
00000150: f66a 82be 90bc 5bbd 8a44 293e a089 023c
00000160: 2ca9 7ebe b89c 14bd 9b5b 923e d065 ce3d
00000170: 6ed3 7f3e f8b3 69be b2da 42be c49f a53d
00000180: e1b6 983e c887 a43d 705f c43d ad83 933e

net.6.bias f4 [10]
-0.011175841 0.010550976 -0.27677658 0.25845912 0.23486736 0.20989123 0.2444075 0.24479017
0.13265038 -0.1615625
00000000: e01a 37bc 00de 2c3c a9b5 8dbe c154 843e
00000010: 1281 703e baed 563e f645 7a3e 46aa 7a3e
00000020: 80d5 073e a470 25be

net.8.weight f4 [10, 10]
0.074596584 -0.008517295 -0.16905473 -0.20259747 -0.22274947 -0.25342786 0.2843341 -0.15967569
-0.027032286 -0.160882 0.2714394 -0.31082016 -0.25031185 -0.22827657 -0.14532407 -0.27150863
0.1600394 -0.15918124 0.1611026 0.19477835 -0.2509308 0.17374507 -0.280217 -0.015396029
-0.27562222 0.2653564 0.029299438 0.15434167 0.05651784 0.25384644 -0.14561282 -0.2501428
-0.19323294 0.07948515 -0.18784317 -0.26659438 -0.14422444 0.043351233 -0.18061931 0.12169239
-0.15593064 -0.0036858618 0.12713683 0.045939058 0.25624827 0.082226306 -0.20950373 0.10839859
-0.0025506616 -0.034285903 -0.24393658 0.1617113 -0.21728459 0.1996248 -0.2647057 -0.011527836
-0.0065173805 0.05870101 -0.28932595 -0.11077668 -0.10476962 0.002126038 0.18118694 -0.035320222
0.1466237 0.2845951 0.07839799 0.08968252 0.1642268 -0.11729884 0.24181125 0.109573245
0.048877627 0.13589269 0.10195246 0.15979117 -0.17728144 -0.2369721 0.26716706 0.11983228
0.10046375 -0.2364476 0.22703567 -0.14382929 -0.15053304 -0.042131245 0.14891809 -0.12346792
0.046518862 -0.19504255 0.24507245 0.25829527 -0.08997679 0.2855762 -0.009116977 0.29571322
0.08760607 -0.16750793 -0.30717906 0.1621488
00000000: 18c6 983d 208c 0bbc af1c 2dbe b675 4fbe
00000010: 7018 64be 4cc1 81be 3d94 913e 0682 23be
00000020: d072 ddbc 40be 24be 1bfa 8a3e d223 9fbe
00000030: e028 80be 55c1 69be d5cf 14be 2e03 8bbe
00000040: 5ee1 233e 6800 23be 14f8 243e fa73 473e
00000050: 007a 80be 3aea 313e 9a78 8fbe a03f 7cbc
00000060: 5b1e 8dbe cbdc 873e 6005 f03c be0b 1e3e
00000070: 407f 673d 29f8 813e 871b 15be b812 80be
00000080: dbde 45be 1cc9 a23d f659 40be 0f7f 88be
00000090: 92af 13be 1091 313d 45f4 38be dc39 f93d
000000a0: 48ac 1fbe 808e 71bb 2830 023e 982a 3c3d
000000b0: f932 833e 4466 a83d 2588 56be 1400 de3d
000000c0: 0029 27bb 606f 0cbd 83ca 79be a697 253e
000000d0: da7f 5ebe 726a 4c3e 8187 87be 40df 3cbc
000000e0: c08f d5bb 7870 703d 8822 94be e2de e2bd
000000f0: 7491 d6bd 0055 0b3b 1289 393e f0ab 10bd
00000100: 8624 163e 73b6 913e 208f a03d 78ab b73d
00000110: 122b 283e 603a f0bd 5e9d 773e f067 e03d
00000120: e833 483d 7427 0b3e 74cc d03d 4ca0 233e
00000130: 4489 35be d0a8 72be 1fca 883e a06a f53d
00000140: f0bf cd3d 521f 72be 0a7c 683e fc47 13be
00000150: 5525 1abe d091 2cbd fc7d 183e c0dc fcbd
00000160: 908a 3e3d 3cb9 47be 46f4 7a3e 473f 843e
00000170: c045 b8bd 0b37 923e 605f 15bc b967 973e
00000180: d06a b33d 3387 2bbe 9346 9dbe 560a 263e

net.8.bias f4 [10]
-0.1997782 0.16750035 -0.052799076 0.092102945 0.24644622 0.083580166 -0.041463703 0.24280831
0.3154827 -0.2769811
00000000: a892 4cbe 3685 2b3e d843 58bd 78a0 bc3d
00000010: 665c 7c3e 142c ab3d d8d5 29bd bea2 783e
00000020: f386 a13e 77d0 8dbe

net.10.weight f4 [10, 10]
-0.0482561 0.028865576 -0.14526145 0.12368521 0.12734076 -0.21868275 0.06389314 0.2296119
0.056856394 -0.09754142 -0.0042538643 -0.10464394 0.06278539 -0.024675697 -0.237162 -0.070371404
-0.10575348 -0.24150911 0.16518924 -0.004580289 -0.25956562 0.13012561 -0.26520696 0.19440088
-0.04956895 0.24508998 -0.05452934 -0.2106331 -0.2753577 -0.20938328 -0.20478293 0.05619034
0.030187577 0.25378564 0.18486765 -0.046642095 0.23107627 0.07370728 -0.11808641 0.13634232
-0.1275113 0.13045895 -0.18697695 0.0036019683 0.23564366 -0.23842283 -0.2185466 -0.06404376
0.059301376 0.045440525 -0.03987816 -0.19544497 0.13807875 0.13366926 -0.21853381 -0.041344702
-0.14852169 -0.29248944 0.24933413 0.24178156 0.26622543 0.17447326 -0.004263371 0.21585056
-0.18831743 0.10007864 0.29734138 0.084979326 -0.18262847 0.1510374 0.24198315 -0.07029711
-0.12724327 0.18760529 -0.20884798 -0.14274077 -0.2904145 -0.15399432 -0.21006949 -0.024379998
0.14767197 -0.14444806 0.2599196 -0.15358478 0.2471008 0.3112649 -0.10789284 -0.050981194
-0.0110324025 0.29769877 -0.27657285 -0.29192096 -0.20886296 0.009868711 0.2844725 -0.24477053
-0.12873262 -0.101804495 0.1993899 0.12659952
00000000: 30a8 45bd 8077 ec3c 6bbf 14be ac4e fd3d
00000010: 9e65 023e 5fee 5fbe 68da 823d 621f 6b3e
00000020: 40e2 683d ccc3 c7bd 0064 8bbb 904f d6bd
00000030: a095 803d b024 cabc 98da 72be e21e 90bd
00000040: 4895 d8bd 2a4e 77be 5e27 293e 4016 96bb
00000050: c9e5 84be a63f 053e 35c9 87be 0611 473e
00000060: d008 4bbd def8 7a3e 285a 5fbd 34b0 57be
00000070: affb 8cbe 9268 56be 9eb2 51be d827 663d
00000080: f04b f73c 31f0 813e f24d 3d3e c80b 3fbd
00000090: 429f 6c3e d8f3 963d 4ad7 f1bd 529d 0b3e
000000a0: 5292 02be 0897 053e e376 3fbe 000f 6c3b
000000b0: 924c 713e 1d25 74be aeca 5fbe 6029 83bd
000000c0: 00e6 723d d81f 3a3d 4857 23bd ba22 48be
000000d0: 8464 0d3e 98e0 083e 54c7 5fbe 1059 29bd
000000e0: 1216 18be 2dc1 95be 7251 7f3e 9695 773e
000000f0: b34e 883e 1ea9 323e c0b3 8bbb ee07 5d3e
00000100: 49d6 40be 08f6 cc3d 213d 983e a409 ae3d
00000110: f502 3bbe 8ca9 1a3e 6eca 773e eef7 8fbd
00000120: 0f4c 02be 9a1b 403e 3fdc 55be a32a 12be
00000130: 36b1 94be b0b0 1dbe 751c 57be 90b8 c7bc
00000140: 5237 173e 31ea 13be 2f14 853e 5445 1dbe
00000150: fe07 7d3e 1d5e 9f3e ecf6 dcbd a8d1 50bd
00000160: 40c1 34bc f96b 983e f59a 8dbe aa76 95be
00000170: 2ce0 55be 60b0 213c 61a6 913e 20a5 7abe
00000180: 7cd2 03be e07e d0bd de2c 4c3e 4ea3 013e

net.10.bias f4 [10]
0.31015953 -0.3105123 0.053259194 0.02793765 0.24525675 -0.044761002 0.06475806 0.08830643
0.19093022 -0.08504221
00000000: 3bcd 9e3e 78fb 9ebe 5026 5a3d 80dd e43c
00000010: 9624 7b3e 5057 37bd e09f 843d 00da b43d
00000020: 3683 433e 9c2a aebd

net.12.weight f4 [10, 10]
-0.051160246 -0.02628094 -0.24727276 0.09012458 -0.28546205 -0.2943308 0.28625867 -0.088114545
0.28438893 -0.25856856 0.30165604 -0.17801963 0.12544501 0.14918408 0.24717554 -0.12861139
-0.1875489 -0.29662725 0.2804707 -0.101470426 -0.074480295 0.11854753 -0.22548904 0.035977006
0.1649119 0.30991146 0.03410092 -0.10616258 0.14867628 -0.18122084 -0.026201755 -0.079145566
0.06861925 0.0859524 0.04331875 0.24601796 0.013540745 0.11435789 0.30343816 -0.16960387
-0.0633595 -0.2273305 -0.19899413 0.24487624 -0.11249247 0.08490875 -0.0062686205 -0.15022731
-0.29891494 -0.2052367 -0.027252197 -0.31153846 0.018482953 -0.233434 0.088471115 0.30512187
0.18362254 0.03985259 0.04212311 -0.02435419 -0.22395533 -0.0069477856 -0.23013617 -0.26464853
0.2605029 -0.008847922 0.1696935 0.10381353 -0.07797688 -0.08644791 -0.24401292 -0.19327927
0.24916944 0.06771752 0.16342548 -0.1193558 -0.13782977 -0.10116364 0.2291216 0.1054928
-0.095373616 -0.13167885 -0.20147893 0.14430198 0.18427268 -0.21947779 0.08993921 -0.2715164
0.12201285 0.11009824 0.24036506 -0.1702872 -0.20855111 -0.19574128 -0.07295887 0.27319375
-0.24107532 -0.057067186 0.30526045 -0.14266625
00000000: 688d 51bd 204b d7bc 1235 7dbe 3c93 b83d
00000010: 1528 92be 87b2 96be 7f90 923e 6675 b4bd
00000020: 6d9b 913e 1963 84be a972 9a3e c74a 36be
00000030: a874 003e b6c3 183e 961b 7d3e b4b2 03be
00000040: d20c 40be 87df 97be db99 8f3e bacf cfbd
00000050: 2089 98bd 0cc9 f23d 99e6 66be a05c 133d
00000060: aade 283e b7ac 9e3e 68ad 0b3d c46b d9bd
00000070: 983e 183e f591 39be 10a5 d6bc 1217 a2bd
00000080: 4088 8c3d d007 b03d 006f 313d 22ec 7b3e
00000090: 00da 5d3c 7834 ea3d 3f5c 9b3e a3ac 2dbe
000000a0: a0c2 81bd 54c9 68be 1ec5 4bbe d6c0 7a3e
000000b0: 7462 e6bd a4e4 ad3d 0069 cdbb 30d5 19be
000000c0: 610b 99be 9229 52be 0040 dfbc f881 9fbe
000000d0: 9069 973c 5309 6fbe 5830 b53d ef38 9c3e
000000e0: 8c07 3c3e 783c 233d 4889 2c3d 7082 c7bc
000000f0: 8c54 65be 40aa e3bb d1a8 6bbe 0380 87be
00000100: a360 853e e0f6 10bc 22c4 2d3e 309c d43d
00000110: 58b2 9fbd 9a0b b1bd 86de 79be 00eb 45be
00000120: 4626 7f3e 7caf 8a3d 0259 273e d070 f4bd
00000130: 3f23 0dbe e22e cfbd da9e 6a3e 9c0c d83d
00000140: 3e53 c3bd d2d6 06be 7e50 4ebe e6c3 133e
00000150: fab1 3c3e c9be 60be 0c32 b83d 3304 8bbe
00000160: e0e1 f93d 307b e13d 4222 763e c55f 2ebe
00000170: 6c8e 55be 6770 48be 766b 95bd 0de0 8b3e
00000180: 73dc 76be 48bf 69bd 194b 9c3e 1a17 12be

net.12.bias f4 [10]
0.21360222 0.28314766 0.009642839 -0.00096556544 -0.20945525 0.22852412 -0.21838129 -0.040367186
-0.119606525 0.10487807
00000000: 8aba 5a3e bbf8 903e 00fd 1d3c 001e 7dba
00000010: 707b 56be 3a02 6a3e 589f 5fbe 1058 25bd
00000020: 44f4 f4bd 50ca d63d

net.14.weight f4 [10, 10]
-0.11524992 0.2942954 -0.20120066 0.31279036 0.052905053 -0.20518897 0.16723007 0.1012139
-0.16210414 0.2588683 -0.086134836 -0.14356314 0.10794765 -0.15056165 -0.20190679 -0.1454885
0.058111876 0.2117078 -0.18164502 -0.20056185 0.2377877 -0.26113123 -0.06361431 0.0010382831
-0.09049037 0.18253633 0.12108451 -0.27259272 -0.05736184 0.23406413 -0.13017532 0.18465516
-0.21162155 -0.24743658 0.27505675 -0.030797124 0.009756148 0.20191827 0.2235727 -0.29540068
0.10709107 -0.06588587 0.15918991 -0.016294092 -0.21829861 -0.19650012 -0.21186991 0.2526153
0.27479473 0.046191156 0.16719407 0.06640625 0.0704869 0.10233295 -0.19394508 -0.2531695
-0.1847607 0.13009518 0.27272376 0.2886503 0.051276535 -0.11016218 -0.07722795 0.113863856
0.001723975 0.22537348 -0.19529305 -0.16120377 -0.024668872 -0.080596566 0.09257308 -0.16058433
-0.26031175 0.10108018 0.13035876 -0.10483985 -0.17934123 -0.19384032 0.12977794 -0.22472182
0.26321545 -0.25654688 -0.06469527 0.17532054 0.28100714 -0.25819367 0.015312284 0.15426585
0.149623 0.095335156 0.11613977 0.25879177 0.13555008 0.18534818 -0.056438804 -0.045896977
0.053904325 0.027269661 -0.22135489 0.18827876
00000000: 2608 ecbd e3ad 963e 8c07 4ebe 0f26 a03e
00000010: f8b2 583d 0f1d 52be 5c3e 2b3e 3c49 cf3d
00000020: a1fe 25be 638a 843e 7667 b0bd 3702 13be
00000030: a813 dd3d d52c 1abe a7c0 4ebe f0fa 14be
00000040: b806 6e3d eec9 583e 2701 3abe 1660 4dbe
00000050: 9e7e 733e feb2 85be 3848 82bd 0017 883a
00000060: 0453 b9bd ceea 3a3e 28fb f73d 4691 8bbe
00000070: 40f4 6abd 82ae 6f3e ae4c 05be 3e16 3d3e
00000080: 52b3 58be 0460 7dbe 3dd4 8c3e 404a fcbc
00000090: 40d8 1f3c aac3 4e3e 3ef0 643e c23e 97be
000000a0: 9052 db3d 2cef 86bd ae02 233e 307b 85bc
000000b0: ac89 5fbe 5437 49be 6df4 58be cb56 813e
000000c0: e5b1 8c3e f032 3d3d ec34 2b3e 0000 883d
000000d0: 705b 903d f093 d13d 8a99 46be 6f9f 81be
000000e0: e931 3dbe ac37 053e 73a2 8b3e f9c9 933e
000000f0: 5807 523d b69c e1bd b029 9ebd 7431 e93d
00000100: 00f7 e13a 4ec8 663e e7fa 47be 9a12 25be
00000110: 6016 cabc d00f a5bd f496 bd3d 3870 24be
00000120: 9547 85be 2003 cf3d c47c 053e 46b6 d6bd
00000130: 3aa5 37be 147e 46be 82e4 043e 7a1d 66be
00000140: 2dc4 863e 1d5a 83be f47e 84bd 3a87 333e
00000150: 2be0 8f3e f631 84be 60e0 7a3c def7 1d3e
00000160: c636 193e 143f c33d b0da ed3d 5b80 843e
00000170: a4cd 0a3e eacb 3d3e 602c 67bd 78fe 3bbd
00000180: c8ca 5c3d a064 df3c dbaa 62be 26cc 403e

net.14.bias f4 [10]
0.15467182 -0.049624413 0.11460641 0.3093752 0.15145633 -0.21585587 0.08323449 -0.08609477
-0.066150546 -0.1865816
00000000: 4a62 1e3e f842 4bbd c4b6 ea3d 6d66 9e3e
00000010: 5e17 1b3e 5209 5dbe d876 aa3d 7452 b0bd
00000020: f079 87bd 3f0f 3fbe

net.16.weight f4 [10, 10]
-0.035682768 -0.18965799 -0.13551661 -0.03413418 0.25289574 0.19714275 0.084744185 -0.29904056
0.26025465 -0.085305646 -0.22020558 0.06805396 -0.28874487 0.28526488 0.10230225 0.10147762
-0.24903363 0.119135976 0.028119862 -0.28699982 0.0813072 -0.29791898 -0.21356475 0.20028815
-0.012781262 0.165898 -0.0752393 0.2957354 -0.16823885 0.08501458 -0.0831549 -0.29297954
0.0432294 0.15650281 0.23383549 0.1366463 -0.2201358 -0.06611174 0.022232383 0.08222848
-0.069051445 0.10091713 0.30474612 -0.05252415 -0.18020943 0.3096392 0.08400181 -0.26271862
0.2381173 -0.28120038 -0.26481885 0.043714374 0.13025242 -0.18511912 0.19601265 0.22604612
0.18833968 -0.3144957 0.17830485 0.20545992 0.17764854 -0.2028955 -0.20354488 -0.03635627
-0.24870875 0.020623684 0.03393656 -0.23497534 0.037746787 -0.12737563 -0.15207462 -0.06271744
-0.24145877 0.042847723 -0.30435967 -0.23979613 0.07201803 0.05993879 -0.17874968 0.18464103
0.13706315 -0.011926889 -0.09354903 -0.169741 -0.009280592 0.30118653 -0.308227 0.2821299
-0.17626743 0.29795972 0.18189257 0.046407998 0.1834333 0.24160132 0.0092564225 0.07046327
0.117221564 -0.016207218 0.05050057 0.17338452
00000000: 1828 12bd b435 42be dec4 0abe 48d0 0bbd
00000010: 8d7b 813e cadf 493e 5c8e ad3d d81b 99be
00000020: 1940 853e bab4 aebd 927d 61be e05f 8b3d
00000030: 5ed6 93be 3d0e 923e d883 d13d 80d3 cf3d
00000040: ac02 7fbe 90fd f33d a05b e63c a4f1 92be
00000050: 6484 a63d d688 98be b8b0 5abe 5618 4d3e
00000060: 8068 51bc 2ae1 293e 1017 9abd a16a 973e
00000070: ce46 2cbe 201c ae3d 1e4d aabd 6a01 96be
00000080: 5011 313d 4642 203e 9272 6f3e 02ed 0b3e
00000090: 476b 61be 9865 87bd b020 b63c 6867 a83d
000000a0: d86a 8dbd a4ad ce3d af07 9c3e 9023 57bd
000000b0: d288 38be 0789 9e3e 2409 ac3d 0e83 86be
000000c0: 06d5 733e 7ff9 8fbe 5696 87be d80d 333d
000000d0: e460 053e de8f 3dbe 8ab7 483e a278 673e
000000e0: 1edc 403e 9505 a1be 8c95 363e 1664 523e
000000f0: 80e9 353e d7c3 4fbe 126e 50be 50ea 14bd
00000100: 82ad 7ebe 00f3 a83c 1001 0b3d 609d 70be
00000110: 609c 1a3d c26e 02be 73b9 1bbe 0072 80bd
00000120: f840 77be 1881 2f3d 08d5 9bbe 1e8d 75be
00000130: 307e 933d 6082 753d 280a 37be 8a12 3d3e
00000140: 485a 0c3e 0069 43bc a296 bfbd 96d0 2dbe
00000150: a00d 18bc 1f35 9a3e eecf 9dbe 5573 903e
00000160: 737f 34be 2d8e 983e 0c42 3a3e 5016 3e3d
00000170: f0d5 3b3e 5666 773e 40a8 173c 0c4f 903d
00000180: dc11 f03d 00c5 84bc b0d9 4e3d b68b 313e

net.16.bias f4 [10]
-0.21235794 -0.14521293 -0.052621007 0.10373777 -0.22024474 -0.31316242 0.031239033 0.04736787
-0.29949796 -0.28307158
00000000: 5c74 59be b3b2 14be 2089 57bd 7874 d43d
00000010: d687 61be d356 a0be 00e9 ff3c d004 423d
00000020: cc57 99be c2ee 90be

net.18.weight f4 [10, 10]
-0.06250772 0.11380279 0.2805936 0.2985327 0.29063568 0.17625192 0.023284674 -0.13796736
-0.25509956 0.28422686 -0.095279515 -0.16582045 0.000587672 0.14722186 -0.13814016 0.21620497
0.1768572 0.13600332 0.08103722 -0.23696488 0.1305865 0.01074031 -0.062217295 -0.30703688
0.11839974 -0.072888315 0.097424805 -0.13519777 0.16771907 -0.22124478 -0.08014831 0.00910151
-0.05192849 -0.1853337 0.24199143 -0.26167035 0.29860392 -0.19680262 0.31539437 -0.19210798
0.25759056 -0.073821396 0.020554513 -0.10030106 -0.2142114 0.07793051 -0.2953188 -0.22666305
-0.12075986 0.1154955 -0.21411984 0.08159149 -0.31017905 -0.28700298 0.30352184 0.27239946
-0.13054839 -0.25204444 -0.0929001 0.19962922 0.025095314 0.20967624 0.025799602 -0.087769344
0.019942462 -0.09050764 0.20270565 -0.17843392 -0.08189197 -0.27761063 0.09213498 0.11820811
-0.06950924 0.15130791 -0.087552294 0.19024417 -0.015822053 -0.1951984 -0.024065495 0.21182665
0.10284838 -0.2484494 -0.07430735 -0.0914762 0.14968139 0.008748174 0.22588935 -0.026786178
-0.16530366 0.30348614 0.16940519 0.28785565 -0.00091189146 -0.1107607 -0.3138079 -0.28465885
-0.014894158 0.146655 0.11108157 0.05975187
00000000: 0c04 80bd 7011 e93d f7a9 8f3e 47d9 983e
00000010: 33ce 943e 627b 343e 80bf be3c 5147 0dbe
00000020: 699c 82be 2f86 913e e821 c3bd d6cc 29be
00000030: 000e 1a3a 54c1 163e 9d74 0dbe d664 5d3e
00000040: 0e1a 353e 7444 0b3e d8f6 a53d eca6 72be
00000050: 78b8 053e 20f8 2f3c 90d7 7ebd f033 9dbe
00000060: 907b f23d 7846 95bd a886 c73d 4971 0abe
00000070: 8cbe 2b3e fe8d 62be cc24 a4bd 801e 153c
00000080: f8b2 54bd 1ec8 3dbe 9acc 773e a8f9 85be
00000090: 9de2 983e a086 49be 5f7b a13e f4b7 44be
000000a0: e9e2 833e ac2f 97bd f061 a83c a46a cdbd
000000b0: 3c5a 5bbe 089a 9f3d 0734 97be 5c1a 68be
000000c0: f250 f7bd e888 ec3d 3b42 5bbe 7019 a73d
000000d0: cacf 9ebe 0ef2 92be 3767 9b3e f177 8b3e
000000e0: 7aae 05be f80b 81be 6842 bebd 9a6b 4c3e
000000f0: b094 cd3c 5eb5 563e b059 d33c 6ac0 b3bd
00000100: 605e a33c 125c b9bd 1292 4f3e 62b7 36be
00000110: fab6 a7bd fb22 8ebe 44b1 bc3d 1817 f23d
00000120: dc5a 8ebd 76f0 1a3e 9e4e b3bd 5ecf 423e
00000130: 409d 81bc 17e2 47be 0025 c5bc 16e9 583e
00000140: 2ca2 d23d 8569 7ebe 742e 98bd e057 bbbd
00000150: 1446 193e 8054 0f3c 8a4f 673e b06e dbbc
00000160: 5d45 29be 8962 9b3e 8e78 2d3e d161 933e
00000170: 000c 6fba 82d6 e2bd 6eab a0be cebe 91be
00000180: a006 74bc ba2c 163e bc7e e33d 60be 743d

net.18.bias f4 [10]
-0.27761307 -0.06906685 0.12512055 -0.19482353 -0.19507061 0.053576022 -0.01666835 -0.3075242
-0.25630882 -0.013951242
00000000: 4d23 8ebe ec72 8dbd 9a1f 003e d27f 47be
00000010: 97c0 47be 8872 5b3d 108c 88bc d073 9dbe
00000020: e93a 83be c093 64bc

net.20.weight f4 [10, 10]
-0.049112737 0.0541718 0.012876928 -0.075323135 -0.31320915 -0.26939854 0.0015352964 -0.10698038
-0.2917907 0.07130593 -0.0029461682 0.27784058 0.15053183 0.3039532 0.20125255 0.103389084
-0.26002234 -0.23466188 -0.09180583 -0.021634072 0.09337264 0.058846265 -0.08712356 0.035797715
0.022552788 0.2596669 -0.20321782 0.27349588 0.19916782 0.15552369 -0.012210876 0.2932774
0.19705674 -0.23973963 -0.017872393 -0.2580483 0.31407252 0.26861426 0.06913945 -0.031156272
-0.20969817 0.08165446 -0.10175003 -0.21161059 0.22960225 0.18121028 -0.19273326 0.109179735
0.30339918 -0.20973395 -0.2517596 0.10625166 0.19252697 -0.23447037 0.2332423 0.0027932823
0.079579264 0.19742939 0.2501919 -0.0073596537 -0.24595606 -0.059742957 0.30137452 -0.10549849
-0.14890817 0.11513615 -0.19881044 0.30249342 -0.10393052 0.27714416 -0.034609526 0.2678378
-0.14644541 -0.06483179 -0.24471891 -0.10288212 0.27686474 -0.053171635 0.07762608 -0.26448515
-0.0038246512 -0.15574446 -0.052658647 -0.07972698 0.27613434 0.16308188 0.27515575 -0.1557572
0.11115113 0.139521 0.084730834 0.056137353 0.24156603 -0.08251287 -0.23878857 -0.11802828
0.26046547 -0.041629165 0.1812338 0.1720241
00000000: 702a 49bd 40e3 5d3d c0f9 523c 0443 9abd
00000010: f35c a0be 9bee 89be 003c c93a 8818 dbbd
00000020: 9765 95be d808 923d 8014 41bb 1f41 8e3e
00000030: 0425 1a3e c19f 9b3e 2615 4e3e a8bd d33d
00000040: a621 85be 344b 70be b204 bcbd f039 b1bc
00000050: 283a bf3d c808 713d d66d b2bd a0a0 123d
00000060: a0c0 b83c 0ff3 843e 5518 50be a707 8c3e
00000070: a6f2 4b3e 9a41 1f3e 2010 48bc 7528 963e
00000080: 3ec9 493e 4e7e 75be 2069 92bc e81e 84be
00000090: 1dce a03e cf87 893e fc98 8d3d 703b ffbc
000000a0: 1ebb 56be 743a a73d 5262 d0bd 72b0 58be
000000b0: da1c 6b3e 308f 393e de5b 45be a099 df3d
000000c0: 2357 9b3e 7fc4 56be a2e6 80be 789a d93d
000000d0: ca25 453e 0019 70be 12d7 6e3e 800f 373b
000000e0: 74fa a23d ee2a 4a3e 2719 803e 4029 f1bb
000000f0: e8db 7bbe 08b5 74bd c34d 9a3e 980f d8bd
00000100: 627b 18be 80cc eb3d f794 4bbe 6be0 9a3e
00000110: 86d9 d4bd d7e5 8d3e b8c2 0dbd 0922 893e
00000120: c9f5 15be 88c6 84bd 9897 7abe dcb3 d2bd
00000130: 37c1 8d3e 80ca 59bd 6cfa 9e3d 996a 87be
00000140: 00a7 7abb 7a7b 1fbe 98b0 57bd e647 a3bd
00000150: 7b61 8d3e f0fe 263e 37e1 8c3e d17e 1fbe
00000160: 34a3 e33d 98de 0e3e 5c87 ad3d 48f0 653d
00000170: 165d 773e 82fc a8bd fe84 74be d0b8 f1bd
00000180: bb5b 853e 5883 2abd 5a95 393e 1627 303e

net.20.bias f4 [10]
0.15056098 0.14253932 0.1307663 0.24083409 -0.0056861043 0.07715258 -0.09293474 -0.25786048
0.053673387 0.21113846
00000000: a82c 1a3e d4f5 113e 9ae7 053e 369d 763e
00000010: 8052 babb 2c02 9e3d 9254 bebd 4a06 84be
00000020: a0d8 5b3d ae34 583e

net.22.weight f4 [8, 10]
-0.19304031 -0.20627737 0.02816987 -0.20822889 0.015951484 -0.13315316 -0.1604677 -0.08340396
-0.024463236 0.15136158 0.24132636 0.12305769 0.19746289 0.17314929 -0.19588396 -0.24931648
0.20535287 -0.27936682 0.25223956 0.116897374 0.20238367 0.21314946 -0.17675531 0.032744706
-0.31276333 -0.07071434 -0.1893441 0.19383803 0.15558037 -0.31447086 0.20529947 -0.112535074
-0.14924541 -0.030386299 0.305652 -0.19410197 -0.14860749 -0.050623953 -0.28703704 0.23441425
0.020478606 0.011769861 0.09698674 -0.18078318 -0.046040326 0.11186674 0.15184772 -0.22920826
-0.23414068 -0.10152644 0.08189049 -0.17156567 -0.25383785 -0.05215496 -0.07782687 -0.04849571
-0.093875855 -0.06308371 0.08824697 0.31246755 0.06565061 -0.08071844 0.29653952 0.17258629
0.25152496 -0.2300497 0.17519543 0.315429 0.037859112 0.1412273 -0.12330854 -0.12142941
-0.16807309 -0.013795525 -0.06834069 0.083138585 -0.14206924 -0.12727034 0.04298815 0.20143518
00000000: 5cac 45be 603a 53be 80c4 e63c f439 55be
00000010: b0ac 823c 4d59 08be a551 24be b2cf aabd
00000020: 2067 c8bc 88fe 1a3e 421e 773e ac05 fc3d
00000030: b633 4a3e 0c4e 313e ce95 48be d24c 7fbe
00000040: 0648 523e 2b09 8fbe 8b25 813e e467 ef3d
00000050: aa3d 4f3e da43 5a3e 58ff 34be 501f 063d
00000060: 8422 a0be aed2 90bd 6be3 41be 7a7d 463e
00000070: 7650 1f3e 5302 a1be 063a 523e ca78 e6bd
00000080: cad3 18be b0ec f8bc 6b7e 9c3e abc2 46be
00000090: 902c 18be 105b 4fbd 85f6 92be 4a0a 703e
000000a0: c0c2 a73c 60d6 403c fca0 c63d 3a1f 39be
000000b0: c894 3cbd 641a e53d f87d 1b3e 92b5 6abe
000000c0: 93c2 6fbe 18ed cfbd 34b6 a73d e9ae 2fbe
000000d0: 09f7 81be 70a0 55bd b263 9fbd 70a3 46bd
000000e0: fc41 c0bd 0832 81bd d4ba b43d bffb 9f3e
000000f0: d473 863d b64f a5bd 07d4 973e 76ba 303e
00000100: e1c7 803e 2692 6bbe 6e66 333e e97f a13e
00000110: 2812 1b3d e49d 103e 3089 fcbd fcaf f8bd
00000120: 5a1b 2cbe a006 62bc 34f6 8bbd 9044 aa3d
00000130: 997a 11be 2853 02be 5814 303d 0645 4e3e

net.22.bias f4 [8]
-0.13892607 0.09487876 -0.15618272 -0.28298467 0.2186853 0.06081438 0.004341215 0.21582386
00000000: a342 0ebe cc4f c23d 5dee 1fbe 5ee3 90be
00000010: 0aef 5f3e 8018 793d c040 8e3b ee00 5d3e

net.24.weight f4 [4, 8]
0.34958485 0.03944868 -0.15755694 0.29338637 0.34279755 -0.0205715 0.123271525 0.15392354
-0.25056663 -0.33311042 -0.33769676 -0.2819142 -0.32485202 -0.29709738 0.2545472 0.0812054
-0.04473588 -0.0037247837 0.29312888 -0.010635912 -0.20875902 0.27914992 -0.26417923 -0.19688356
-0.060646504 0.20575896 0.2806711 -0.074915856 -0.071047395 -0.09058043 0.20179942 0.33875796
00000000: c9fc b23e f094 213d 9b56 21be bd36 963e
00000010: 2983 af3e 9085 a8bc c875 fc3d 229e 1d3e
00000020: 454a 80be 738d aabe 97e6 acbe 0f57 90be
00000030: 0153 a6be 261d 98be 0354 823e 044f a63d
00000040: f83c 37bd 801b 74bb fd14 963e 4042 2ebc
00000050: edc4 55be bdec 8e3e 8042 87be d89b 49be
00000060: 7868 78bd 7ab2 523e 1fb4 8f3e 7c6d 99bd
00000070: 4c81 91bd 3c82 b9bd 82a4 4e3e af71 ad3e

net.24.bias f4 [4]
-0.04382637 -0.10120466 0.2954794 0.19683364
00000000: 4883 33bd 6444 cfbd 1349 973e c28e 493e

net.26.weight f4 [4, 4]
-0.48492807 -0.30582434 -0.1383065 0.34710896 -0.13860804 0.27058834 -0.0038108826 -0.30443066
-0.1792795 -0.35132343 -0.4002611 0.2589723 0.32077646 -0.2796949 -0.38002938 -0.13202083
00000000: 7e48 f8be 0295 9cbe 38a0 0dbe 44b8 b13e
00000010: 44ef 0dbe 8e8a 8a3e 00c0 79bb 56de 9bbe
00000020: 0c95 37be aae0 b3be 06ef ccbe 0498 843e
00000030: d03c a43e 2c34 8fbe 3693 c2be 7830 07be

net.26.bias f4 [4]
-0.4474607 -0.1907103 -0.24640632 -0.4466648
00000000: 9219 e5be 9049 43be f051 7cbe 40b1 e4be

net.28.weight f4 [8, 4]
-0.20915139 0.14537919 0.3328979 -0.47220016 0.04531592 0.40404648 -0.4191941 0.47131562
0.32588202 -0.04786706 -0.48970294 0.019880533 0.24661702 -0.47853863 0.22964829 -0.24431735
-0.20605218 0.22996223 0.42338294 -0.39680332 -0.16539502 -0.10156757 0.355259 0.20446199
-0.34356833 -0.42226505 -0.087647736 0.34240478 0.04403317 -0.17113286 -0.49812394 -0.45340812
00000000: c82b 56be 48de 143e 9871 aa3e 38c4 f1be
00000010: 309d 393d 2edf ce3e 9ca0 d6be 4850 f13e
00000020: 02da a63e 4010 44bd 58ba fabe 80dc a23c
00000030: 2c89 7c3e 0403 f5be ec28 6b3e 542e 7abe
00000040: 58ff 52be 387b 6b3e a6c5 d83e ce29 cbbe
00000050: 505d 29be a802 d0bd 82e4 b53e 7c5e 513e
00000060: 30e8 afbe 2033 d8be a880 b3bd ae4f af3e
00000070: 205c 343d 743d 2fbe 1a0a ffbe 1c25 e8be

net.28.bias f4 [8]
0.40894166 -0.31508458 0.3573675 -0.18614501 -0.21195275 -0.0013810715 0.108574614 0.20348245
00000000: cd60 d13e c452 a1be dff8 b63e cc9c 3ebe
00000010: 240a 59be 1205 b5ba 5e5c de3d b45d 503e

net.30.weight f4 [10, 8]
-0.12719266 -0.1964484 0.2264243 -0.15943886 0.35238454 0.20806316 -0.16033685 0.055977255
0.29591313 -0.27855664 -0.08193049 -0.12426993 0.20655027 0.07723409 -0.25375816 0.052726716
-0.037726134 -0.28776821 -0.20306055 0.15462407 0.34981486 0.14149894 -0.36422727 -0.18120763
-0.14013726 -0.0075812936 0.052616615 -0.11034213 0.30716106 0.011909116 0.00091052346 0.20364161
-0.21891311 -0.20919125 -0.25230518 -0.2113602 -0.23311076 0.17443658 0.078740664 0.20971206
-0.037802838 0.18821761 -0.30829656 0.05509782 0.09038514 0.2815208 -0.071222916 0.23059954
0.19048026 0.011474222 -0.2230756 0.16592702 0.118501544 -0.2899508 -0.11183119 0.221068
-0.20629297 -0.21831873 -0.01790616 0.32686314 -0.3016342 0.100969166 -0.0071139336 -0.28901055
0.09159914 0.08144179 0.102493465 -0.011779249 -0.1065871 -0.11623746 0.2627131 -0.09101668
0.036433797 -0.20858702 -0.2311325 0.32481018 0.18205872 -0.28429583 0.052556854 -0.18459213
00000000: cb3e 02be c529 49be c6db 673e f143 23be
00000010: bf6b b43e 820e 553e 582f 24be 6848 653d
00000020: ed81 973e fa9e 8ebe 2ccb a7bd 3c81 febd
00000030: ea81 533e e82c 9e3d 97ec 81be f8f7 573d
00000040: b886 1abd 5b56 93be 1bef 4fbe c655 1e3e
00000050: ef1a b33e 19e5 103e ff7b babe 7e8e 39be
00000060: 2480 0fbe 806c f8bb 8584 573d 0efb e1bd
00000070: 3744 9d3e 741e 433c 32b0 6e3a 6d87 503e
00000080: c22a 60be 3b36 56be 252e 81be cf6e 58be
00000090: 96b4 6ebe 819f 323e c942 a13d c2be 563e
000000a0: 26d7 1abd 1ebc 403e 0cd9 9dbe 40ae 613d
000000b0: d81b b93d 7f23 903e 52dd 91bd 4922 6c3e
000000c0: 420d 433e 60fe 3b3c ee6d 64be c6e8 293e
000000d0: f0b0 f23d 6e74 94be c007 e5bd a65f 623e
000000e0: 773e 53be f28e 5fbe f0af 92bc 9b5a a73e
000000f0: cc6f 9abe ecc8 ce3d 001c e9bb 31f9 93be
00000100: 5498 bb3d f4ca a63d 18e8 d13d c0fd 40bc
00000110: 564a dabd e80d eebd 5582 863e f466 babd
00000120: 9b3b 153d d697 55be 00ae 6cbe 854d a63e
00000130: 9a6d 3a3e 398f 91be db45 573d b805 3dbe

net.30.bias f4 [10]
-0.34589547 -0.12112646 0.19624811 0.10834903 0.12271231 0.053921096 -0.16882806 0.060220003
-0.23561293 0.13024293
00000000: 3619 b1be 2611 f8bd 44f5 483e 19e6 dd3d
00000010: 9750 fb3d 5edc 5c3d 43e1 2cbe 40a9 763d
00000020: 8444 71be 675e 053e

net.32.weight f4 [10, 10]
-0.29627064 -0.022779912 0.28018633 -0.17744501 0.012452245 0.02898246 -0.036796957 -0.16818652
0.11848107 -0.031722188 0.06845051 -0.29810637 0.307677 0.1960477 0.002187878 0.2308242
0.29095867 -0.0024999082 0.252542 -0.30106783 -0.27306184 -0.089626014 0.301638 0.17268392
0.16155474 -0.3010391 0.08816314 0.060598552 0.21660611 -0.20197631 -0.28446555 0.03265342
-0.22625971 -0.19055673 0.118628375 0.21871589 0.28966466 0.13011938 -0.069691956 0.22356568
-0.23208271 0.0943234 0.09327086 0.2601579 0.22308566 0.09462385 0.11121273 0.032739878
-0.28162268 0.21757904 0.28961918 -0.22553161 0.23315415 0.2366949 0.048602164 -0.24920982
-0.11172959 0.20812872 0.032836527 -0.10310747 -0.10866496 0.030917794 -0.08850527 0.12337283
-0.25221863 0.08501223 0.11948821 0.067230284 0.30443653 0.108523265 -0.18099293 0.077364415
-0.09269899 -0.05494064 0.075644135 0.1115087 0.011821181 0.11343986 -0.08757596 -0.12877163
0.10829821 -0.08529098 0.2203102 -0.3490445 0.1952086 0.039658528 0.06865403 -0.16757661
0.11605859 0.14740232 -0.15985976 -0.06380525 0.21286246 -0.06621423 -0.010556459 0.014185041
-0.055654705 0.28522882 -0.2677565 0.06884855
00000000: c9b0 97be f09c babc 9574 8f3e 25b4 35be
00000010: 8004 4c3c a06c ed3c 68b8 16bd 1639 2cbe
00000020: 34a6 f23d 20ef 01bd c82f 8c3d 66a1 98be
00000030: d787 9d3e bac0 483e 8062 0f3b 2e5d 6c3e
00000040: 89f8 943e 80d5 23bb 2f4d 813e 9025 9abe
00000050: c3ce 8bbe d88d b7bd 4c70 9a3e 0ed4 303e
00000060: 9b6e 253e cc21 9abe e08e b43d 3036 783d
00000070: fecd 5d3e e1d2 4ebe 78a5 91be 98bf 053d
00000080: a0b0 67be 4e21 43be 6ff3 f23d 0ff7 5f3e
00000090: ed4e 943e 043e 053e a8ba 8ebd 67ee 643e
000000a0: 17a7 6dbe a02c c13d cb04 bf3d 6b33 853e
000000b0: 9170 643e 26ca c13d 80c3 e33d 401a 063d
000000c0: d930 90be 0acd 5e3e f748 943e c2f1 66be
000000d0: f6bf 6e3e 2660 723e 1013 473d dc30 7fbe
000000e0: 7cd2 e4bd b21f 553e 987f 063d 022a d3bd
000000f0: bc8b debd 5047 fd3c 4042 b5bd e5aa fc3d
00000100: cd22 81be e41a ae3d 3cb6 f43d 08b0 893d
00000110: 1bdf 9b3e 7241 de3d 3656 39be 3c71 9e3d
00000120: f8d8 bdbd 7009 61bd 50eb 9a3d ac5e e43d
00000130: a0ad 413c 2853 e83d 065b b3bd b6dc 03be
00000140: 74cb dd3d 0aad aebd ff98 613e f6b5 b2be
00000150: c3e4 473e fb70 223d 7c9a 8c3d 3499 2bbe
00000160: 20b0 ed3d a2f0 163e 47b2 23be 54ac 82bd
00000170: 9ef8 593e 549b 87bd 00f5 2cbc 6068 683c
00000180: 30f6 63bd 8309 923e 6117 89be 7800 8d3d

net.32.bias f4 [10]
-0.20422253 -0.19946152 0.26919508 0.28365952 0.23484695 -0.043629885 0.36440787 -0.22519541
0.018152962 -0.23874578
00000000: b61f 51be a43f 4cbe f0d3 893e d23b 913e
00000010: b87b 703e 40b5 32bd ab93 ba3e a099 66be
00000020: 85b5 943c c679 74be

net.34.weight f4 [10, 10]
-0.23836221 -0.1291039 0.10798362 -0.19179152 -0.18196721 -0.11646475 -0.059518427 0.24424258
0.23948851 -0.05651027 -0.19022506 -0.048440784 -0.11898711 -0.12492719 0.08530995 0.057599634
-0.20655656 -0.28345373 -0.288107 0.15604913 -0.1519808 0.13907146 -0.031084955 0.056550503
0.1218923 0.29885414 0.19143656 0.29818234 0.254625 -0.032684088 -0.006082833 0.07613349
0.13966502 -0.29691967 -0.032609645 -0.014852881 -0.21751405 0.2722942 -0.19451356 -0.1437839
0.18001834 -0.017591774 -0.26390603 0.3140565 0.045031905 -0.06954366 -0.20029199 0.23834911
0.06671116 -0.1179018 0.06931996 0.10271317 0.25071245 0.24330036 -0.1558938 -0.20845789
-0.20641188 -0.004944563 0.35226077 0.26377073 0.11344904 0.01975876 0.2264279 -0.17060287
-0.17899817 -0.216741 0.3580144 -0.05745846 -0.1537696 -0.093021676 0.027745843 0.17148593
0.029064357 -0.073597476 0.08283782 0.037956357 -0.22431436 0.17302969 -0.10153575 0.2120448
0.30599925 -0.114056766 0.029346555 -0.16516784 -0.21588238 0.29768834 -0.1218708 0.016483486
-0.07777022 0.17256686 0.16763797 0.0067998767 0.09147465 -0.21685067 0.03625074 -0.10490835
-0.16222689 0.1968331 0.10258511 -0.1087673
00000000: 3915 74be d033 04be 8426 dd3d ff64 44be
00000010: 9d55 3abe 1285 eebd 98c9 73bd ba1a 7a3e
00000020: 7a3c 753e 5077 67bd 5cca 42be d869 46bd
00000030: 84af f3bd d4d9 ffbd fcb6 ae3d 98ed 6b3d
00000040: 9083 53be d920 91be c382 93be 58cb 1f3e
00000050: dba0 1bbe c068 0e3e e0a5 febc 80a1 673d
00000060: aca2 f93d 6903 993e f207 443e 5bab 983e
00000070: 355e 823e c0df 05bd 8052 c7bb e0eb 9b3d
00000080: 5904 0f3e db05 98be b191 05bd 8059 73bc
00000090: 01bc 5ebe 256a 8b3e 902e 47be 163c 13be
000000a0: ba56 383e a01c 90bc b11e 87be 03cc a03e
000000b0: 6073 383d e86c 8ebd 5819 4dbe ca11 743e
000000c0: dc9f 883d 8076 f1bd a0f7 8d3d 485b d23d
000000d0: 625d 803e bb23 793e a0a2 1fbe fc75 55be
000000e0: a35d 53be 0006 a2bb 865b b43e f50c 873e
000000f0: f857 e83d 20dd a13c b7dc 673e 85b2 2ebe
00000100: 4c4b 37be 5af1 5dbe aa4d b73e 9059 6bbd
00000110: c775 1dbe 2682 bebd 404b e33c 029a 2f3e
00000120: 6018 ee3c 46ba 96bd e0a6 a93d 2078 1b3d
00000130: aab2 65be b22e 313e faf1 cfbd 4622 593e
00000140: efab 9c3e 9896 e9bd 3068 f03c c221 29be
00000150: 4510 5dbe 9b6a 983e 6697 f9bd 6008 873c
00000160: fe45 9fbd 5eb5 303e 4aa9 2b3e 80d1 de3b
00000170: 1057 bb3d 1a0e 5ebe a87b 143d 30da d6bd
00000180: ce1e 26be 9e8e 493e 2418 d23d 64c1 debd

net.34.bias f4 [10]
0.1956367 -0.24659845 -0.17302682 0.121785305 -0.09076142 0.2757691 0.34987894 -0.045414865
-0.27771637 -0.071963325
00000000: fd54 483e 4e84 7cbe f12d 31be 936a f93d
00000010: 20e1 b9bd 9c31 8d3e 5523 b33e f004 3abd
00000020: d730 8ebe 8261 93bd

net.36.weight f4 [10, 10]
0.05803919 -0.20852023 0.3149273 0.15995297 -0.024885833 0.1584078 -0.3113512 -0.21228367
0.26527265 -0.19970387 -0.12128294 -0.26698488 -0.1449176 -0.12097033 0.19171646 -0.016948195
0.2571245 0.25707462 0.14965165 -0.3121935 -0.17410104 0.17979342 0.06175071 -0.1705385
-0.09285517 0.17008963 0.08668694 -0.13676552 -0.15368739 -0.06060496 0.08106818 0.16992602
-0.1978715 0.24262907 -0.16143309 0.12901305 0.15806486 -0.13686098 0.24055913 0.10605234
-0.024063468 0.2239475 -0.22034842 -0.11019467 0.14181897 -0.012713283 -0.2298856 0.08206239
0.26798996 0.26317552 -0.104794756 0.102951854 -0.005281955 0.30325982 0.11499745 0.21853667
0.2639416 -0.30490038 0.21720442 -0.068179235 -0.19038649 -0.10406861 -0.2933014 0.2737572
0.20529792 0.15129253 0.032562792 -0.28315765 0.27162382 -0.021258682 -0.16472475 -0.3021706
-0.06193441 0.10156287 -0.29150298 0.05692468 0.256671 0.019700497 -0.2682306 0.040986
0.28258118 0.25896433 -0.024769068 -0.20935833 0.119404435 -0.07511203 0.2488589 -0.18287791
0.14886686 -0.017869085 0.21943924 -0.2495462 0.15535206 -0.2987359 0.24607554 -0.15082549
-0.009757757 -0.019226193 -0.21333845 -0.12520942
00000000: 80ba 6d3d 5486 55be 273e a13e b6ca 233e
00000010: 60dd cbbc a835 223e 6d69 9fbe e460 59be
00000020: d1d1 873e 2c7f 4cbe 3163 f8bd 3eb2 88be
00000030: 4865 14be 4bbf f7bd 5251 443e f1d6 8abc
00000040: d3a5 833e 499f 833e 483e 193e d4d7 9fbe
00000050: 8b47 32be c41b 383e 50ee 7c3d a5a1 2ebe
00000060: da2a bebd fa2b 2e3e ec88 b13d 430c 0cbe
00000070: 3a60 1dbe e83c 78bd 1307 a63d 1601 2e3e
00000080: d49e 4abe c173 783e b74e 25be ff1b 043e
00000090: c1db 213e 4925 0cbe 2255 763e f831 d93d
000000a0: c020 c5bc 7e52 653e 04a3 61be bead e1bd
000000b0: fe38 113e 604b 50bc 2167 6bbe 5410 a83d
000000c0: fb35 893e f1be 863e a29e d6bd 6cd8 d23d
000000d0: 4014 adbb df44 9b3e c883 eb3d 14c8 5f3e
000000e0: 5a23 873e e71b 9cbe d66a 5e3e 8ea1 8bbd
000000f0: adf4 42be ec21 d5bd 9a2b 96be e729 8c3e
00000100: 9e39 523e 6eec 1a3e 9060 053d 0afa 90be
00000110: 4712 8b3e b026 aebc 9bad 28be 1bb6 9abe
00000120: f0ae 7dbd 3200 d03d e13f 95be da29 693d
00000130: 626a 833e f062 a13c 8555 89be f0e0 273d
00000140: 7bae 903e f996 843e 80e8 cabc 0862 56be
00000150: 508a f43d 56d4 99bd ded4 7e3e 5944 3bbe
00000160: 8e70 183e 3062 92bc aeb4 603e 0a89 7fbe
00000170: 9c14 1f3e e9f3 98be 3afb 7b3e ff71 1abe
00000180: 00df 1fbc 4080 9dbc 6575 5abe e636 00be

net.36.bias f4 [10]
-0.24231258 0.22118023 -0.24938336 0.19591886 -0.12233926 0.27644163 -0.3148729 0.30860785
-0.23833865 -0.17200017
00000000: ca20 78be 127d 623e 5a5e 7fbe f49e 483e
00000010: 028d fabd c289 8d3e 0537 a1be d901 9e3e
00000020: 0c0f 74be d020 30be

net.38.weight f4 [10, 10]
-0.1447975 -0.20697111 -0.23505849 -0.1127965 -0.033373773 0.29845467 -0.15957442 0.06682524
0.25271234 -0.041276306 -0.048771143 0.12941787 -0.24231616 0.08987251 -0.24113767 -0.091471
-0.27695608 -0.11114095 -0.20119095 -0.22595474 0.2161353 0.18557149 0.04190448 -0.116832025
0.26270202 0.32602322 -0.30560565 0.22491312 -0.20164374 -0.044133544 -0.082770765 0.1249924
-0.046565384 0.1693641 0.2952974 0.19829145 -0.09193939 -0.13007611 0.023581088 0.12101859
0.12809077 0.022339284 0.083571166 0.11025295 -0.04531783 -0.21398658 0.067751646 0.17154643
-0.18269251 -0.018535316 0.040890485 0.28574258 0.043167442 -0.24107309 0.29928502 0.05279374
0.13704354 0.3124389 -0.16976976 -0.16512354 0.10211986 0.124688804 -0.27617356 -0.24117613
0.1584118 0.22052482 -0.116876215 0.06051305 -0.16445713 0.28817275 0.06443831 -0.051495112
0.24514303 0.029216563 -0.22200988 0.25321808 -0.08282973 -0.06908647 -0.01444453 -0.22708815
0.13874555 -0.020032763 -0.26976708 0.05298364 -0.28107232 -0.21065293 -0.20119144 -0.08116916
0.15925321 -0.13818118 0.1849201 0.14586182 0.08537093 0.066230536 0.098068714 0.111325175
-0.031308115 -0.05013436 0.2806433 0.122703195
00000000: cc45 14be 3cf0 53be 2cb3 70be da01 e7bd
00000010: f0b2 08bd 0dcf 983e 7a67 23be acdb 883d
00000020: 8363 813e 5811 29bd 40c4 47bd 1e86 043e
00000030: ba21 78be 140f b83d cbec 76be 2655 bbbd
00000040: 30cd 8dbe de9d e3bd 0005 4ebe ae60 67be
00000050: 9252 5d3e 7406 3e3e 08a4 2b3d a145 efbd
00000060: e180 863e 84ec a63e 5878 9cbe a04f 663e
00000070: b27b 4ebe 60c5 34bd b883 a9bd 04fc ff3d
00000080: 58bb 3ebd c86d 2d3e 3931 973e ea0c 4b3e
00000090: b84a bcbd ac32 05be 202d c13c 98d8 f73d
000000a0: 3a2a 033e e000 b73c 5c27 ab3d 4ccc e13d
000000b0: 309f 39bd 4c1f 5bbe 60c1 8a3d dea9 2f3e
000000c0: bf13 3bbe 60d7 97bc c87c 273d da4c 923e
000000d0: 58d0 303d dddb 76be e33b 993e 403e 583d
000000e0: 2455 0c3e fef7 9f3e 20d8 2dbe 2516 29be
000000f0: 3824 d13d d85c ff3d 9f66 8dbe e0f6 76be
00000100: b436 223e 42d1 613e cc5c efbd 88dc 773d
00000110: 7367 28be 618b 933e 3cf8 833d 8aec 52bd
00000120: c606 7b3e 9357 ef3c 8f56 63be cda5 813e
00000130: a2a2 a9bd 357d 8dbd c0a8 6cbc cc89 68be
00000140: 5013 0e3e c01b a4bc e91e 8abe 6005 593d
00000150: b6e8 8fbe 67b5 57be 2105 4ebe 043c a6bd
00000160: 4613 233e 5e7f 0dbe b25b 3d3e cd5c 153e
00000170: f4d6 ae3d e0a3 873d 40d8 c83d 74fe e33d
00000180: f03c 00bd b059 4dbd 7bb0 8f3e d04b fb3d

net.38.bias f4 [10]
-0.31487486 -0.1717093 0.218809 -0.19061682 -0.20812552 -0.13060606 -0.15277116 -0.09601802
-0.073480114 0.33195096
00000000: 4737 a1be 90d4 2fbe 770f 603e 0e31 43be
00000010: db1e 55be 98bd 05be 0b70 1cbe 18a5 c4bd
00000020: be7c 96bd 7af5 a93e

net.40.weight f4 [10, 10]
-0.02294901 0.31534252 0.02420438 -0.18938175 0.10899624 0.25474635 0.23885587 0.21971856
-0.06848402 -0.3009185 0.11867815 -0.13882817 0.26263595 -0.19827464 0.22319022 -0.19438016
-0.2650431 0.12708329 0.22752038 -0.23435587 -0.1987271 0.23395994 0.29715165 -0.16791242
0.266692 0.012395556 0.28122047 -0.0738933 -0.039019972 0.34788173 0.23739168 0.06907809
0.31360134 -0.17066783 -0.16912353 -0.016751051 0.06884888 -0.21752477 0.16657269 -0.0015455186
-0.15161721 0.09941071 0.20851591 0.12825751 -0.020124167 0.080952555 0.097988784 -0.28415537
0.23944941 -0.16447394 0.13935217 0.09510037 0.07508992 -0.21037123 -0.17670453 -0.26152787
0.15901613 -0.14680305 -0.17011474 0.15636145 0.20801243 -0.038345277 -0.040571276 0.17820951
-0.13684073 0.09305222 0.10308209 -0.08485531 -0.17510454 -0.28967935 0.07423434 -0.2752467
-0.11549017 -0.16687368 -0.08859515 0.15456001 -0.016861886 0.18528694 -0.24067557 -0.13252777
-0.23540881 0.29711613 0.20599625 -0.24237174 -0.2523552 0.033456076 -0.17254229 0.032014996
-0.11540508 -0.101833366 0.27695486 -0.18455525 0.18504609 0.04772359 -0.27447 -0.19256853
0.13502419 0.07008308 0.041163594 0.06725097
00000000: 90ff bbbc 9374 a13e 4448 c63c 4aed 41be
00000010: 6c39 df3d 1d6e 823e a296 743e e7fd 603e
00000020: 5a41 8cbd fd11 9abe 880d f33d f928 0ebe
00000030: 3878 863e 8208 4bbe fa8b 643e 980b 47be
00000040: bbb3 87be 1f22 023e 1afb 683e fcfa 6fbe
00000050: 1e7f 4bbe 3293 6f3e 4324 983e 3cf1 2bbe
00000060: db8b 883e bb16 4b3c 21fc 8f3e 5f55 97bd
00000070: 68d3 1fbd 8e1d b23e ce16 733e d078 8d3d
00000080: 5b90 a03e 8cc3 2ebe b82e 2dbe 8039 89bc
00000090: a400 8d3d d0be 5ebe 0892 2a3e 0093 caba
000000a0: 8b41 1bbe d897 cb3d 3285 553e f055 033e
000000b0: 70db a4bc 74ca a53d 58ae c83d d07c 91be
000000c0: 3a32 753e db6b 28be 56b2 0e3e fcc3 c23d
000000d0: bec8 993d 8e6b 57be 08f2 34be fbe6 85be
000000e0: 20d5 223e 8a53 16be 8f32 2ebe 371d 203e
000000f0: 3601 553e f00f 1dbd 112e 26bd 8e7c 363e
00000100: fa1f 0cbe 2a92 be3d b41c d33d 9fc8 adbd
00000110: 9b4e 33be da50 94be 2c08 983d 23ed 8cbe
00000120: 1c86 ecbd efe0 2abe 6071 b5bd fb44 1e3e
00000130: f021 8abc dcbb 3d3e a873 76be 5cb5 07be
00000140: 020f 71be 9b1f 983e aef0 523e 4c30 78be
00000150: b334 81be 3d09 093d edae 30be 2822 033d
00000160: 8059 ecbd 038e d0bd 07cd 8d3e 0dfc 3cbe
00000170: b97c 3d3e d079 433d 5587 8cbe af30 45be
00000180: c843 0a3e b887 8f3d 289b 283d e0ba 893d

net.40.bias f4 [10]
0.14697866 0.05199666 -0.07993109 -0.31589893 -0.05340892 0.086146936 0.1986257 0.264733
0.088325985 -0.10466264
00000000: 9381 163e 73fa 543d e9b2 a3bd 81bd a1be
00000010: 50c3 5abd ce6d b03d 8964 4b3e 158b 873e
00000020: 41e4 b43d 5e59 d6bd
