GPU_AE/model/ae_4.pth (torch, 108954 bytes, 220 tensors)

net.0.weight f4 [10, 10]
0	0x3d472990	0.04862362
1	0xbe9540bc	-0.2915095
2	0xbd01af70	-0.03166145
3	0xbd18fea8	-0.037352234
4	0xbe878fa8	-0.2647679
5	0xbe850984	-0.25983822
6	0x3d88a014	0.066711575
7	0x3e1e8d4e	0.15483591
8	0xbe9568b7	-0.29181454
9	0x3e849d3d	0.25901213
10	0x3e5ec446	0.2175456
11	0x3e48dea6	0.19616184
12	0xbe8dac8b	-0.27670702
13	0x3e83cc13	0.25741634
14	0x3b3bea80	0.0028673708
15	0x3d6938c0	0.056938887
16	0x3e9d848b	0.30765185
17	0xbe9b1ecf	-0.30296943
18	0x3e22ab56	0.15885672
19	0xbe93f000	-0.28894043
20	0x3c391cc0	0.011298358
21	0x3e44e012	0.19226101
22	0x3e7579ca	0.2397224
23	0xbc8ab2f0	-0.016931027
24	0x3e852c5f	0.26010415
25	0x3e06ab44	0.1315127
26	0x3e9d22d3	0.3069063
27	0x3e55dec6	0.20885763
28	0xbdd02a8c	-0.10164365
29	0x3e41f5ae	0.18941376
30	0x3e2d3fce	0.16918871
31	0x3e75bb5a	0.2399725
32	0x3d8ec324	0.06970814
33	0xbdd5eabe	-0.10445164
34	0xbe8d7436	-0.27627724
35	0x3e5f90de	0.21832606
36	0x3e26cd96	0.16289362
37	0xbe98e3d7	-0.29861328
38	0xbe467f3c	-0.19384474
39	0x3e8fdbb1	0.280973
40	0xbd7f2da8	-0.0622994
41	0xbe9683cb	-0.29397425
42	0xbc7b47e0	-0.015336961
43	0x3e67435e	0.22584292
44	0x3e7aa8da	0.24478474
45	0xbe61418e	-0.21997663
46	0x3e550b0e	0.20804998
47	0x3e3e3036	0.18573079
48	0xbe95cf98	-0.29259944
49	0x3e2d6904	0.16934592
50	0x3e4d2576	0.20033821
51	0x3deb8eb4	0.11501828
52	0x3e2d12be	0.16901681
53	0xbc300740	-0.010743916
54	0xbdf4a242	-0.11945011
55	0xbe282fa0	-0.16424417
56	0x3de7e704	0.113233596
57	0xbe85577a	-0.26043302
58	0xbdfcb0fa	-0.12338443
59	0xbe20d5fb	-0.15706627
60	0xba128400	-0.00055891275
61	0xbe5cd010	-0.21563745
62	0xbe80be73	-0.251453
63	0xbe3e8aa3	-0.18607573
64	0xbe9121c3	-0.2834607
65	0x3e1a3950	0.15060925
66	0x3d9691fc	0.07352063
67	0x3db859c4	0.090014964
68	0x3e662676	0.22475609
69	0xbe49691e	-0.19669005
70	0xbe726628	-0.23671782
71	0xbe08a4e8	-0.13344157
72	0x3ce47140	0.027886033
73	0xbd119268	-0.035540015
74	0xbe42ed56	-0.19035849
75	0xbe96071b	-0.29302296
76	0x3dd365b8	0.10322136
77	0xbe96f52c	-0.29483926
78	0xbe950ad6	-0.2910983
79	0x3e1a9a28	0.15097868
80	0xbe86decf	-0.26341864
81	0x3e290e24	0.165093
82	0x3cbbdff0	0.02293393
83	0xbe30d105	-0.17267235
84	0xbe85c492	-0.26126534
85	0xbea07bf2	-0.31344563
86	0x3e39ce0e	0.1814501
87	0x3e931ae9	0.28731468
88	0xbdd43696	-0.10361974
89	0x3e819a29	0.25312927
90	0x3e3030ae	0.1720607
91	0x3e70a2fe	0.23499677
92	0x3e515282	0.2044163
93	0xbe97abdc	-0.29623306
94	0xbe0b06c6	-0.13576803
95	0x3e7af822	0.24508718
96	0xbde2f49c	-0.11081812
97	0x3e1e0958	0.15433252
98	0xbdb26e4a	-0.08712442
99	0x3e3fcf5e	0.18731448

net.0.bias f4 [10]
0	0xbdcb53be	-0.09928082
1	0x3dc6fdfc	0.097164124
2	0xbe44c0dc	-0.19214195
3	0xbe88e85e	-0.26739782
4	0x3d5ef220	0.054430127
5	0x3d15d358	0.036578506
6	0x3e9792a7	0.29604074
7	0xbb737100	-0.003714621
8	0x3e6fa856	0.23404059
9	0x3e75331e	0.23945281

net.2.weight f4 [10, 10]
0	0xbe9977e5	-0.29974285
1	0xbdfca3b2	-0.1233591
2	0xbd7671c8	-0.060167104
3	0x3e01e1be	0.1268377
4	0x3e75356a	0.23946157
5	0x3dbfbbe8	0.09362012
6	0x3d6bd520	0.0575763
7	0x3e675aba	0.22593203
8	0xbe46897b	-0.19388382
9	0xbe87d52c	-0.26529825
10	0xbe3c217b	-0.18372147
11	0x3d77bdf8	0.060483903
12	0x3e6f4416	0.23365816
13	0x3c073640	0.00825268
14	0x3d0653f0	0.032794893
15	0xbdbde144	-0.09271482
16	0x3e933b0d	0.2875599
17	0xbe063529	-0.13106216
18	0x3dce67c0	0.100783825
19	0xbc8e8720	-0.017398417
20	0x3e24d37c	0.160963
21	0x3e9e5afb	0.30928788
22	0x3e5c6eea	0.21526685
23	0x3e4cfb32	0.20017698
24	0xbe5c6858	-0.21524179
25	0xbe96169f	-0.29314134
26	0x3e641a26	0.222756
27	0x3ea1569b	0.31511387
28	0xbe04225a	-0.12903729
29	0xbdacb02a	-0.08432038
30	0xbe1a2a04	-0.1505509
31	0xbdd6cde4	-0.10488489
32	0x3d075650	0.0330413
33	0xbbc88480	-0.006119311
34	0xbe084cc2	-0.13310531
35	0x3e84293d	0.25812712
36	0xbe8e71e4	-0.27821267
37	0x3c55d100	0.013050318
38	0x3e698b92	0.22807148
39	0xbcf9b400	-0.030481339
40	0x3e9ec8dd	0.31012622
41	0xbe27a403	-0.1637116
42	0x3df46ca8	0.11934787
43	0xbe44aa47	-0.1920558
44	0xbe07eea7	-0.13274632
45	0x3e9dbd4d	0.30808488
46	0xbe196fb0	-0.14984012
47	0x3e62da02	0.22153476
48	0xbde01116	-0.10940759
49	0xbdf2cdac	-0.11855635
50	0x3e801217	0.250138
51	0x3dafcdf4	0.08584204
52	0x3e805acd	0.25069275
53	0x3e8892f1	0.26674607
54	0x3e2de3b6	0.16981396
55	0xbe98c03e	-0.2983417
56	0xbca1fb20	-0.019773066
57	0xbdf302bc	-0.11865756
58	0x3e9056c1	0.28191188
59	0x3e7f4522	0.24928716
60	0xbe6c9fc0	-0.23107815
61	0xbc80c910	-0.015720874
62	0x3e2adb18	0.1668514
63	0x3e075db6	0.13219342
64	0x3e0a7548	0.13521302
65	0x3e1ee2ae	0.15516159
66	0xbdfd87d0	-0.1237942
67	0x3d3bb7e0	0.045829654
68	0x3b74e400	0.0037367344
69	0x3e64d7ba	0.22347918
70	0x3e07b28c	0.13251704
71	0xbe0965e3	-0.13417773
72	0x3e610642	0.21975043
73	0xbe083fc1	-0.1330557
74	0xbe403be1	-0.18772842
75	0xbe096db4	-0.13420755
76	0xbe3d296c	-0.18472832
77	0x3d60f578	0.054921597
78	0x3e966a43	0.29377946
79	0x3c8d55c0	0.017252803
80	0x3e47d47a	0.19514647
81	0x3e57a65a	0.21059552
82	0xbdae81bc	-0.085208386
83	0x3e17b4e4	0.14815098
84	0x3e875483	0.26431665
85	0x3e0e3a8c	0.13889521
86	0xbe281503	-0.16414265
87	0x3df5bf70	0.119994044
88	0x3c8f9530	0.017527193
89	0x3d1cf5f8	0.03832051
90	0xbb598680	-0.003319174
91	0x3c222ea0	0.009898812
92	0x3e34dcde	0.17662379
93	0xbe8ac8ac	-0.27106225
94	0xbdf237f0	-0.118270755
95	0xbdbeeaa4	-0.09322098
96	0xbe804200	-0.25050354
97	0xbd0a8d88	-0.03382638
98	0x3d581e18	0.052763075
99	0xbdb1d5da	-0.08683367

net.2.bias f4 [10]
0	0xbdc76b10	-0.097372174
1	0x3e638482	0.22218516
2	0x3d12b340	0.035815477
3	0xbcd3fd30	-0.025877565
4	0xbd4aac98	-0.049481004
5	0x3d5bb4b8	0.053639144
6	0xbe87bb02	-0.26509863
7	0xbe927d71	-0.2861133
8	0xbd456118	-0.0481883
9	0xbd07d6a8	-0.033163697

net.4.weight f4 [10, 10]
0	0x3e24a3c8	0.16078103
1	0x3e9b3815	0.30316225
2	0xbe05d946	-0.13071164
3	0xbe6eb09f	-0.23309563
4	0x3e4711d6	0.19440398
5	0xbdcd9c6e	-0.10039602
6	0xbe94398e	-0.2895016
7	0x3d4d9c38	0.05019781
8	0x3e963c2b	0.2934278
9	0xbe275c0f	-0.16343711
10	0x3e65875a	0.22414914
11	0xbe4825b4	-0.19545633
12	0xbe26502d	-0.16241522
13	0x3da4b800	0.08042908
14	0x3e8795ad	0.2648138
15	0xbcd37d20	-0.0258165
16	0x3ba3d180	0.0049993396
17	0x3e1edd9e	0.15514228
18	0x3e1dbda4	0.15404373
19	0x3e194052	0.14965943
20	0x3e21c332	0.15797117
21	0x3e49445a	0.1965498
22	0xbd217db0	-0.039426506
23	0xbe88ae2a	-0.26695377
24	0x3def3fac	0.11682066
25	0xbe77d130	-0.24200892
26	0xbc6ca7e0	-0.014444321
27	0x3e2e0098	0.16992414
28	0x3cb82be0	0.022481859
29	0xbe92e7d1	-0.28692487
30	0xbe821109	-0.25403622
31	0x3e448546	0.19191465
32	0xbe52e29c	-0.20594257
33	0x3e8988c7	0.26862165
34	0xbe99de44	-0.30052388
35	0x3d281840	0.04103875
36	0x3d390df0	0.045179307
37	0xbe262382	-0.16224483
38	0x3d117530	0.03551215
39	0x3e9ec5df	0.3101034
40	0x3c63b8c0	0.013899028
41	0xbe948b17	-0.29012367
42	0xbe3b7df3	-0.18309765
43	0xbe41f33a	-0.1894044
44	0x3e3c243e	0.183732
45	0x3e61209e	0.21985099
46	0xbe0d7033	-0.13812332
47	0xbe1b7e89	-0.15184988
48	0x3e405d26	0.18785533
49	0xbe338c66	-0.17534027
50	0x3e6135ae	0.21993133
51	0x3e8c24e9	0.2737191
52	0x3e8b22ed	0.27175084
53	0xbd16ccd8	-0.036816448
54	0xbe690e7e	-0.22759435
55	0xbe27a047	-0.16369735
56	0x3e8a64f7	0.27030155
57	0x3d89cbb0	0.067283034
58	0xbe8102d1	-0.2519746
59	0x3e88f4e9	0.26749352
60	0x3d3948a8	0.045235306
61	0xbdf68764	-0.120375425
62	0xbd8fd1f6	-0.07022469
63	0x3e48ef7e	0.19622609
64	0x3e52a9c6	0.20572576
65	0x3de10d00	0.10988808
66	0x3e6c6f3a	0.23089305
67	0xbe8249da	-0.2544697
68	0x3da8a2f0	0.08234203
69	0x3d3738e8	0.044732004
70	0x3d11c3a0	0.035586953
71	0x3dcfe160	0.10150409
72	0x3dccf3ec	0.10007462
73	0x3e834a19	0.2564247
74	0xbe23bbf6	-0.1598967
75	0x3a783000	0.0009467602
76	0xbe927ccf	-0.28610846
77	0xbe3929c3	-0.18082337
78	0xbcc6cc40	-0.024267316
79	0x3e2c7ad6	0.16843733
80	0x3e56695e	0.20938632
81	0xbe86ddf8	-0.26341224
82	0xbe0da171	-0.13831116
83	0xbb8bd280	-0.004267037
84	0xbe09f912	-0.13473919
85	0x3d93c35c	0.07214996
86	0xbe208a25	-0.15677698
87	0x3df3b040	0.118988514
88	0xbe9da9e4	-0.3079368
89	0x3d02b478	0.03191039
90	0x3d2c9dc8	0.04214266
91	0x3e39210a	0.1807901
92	0x3d457e08	0.048215896
93	0x3e70d256	0.23517737
94	0x3e721b0e	0.23643133
95	0x3cae7cc0	0.02129972
96	0xbe27597d	-0.16342731
97	0xbe8e2bd4	-0.27767813
98	0xbe4f12f8	-0.2022208
99	0x3d1ce298	0.038302034

net.4.bias f4 [10]
0	0xbe753a70	-0.23948073
1	0x3e4e923a	0.20172969
2	0xbe9283e1	-0.2861624
3	0x3e958c65	0.29208675
4	0xbe23cfb7	-0.15997206
5	0xbd6b0620	-0.057378888
6	0x3e91667f	0.2839851
7	0x3d3a3360	0.04545915
8	0x3e7e75c6	0.24849615
9	0x3d8beed0	0.06832659

net.6.weight f4 [10, 10]
0	0x3e9c5127	0.30530664
1	0x3e148bc0	0.14506435
2	0x3e3067a6	0.17227039
3	0x3e95dd11	0.29270223
4	0xbd8b5114	-0.06802574
5	0xbded0ff6	-0.1157531
6	0xbde0b1ee	-0.109714374
7	0x3d210860	0.039314628
8	0xbe1921b0	-0.14954257
9	0x3e6c5932	0.230809
10	0xbe349769	-0.17635883
11	0x3c60e160	0.013725609
12	0xbdd11216	-0.10208528
13	0xbaba7300	-0.0014224946
14	0x3d21d3f8	0.03950879
15	0x3e34c258	0.17652261
16	0x3e5798ae	0.21054336
17	0x3e69141a	0.22761574
18	0xbe52a80a	-0.20571914
19	0x3db08038	0.08618206
20	0xbda428d4	-0.080156
21	0x3e406aa2	0.18790677
22	0xbe9dc718	-0.3081596
23	0x3d006da8	0.031354576
24	0xbe026190	-0.1273253
25	0x3e5e2756	0.21694693
26	0x3e9b8417	0.30374214
27	0xbdf70e6c	-0.12063298
28	0x3e7d6ed6	0.24749312
29	0xbea167de	-0.31524557
30	0xbe69392d	-0.22775717
31	0xbe5ac8c5	-0.2136565
32	0xbde4d4be	-0.1117339
33	0xbdc62a44	-0.0967603
34	0xbe4cd990	-0.20004869
35	0xbdb21dee	-0.08697115
36	0x3dc8d12c	0.09805521
37	0xbe3a22e9	-0.1817738
38	0xbe2d30da	-0.16913167
39	0x3dca1900	0.098680496
40	0x3e1a7774	0.1508463
41	0xbe2f519d	-0.17120977
42	0x3e8f7593	0.2801939
43	0x3e77ecb2	0.24211386
44	0xbe8a0b89	-0.26961926
45	0xbde05c64	-0.10955122
46	0xbe704b09	-0.23466124
47	0x3e30e58c	0.17275065
48	0x3d463668	0.04839173
49	0x3d92993c	0.071581334
50	0xbe9636ab	-0.29338583
51	0x3e0dad08	0.13835537
52	0xbdf51b56	-0.119681045
53	0xbcdd6880	-0.027027369
54	0x3e63612a	0.22205034
55	0xbdd2fa8a	-0.10301693
56	0xbe984b31	-0.29744866
57	0xbe2537dc	-0.1613459
58	0x3e78e86a	0.24307409
59	0x3df101ec	0.11767945
60	0xbd655f30	-0.05599898
61	0xbd288cf0	-0.041150033
62	0xbe572a0c	-0.21012133
63	0xbe7ec4d2	-0.24879768
64	0xbe56cafa	-0.20975867
65	0x3e924d05	0.28574386
66	0xbe3cd72c	-0.18441457
67	0x3dd3588c	0.10319623
68	0xbe2bf2ba	-0.16791812
69	0x3e859541	0.26090434
70	0x3d3ccc40	0.046093225
71	0xbd649258	-0.055803627
72	0x3e097eb0	0.13427234
73	0x3e9d65fb	0.30741867
74	0xbe4940a0	-0.19653559
75	0xbdc76164	-0.09735373
76	0x3dc6c0e4	0.0970476
77	0x3e08a764	0.13345104
78	0x3d8baa04	0.06819537
79	0x3e0502d8	0.12989366
80	0xbdac8bc8	-0.08425099
81	0xbd02e130	-0.031953037
82	0x3d00d6e0	0.03145492
83	0x3cbee520	0.023302615
84	0x3e0bfbfa	0.1367034
85	0x3e43cc1a	0.19120827
86	0x3da70380	0.081549644
87	0x3d0484c0	0.032353163
88	0xbdd720fc	-0.10504338
89	0x3e222a64	0.15836483
90	0xbdcab528	-0.09897834
91	0xbe91f90f	-0.2851033
92	0x3d1ea088	0.038727313
93	0xbe9f69c0	-0.31135368
94	0xbe6caa04	-0.23111731
95	0x3e192bba	0.14958087
96	0x3e0177e0	0.12643385
97	0x3e29797c	0.16550249
98	0xbe8d23a9	-0.2756627
99	0xbbe1dd40	-0.00689283

net.6.bias f4 [10]
0	0xbe975be9	-0.2956231
1	0x3e12eac2	0.14347365
2	0xbe9c7473	-0.30557594
3	0xbe01e9e4	-0.12686878
4	0x3e1e8200	0.15479279
5	0x3cbd4250	0.02310291
6	0x3d9e2ff4	0.0772399
7	0xbd98f964	-0.074694425
8	0xbe6d32c4	-0.23163897
9	0x3d58bfc8	0.05291727

net.8.weight f4 [10, 10]
0	0xbde97822	-0.11399867
1	0x3e986d9b	0.29771122
2	0x3de39cf4	0.11113921
3	0x3e35d108	0.1775552
4	0x3e4218d6	0.18954787
5	0xbe180e80	-0.14849281
6	0xbe960fb3	-0.29308853
7	0x3e55ab8e	0.20866224
8	0xbe83617b	-0.2566031
9	0xbe5a1518	-0.21297109
10	0x3b879900	0.004138112
11	0x3daad934	0.083422095
12	0x3e9bf071	0.3045688
13	0xbdb9c1fa	-0.09070201
14	0xbe26c1d7	-0.16284882
15	0xbe974411	-0.29544118
16	0x3e8b5ddf	0.27220055
17	0x3e4ead9a	0.20183411
18	0x3e9f58af	0.31122348
19	0xbe5336fa	-0.2062644
20	0x3e811d4f	0.25217673
21	0x3e2d76fc	0.1693992
22	0xbe86d66d	-0.2633547
23	0x3e8fd06d	0.28088704
24	0x3c26a620	0.010171443
25	0xbe9dade5	-0.30796733
26	0x3e7b130e	0.24518988
27	0x3e50782a	0.20358339
28	0x3e9f78fd	0.31146994
29	0x3dfdd828	0.12394744
30	0xbe4417ee	-0.19149753
31	0xbd7b6510	-0.061375678
32	0xbe81adfe	-0.25328058
33	0x3e87d9df	0.2653341
34	0xbe5f8b67	-0.21830522
35	0x3d1dc030	0.038513362
36	0xbd95270a	-0.07282837
37	0xbd20fbb8	-0.039302558
38	0x3cf110f0	0.029427022
39	0xbe983b19	-0.29732588
40	0x3e024c7a	0.12724486
41	0xbe47a4a7	-0.19496404
42	0xbd42a4d8	-0.04752049
43	0xbd91264e	-0.07087384
44	0x3d049248	0.032366067
45	0x3cdf1b40	0.027234674
46	0xbe933a12	-0.28755242
47	0x3e2d02ec	0.16895646
48	0x3d175700	0.036948204
49	0x3e87c1db	0.26515087
50	0x3e2c5ad4	0.16831523
51	0xbc9afc70	-0.0189192
52	0xbe1742b9	-0.14771546
53	0x3e4ecf9e	0.20196387
54	0xbe12d928	-0.14340651
55	0xbd0e67b0	-0.034766853
56	0x3e7a0c5a	0.24418774
57	0x3d2afd40	0.041745424
58	0x3e2bbfb0	0.16772342
59	0xbd734770	-0.0593943
60	0xbe8d3e69	-0.27586678
61	0xbd36f7a0	-0.044669747
62	0x3e61b04e	0.22039911
63	0xbe1e9509	-0.1548654
64	0x3d2ef020	0.04270947
65	0xbe85f4c0	-0.26163292
66	0x3e903a13	0.28169307
67	0x3e902d3b	0.28159508
68	0xbd9083dc	-0.070564
69	0xbdaed3ae	-0.085364684
70	0xbe8c1048	-0.27356172
71	0x3e8ceb07	0.27523062
72	0xbe84a1e2	-0.25904757
73	0x3e90cb01	0.2827988
74	0xbe2462c5	-0.16053303
75	0xbe2f941a	-0.1714634
76	0x3e2b967a	0.16756621
77	0xbe9a0d6e	-0.3008837
78	0xbe363fcf	-0.17797779
79	0x3e1c7d5a	0.15282193
80	0x3e29e6c4	0.16591936
81	0xbe14ef5d	-0.14544435
82	0x3e89ab1d	0.26888362
83	0x3e6810ae	0.22662613
84	0xbdebb260	-0.11508632
85	0xbe0c0f3f	-0.13677691
86	0xbe40eedd	-0.18841119
87	0x3df0f374	0.11765185
88	0x3e83e751	0.25762418
89	0x3d411080	0.047134876
90	0xbe0b1f31	-0.13586117
91	0xbc3cb500	-0.011517763
92	0x3e6cc78a	0.23122993
93	0xbdbd5f38	-0.09246677
94	0x3e9b22e9	0.30300072
95	0x3e579cb6	0.21055874
96	0xbe91adc0	-0.28452873
97	0xbd811a30	-0.06303823
98	0x3ea0ce93	0.31407604
99	0x3e1c6a8c	0.1527502

net.8.bias f4 [10]
0	0x3e2d35c0	0.16915035
1	0xbdd099ea	-0.10185607
2	0xbdf2b5ee	-0.118511066
3	0xbe310ba7	-0.17289601
4	0xbc934670	-0.017977923
5	0xbc89f2b0	-0.016839355
6	0x3e8b8f73	0.2725788
7	0xbe5cda74	-0.21567708
8	0xbe184f6b	-0.14874046
9	0xbe19d891	-0.1502402

net.10.weight f4 [10, 10]
0	0x3e9f5a33	0.31123504
1	0x3e32e76c	0.17471093
2	0xbcb26910	-0.021778613
3	0xbe86afda	-0.2630604
4	0xbd9c24ac	-0.07624182
5	0xbe48c309	-0.1960565
6	0xbd61c130	-0.05511588
7	0x3e87a569	0.26493385
8	0x3d001128	0.03126636
9	0xbd39fb48	-0.045405656
10	0xbe8313a4	-0.25600922
11	0x3e672a26	0.22574672
12	0xbe3158d2	-0.17319039
13	0x3e3e4346	0.1858035
14	0xbe8287cc	-0.2549423
15	0x3e9afadb	0.30269513
16	0xbe2693ca	-0.16267315
17	0xbe85b884	-0.26117337
18	0xbe253a1d	-0.1613545
19	0xbe494b68	-0.19657671
20	0x3e41a8be	0.18912026
21	0xbd897842	-0.067123905
22	0xbe11078d	-0.14163037
23	0x3e29a24e	0.1656582
24	0xbe793751	-0.24337508
25	0x3e6f5f0a	0.23376098
26	0x3e83f0b1	0.2576957
27	0xbb4f8280	-0.0031663477
28	0x3e1c59a6	0.15268573
29	0xbceac4d0	-0.0286583
30	0xbe799e5e	-0.24376819
31	0xbe0d98c3	-0.13827805
32	0x3e821fb1	0.25414804
33	0x3d3b43c8	0.045718938
34	0x3e07c126	0.13257274
35	0x3e9d3331	0.30703118
36	0xbe4c7d6a	-0.19969717
37	0xbe2675c9	-0.16255869
38	0xbdbb8fb6	-0.0915827
39	0xbdb94a9a	-0.09047432
40	0x3e64920e	0.2232134
41	0x3e97e88d	0.2966961
42	0xbcfcc6b0	-0.03085646
43	0x3e105466	0.14094695
44	0x3d660ad0	0.056162655
45	0xbe93f688	-0.28899026
46	0xbca2fc10	-0.019895583
47	0xbe98d04a	-0.29846412
48	0x3ca91920	0.020641863
49	0xbe70885e	-0.2348952
50	0x3e9843e7	0.29739305
51	0xbd3bd0f8	-0.045853585
52	0xbc919900	-0.017773151
53	0x3dd547b4	0.10414067
54	0xbe082334	-0.13294679
55	0xbd80a688	-0.06281763
56	0x3ea14d2b	0.31504187
57	0xbe527766	-0.2055336
58	0x3e5e0c3a	0.21684352
59	0x3d9c2b50	0.07625449
60	0xbdb7da9c	-0.08977243
61	0x3d8090c8	0.06277615
62	0xbe15b773	-0.14620762
63	0x3e5f7b1a	0.21824303
64	0x3e87804d	0.26465073
65	0xbe4fbdd0	-0.20287251
66	0xbd0d4570	-0.03449005
67	0xbdae597a	-0.0851316
68	0x3e9f0703	0.31060037
69	0x3e1f4736	0.15554509
70	0xbe12bacc	-0.1432907
71	0xbdc9c5e4	-0.09852198
72	0x3e3094e0	0.17244291
73	0x3e79e0f2	0.24402216
74	0x3e8496a9	0.25896195
75	0xbe2e82a4	-0.17042023
76	0xbde39de4	-0.111140996
77	0x3e869105	0.26282516
78	0x3e04ed4a	0.12981144
79	0xbe8a5c8a	-0.27023727
80	0xbdbb99e2	-0.0916021
81	0x3e25fa10	0.16208673
82	0xbe47282e	-0.19448921
83	0x3e089f9c	0.13342136
84	0xbd9518ac	-0.072800964
85	0x3c9d7cd0	0.019224554
86	0x3e2c40b2	0.16821554
87	0x3e8dc221	0.2768717
88	0xbe4afafe	-0.19822308
89	0x3e2b729a	0.16742936
90	0x3df49880	0.119431496
91	0x3e802d81	0.25034717
92	0x3e9270f9	0.28601816
93	0xbe05fe1d	-0.13085218
94	0x3da33518	0.07969111
95	0x3e79f456	0.24409613
96	0x3d9adab0	0.075612426
97	0xbe86bf05	-0.2631761
98	0xbe0315ad	-0.12801237
99	0xbe872537	-0.2639558

net.10.bias f4 [10]
0	0x3e3c6152	0.183965
1	0x3cf1f510	0.0295358
2	0xbe03f5a2	-0.1288667
3	0x3de71cd0	0.112847924
4	0x3d24a2c0	0.040194273
5	0xbd4004b0	-0.04687947
6	0xbddb23e4	-0.10700205
7	0xbe922f9b	-0.28551945
8	0x3e64dee2	0.22350648
9	0x3e8d03ff	0.2754211

net.12.weight f4 [10, 10]
0	0x3e984b87	0.29745123
1	0xbe7d4b34	-0.24735719
2	0x3e6bd4e2	0.23030427
3	0x3dfc17c8	0.123092234
4	0xbe7b5636	-0.24544606
5	0x3d4c4f88	0.049880534
6	0x3e84e9cf	0.25959632
7	0xbe83821b	-0.256852
8	0x3e97624b	0.2956718
9	0x3e29bff0	0.16577125
10	0xbdb2eb94	-0.08736339
11	0xbdb21176	-0.08694737
12	0x3e07ba88	0.1325475
13	0x3e98caf1	0.29842332
14	0xbe6e1322	-0.23249486
15	0xbe9e5259	-0.309222
16	0x3e0fddd8	0.1404947
17	0xbe29c866	-0.16580352
18	0xbd403618	-0.046926588
19	0xbd4728c8	-0.048622876
20	0x3e2a436e	0.16627285
21	0x3e81dd23	0.25364026
22	0xbd944f56	-0.07241695
23	0xbe188f77	-0.14898477
24	0x3e9d50f9	0.3072584
25	0xbcb27de0	-0.021788538
26	0xbe9de219	-0.3083656
27	0x3e94e161	0.290782
28	0xbde1a8c4	-0.110185176
29	0x3e669dee	0.22521183
30	0xbe56d370	-0.20979095
31	0xbe2fda1e	-0.17173049
32	0x3e6fce2e	0.23418495
33	0x3e8006df	0.25005242
34	0x3dbefc9c	0.09325525
35	0x3e228c2a	0.15873781
36	0x3e723dfe	0.2365646
37	0x3dd14600	0.102184296
38	0x3cadf0c0	0.021232963
39	0xbe748b37	-0.23881231
40	0xbcf8c3b0	-0.030366749
41	0x3e8d83e5	0.2763969
42	0xbe853d4e	-0.26023334
43	0xbd16d278	-0.036821812
44	0x3dda5680	0.1066103
45	0xbe0a9b4e	-0.13535807
46	0x3d86c6b8	0.06580871
47	0x3e41107e	0.18853948
48	0x3e6efd86	0.23338899
49	0xbe76ae8a	-0.24090019
50	0xbe8c0968	-0.27350926
51	0xbea19d89	-0.31565502
52	0xbe2c78d1	-0.16842963
53	0xbe190f4f	-0.14947246
54	0x3e9b7bd1	0.30367902
55	0x3e45ff16	0.19335589
56	0xbd7b6538	-0.061375827
57	0x3e75c036	0.23999104
58	0x3e84df8b	0.259518
59	0x3e36aec0	0.178401
60	0xbe356c11	-0.17717005
61	0xbe8c46e4	-0.27397835
62	0x3c04cd60	0.008105606
63	0x3e1648fc	0.14676279
64	0xbe3dfbc0	-0.18553066
65	0xbe93b746	-0.28850764
66	0xbdd5f4c8	-0.10447079
67	0x3e1370c2	0.14398482
68	0xbe6a5ed0	-0.2288773
69	0x3d360120	0.044434667
70	0xbe0338ef	-0.12814687
71	0xbe35f506	-0.1776925
72	0xbe8e641e	-0.27810758
73	0x3e90d95f	0.2829084
74	0xbe29ce52	-0.16582611
75	0xbdc92f9e	-0.098235354
76	0xbe340d54	-0.1758321
77	0xbe44a34f	-0.19202922
78	0xbe0154f0	-0.12630057
79	0xbd5184b0	-0.05115193
80	0xbcf68e80	-0.030097246
81	0x3e2d124a	0.16901508
82	0xbe37cbb5	-0.17948802
83	0x3e71a56a	0.23598257
84	0xbe2177e9	-0.15768398
85	0x3dfa125c	0.12210533
86	0x3e59cd8a	0.21269813
87	0x3d1d1d18	0.038357824
88	0xbe3890d8	-0.18024004
89	0xbea1237d	-0.31472388
90	0x3dc13dd4	0.09435621
91	0xbe8da9a3	-0.27668485
92	0xbe0652e2	-0.13117555
93	0x3c066660	0.008203119
94	0x3db71bfc	0.089408845
95	0x3e454f9e	0.19268653
96	0x3e226540	0.15858936
97	0xbd9b87ba	-0.07594247
98	0x3dff810c	0.124757856
99	0xbc22d180	-0.009937644

net.12.bias f4 [10]
0	0xbdd92c98	-0.10604209
1	0x3e59e4a6	0.21278629
2	0xbe3d2ea3	-0.18474822
3	0x3e153db0	0.14574313
4	0x3c222740	0.009897053
5	0x3e02a412	0.127579
6	0x3e9fe1d3	0.31226978
7	0xbe2b9a0e	-0.16757986
8	0xbe5d9dfa	-0.21642295
9	0x3e9db3e5	0.3080131

net.14.weight f4 [10, 10]
0	0xbe3d6e7f	-0.18499182
1	0xbcb6d0c0	-0.022316337
2	0x3e1d22ae	0.1534526
3	0x3e3b7654	0.18306857
4	0x3e4fdfa2	0.20300153
5	0x3e5ce456	0.21571478
6	0xbe8bdfe3	-0.2731925
7	0xbe5b4912	-0.21414593
8	0x3e9d66a1	0.30742362
9	0x3de6aa2c	0.112629265
10	0xbe37e770	-0.1795938
11	0x3e8530e5	0.26013866
12	0x3ea1cc85	0.3160135
13	0xbddf7dc4	-0.1091266
14	0x3d7af810	0.061271727
15	0xbda0f948	-0.078600466
16	0x3b8ebd00	0.0043560266
17	0x3e26ed82	0.1630154
18	0xbe48da22	-0.19614461
19	0xbe1385a1	-0.14406444
20	0x3e9288f7	0.2862012
21	0xbe29a352	-0.16566208
22	0x3d70d8c0	0.05880046
23	0xbe80764f	-0.25090262
24	0xbe9a0e48	-0.3008902
25	0xbca98e50	-0.020697743
26	0xbd67df28	-0.056609303
27	0x3e34c25e	0.1765227
28	0xbdace9c2	-0.08443023
29	0xbcc082d0	-0.023499876
30	0xbea0ac72	-0.31381565
31	0xbd94753e	-0.07248925
32	0xbe19dbc5	-0.15025242
33	0xbdecc976	-0.11561863
34	0xbea0ac11	-0.31381276
35	0x3e7d745e	0.24751422
36	0x3d922538	0.07136005
37	0xbe86d539	-0.2633455
38	0x3e9ed3df	0.3102102
39	0x3e54df4a	0.20788303
40	0x3c35e620	0.011102229
41	0xbde8c266	-0.113652036
42	0xbd6d1d08	-0.057889014
43	0xbe31b40b	-0.17353837
44	0xbe2205e8	-0.15822566
45	0xbe8b480e	-0.2720341
46	0x3e27c520	0.16383791
47	0x3e5f1e42	0.21788886
48	0xbdce2186	-0.10064988
49	0xbda9fe46	-0.08300452
50	0x3e0f150c	0.13972872
51	0xbe9d8099	-0.30762175
52	0xbe95468d	-0.29155388
53	0xbe859fb1	-0.26098397
54	0xbe964155	-0.2934672
55	0xbe41e34c	-0.18934363
56	0x3e4a079a	0.19729462
57	0xbe4dc570	-0.20094848
58	0xbe262cbd	-0.16228004
59	0xbaef8b00	-0.0018275678
60	0x3cb8c690	0.02255562
61	0xbe752b90	-0.23942399
62	0x3e5e323a	0.21698847
63	0xbba991c0	-0.0051748455
64	0x3e607972	0.21921328
65	0xbe0b699d	-0.13614507
66	0xbe1cb361	-0.15302803
67	0xbe96e5d6	-0.29472226
68	0xbe4c9246	-0.19977674
69	0xbe068d8b	-0.13139932
70	0x3e7c761a	0.24654427
71	0x3e1eadbe	0.15495965
72	0xbd9d1b54	-0.07671228
73	0xbe962a30	-0.29329062
74	0xbe5e582e	-0.21713325
75	0xbd64da08	-0.055871993
76	0x3e246762	0.16055062
77	0x3da9a6b0	0.08283746
78	0x3e246b3a	0.16056529
79	0x3d6d6758	0.057959884
80	0xbde76daa	-0.11300214
81	0xbe082078	-0.13293636
82	0x3e1baa52	0.15201691
83	0xbe1bc1a7	-0.15210591
84	0x3e972867	0.29523012
85	0x3d8759ec	0.06608948
86	0x3d625158	0.055253357
87	0x3e251b06	0.1612359
88	0x3dd6b0cc	0.1048294
89	0x3e0e7198	0.1391052
90	0x3d193f38	0.037413806
91	0x3dd2679c	0.10273668
92	0x3e155000	0.14581299
93	0x3e08970c	0.1333887
94	0x3e1d60a2	0.15368894
95	0xbe2a2469	-0.16615452
96	0x3e28a3de	0.1646876
97	0xbd85d4d0	-0.065347314
98	0xbdecbf90	-0.11559975
99	0x3e3a9d80	0.18224144

net.14.bias f4 [10]
0	0x3db4e7c4	0.08833268
1	0xbc51dbc0	-0.01280874
2	0x3c556cc0	0.013026416
3	0x3e19f234	0.150338
4	0x3cdaf620	0.02672869
5	0x3e36f0f8	0.1786536
6	0xbe984ab4	-0.29744494
7	0x3e1e6e32	0.15471724
8	0xbe7241e8	-0.23657954
9	0xbe8e4e79	-0.27794245

net.16.weight f4 [10, 10]
0	0xbe3c0412	-0.18360928
1	0xbc8b3d80	-0.016997099
2	0xbea04ef5	-0.3131024
3	0xbe2e66a8	-0.17031348
4	0x3e0f5ac6	0.13999471
5	0x3e989ad3	0.29805622
6	0xbe0e9837	-0.13925253
7	0x3d4daa08	0.050210983
8	0xbe0f72f8	-0.14008701
9	0x3dfeb404	0.12436679
10	0x3e8b94ed	0.2726206
11	0x3e7ff776	0.24996743
12	0x3dae4de0	0.08510947
13	0x3e084c02	0.13310245
14	0x3da68e1c	0.08132574
15	0x3dc41b38	0.09575504
16	0x3e081b00	0.1329155
17	0x3e3c3a4a	0.1838161
18	0xbd95d496	-0.07315938
19	0x3e465262	0.19367364
20	0xbd1ea498	-0.038731188
21	0xbe647a54	-0.2231229
22	0x3df1de50	0.11809981
23	0x3e10ff4a	0.14159885
24	0xbd8c5ace	-0.06853257
25	0xbe9ac058	-0.30224872
26	0x3d28b8a8	0.041191727
27	0x3e98c5d5	0.29838434
28	0xbc1b60c0	-0.009483516
29	0x3e6e9cd2	0.2330201
30	0x3e9d01b1	0.30665353
31	0xbe2a562e	-0.16634437
32	0xbce84a10	-0.028355628
33	0x3e5f66ba	0.21816531
34	0x3d43f938	0.047845095
35	0x3d576958	0.052590698
36	0xbe3faedc	-0.18719047
37	0xbe841470	-0.25796843
38	0x3e03db08	0.12876523
39	0xbd1b0220	-0.037843823
40	0x3d480d78	0.04884097
41	0xbd457800	-0.048210144
42	0xbcd15740	-0.0255543
43	0x3de108e8	0.10988027
44	0xbdc39314	-0.09549537
45	0xbda05694	-0.078290135
46	0x3e93f3fb	0.2889708
47	0x3e99d237	0.30043194
48	0x3ca9f430	0.02074632
49	0x3d781948	0.060570985
50	0x3e1609f4	0.14652234
51	0x3d9365c8	0.071971476
52	0x3d130a40	0.035898447
53	0xbe7a9da2	-0.24474195
54	0x3d319bc8	0.043361455
55	0xbe8853c9	-0.26626423
56	0xbe28b0e2	-0.16473725
57	0x3e38cdf0	0.18047309
58	0xbe2a9801	-0.16659547
59	0xbe2ba425	-0.16761835
60	0xbe1f95dc	-0.1558451
61	0x3e931cb5	0.2873284
62	0xbe955840	-0.29168892
63	0x3d18fdb8	0.03735134
64	0x3c864be0	0.016393602
65	0xbe0c3682	-0.13692668
66	0x3d266f08	0.04063323
67	0xbdd2aedc	-0.10287258
68	0x3e3d2ff2	0.18475321
69	0x3e6ab7ea	0.2292172
70	0x3ea148ef	0.31500956
71	0x3e5567da	0.20840397
72	0xbdab23fe	-0.08356474
73	0x3e0e8232	0.13916853
74	0x3e4642e6	0.19361457
75	0x3dff7aec	0.12474617
76	0xbe34a0a4	-0.17639405
77	0xbe9c56d4	-0.30534995
78	0x3e003052	0.12518433
79	0xbda3f0c8	-0.0800491
80	0xbe86ae92	-0.26305062
81	0x3df419d8	0.11918992
82	0xbe8e56b0	-0.27800512
83	0x3e1f334c	0.15546912
84	0xbdc128ee	-0.09431635
85	0x3e817941	0.25287822
86	0x3d37b900	0.044854164
87	0x3d422840	0.047401667
88	0xbd4d4398	-0.05011329
89	0xbe24eaa1	-0.16105129
90	0xbd381d58	-0.04494986
91	0x3e4a1562	0.1973472
92	0xbc1c43c0	-0.009537637
93	0xbe89129e	-0.26772016
94	0x3e81e5c1	0.253706
95	0xbe8f2a45	-0.27961937
96	0xbde33fe4	-0.110961705
97	0xbe0ae43f	-0.13563631
98	0xbe890a1a	-0.2676552
99	0xbd40de00	-0.047086716

net.16.bias f4 [10]
0	0xbde6b410	-0.11264813
1	0xbe0f9ceb	-0.14024703
2	0x3da8d300	0.0824337
3	0x3e7aaac6	0.24479207
4	0x3e801d11	0.25022176
5	0x3e38af6e	0.18035671
6	0xbe95a43d	-0.29226866
7	0xbdabde0e	-0.08391963
8	0xbd9dd6d0	-0.07706988
9	0x3e6677fa	0.22506705

net.18.weight f4 [10, 10]
0	0x3e46f4c6	0.19429311
1	0xbe8f265f	-0.27958962
2	0x3e3ed5e2	0.18636277
3	0x3e9120f3	0.2834545
4	0xbe14e67d	-0.1454105
5	0x3e2f0ff2	0.17095926
6	0x3cba9a40	0.02277863
7	0x3d983a18	0.074329555
8	0xbe909c27	-0.28244135
9	0xbe2feb10	-0.17179513
10	0xbd3832b0	-0.044970214
11	0xbe3f274c	-0.18667334
12	0x3daefa28	0.08543807
13	0xbea18374	-0.31545603
14	0xbe63b542	-0.22237113
15	0xbe25de32	-0.16198042
16	0x3e5d71c6	0.21625432
17	0x3e9e88ff	0.30963895
18	0x3e1f1794	0.15536338
19	0xbe7c5e96	-0.24645457
20	0xbe9fb3af	-0.31191775
21	0xbe1fbcf9	-0.15599431
22	0xbe8ee20a	-0.2790683
23	0xbe1cd0dc	-0.15314049
24	0xbe322b6b	-0.17399375
25	0xbde6eb3e	-0.11275338
26	0xbe3f2ae0	-0.186687
27	0x3d66b9b0	0.05632943
28	0x3d1812d8	0.037127346
29	0xbe0b50a2	-0.13604978
30	0xbe0b3973	-0.13596134
31	0x3d19ea08	0.037576705
32	0xbe686cfe	-0.22697827
33	0x3dc344cc	0.09534606
34	0x3e78df66	0.2430397
35	0x3dbe4d60	0.09292102
36	0x3e6a0b2a	0.22855821
37	0xbd9efbe0	-0.07762885
38	0x3e234a40	0.15946293
39	0x3c001f00	0.007819891
40	0x3e4a6a1e	0.19767043
41	0x3e99ec7b	0.30063233
42	0x3e88dcbf	0.26730916
43	0x3e440a16	0.19144472
44	0xbe0cf71f	-0.13766144
45	0xbe1db990	-0.15402818
46	0xbe59ec61	-0.21281578
47	0xbe96784d	-0.29388657
48	0x3e059da6	0.1304842
49	0x3bfc6280	0.007702172
50	0x3d21e350	0.039523423
51	0x3e5149f6	0.2043837
52	0x3e809d3d	0.25119963
53	0x3d11bce8	0.035580546
54	0xbdd2472c	-0.10267481
55	0xbdadc6a0	-0.0848515
56	0xbe8dbb7e	-0.27682108
57	0xbdceb2ac	-0.10092673
58	0x3deed740	0.116621494
59	0xbdca2da6	-0.09871988
60	0x3d818ee4	0.06326082
61	0x3ea1c349	0.31594303
62	0x3e28ce16	0.16484866
63	0x3e2a238e	0.16615126
64	0xbe4fc84a	-0.20291248
65	0xbb9ec000	-0.0048446655
66	0x3e5c3b86	0.21507081
67	0x3dc8f404	0.09812167
68	0xbe61f2c6	-0.22065267
69	0x3c2908a0	0.010316998
70	0x3e362436	0.17787251
71	0x3e86962d	0.2628645
72	0x3e7c1c06	0.24620065
73	0xbd71d7e0	-0.059043765
74	0xbdfc4468	-0.12317735
75	0xbce82ae0	-0.028340757
76	0x3e4401d6	0.19141325
77	0xbddc0026	-0.10742216
78	0x3e4c7bc2	0.19969085
79	0xbe8d628a	-0.27614242
80	0x3d5906f0	0.05298513
81	0x3d623f80	0.05523634
82	0xbe98dc7b	-0.29855713
83	0xbe897e32	-0.26854092
84	0x3df664f8	0.12030977
85	0x3e3c26a0	0.1837411
86	0x3d4820f8	0.048859566
87	0x3da91848	0.082565844
88	0x3da221c4	0.079165965
89	0xbe128bc3	-0.14311127
90	0x3e31bed0	0.17357945
91	0xbe3b8ef2	-0.18316248
92	0xbe60608d	-0.21911831
93	0x3dad41e8	0.08459836
94	0x3e62ae62	0.22136834
95	0xbb8a91c0	-0.0042288005
96	0x3e7ceb96	0.24699244
97	0x3e0147c8	0.12625039
98	0x3e153cdc	0.14573997
99	0xbe8745d1	-0.26420453

net.18.bias f4 [10]
0	0x3dd0c49c	0.1019375
1	0x3cff0200	0.031128883
2	0x3d4d5290	0.050127566
3	0x3e359514	0.1773265
4	0x3e4a6836	0.19766316
5	0x3e5d938e	0.21638319
6	0xbe7d8860	-0.24759054
7	0x3e72277a	0.23647872
8	0x3e994bbb	0.2994059
9	0x3e9f294f	0.31086203

net.20.weight f4 [10, 10]
0	0xbe810b6e	-0.25204033
1	0x3e9fa93f	0.31183812
2	0x3e5c5f1a	0.21520653
3	0xbe92274b	-0.28545603
4	0x3cb17f50	0.021667153
5	0xbe77bb10	-0.24192452
6	0x3e8948c5	0.2681333
7	0x3e7fca0a	0.24979416
8	0x3e9689f1	0.29402116
9	0x3de19d1c	0.11016294
10	0xbe40747c	-0.18794435
11	0x3e1c8c68	0.15287936
12	0x3c111820	0.0088558495
13	0x3d146ad0	0.036234677
14	0xbe0ac2d0	-0.13550878
15	0xbd422430	-0.047397792
16	0xbe7f4a08	-0.24930584
17	0x3e942ea9	0.2894185
18	0xbe003325	-0.1251951
19	0xbe968072	-0.2939487
20	0xbd9e9890	-0.07743943
21	0x3e8a6a0b	0.2703403
22	0x3dee2060	0.11627269
23	0xbe73b164	-0.23798138
24	0xbe51a2db	-0.2047228
25	0xbe9de4e3	-0.3083869
26	0x3e8318b1	0.25604776
27	0xbe165935	-0.14682467
28	0xbe17b581	-0.14815332
29	0xbe5b93fc	-0.2144317
30	0xbe9ed457	-0.31021377
31	0xbaa83200	-0.0012832284
32	0x3dc241dc	0.09485218
33	0x3e88eed9	0.26744726
34	0xbcd8d2e0	-0.02646774
35	0x3e23fb12	0.16013744
36	0xbd85e5f0	-0.06537998
37	0x3e8c41ab	0.2739385
38	0x3e865787	0.26238653
39	0x3e53fcc2	0.20701888
40	0xbda6a310	-0.081365705
41	0x3dd9002c	0.10595736
42	0xbe59c8ba	-0.21267977
43	0x3e8643ed	0.26223698
44	0xbda9d636	-0.082928106
45	0xbe6dedf9	-0.2323531
46	0x3e4f3dea	0.20238462
47	0x3d9119b0	0.070849776
48	0x3c6fffa0	0.014648348
49	0x3e884463	0.26614675
50	0x3e53ed46	0.20695981
51	0xbce5dd50	-0.028059632
52	0x3e10786c	0.14108437
53	0x3da7356c	0.08164486
54	0x3e565176	0.20929512
55	0x3dee60a0	0.116395235
56	0xbd840e1c	-0.06448004
57	0x3e0886b0	0.13332629
58	0xbe23c42a	-0.159928
59	0xbd7348a0	-0.059395432
60	0xbe17c4c0	-0.14821148
61	0x3e05bf22	0.13061193
62	0x3db19460	0.086708784
63	0x3c1833c0	0.009289682
64	0x3e8bc259	0.27296713
65	0xbe8517fe	-0.25994867
66	0xbc6a5500	-0.014302492
67	0xbc9a6b40	-0.018849969
68	0xbe6c35c9	-0.23067392
69	0xbdfb1e70	-0.12261665
70	0xbe547bc0	-0.20750332
71	0xbe1566f8	-0.1459006
72	0xbe4c9c18	-0.1998142
73	0xbe82b603	-0.2552949
74	0xbe2369d5	-0.1595834
75	0x3e8039ef	0.250442
76	0x3e43262e	0.19057533
77	0xbe180789	-0.14846624
78	0x3e738fea	0.23785368
79	0x3e8aa2e3	0.27077398
80	0xbe4afe32	-0.1982353
81	0x3daf88e0	0.08571029
82	0x3df1ba68	0.11803132
83	0x3e464fea	0.19366422
84	0x3cb08e80	0.021552324
85	0x3e3d038a	0.18458381
86	0x3d63b360	0.055590987
87	0xbe8400d0	-0.2578187
88	0x3e77b3d6	0.24189696
89	0xbdf60f02	-0.12014581
90	0xbd07e1f0	-0.033174455
91	0x3be15c40	0.006877452
92	0xbd826228	-0.06366378
93	0x3e192c76	0.14958367
94	0xbe76cff8	-0.24102771
95	0xbde871ba	-0.113498166
96	0xbd150268	-0.036379248
97	0x3e88447d	0.26614752
98	0xbe7211fd	-0.23639674
99	0xbe5e0a62	-0.21683648

net.20.bias f4 [10]
0	0x3d080d28	0.03321567
1	0xbe5f82c6	-0.2182723
2	0x3e9a3c3f	0.3012409
3	0xbc2b9d60	-0.010474533
4	0xbe04fc3e	-0.12986848
5	0x3e81286b	0.2522615
6	0xbcf14f10	-0.029456645
7	0xbd97ed2c	-0.07418284
8	0x3e260680	0.16213417
9	0xbd5fea68	-0.054666907

net.22.weight f4 [10, 10]
0	0x3e033a5c	0.12815231
1	0x3d51bfe0	0.051208377
2	0xbdddcbd8	-0.10829896
3	0xbd91618a	-0.07098682
4	0x3e19a45e	0.15004107
5	0x3d83d458	0.06436986
6	0x3dc2fb08	0.09520537
7	0x3df842dc	0.121221274
8	0xbe1c1546	-0.1524249
9	0xbd030918	-0.031991094
10	0xbe610486	-0.21974382
11	0x3e84535d	0.2584485
12	0x3c128140	0.008941948
13	0xbe8fcfa6	-0.2808811
14	0xbc2af6e0	-0.010434836
15	0x3cdba1e0	0.026810586
16	0x3e27437e	0.1633434
17	0x3e5c4d4a	0.21513858
18	0x3e2c8484	0.16847426
19	0xbd18b5d0	-0.037282765
20	0xbbd2eb40	-0.0064367354
21	0xbe73d342	-0.23811057
22	0x3e638fb2	0.22222784
23	0xbe2b9e37	-0.16759573
24	0x3ba5d200	0.0050604343
25	0xbdd48f86	-0.103789374
26	0x3dea8700	0.114515305
27	0xbd0c9f88	-0.03433183
28	0x3e8188cd	0.25299683
29	0xbcfc2530	-0.030779451
30	0xbe679ede	-0.22619197
31	0xbe274b4d	-0.16337319
32	0x3e720826	0.23635921
33	0xbe75bdc0	-0.23998165
34	0xbc68bd20	-0.014205247
35	0x3e915c2f	0.28390643
36	0x3e8ff6e5	0.28118053
37	0xbe928ff7	-0.2862546
38	0xbbcbd280	-0.006220162
39	0xbde953f8	-0.11392969
40	0xbe6394de	-0.22224757
41	0x3e3e04ea	0.18556562
42	0x3e933867	0.2875397
43	0x3df256c4	0.118329555
44	0x3e14befc	0.1452598
45	0x3e639dfe	0.22228238
46	0xbe96f596	-0.29484242
47	0xbdd9402a	-0.106079414
48	0x3dc68750	0.096937776
49	0x3d391dc0	0.045194387
50	0x3dbbddd4	0.0917317
51	0xbd901bf6	-0.07036583
52	0xbe8b9c11	-0.27267507
53	0xbcebf640	-0.028803945
54	0x3e17ab04	0.14811331
55	0xbe451e25	-0.1924978
56	0xbe2b8856	-0.16751227
57	0x3dd97364	0.10617712
58	0xbe34a05e	-0.176393
59	0x3e1becd4	0.15227062
60	0x3e3681ec	0.17822999
61	0xbdd2b668	-0.102886975
62	0x3e881611	0.26579335
63	0xbe85f8ea	-0.2616647
64	0xbe9e645f	-0.30935952
65	0xbe2dbd03	-0.16966633
66	0xbb022700	-0.0019859672
67	0x3c6938a0	0.014234692
68	0x3e67e2c2	0.22645095
69	0xbccf02f0	-0.025269955
70	0x3e37adb6	0.17937359
71	0xbe2ee171	-0.17078187
72	0xbe05fc42	-0.1308451
73	0xbd9544ce	-0.07288514
74	0x3e96e48f	0.2947125
75	0x3e6f4b82	0.23368648
76	0x3e78449e	0.24244925
77	0x3e826cf3	0.25473747
78	0xbe00f33e	-0.1259279
79	0xbcaaa040	-0.020828366
80	0x3e91abcf	0.28451392
81	0x3df51578	0.119669855
82	0xbe5102c4	-0.20411211
83	0x3e8019f9	0.25019816
84	0x3e72636a	0.23670736
85	0xbe1bddba	-0.152213
86	0xbd950e1e	-0.07278083
87	0xbe8ac72c	-0.2710508
88	0x3e7a91ee	0.2446973
89	0x3ea070ab	0.3133596
90	0x3e867725	0.26262775
91	0x3e250786	0.16116151
92	0xbe362454	-0.17787296
93	0xbe5da4fc	-0.21644968
94	0x3c44bde0	0.01200816
95	0x3e0901cc	0.13379592
96	0x3e97e8a3	0.29669675
97	0x3e5f935a	0.21833554
98	0xbe925ff3	-0.28588828
99	0x3e203a70	0.15647292

net.22.bias f4 [10]
0	0xbb6e8580	-0.003639549
1	0x3e1f4dbc	0.15556997
2	0x3e019414	0.12654144
3	0x3cd8e980	0.026478529
4	0x3db6358c	0.08896932
5	0xbce62450	-0.028093487
6	0xbe5c30ba	-0.21502963
7	0x3e5573ee	0.20845005
8	0x3d0ea868	0.034828573
9	0xbdfeecda	-0.124475196

net.24.weight f4 [10, 10]
0	0xbe2ba422	-0.1676183
1	0x3e309626	0.17244777
2	0xbe5ad837	-0.21371542
3	0xbddb4f5a	-0.107084945
4	0xbe92bf16	-0.28661412
5	0x3e0c5ef0	0.13708091
6	0xbd604f20	-0.05476296
7	0xbbf72400	-0.0075421333
8	0xbb8ca600	-0.0042922497
9	0xbe846e29	-0.25865296
10	0x3e8f65a3	0.2800723
11	0x3e95310f	0.2913899
12	0x3deda238	0.116032064
13	0x3e03a768	0.12856829
14	0xbcffa3a0	-0.031205952
15	0xbe36261e	-0.17787978
16	0xbe748460	-0.23878622
17	0xbd3e5eb8	-0.04647705
18	0x3e184f54	0.14874011
19	0x3c545c80	0.012961507
20	0xbcd686e0	-0.02618736
21	0x3dff8e28	0.12478286
22	0xbe5e3ffa	-0.21704093
23	0xbe423e5a	-0.18969098
24	0x3e0baa8a	0.13639274
25	0xbe0a7758	-0.13522089
26	0xbe3642aa	-0.17798868
27	0xbb9d6c00	-0.0048041344
28	0x3e54954a	0.20760074
29	0x3d1d97c8	0.038474828
30	0xbe9698e1	-0.29413512
31	0xbe01333d	-0.12617202
32	0xbe7093a9	-0.23493828
33	0x3e7c2d8a	0.24626747
34	0x3b255880	0.0025229752
35	0xbdfea2fa	-0.12433429
36	0xbe925125	-0.28577533
37	0xbd9b9f10	-0.07598698
38	0x3d017668	0.03160706
39	0xbe9ba581	-0.30399707
40	0xbda645c8	-0.081187785
41	0xbe1a9e51	-0.15099455
42	0xbe0795b9	-0.13240708
43	0x3d71b500	0.059010506
44	0x3d676f70	0.05650276
45	0x3e0284a8	0.12745917
46	0xbe9d4d72	-0.3072315
47	0x3e80c795	0.2515227
48	0x3e53a5ea	0.2066876
49	0x3dd47ea4	0.10375717
50	0xbe401c83	-0.18760876
51	0xbdedc3d2	-0.116096154
52	0x3ea013f9	0.31265238
53	0x3c9bef00	0.019034863
54	0x3e8ec3f9	0.2788389
55	0x3e8ddb59	0.2770641
56	0x3c8b7070	0.017021388
57	0xbd9f55de	-0.0778005
58	0xbdf33d7e	-0.11876963
59	0xbcc260e0	-0.023727834
60	0xbd120550	-0.035649598
61	0xbe74a4f8	-0.23891056
62	0xbea12a9a	-0.31477815
63	0x3da23d60	0.079218626
64	0x3e9bbc9b	0.30417332
65	0xbe95e12e	-0.2927336
66	0xbd8bb4f2	-0.06821622
67	0x3dc6bb20	0.0970366
68	0x3d79d040	0.06098962
69	0xbdb4ae70	-0.08822334
70	0xbe81869b	-0.25298008
71	0x3dba008c	0.090821356
72	0xbe980348	-0.29690003
73	0x3ddbdd60	0.10735583
74	0x3e6c5782	0.23080257
75	0xbd4b86e0	-0.049689174
76	0xbdfa6234	-0.12225762
77	0x3e47f59e	0.1952729
78	0x3dd418ec	0.10356316
79	0xbe524c80	-0.20536995
80	0x3e26dd4e	0.16295359
81	0x3dc51ff0	0.09625232
82	0xbd84b214	-0.06479278
83	0x3e6371de	0.22211406
84	0x3d997ac4	0.07494119
85	0xbc318b40	-0.010836422
86	0xbe6fcf66	-0.2341896
87	0xbe0565b4	-0.13027078
88	0x3d86039c	0.06543657
89	0xbd548858	-0.05188784
90	0x3e7d6aea	0.24747816
91	0x3e6c99aa	0.23105493
92	0xbe73fd3d	-0.23827071
93	0x3dc171a4	0.09445503
94	0xbc38c540	-0.011277497
95	0x3e409526	0.18806896
96	0xbcc2c8a0	-0.023777306
97	0xbdce3590	-0.1006881
98	0xbe481670	-0.19539809
99	0x3e72f062	0.23724511

net.24.bias f4 [10]
0	0x3e908191	0.2822385
1	0x3c5d94c0	0.013524234
2	0xbdaab56e	-0.08335386
3	0xbe82eaef	-0.25569865
4	0xbe727dec	-0.23680848
5	0xbc92d8a0	-0.01792556
6	0x3dd12404	0.102119476
7	0x3ea1d401	0.3160706
8	0x3e388cd8	0.18022478
9	0xbdeea7ae	-0.11653076

net.26.weight f4 [10, 10]
0	0xbdcf5b10	-0.10124791
1	0xbdc84c64	-0.09780195
2	0xbe823b60	-0.25435925
3	0xbd6b3a98	-0.057428926
4	0xbd7f4c60	-0.062328696
5	0xbe66a61e	-0.22524306
6	0xbe80fe9c	-0.25194252
7	0x3cb28f90	0.021796972
8	0xbd873970	-0.06602752
9	0x3ea0633b	0.31325707
10	0x3e891349	0.26772526
11	0xbe0e55fa	-0.13899985
12	0xbe8fc0a0	-0.2807665
13	0x3e23b762	0.15987924
14	0xbe40dd97	-0.1883453
15	0xbdb776f0	-0.089582324
16	0x3e0bc7bc	0.13650411
17	0x3e6a22ee	0.22864887
18	0xbe1f1d36	-0.15538487
19	0xbe923d7c	-0.28562534
20	0x3ddbab2c	0.10726008
21	0xbea01997	-0.31269524
22	0x3e8abda3	0.27097806
23	0x3ddd0328	0.10791618
24	0xbc8eb0e0	-0.017418325
25	0xbe3206c9	-0.17385401
26	0xbd960ecc	-0.07327041
27	0xbe87c30e	-0.26516002
28	0xbdfb9292	-0.122838154
29	0xbe19e748	-0.15029633
30	0xbe938cc5	-0.28818336
31	0x3e971de7	0.29515
32	0x3d6344a0	0.055485368
33	0xbe7c76ac	-0.24654645
34	0x3c57ca00	0.013170719
35	0xbcb45c50	-0.022016674
36	0xbe4bf0d9	-0.19916095
37	0x3b97ae80	0.0046289563
38	0x3e0802d8	0.13282335
39	0xbe7bee96	-0.24602732
40	0x3e1e6396	0.15467677
41	0xbe90edaa	-0.28306323
42	0xbe2d8ad2	-0.16947487
43	0x3e93a565	0.28837124
44	0x3e17cb7c	0.14823717
45	0xbdf945c6	-0.12171511
46	0xbe869030	-0.2628188
47	0xbe5278d8	-0.2055391
48	0xbe849680	-0.25896072
49	0xbe94bd2e	-0.29050583
50	0xbe81c479	-0.2534521
51	0xbe8e7075	-0.27820173
52	0xbe6f2992	-0.23355702
53	0x3d937374	0.07199755
54	0x3e2110d6	0.15729079
55	0x3c083e60	0.008315653
56	0xbd258748	-0.040412217
57	0xbb19da00	-0.0023475885
58	0xbe24165d	-0.16024156
59	0x3dbe433c	0.09290168
60	0x3e3c3e6a	0.18383184
61	0x3e183e74	0.14867574
62	0xbd694e40	-0.05695939
63	0xbe3be6a4	-0.18349701
64	0x3e30d57c	0.17268938
65	0xbddd9100	-0.10818672
66	0xbe605210	-0.21906304
67	0xbe43b8a9	-0.19113411
68	0xbe972906	-0.29523486
69	0x3d4108e8	0.047127634
70	0xbe3bb563	-0.18330912
71	0xbe2cbe4a	-0.16869465
72	0xbe9f0968	-0.31061864
73	0x3e424f0e	0.1897547
74	0xbdb2ff16	-0.0874006
75	0xbe42e40e	-0.19032308
76	0xbe53552c	-0.20637959
77	0xbe8c9071	-0.2745395
78	0xbe7cca5a	-0.24686566
79	0xbd19a5d8	-0.037511677
80	0x3e000f02	0.12505725
81	0xbd9c5d8e	-0.07635032
82	0x3e377a06	0.17917642
83	0x3e8161df	0.25269982
84	0x3dd21e7c	0.10259721
85	0x3dd75740	0.105146885
86	0x3e6c80fe	0.23096082
87	0xbe8cb965	-0.27485195
88	0xbe0a766f	-0.13521741
89	0x3e824687	0.25444433
90	0xbd931f6c	-0.071837276
91	0x3e362aa6	0.17789707
92	0xbe2a8cab	-0.16655223
93	0x3b0ab380	0.002116412
94	0x3e947611	0.28996328
95	0xbe4f795e	-0.20261142
96	0x3e96cc25	0.29452625
97	0x3e84b917	0.25922462
98	0xbd457538	-0.04820749
99	0x3e845c7d	0.25851813

net.26.bias f4 [10]
0	0x3bf5c780	0.007500589
1	0xbe9621a1	-0.29322532
2	0x3e383246	0.17987928
3	0xbe4442b4	-0.1916607
4	0xbe411532	-0.18855742
5	0xbe1d8eee	-0.15386555
6	0xbc469960	-0.012121528
7	0x3d8f6bb0	0.07002962
8	0x3d634c58	0.05549273
9	0x3e22cd72	0.15898684

net.28.weight f4 [10, 10]
0	0xbea05c7c	-0.3132056
1	0xbd023988	-0.031793147
2	0x3e64845e	0.22316119
3	0x3cc8f3f0	0.024530381
4	0xbe96b7b3	-0.29437026
5	0x3e23891c	0.15970272
6	0xbe9683d8	-0.29397464
7	0x3e83a55d	0.257121
8	0xbd684b88	-0.056712657
9	0xbdd683a4	-0.10474327
10	0x3e0d4c1a	0.13798562
11	0x3c02e1a0	0.0079883635
12	0x3d081a90	0.033228457
13	0x3e088aa0	0.13334131
14	0x3e157410	0.14595056
15	0xbe3ce8d2	-0.18448189
16	0xbd4bd498	-0.049763292
17	0xbcc133d0	-0.023584276
18	0xbe07b9c8	-0.13254464
19	0x3e35e3fe	0.17762753
20	0x3e0c7d7a	0.1371974
21	0x3de04480	0.10950565
22	0xbea0dee6	-0.31420058
23	0xbe575399	-0.21027984
24	0xbe5e094c	-0.21683234
25	0x3e50d50e	0.20393774
26	0xbd114920	-0.035470128
27	0x3e94d25f	0.2906675
28	0x3d921e2c	0.07134661
29	0x3dcd397c	0.1002073
30	0x3db1dc3c	0.086845845
31	0xbe3a2fdd	-0.18182321
32	0x3d1b1f68	0.03787175
33	0xbe88d7c3	-0.26727113
34	0xbd167250	-0.03673011
35	0xbe89eee9	-0.26940086
36	0x3e8be049	0.27319553
37	0x3e4e8a76	0.20170006
38	0x3e6fc55e	0.23415133
39	0x3e22bbe6	0.1589199
40	0x3e3cfe4a	0.18456379
41	0xbe669ba7	-0.22520314
42	0xbe626762	-0.2210975
43	0xbe8f2c35	-0.27963415
44	0xbe939b9f	-0.28829667
45	0xbe00f4dd	-0.12593408
46	0xbde1ea9a	-0.11031075
47	0x3d0ad0d0	0.033890545
48	0x3d385648	0.04500416
49	0xbe1da296	-0.15394053
50	0xbc6159e0	-0.013754338
51	0xbe9348d9	-0.28766516
52	0x3dd751ec	0.10513672
53	0xbea0c08f	-0.3139691
54	0xbe884d8d	-0.26621667
55	0x3e671eba	0.22570315
56	0x3e9ac385	0.30227295
57	0x3ca853e0	0.020547807
58	0x3e69683e	0.22793671
59	0x3daa0e10	0.083034635
60	0x3e606ef2	0.21917322
61	0xbe598128	-0.21240675
62	0xbe010b0a	-0.12601867
63	0x3e6b3ed2	0.22973183
64	0x3e8fbd3d	0.28074065
65	0xbe3cc3cd	-0.18434067
66	0xbd599560	-0.05312097
67	0xbe63ffbb	-0.22265522
68	0xbe0740c2	-0.13208297
69	0xbe518399	-0.20460357
70	0xbe828b93	-0.25497112
71	0xbe4f4bf3	-0.20243816
72	0x3e61e40a	0.22059646
73	0x3b59c080	0.0033226311
74	0xbc99f900	-0.01879549
75	0xbd2978c0	-0.04137492
76	0x3d87d23c	0.06631896
77	0x3e1ebcc0	0.1550169
78	0xbe87eb39	-0.26546648
79	0x3e914057	0.283694
80	0xbe9c54ca	-0.3053344
81	0x3d0edc60	0.034878135
82	0xbe37a56a	-0.17934194
83	0xbdebc998	-0.1151306
84	0x3e9a41a1	0.30128196
85	0xbd63e638	-0.055639476
86	0xbe84c03d	-0.25927916
87	0xbc5d44a0	-0.013505131
88	0xbd928f1a	-0.07156201
89	0xbe9e9f05	-0.30980697
90	0x3e80aa5f	0.25129983
91	0x3d1c02a0	0.03808844
92	0x3d1704e0	0.036869884
93	0xbe38baea	-0.18040052
94	0xbe86bac0	-0.26314354
95	0xbe09f3b7	-0.13471876
96	0xbe4eea2d	-0.20206518
97	0x3d62af78	0.05534312
98	0x3d1d7470	0.03844112
99	0x3e2b7eaa	0.16747537

net.28.bias f4 [10]
0	0xba079a00	-0.0005172789
1	0x3e28ff42	0.16503623
2	0x3ca5c950	0.020237595
3	0xbd236c38	-0.039898127
4	0xbd57f890	-0.052727282
5	0xbd565f10	-0.052336752
6	0xbcd0b3e0	-0.025476396
7	0xbe7d974a	-0.24764743
8	0x3d1c7000	0.03819275
9	0x3e6284ae	0.22120926

net.30.weight f4 [10, 10]
0	0x3e4caa7a	0.19986907
1	0xbe7cc471	-0.24684311
2	0x3e868785	0.26275268
3	0x3e3a8f7e	0.182188
4	0x3d1dda28	0.03853813
5	0xbe6fc7ac	-0.23416013
6	0xbe27cb5f	-0.16386174
7	0x3d418f60	0.047255874
8	0x3c777360	0.015103191
9	0x3e4c8d26	0.19975719
10	0x3e5ff9da	0.21872655
11	0xbe2bc380	-0.16773796
12	0x3e359052	0.17730835
13	0xbd34d368	-0.044146925
14	0x3e83fe6d	0.2578005
15	0x3e3c8702	0.18410876
16	0xbe11a1da	-0.14221898
17	0xbe3260b4	-0.17419702
18	0x3e9eb897	0.31000206
19	0xbdabd66c	-0.08390507
20	0xbe309c7a	-0.17247191
21	0xbde39dac	-0.11114058
22	0x3e8daabf	0.2766933
23	0xbddd6a20	-0.10811257
24	0xbe9179c5	-0.28413215
25	0x3e995153	0.29944858
26	0xbe13c2f8	-0.14429843
27	0x3d7d6230	0.061861217
28	0xbdfbce1e	-0.12295173
29	0x3e6efcf2	0.23338678
30	0xbda7f156	-0.08200328
31	0x3cee5b40	0.029096246
32	0xbd83d04c	-0.06436214
33	0xba910a00	-0.0011065602
34	0xbe088438	-0.13331687
35	0x3e80022f	0.25001666
36	0x3bb9ea40	0.0056736767
37	0x3e878f57	0.26476547
38	0xbe9f60e2	-0.31128603
39	0xbe5b6534	-0.21425325
40	0x3d004770	0.031318128
41	0xbe109342	-0.14118674
42	0xbc4492e0	-0.011997908
43	0xbe8645e7	-0.26225206
44	0xbe1fcf5d	-0.15606447
45	0xbdeea6f8	-0.116529405
46	0x3e95f4db	0.29288372
47	0x3da74114	0.081667095
48	0xbe5567f6	-0.20840439
49	0xbe8c7086	-0.274296
50	0x3e216cd8	0.15764177
51	0xbda55476	-0.0807275
52	0xbde860ec	-0.113466114
53	0x3e993b83	0.29928216
54	0xbe3f79b7	-0.18698774
55	0x3e1547a4	0.1457811
56	0x3dfc237c	0.123114556
57	0xbdb6f5be	-0.0893359
58	0x3c7bee80	0.015376687
59	0x3de5f9c4	0.1122928
60	0x3e20b120	0.15692568
61	0xbe8a404f	-0.2700219
62	0x3e7f0a0a	0.24906173
63	0xbe530ce6	-0.20610389
64	0x3d4eb178	0.050462216
65	0x3dfc5f1c	0.12322828
66	0xbe7073e4	-0.23481709
67	0xbe9417cc	-0.28924406
68	0x3e6d8ada	0.23197499
69	0xbd5eb510	-0.054371893
70	0xbe968c9b	-0.29404148
71	0xbd93706a	-0.07199176
72	0xbe8cdb80	-0.27511215
73	0x3ddb23a8	0.1070016
74	0x3cf7c750	0.030246407
75	0xbe4a36f8	-0.19747531
76	0x3e8d7621	0.27629188
77	0xbdbce100	-0.09222603
78	0x3dfd12f8	0.123571336
79	0xbd75be20	-0.05999577
80	0x3e10b49c	0.14131397
81	0x3e35246c	0.17689675
82	0xbe66c192	-0.22534779
83	0xbe6d252b	-0.2315871
84	0xbd766010	-0.060150206
85	0x3e94fca7	0.29099008
86	0xbcefc2c0	-0.029267669
87	0x3e449cde	0.19200465
88	0xbcb0c640	-0.021578908
89	0xbe9e3d4d	-0.30906144
90	0x3e3b99e0	0.18320417
91	0xbde5f162	-0.11227681
92	0xbe335e47	-0.17516433
93	0x3e31e0de	0.17370936
94	0xbe1e125d	-0.15436693
95	0xbe7a3225	-0.24433191
96	0x3e64d35a	0.22346249
97	0xbe90b849	-0.28265598
98	0xbd921c7c	-0.07134339
99	0xbe784e32	-0.24248579

net.30.bias f4 [10]
0	0x3e5e3d0e	0.21702978
1	0xbe15900c	-0.14605731
2	0x3e0a91fa	0.13532248
3	0x3d93365c	0.071881026
4	0xbe80f12a	-0.25183994
5	0xbe050cc9	-0.12993158
6	0x3e152df0	0.14568305
7	0xbcc6e4c0	-0.024278998
8	0x3d330f98	0.043716043
9	0x3e0e2b72	0.1388376

net.32.weight f4 [10, 10]
0	0xbe30613e	-0.17224595
1	0xbe41073c	-0.18850416
2	0x3d38ed80	0.045148373
3	0xbe119281	-0.14216043
4	0xbd9982ac	-0.07495627
5	0x3e53f8ce	0.2070038
6	0xbd0da1d0	-0.034578145
7	0xbde00a86	-0.10939507
8	0xbe07c884	-0.13260084
9	0xbd406d98	-0.046979517
10	0x3dbdbbd0	0.09264338
11	0x3e1c3c4c	0.15257376
12	0x3e47b31e	0.19501922
13	0xbc511120	-0.012760431
14	0xbe3d3bcd	-0.18479843
15	0xbd63d6a8	-0.055624634
16	0x3e79c352	0.24390915
17	0xbe24712b	-0.16058795
18	0x3d5c42a8	0.053774506
19	0x3e863c61	0.2621794
20	0x3e739efe	0.2379112
21	0x3e5273ce	0.20551988
22	0xbd9b37c2	-0.07578994
23	0xbe263aa4	-0.16233307
24	0xbe9abdc6	-0.3022291
25	0x3d5937f0	0.05303186
26	0x3b282b00	0.0025660396
27	0xbe58f34a	-0.21186557
28	0xbdd4be68	-0.103878796
29	0x3ea1b515	0.31583467
30	0x3e7eaa22	0.24869588
31	0x3e14922c	0.14508885
32	0xbdf054b4	-0.11734906
33	0xbe68e592	-0.22743824
34	0x3d3cb2e8	0.046069056
35	0x3d864ecc	0.06557998
36	0xbcd58f90	-0.026069432
37	0xbe40859c	-0.18800968
38	0xbe95802d	-0.29199353
39	0x3de544f0	0.111947894
40	0xbe2d8a11	-0.169472
41	0xbe067c03	-0.13133244
42	0x3e72794a	0.2367908
43	0x3e224ff2	0.15850809
44	0x3e85fbe9	0.26168755
45	0xbe95d5a8	-0.2926457
46	0xbe9f05d3	-0.3105913
47	0xbdba4cdc	-0.09096691
48	0xbe031fa0	-0.12805033
49	0x3e278c7e	0.16362187
50	0x3dca49f8	0.0987739
51	0xbe7dabd8	-0.24772584
52	0x3e4a3cea	0.197498
53	0xbe37acba	-0.17936984
54	0x3dfea9d0	0.12434733
55	0xbe520ecf	-0.20513462
56	0xbe8ff149	-0.28113773
57	0x39866400	0.00025632977
58	0x3e7ebfd2	0.24877861
59	0x3e138ba4	0.14408737
60	0xbe9d4603	-0.30717477
61	0xbb2a1380	-0.0025951564
62	0x3e7b205e	0.24524066
63	0x3e81632b	0.25270972
64	0x3e554946	0.20828733
65	0xbdf09a64	-0.11748198
66	0xbc0de400	-0.0086603165
67	0xbe4018fc	-0.18759531
68	0x3e8bfc45	0.27340904
69	0x3e41554e	0.18880197
70	0x3e901eaf	0.2814841
71	0xbdf348be	-0.11879109
72	0x3e845417	0.25845405
73	0xbdf32c3e	-0.11873673
74	0xbe2d5e03	-0.16930394
75	0x3da878dc	0.08226177
76	0xbe78d18d	-0.24298687
77	0x3be7d9c0	0.0070755184
78	0xbe09e00c	-0.13464373
79	0xbddcbd82	-0.10778333
80	0xbe388b55	-0.18021901
81	0xbdbd2ccc	-0.0923706
82	0xbd125560	-0.03572595
83	0xbe656ffa	-0.22405997
84	0xbc586300	-0.013207197
85	0xbdcbdbea	-0.09954055
86	0xbe9e18f8	-0.30878425
87	0xbe65b1ac	-0.22431058
88	0x3e501b1a	0.20322838
89	0xbcbcd120	-0.023048937
90	0xbe5176a0	-0.20455408
91	0x3e39d2a0	0.18146753
92	0x3e7b613a	0.24548808
93	0x3e724a3a	0.23661128
94	0xbe164613	-0.14675169
95	0x3e1c11d6	0.15241179
96	0x3e123abc	0.14280218
97	0x3e9ccf95	0.30627123
98	0x3db1f114	0.0868856
99	0xbe5a1ac4	-0.21299273

net.32.bias f4 [10]
0	0x3dd6a6dc	0.10481045
1	0xbe9ec34c	-0.31008375
2	0xbe8a4e5f	-0.27012917
3	0xbe9e4a06	-0.3091585
4	0x3daf8024	0.08569363
5	0x3e8bacd7	0.27280304
6	0xbe849a5c	-0.25899017
7	0x3df21be0	0.11821723
8	0xbe5feb7a	-0.21867171
9	0x3d60d9b0	0.054895103

net.34.weight f4 [10, 10]
0	0x3d9af628	0.07566482
1	0x3c82e5b0	0.015978664
2	0x3e178904	0.14798361
3	0x3cfb73c0	0.030694842
4	0x3c7c66e0	0.015405387
5	0x3e5c0ede	0.21490046
6	0x3e24a42c	0.16078252
7	0xbe7f3c5d	-0.2492537
8	0xbe6c2b12	-0.23063305
9	0x3e441d0a	0.19151703
10	0xbdc7690c	-0.09736833
11	0x3d7e0f00	0.062026024
12	0xbdb76ed6	-0.08956687
13	0x3e37ae56	0.17937598
14	0xbc26a5e0	-0.010171384
15	0xbd3e90b0	-0.046524704
16	0xbe278cf0	-0.16362357
17	0xbe736ecf	-0.23772739
18	0xbbf3d700	-0.0074414015
19	0x3bef5d40	0.0073048174
20	0xbc1370c0	-0.00899905
21	0xbe8860ca	-0.26636344
22	0xbe7080e0	-0.23486662
23	0x3e19c776	0.15017495
24	0xbce29e80	-0.02766347
25	0xbd9b6bae	-0.07588898
26	0x3e54c43a	0.2077798
27	0xbdb07056	-0.086151764
28	0xbe133dfc	-0.14379114
29	0x3e9a840f	0.30178878
30	0xbe4b3c62	-0.19847253
31	0x3c718580	0.014741302
32	0xbe0456f1	-0.1292379
33	0x3e204408	0.15650952
34	0x3d2f50c0	0.04280162
35	0x3e3b6226	0.1829916
36	0xbd418900	-0.047249794
37	0x3e6a990e	0.22909948
38	0x3e9a8ce1	0.30185607
39	0x3e3bd162	0.18341592
40	0xbe58684e	-0.21133539
41	0x3d782428	0.060581356
42	0x3e5656f6	0.2093161
43	0xbdf48674	-0.119397074
44	0x3e51b4a6	0.20479068
45	0x3e651cca	0.22374263
46	0xbe49c2ad	-0.19703169
47	0xbe9061dd	-0.28199664
48	0xbc411120	-0.011783868
49	0x3e166dca	0.14690319
50	0x3ea066e9	0.31328514
51	0xbe90f7d4	-0.28314078
52	0x3e6dfdb2	0.23241308
53	0xbe5e08b7	-0.21683012
54	0x3e562d1a	0.20915642
55	0xbd16eeb0	-0.036848724
56	0x3e9ba16f	0.30396602
57	0x3e10fe4a	0.14159504
58	0x3e436822	0.19082692
59	0xbe8f3fed	-0.2797846
60	0xbe6c9eb4	-0.23107415
61	0x3b9f2440	0.0048566163
62	0xbcad2d20	-0.021139681
63	0xbd448de0	-0.047986865
64	0xbdb98e36	-0.09060328
65	0xbe66942e	-0.22517464
66	0x3e8eca35	0.27888647
67	0xbe73eef3	-0.2382162
68	0x3d1d9f58	0.03848204
69	0xbc2fc660	-0.010728449
70	0xbe1727c1	-0.14761259
71	0xbe9d0c70	-0.30673552
72	0xbcd51200	-0.02600956
73	0x3d0c55d0	0.034261525
74	0x3e9895cf	0.29801795
75	0xbe638e41	-0.22222234
76	0xbea12a53	-0.31477603
77	0x3e8dda11	0.27705434
78	0xbe972d48	-0.29526734
79	0xbc6bd100	-0.014393091
80	0x3e818489	0.2529643
81	0xbe282d37	-0.16423498
82	0xbe5f72db	-0.21821158
83	0x3dc34c84	0.095360786
84	0x3c22a0c0	0.009926021
85	0xbe0bec37	-0.13664328
86	0xbe5133d4	-0.20429927
87	0x3e10f5a0	0.14156199
88	0x3e90b25b	0.28261074
89	0x3e8eb813	0.27874812
90	0x3c3de020	0.01158908
91	0xbe03af50	-0.12859845
92	0xbc66fee0	-0.014098853
93	0x3e60d92e	0.21957847
94	0x3ddfe3f4	0.109321505
95	0xbe370e81	-0.17876627
96	0x3e396082	0.18103221
97	0x3b327b00	0.0027233958
98	0x3e0c1438	0.13679588
99	0x3e67990e	0.2261698
