GPU_AE/model/wdgrl_6.pth (torch, 286016 bytes, 8 tensors)

net.0.weight f4 [500, 32]
00000000: 6930 12be 61c5 813d 8e05 08be f5b1 1cbe
00000010: 4b84 17be 4808 6cbd b226 7f3d b064 5d3d
00000020: 31eb 32be 4822 fbbd 660c d2bc cc01 03be
00000030: 04b8 b03d 312b 103d d6ff 1fbd 1151 f73d
00000040: 8e53 23be 4eeb 5e3d f212 b63c b1b7 b93d
00000050: 81c1 dbbc ebbb ea3d 4f02 47bd 85da 87bd
00000060: 3eed 37be 74f6 473d 7456 34be 341e 11be
00000070: 03e1 02be 67a6 9e3d 1703 57bc f13b 89bd
00000080: 5be3 babd 435c c73d ce20 1dbd 2fed 17be
00000090: a3d7 59bd d7c8 8bba 9ccf edbc 5cba d9bd
000000a0: a0e6 1bbe df19 d7bd ccd5 2f3d 3a35 b43d
000000b0: 7091 09bd a997 2ebe 234d 893c 5699 01be
000000c0: 4189 5abe fcff 1bbe 35c9 993d d100 d23d
000000d0: 1de8 a8ba a97e 53be 8d47 74bd b3b5 ab3d
000000e0: e398 babc f855 2a3d cfed 5dbe 7c41 ac3c
000000f0: 3a0c 2ebd 890f b2bb 82c6 7bbc 3f33 3ebe
00000100: 9ae7 adbb 8be6 05be 95da e4bd 4dad 2abe
00000110: d4e1 f43c a6e0 33be d5a2 43be ea38 9abd
00000120: 1fb3 d93d 6273 d73d 4e67 7c3c fd47 33be
00000130: 804c 46bc 3a20 0e3d 5cbf 0a3e c9e4 f2bd
00000140: 6c71 30bd 3877 3b3d c072 18be 1890 c8bc
00000150: 09b6 33be 48dc 97bd 9748 a73b 7af4 103e
00000160: cc5e 29bd 0305 cdbc 1963 673d 46ab f1bc
00000170: 2bd5 b8bd d55d 21be 661a bcbd c177 083e
00000180: ff42 3d3d bb3a 513b 4687 ddbc 246c d0bd
00000190: d1c0 7dbb ab28 e0bd b6d2 f7bc a3e2 c73b
000001a0: cdad d23c f327 88bd 353f 37bd 23a0 05be
000001b0: 2e2d 313c 312a 113d 0bd9 fd3c dc08 0cbe
000001c0: 1098 eabc 865c 09bc 67bb 07be 5c45 1cbd
000001d0: 01d8 f8bc 2890 f2bd 2ee6 11be 74a6 6cbd
000001e0: 9eb5 97bd bd14 0e3d 611a 09be 9344 ad3d
000001f0: 9264 2cbd c4aa d5bd 2510 e53d 3262 75bd
00000200: dac2 e2bd d32e 56bd 1323 1abd 6e36 1c3e
00000210: 0c97 d23c de76 2abe 5a58 d9bd c534 7d3d
00000220: 7807 68be 798c cfbd f0d7 b0bd 0593 20bd
00000230: 9768 febb d54a 2abe 6f20 3d3b d07d 693d
00000240: 8e82 153d 37c3 d8bc c313 58bc b5db 40be
00000250: ae2b 8abd 8000 793d c068 e6bd 05f4 813b
00000260: ed64 97bc 3f11 b33d e976 ffbd 47bd b8bd
00000270: 2352 60bd 0ec6 0abd d21a cd3c b869 2e3d
00000280: b489 bc3d 810b bebd 3e20 00be 4d3e ea3c
00000290: b540 fbbd b51f f4bd b96f a53d 1d1c 9cbd
000002a0: 83ea bebd ab38 01be a7de 09be 49d4 893c
000002b0: 14ef 70be c702 6b3d e7b9 a3bd 88ef 903d
000002c0: d795 393d 493a d03d 4a69 b7bc 5707 52be
000002d0: 0db2 d1bd b267 21be 0a41 8bbd fc7a aa3d
000002e0: 1461 c23c 6054 a7bd c64f 2fbe 8dd5 d23c
000002f0: 52ea 4cbd 8111 6b3c d00c 973d b1fe de3d
00000300: de15 2dbd 3b7a 6abd f4bf 04be abf7 673d
00000310: ae7c 89bd ba37 abbd 428c 1e3e 7c14 0abd
00000320: ecca c9bd 3a32 aa3d 81a5 e4bd 5dc8 a63d
00000330: 4035 9d3d 9a3b 9cbd 55e6 0abe e9cd 36be
00000340: 0370 f0bd f6cc 06be d1c3 373c 6423 f2bd
00000350: e63f 43be d50c 94bb 34d7 24be 2344 0b3e
00000360: 5788 f33d 19b5 31be b339 003d f68f 2ebd
00000370: 1ffe e23d 5a95 163e 5eff 123e dc35 af3d
00000380: 0846 823d a8da c83d a9bf 4d3d b791 213c
00000390: 054d 26be 8c67 993c a449 45be bd94 53be
000003a0: b4cb c23d e825 36be 5fd3 f63d 9a47 a93d
000003b0: 1c63 4abc 4b03 a5bd 7492 193e b00e 403d
000003c0: 89b1 4dbe f3f0 2abe b94c c33c 3af9 dabd
000003d0: 9947 8ebd e22b 1bbe 8f0c 01be d337 c63d
000003e0: 84b5 e1bc 158c aa3d 67d5 d1bd 44c3 06be
000003f0: 054b d6bd 14bf d03c 1833 9f3d 567c bd3d
-0.1427628 0.06336475 -0.13283369 -0.1530226 -0.1479656 -0.057625085 0.062292762 0.0540511
-0.17472531 -0.12262398 -0.025640678 -0.12793654 0.08628848 0.03519744 -0.039062344 0.12076009
-0.15949842 0.054423623 0.02222583 0.090682395 -0.026825668 0.11461624 -0.048586186 -0.06633476
-0.17961594 0.04881902 -0.17611104 -0.14171678 -0.12781148 0.077465825 -0.013123295 -0.06700886
-0.09125396 0.097343944 -0.038361363 -0.14836572 -0.053184163 -0.0010664713 -0.02902966 -0.10631248
-0.15224695 -0.105029814 0.042928502 0.08799215 -0.033585966 -0.17050041 0.016760414 -0.1265615
-0.2134142 -0.15234369 0.0750908 0.10254062 -0.0012886558 -0.20653786 -0.05963855 0.08384266
-0.02277798 0.041585892 -0.21672748 0.02102732 -0.04249213 -0.005433981 -0.015367152 -0.18574236
-0.00530715 -0.13076226 -0.11174504 -0.16667672 0.02989284 -0.17566165 -0.19105084 -0.07530387
0.10629868 0.105200544 0.015405489 -0.1750793 -0.0121032 0.034698702 0.1354956 -0.118600436
-0.043076918 0.045767993 -0.14887524 -0.024482772 -0.1754991 -0.07415062 0.005105089 0.1415576
-0.04135017 -0.025026804 0.05649099 -0.029500615 -0.090250336 -0.1575845 -0.091847226 0.13326932
0.04620647 0.0031925875 -0.027042042 -0.10176876 -0.0038719664 -0.10945257 -0.030251842 0.0061000152
0.02571764 -0.06648245 -0.044738013 -0.13049369 0.010813994 0.035440627 0.030987283 -0.13675255
-0.028636962 -0.008383876 -0.13255082 -0.038152084 -0.030376436 -0.11843902 -0.14247963 -0.05777593
-0.074076876 0.034687746 -0.13388969 0.08460345 -0.0420881 -0.104329616 0.1118472 -0.0599081
-0.11072321 -0.05229075 -0.037631106 0.15255138 0.02570679 -0.16646907 -0.10612555 0.061817903
-0.22659099 -0.10134215 -0.08634937 -0.03920271 -0.007763933 -0.16630109 0.0028858443 0.05700475
0.03650146 -0.026460273 -0.013188305 -0.18833812 -0.067466125 0.060791492 -0.11250448 0.003965857
-0.018480742 0.08743524 -0.12473852 -0.09020477 -0.05476583 -0.033880286 0.025037203 0.04258129
0.09205952 -0.09279538 -0.125123 0.02859416 -0.12268201 -0.1192011 0.0807795 -0.0762255
-0.09322073 -0.12619273 -0.13463841 0.016824858 -0.23528701 0.057375696 -0.079944424 0.07076937
0.045308914 0.10167367 -0.022389073 -0.20510612 -0.102390386 -0.15762213 -0.067995146 0.08324239
0.023727931 -0.0817039 -0.17120275 0.025736595 -0.050028153 0.014347435 0.07375491 0.10888422
-0.042257182 -0.057245474 -0.1296385 0.05663268 -0.06713234 -0.083602384 0.15483192 -0.03371094
-0.098531574 0.08310361 -0.1116438 0.08143685 0.07676172 -0.076285556 -0.13564427 -0.17851986
-0.117401145 -0.13164124 0.01121612 -0.118231565 -0.19067344 -0.0045181313 -0.16097718 0.13600211
0.11891239 -0.1735424 0.031305026 -0.04261776 0.11083626 0.1470541 0.14355227 0.08555195
0.06361014 0.0980733 0.05023161 0.009861401 -0.16240318 0.018726133 -0.19266373 -0.20662208
0.095115095 -0.17787898 0.120520346 0.0826561 -0.012352731 -0.08057269 0.14997274 0.046889007
-0.20087256 -0.16693477 0.023840295 -0.106920674 -0.0694725 -0.15153459 -0.12602447 0.096786164
-0.027552374 0.083275 -0.102457814 -0.13160425 -0.104635276 0.025481738 0.07773417 0.09252231

net.0.bias f4 [500]
00000000: 0370 033e c979 98bc 62d2 0dbe 69b1 e4bd
00000010: 7786 37bd 62ae 71be 2ace 4dbe ebad 00be
00000020: 2b96 0c3e de97 70be e3d7 babd 1f83 98be
00000030: 0573 59be 6b31 b8bd 6d86 e6bc 7c3e cdbd
00000040: 12b6 8c3d 4eb9 ba3d b22d 4b3d abc2 87bd
00000050: 8a98 10be 816c b43d 8182 2b3d a46a 93be
00000060: e19c 59bd 47f5 3abe f612 00be 8464 92bd
00000070: 9292 29be 2b9d 73be 8862 4cbe 9943 75bd
00000080: ed5a 2fbe 2a7a edbd 9fe8 35bc 5122 6fbe
00000090: 0a31 b03d 7df1 6f3a 7860 8ebd 529e a03b
000000a0: c40f 813d e8db 16be 61b2 bb3d aa11 66be
000000b0: 578e a63d f85b 95bd e7d0 fe3b c8b2 56bd
000000c0: d0f8 c13d c0f6 bb3d 2a4e dabc 124a 32bd
000000d0: 8ebb 50be e503 c7bd d662 673d 789a 07bb
000000e0: 2f62 373e 79a9 f73b b033 38be 60d2 9a3d
000000f0: e2e4 77be 3136 423d 9eb3 00bd 2807 06bd
00000100: c1cf 0dbe c3b0 8ebd 91f3 73bd 9fe0 07be
00000110: c13d e1bd 95f8 8c3d 4ee1 f83c cba5 a2bc
00000120: a525 2fbe 022e b8bd b02d 08be a4cb 25bd
00000130: 5e08 253d 7ca7 293e cfd4 1a3e d026 0b3e
00000140: f8fe b53d 4088 2cbd ece8 0abe 9785 5abd
00000150: b171 df3d d8d9 fa3c 3adf ce3c 41da 0a3e
00000160: e9c5 17bd 124c b43c c59c f139 8e4c 3cbe
00000170: 86b4 bcbc 5e0f 47bc 2fd3 13bd 8ec7 283e
00000180: b236 25bc 81db b8bd ef8a 2ebe febf 79bd
00000190: aa5e a2bd 41e6 1d3d e658 6bbd 7e75 d6bc
000001a0: e1a4 f8bd a451 0bbe 6aad c43d 2865 b0bd
000001b0: 54e2 33bd ba8a 763d 09a2 99be 16b9 74be
000001c0: 8296 1cbe 4c0a 2ebc 2a6e 4cbe a112 473d
000001d0: 6403 043e cbed 69bd 8813 6b3d 8908 52be
000001e0: c8e9 b23d d62f 533d 80ab 7abd 5d28 bc3d
000001f0: 852e 46be c1dd 63be 1f39 893d 02eb 48ba
00000200: fb0f 89b9 305f 10be b98d 7f3d d436 07be
00000210: 3557 c33c cd5d 69be 73d5 913d 2e26 283e
00000220: ca22 123e 3667 51be 02e8 2bbe b7e5 703e
00000230: 4e9f 47be fe5b 08be c547 18be 7012 1a3d
00000240: da43 52bc 1803 223c 627b 44be e555 2abd
00000250: 06fb 1c3d b97b 0fbe f5d6 e3bd d5eb 923c
00000260: 4d52 73be a1c9 adbb f26d fabd 5710 253e
00000270: 3d2c 95bd 135f 5dbd 5227 b33d 8e6d 14be
00000280: cbca d5bd 49be 57bc 1fb4 00bd 4c6e 383d
00000290: 665d 65bd bc65 8e3d 81ee 6fbe 37ad 63bd
000002a0: d706 01be 04d3 593e ebdb 4bbd 7f04 043b
000002b0: 329a ee3d 94c0 10bd 6578 cdbd ca85 643d
000002c0: 7f0d 893d 41bb d8bd 76d1 7bbe 652a c5bd
000002d0: 1570 06be 5e43 d5bd 96f1 6a3d db7e 63be
000002e0: adc5 0ebe bb51 2fbe 5e14 bbba 5cd0 68be
000002f0: 2d8e 51be 153c 023d 87d7 8cbe 628b 13be
00000300: 9498 2ebd 9750 463e 4bfa babd 41c3 ffbd
00000310: 4bf2 23be 14c2 a8bd 05a2 5e3d 288b adbd
00000320: d369 28be 04f4 ba3d 5660 79bd b68f 153d
00000330: 9797 8e3c f758 133d d1da 71be cfe7 913d
00000340: 9dc1 83bd c994 93bd 4a0c 703d 03d2 12be
00000350: 9ea0 c93d 294f 15bd e609 a2bc fa74 90be
00000360: 82cc 5cbe eacf 88be e2e4 b13d bbff 023d
00000370: 8720 ef3d 4f27 43be ba97 0dbd 1129 89bd
00000380: 58cd d03d df2e 34bd 48b6 563d 1915 babc
00000390: b818 93bc 920e dfbc 06c2 62b9 0269 803d
000003a0: c224 7cbd e81d 0ebe b2b6 28be c206 29be
000003b0: 89ec 56be 0aec f23b b13c 8fbd 52f7 04be
000003c0: 342e aabd 39b8 933d 72de 823d 6520 053e
000003d0: 584d 6ebd 4b5c 73be 6ace 833c 20b9 72bd
000003e0: cecf babd 4f74 ca3d 9c82 51be 5b4f b8bd
000003f0: e109 723d 626e 90bd 7403 3f3c c4a9 94bd
0.12835698 -0.01861276 -0.13849786 -0.11166651 -0.04480597 -0.23601678 -0.20098177 -0.12566344
0.1372916 -0.23495433 -0.091232084 -0.29787537 -0.21235283 -0.08993801 -0.028140271 -0.100216836
0.06870665 0.09117375 0.049604125 -0.06628927 -0.14120689 0.08809758 0.041872505 -0.28792298
-0.053128127 -0.18257628 -0.12507233 -0.07148078 -0.16559818 -0.23790424 -0.19959462 -0.05987892
-0.17124529 -0.115955666 -0.0111028245 -0.23352934 0.086031035 0.0009153111 -0.06951994 0.0049016858
0.06301835 -0.14732325 0.091648825 -0.22467676 0.08132618 -0.07292932 0.007776368 -0.052416593
0.09471285 0.09177923 -0.0266486 -0.04352767 -0.20384046 -0.0971754 0.05649074 -0.0020691436
0.17908548 0.0075580445 -0.17988467 0.07559657 -0.24208406 0.047414962 -0.031421296 -0.03272167
-0.13848783 -0.06967308 -0.059558455 -0.1326928 -0.10998107 0.06883351 0.030380871 -0.019854447
-0.17104204 -0.0899315 -0.13298678 -0.04047741 0.040291183 0.16567796 0.15120243 0.13589025
0.08886522 -0.042122126 -0.13565415 -0.053350057 0.10910357 0.030621454 0.025252927 0.1355982
-0.037053976 0.02200893 0.00046083904 -0.18388578 -0.023035299 -0.01214966 -0.036090072 0.16482374
-0.010083841 -0.09026242 -0.17045186 -0.060974114 -0.07928212 0.038549665 -0.057457827 -0.026179072
-0.12140823 -0.13605362 0.096033886 -0.08613044 -0.043917015 0.060190894 -0.30006436 -0.2389873
-0.15291789 -0.010622572 -0.19963899 0.04860175 0.12891918 -0.057111543 0.057391673 -0.20511068
0.087359965 0.05155929 -0.06119871 0.09187386 -0.19353683 -0.22252561 0.06700348 -0.00076644134
-0.00026142583 -0.14098811 0.062391017 -0.13204509 0.023845294 -0.22789688 0.0712079 0.16420814
0.14271083 -0.20449528 -0.16787723 0.2352513 -0.19494364 -0.13316342 -0.14871128 0.03761524
-0.01283356 0.009888433 -0.19187692 -0.04158582 0.038325332 -0.1401204 -0.11124984 0.01793472
-0.23761864 -0.005303577 -0.12228002 0.16119514 -0.072838284 -0.054045748 0.08747734 -0.14494917
-0.1043907 -0.013167926 -0.031421777 0.045027062 -0.055997275 0.06952998 -0.23430826 -0.055585112
-0.12600265 0.21271902 -0.049770277 0.0020144281 0.11650504 -0.035339907 -0.10032729 0.055791654
0.06692027 -0.10582591 -0.24591622 -0.09627227 -0.13128693 -0.1041324 0.0573593 -0.2221636
-0.13942595 -0.17121021 -0.0014273038 -0.22735733 -0.20464392 0.03179558 -0.27508184 -0.14408639
-0.04262598 0.1936668 -0.09129771 -0.124884136 -0.16010396 -0.082401425 0.054353733 -0.084738076
-0.16446619 0.091285735 -0.06088289 0.036514007 0.017406268 0.035973515 -0.23618628 0.07124292
-0.06433413 -0.07206113 0.05860547 -0.14337926 0.098450884 -0.036452446 -0.01978011 -0.28214246
-0.21562389 -0.26721126 0.08686234 0.031982165 0.11676126 -0.19057964 -0.034568526 -0.06697286
0.10195416 -0.043990012 0.05241993 -0.022715138 -0.017956123 -0.027228627 -0.00021625319 0.06270029
-0.061558492 -0.13878596 -0.16475943 -0.16506484 -0.20988669 0.007413392 -0.06993998 -0.1298497
-0.08309594 0.07212872 0.06390084 0.13000639 -0.05817923 -0.23765676 0.016089637 -0.05925858
-0.09121667 0.09885465 -0.2045998 -0.08999511 0.059091453 -0.07052304 0.011658538 -0.07258943

net.2.weight f4 [100, 500]
00000000: b53b edbd 421d efbd 0673 3bbd 07e0 9abd
00000010: ae61 e2bc ded7 c9bd 6ce9 643c 8036 30bc
00000020: 7a59 bcbc 6da6 2ebc ef32 e0bb 48a5 61bd
00000030: a540 c3bd 2a50 853c 470c ae3c ba5d 88bd
00000040: 44ab ddbc 780f 9bbd 79f4 a9bc f2d1 ddbd
00000050: 8037 e6bd 2e76 d3bd 3486 68bc 4880 9bbb
00000060: 2c55 033d 8a56 39bd f192 8bbd fa52 8ebd
00000070: 687a 84bc 34fb 19bc 44cd b2bd 037a 68bd
00000080: e477 31bd 40b5 44bd 94e1 21bd d0a5 b7bd
00000090: f858 87bd 4f03 33bd e056 f7bc f70b 503d
000000a0: a7bc 483d f2d8 54b9 da32 c3bd 1ba5 ac3c
000000b0: 9b9e 41bc 6cfb fdbd 5f19 87bd e129 99bd
000000c0: 3048 bdbd a515 7abc 91b4 95bd 7df2 86bd
000000d0: 36e7 73bd 070a c0bd 12d7 89bd 7575 53bc
000000e0: 9f6c 54bc bfa0 a1bd 6ec6 84bc b80a d8bd
000000f0: a828 1dbc cde7 a7bd 62ab 8cbc 97d2 40bd
00000100: 56c6 b1bb 26d6 f1bc 33dc 8ebd 0f08 8bbd
00000110: 3904 943b fa43 29bd 656a 84bd 1587 0ebd
00000120: 412c ff3c 9431 8c3c 47e5 8bbd d1f7 e4bd
00000130: 40b7 30bd c403 01be 2371 f9bc 6990 cfbc
00000140: d274 31bd 96ff 87bd c772 fcbb 6469 a7bc
00000150: a5bc 61bc a84c fdbc 42a3 60bd 1a6a 34bd
00000160: 32da e4bc aa8e 8abd f7d4 18bd b2a0 1c3c
00000170: fa88 0dbd 7d52 c7bd 4d5c c5bd cbd9 dabd
00000180: b2ca 60bd 3528 97bd 9100 51bd 7252 a8bc
00000190: 0398 93bd ea58 dc3c 3082 63bd 3f8e 5bbc
000001a0: 4098 b4bd b2b5 08bd db02 82bd f905 d0bd
000001b0: ebd7 b43c 8c3f 7abd 3cc4 9ebd 5368 75bd
000001c0: e273 e1ba 7c8d dabc 90e8 d6bd d48d 17bd
000001d0: 892d 213c 3fd2 f6bc d433 913b 41e7 5d3c
000001e0: 389f 16bd 0b4b 38bd 9f48 8ebd 709e 8abb
000001f0: 1978 de3c 70a5 4abd 961b dbbc 515f 4cbd
00000200: 4535 30bd 4402 9fbc 9e76 1e3d 7ed6 9cbd
00000210: 1302 02bc 14b9 b7bc 917f 7ebd 07e3 47bd
00000220: 5df6 49bd 02a9 69bd bbd2 7fbd 0b23 92bd
00000230: cc05 9b3c 5fd7 a6bd 44ac 65bd 78b6 dfbc
00000240: 12ac 5abd b694 f7bd 5512 10bc a4d3 9ebc
00000250: 65ea 1ebd 6b00 58bd 8503 b3bd 893d a6bd
00000260: 1d95 cfbc 550a cc3c 422d 59bc 5fc3 91bd
00000270: 2f13 81bc 5e93 cbbc 9a3f a6bd 9a56 353d
00000280: f730 7dbd 611e aebd aafd 4abd 99e8 93bc
00000290: cf02 60bb db64 8fbd 9540 083c 9c72 f8bd
000002a0: a598 74bd 7a7c 93bd f775 bcbc 7567 acbd
000002b0: 9b53 cb3c 06fa 62bd cdde bbbd 02ee 0d3d
000002c0: 3130 afbd 9d11 d6bb bd3a 23bd ddc5 b53c
000002d0: 12ee 1dbd 7ca0 f5bc 0341 dbbd a223 d7bd
000002e0: f8b6 afbd f8a1 03bd 3656 13bc 33a9 8ebd
000002f0: 9a31 2abd be88 17bb 328d 093c 72d8 c8bd
00000300: e52b 36bd fe3c f9bc 84fb 9abd 9f8b 7ebd
00000310: 6793 f8bc a6d7 a7bb e3f1 02bd 27ae 67bd
00000320: 2a45 c6ba 4676 94bd 456e df3c df0c a1bd
00000330: 1f84 7ebc 226c 58bd 1a6a a5bd 15b0 59bd
00000340: 852c 313c e6f5 5bbd 75fe 0fbd 8324 293b
00000350: 060b 2fbd 522a 3f3c cdf2 35ba 1b60 89bd
00000360: d8cb 7e3d 2691 72bd bd8e 26bc bf3b ebba
00000370: ba76 92bd de77 6dbc c2f5 adbc dccf 143d
00000380: 05c0 67bc c000 7c3c 7dcf 99bd 8a3c 39bd
00000390: a394 d7bd 7f4a 02be 3970 493c 319b 84bc
000003a0: 3446 77bd 0fa2 2c3b fc0f c0bc 37f1 b0bd
000003b0: e1e5 16bd ff4c e1bc 7393 b33b e573 98bd
000003c0: dd97 bcbc fcc8 d8bd 18d2 47bd f91e 97bd
000003d0: 579d 1cbd 1717 043d 7eaf 90bd 007a c8bd
000003e0: 98e1 09bc 5d63 65bd fd76 a9bb 8a4b 7fbd
000003f0: 312b 0abd ca6d eabd fedf b3bd 5623 e93c
-0.11583654 -0.11675502 -0.04576399 -0.07562261 -0.027634468 -0.098556265 0.013971668 -0.010755181
-0.022991884 -0.010659796 -0.0068420093 -0.055089265 -0.09533814 0.016273577 0.021246089 -0.06658502
-0.027059205 -0.0757131 -0.020746456 -0.108310595 -0.112410545 -0.10325275 -0.014192153 -0.004745517
0.032063648 -0.045248546 -0.06815136 -0.0694942 -0.01617165 -0.00939827 -0.087305576 -0.056756984
-0.043327227 -0.048024416 -0.03952177 -0.08967173 -0.06608766 -0.043704327 -0.030192792 0.05079266
0.049008038 -0.00020298714 -0.095311835 0.021074822 -0.0118176 -0.124014705 -0.06596636 -0.07478691
-0.09242284 -0.0152639495 -0.07309831 -0.0658922 -0.05954667 -0.093769126 -0.067304745 -0.012906422
-0.01296535 -0.07891988 -0.0162079 -0.105489194 -0.009592213 -0.08198509 -0.017171565 -0.047075834
-0.005425255 -0.02952106 -0.069755934 -0.067886464 0.004517105 -0.041324593 -0.06465606 -0.034796793
0.031149032 0.017113484 -0.068308406 -0.1118008 -0.04314351 -0.12599093 -0.030449456 -0.025337415
-0.0433243 -0.06640546 -0.007704112 -0.020435996 -0.0137778865 -0.030920342 -0.054843195 -0.0440465
-0.027936075 -0.06765492 -0.037312474 0.009559797 -0.03455446 -0.0973253 -0.096367456 -0.10686072
-0.054880805 -0.07380716 -0.05102593 -0.020547125 -0.07206728 0.026897866 -0.05554408 -0.013400613
-0.08818102 -0.033376403 -0.06348201 -0.10157389 0.022075614 -0.06109576 -0.077522725 -0.059913944
-0.0017200673 -0.026678793 -0.104935765 -0.037000492 0.009837517 -0.03012955 0.004431227 0.013543905
-0.036772937 -0.04499344 -0.06947445 -0.004230313 0.027156876 -0.04947418 -0.026746552 -0.04989559
-0.04301955 -0.01941026 0.03868734 -0.07658099 -0.007935065 -0.02242712 -0.062133376 -0.048800495
-0.049307216 -0.057045944 -0.062456828 -0.0713559 0.018923663 -0.081465475 -0.05607249 -0.027308688
-0.053386755 -0.12088911 -0.008793433 -0.019388027 -0.038797755 -0.052734774 -0.08740906 -0.08117206
-0.025339657 0.02490727 -0.013255419 -0.07117342 -0.015756218 -0.024850544 -0.081176 0.044272043
-0.061814275 -0.08501888 -0.04955832 -0.018055247 -0.0034181362 -0.070016585 0.008316179 -0.12131235
-0.059715886 -0.072014764 -0.023005469 -0.0841817 0.02482014 -0.055414222 -0.09173355 0.03465081
-0.08554114 -0.0065328614 -0.03985094 0.022189075 -0.03855712 -0.029983751 -0.107057594 -0.10504843
-0.085798204 -0.032136887 -0.008992722 -0.06965866 -0.04155121 -0.0023122276 0.00839548 -0.09806909
-0.044475455 -0.030424591 -0.07567504 -0.06214487 -0.030343724 -0.005122143 -0.031968962 -0.05656257
-0.0015126814 -0.07249121 0.02727426 -0.07863783 -0.01553443 -0.0528375 -0.08076878 -0.05314644
0.010813837 -0.053701304 -0.03515478 0.0025809116 -0.042735122 0.011667805 -0.0006940782 -0.06707784
0.06220612 -0.059220456 -0.010165867 -0.0017946883 -0.071515515 -0.014493911 -0.02123535 0.036331043
-0.014144902 0.015381038 -0.075102784 -0.04522375 -0.10526397 -0.1272373 0.012294822 -0.016187282
-0.060369685 0.0026341712 -0.023445122 -0.08639758 -0.036840323 -0.027502535 0.005480224 -0.0744398
-0.023021633 -0.1058521 -0.048784345 -0.073789544 -0.03823599 0.032248583 -0.070647225 -0.09788895
-0.008415602 -0.056002963 -0.005171655 -0.0623279 -0.033732597 -0.11446722 -0.087829575 0.028459232

net.2.bias f4 [100]
00000000: 13a7 50bd d2b2 2abd 0321 91bd 90da cfbc
00000010: 6208 29bd 6e0e 303d 5a99 34bc f7a8 c8bc
00000020: 3501 fcbb 466f c6bd 7302 cc3c 2a5a 9abd
00000030: 4a65 4cbd ee8c 79bd c0dc c93c fc44 97bd
00000040: 3c8c e53c 230f dfbd 7323 67bd 1b99 b6bd
00000050: 9539 fcbc 1a91 86bc 7a78 0a3d 467e b2bc
00000060: 7a06 29bd 3a45 d9bd edff ad3d 210e cabd
00000070: f631 98bc 0a9f a2bc b7c1 19bd 1686 b2bd
00000080: 54ce 85bd f81d 94bb a20f 48bd cd7a 5aba
00000090: f667 14bd 7f8c 64bb 037d fdbd 3dca 32bd
000000a0: 3f02 82bd c377 7abd ec2b 92bd 7710 d33d
000000b0: 9d00 98bd d680 be3d b402 dbbd 37f3 55bd
000000c0: b594 ce3d 28e0 91bd d9d4 dc3d 3d07 cfbd
000000d0: baeb f1bc b129 abbc 8604 0fbd e9b2 19bd
000000e0: 6049 76bc e4d0 68bd c924 1ebd 45c5 e2bd
000000f0: 8dad 48bd abaa 363d fe1e 8abd 1126 abbd
00000100: 43f1 c23d 41e2 b0bd c286 94bd fb5b 94bd
00000110: 3983 1b3b 1664 80bd abbb 6fbc 0df1 18bd
00000120: 058e 283d b51d c6bc e335 6bbd 7e29 a8bd
00000130: f4ff a1bd 6eef 22bd 56f2 52bd 9244 a1bd
00000140: d77d 37bd 99a2 34bd 65bd 04bc 3661 bcbd
00000150: 6721 4bbc df98 7cbd d608 19bd 3e83 d0bd
00000160: 0ec5 81bd 765a 503b 11ca 93bd 417d e33c
00000170: 0908 b9bd 2ebe 9ebc 029d ffbc 8f5c 14bd
00000180: 311c d5bd 3b68 46bd 45e4 e4bd 2f9e e7bc
-0.050940584 -0.041674443 -0.070863746 -0.025372773 -0.04126776 0.04298251 -0.01102289 -0.024494631
-0.0076905736 -0.096891925 0.024903512 -0.07536729 -0.049901284 -0.060925417 0.024641395 -0.073862046
0.02802097 -0.10891559 -0.05643029 -0.08915921 -0.030789176 -0.016426612 0.0338063 -0.021788727
-0.041265942 -0.10608907 0.084960796 -0.09865976 -0.01857851 -0.019851226 -0.037538256 -0.08716981
-0.065334946 -0.004520174 -0.048843034 -0.0008334339 -0.036231957 -0.0034873781 -0.1237736 -0.0436499
-0.06348085 -0.06114937 -0.07137284 0.10305875 -0.07421992 0.09301917 -0.10693875 -0.0522339
0.10086957 -0.071228325 0.10782785 -0.101088025 -0.029531348 -0.020893903 -0.034916423 -0.037524138
-0.015032142 -0.05683984 -0.0386093 -0.110727824 -0.048993636 0.044596355 -0.067441925 -0.0835687
0.09518673 -0.086369045 -0.072522655 -0.072441064 0.0023729338 -0.0626909 -0.014632146 -0.03733926
0.041151065 -0.024184087 -0.057424437 -0.08211039 -0.07910147 -0.03977912 -0.05150064 -0.07874407
-0.044797745 -0.044100378 -0.008101796 -0.09198229 -0.0123981 -0.061669227 -0.037361942 -0.101812825
-0.06336413 0.00317922 -0.072162755 0.027769687 -0.09034736 -0.019377794 -0.031202797 -0.036221083
-0.10405768 -0.048439246 -0.111763515 -0.02827367

net.4.weight f4 [20, 100]
00000000: 5b04 15bc 396b 443d f874 55bd 99fb 043d
00000010: df23 8ebd d494 a1bd 2044 f73c 6876 a23c
00000020: 2eb1 893c 9134 e33c 60cc 61bd 03ee 073d
00000030: 5a06 f1bd 3a3a 4bbc 0c16 97bd 0d6d ce3c
00000040: 34ec c83a 2bc9 62bd 799a b8bd 8be6 88bd
00000050: 1842 15bd 5443 89bd bb13 0fbe 476c 123c
00000060: 8f24 fa3c db3a 18bc c6f3 bbbd 28c3 0dbc
00000070: 2c9f 5bbd 542d ac3c 452f 12bd d85c 8abd
00000080: 11b2 c83d b1f0 cdbd 937e 493d c78e b33d
00000090: 3d22 d73c 4ea9 60bc 2bdc e7bc bbcc 14ba
000000a0: 4471 aa3a 44cf 3bbc 75fe 21bd c892 eabd
000000b0: f426 113c b474 a3bb 94bb 50bd 120f 8b3b
000000c0: b52d f9bd c47d f0bc 0293 b3bd e579 94bc
000000d0: ef34 903a 6a72 72bd e785 f2bc 2e84 a9bc
000000e0: cfef adbd 16a1 643d 8382 8d3d 4b4b 5bbd
000000f0: 1d79 8e3d 97e9 2fbe 3efb 2b3d b6d3 98bd
00000100: 5d13 82bd eb67 b1bd 3976 60bd abdc d7bd
00000110: 06b3 09bc 37c5 703d 8f9d a93d 9489 34bd
00000120: dff7 a7bd 3ed1 1b3d e01a c53c a46b 12bd
00000130: 8e0b 8e3d 26ed f3bb 3cca 073d ccf2 eabd
00000140: bd72 19be 2cc4 b9bd 463d 27bd 981c 0f3d
00000150: f3cc 313d e539 0cbd 8caa a4bc 5adf b9bd
00000160: c368 293a fdcd 553d 0629 a93d 7130 0ebe
00000170: 821a f93d d2ef 3e3c c51f 463d 6338 1ebb
00000180: 6ac6 ab3d bd48 f13c a274 913d 1555 703c
00000190: ca0b aa3c 0210 12be 1908 8c3d 91a9 033d
000001a0: a642 88bd 42d4 21bd 8326 9ebd a910 35bc
000001b0: 5cdd c43c 1a10 c73c 4b52 cdbd 47d6 883c
000001c0: 8ed9 093b 55a1 33bb c26b 8d3c a9e7 8fbd
000001d0: 1f16 ebbc 7eda 03be 57d7 8bbd e31f 75bd
000001e0: 4da1 aa3c 515f 30bd 8c6d c63c 63da 89bc
000001f0: 4a5d fb3d 295a 9abd 663b eebd aeb4 66bd
00000200: b8a0 0c3e 1c89 8d3c 40f6 ae3c 3198 993d
00000210: 69e0 3ebd 4f82 e9bb a232 223e e962 84bb
00000220: f164 53bc 359b 12bb 129a 5cbd e972 d2bd
00000230: 8f32 b3bd f767 febd f42d f4bd d59a eebc
00000240: a98f f53c ffc7 1cbe 727f 993d ee86 333d
00000250: e3e1 25bd bace f4bc 9204 38bd c5e0 343d
00000260: 185b b53c 61ef 9c3d de45 96bd 67c0 9dbd
00000270: 3c50 b83a a9e1 64bd 551b eb3b 0a9a b9bd
00000280: 447e cf3c 77b9 ddbd 8986 0b3d 05ae f4bc
00000290: c3be 08be 7e98 42bd 9852 10bc 4427 083a
000002a0: 37ba 1cbd 316d 9e3c 44a2 153d 3f90 42bd
000002b0: 65d5 43bd 9fd6 cebb 7cfa c13b d1f4 a13c
000002c0: beca 853d e1ea 06bb 7dc1 72bd 1600 87bd
000002d0: bff6 a2bd 4f90 6e3d ffef 94bc 6d7b 6cbd
000002e0: 31ac 123c fcf5 7c3d 23dd 313c 6a4f df3d
000002f0: 82cc 7d3c d9bf 88bd 3f31 b6bd 02c8 e6bd
00000300: 65cf c9ba c2ec 19bd e4c6 93bd 2159 b7bd
00000310: c803 533d ca46 743d 8774 81bc 0f74 79bd
00000320: e8d0 c3bc db95 e2bd e4b1 25bc d22d f23c
00000330: 9809 c3bd 46d3 efbc b0c1 093c a094 c2bd
00000340: 2a1a 90bd 3382 80bd 4298 31bc 0a23 1dbe
00000350: 63d5 8ebd c0c9 0cbc f137 eabd e0ea acbc
00000360: 2303 12be f313 71bd ac53 fa3c 236d 1c3d
00000370: 02e3 71bd 166c 81bd f389 9c3d a14e e0bd
00000380: 413b 44bc 8a0a febd d23c a1bd 7aa1 2b3d
00000390: d7fa 093d 17ff 2cbd b669 a5bd 9eb4 20bd
000003a0: 0087 f8bc 6327 70ba 6fbd 32bd 7b24 68bc
000003b0: b61e b8bd 55c3 2fbd 2cba 15be 30d2 f4bd
000003c0: 3d07 f8bd 30f0 5abd 47d9 bfbd cee3 e5bd
000003d0: 739b bfbd a02c 8cbd f509 69bd c82f a1bc
000003e0: 5a4b 603d 294a c5bc aa78 acbc 3062 1abe
000003f0: ddce 1bbd 0770 95bd 54e8 18be c7c9 a93d
-0.009095277 0.047953818 -0.052113503 0.032466505 -0.069404356 -0.07889715 0.030183852 0.019831851
0.016808119 0.027735027 -0.055126548 0.03318597 -0.117687896 -0.012404019 -0.07377252 0.025198484
0.0015329183 -0.05536763 -0.09013838 -0.066845976 -0.036439985 -0.06702295 -0.1397237 0.008936948
0.03053501 -0.009291376 -0.091773555 -0.008652486 -0.053618595 0.021017708 -0.03568961 -0.0675599
0.097995885 -0.10055674 0.049192976 0.08767467 0.026261443 -0.01371224 -0.028303226 -0.0005676259
0.0013003726 -0.01146299 -0.03954931 -0.114537776 0.008859385 -0.0049882773 -0.05096014 0.00424374
-0.12166921 -0.029356845 -0.08768274 -0.01812453 0.0011002104 -0.059191145 -0.029604865 -0.020692911
-0.084930055 0.055817686 0.06909659 -0.0535386 0.06956694 -0.17178951 0.04198765 -0.07462256
-0.063513495 -0.08662399 -0.054800246 -0.10540136 -0.008404499 0.05878183 0.08282005 -0.044076517
-0.082015745 0.038041346 0.024060667 -0.035747185 0.06935798 -0.007444042 0.03315185 -0.11472091
-0.14985175 -0.0907062 -0.04082992 0.03493938 0.043408345 -0.0342349 -0.020100854 -0.09075804
0.0006462449 0.0521984 0.08259778 -0.13885666 0.12163259 0.011653857 0.04837014 -0.0024142496
0.08387454 0.02945363 0.07102324 0.014668723 0.020757575 -0.14263919 0.06837482 0.032144133
-0.06653337 -0.039509065 -0.07722189 -0.011051335 0.024031334 0.02429967 -0.10025462 0.016703738
0.0021034214 -0.0027409394 0.017263297 -0.070266075 -0.028697072 -0.12876317 -0.06828182 -0.059844863
0.020828867 -0.04305965 0.024222158 -0.016827768 0.12273653 -0.07536728 -0.11632423 -0.056324653
0.13733184 0.017277293 0.021357656 0.07499731 -0.046600733 -0.0071261297 0.15839627 -0.0040401113
-0.012902484 -0.0022370343 -0.05385787 -0.102758236 -0.08749878 -0.124221735 -0.11922827 -0.029126564
0.029975729 -0.15310667 0.074950114 0.04382985 -0.040498625 -0.029883731 -0.044926234 0.04415967
0.022138163 0.076628454 -0.07337545 -0.077027135 0.0014061998 -0.05587927 0.007174889 -0.09062584
0.025328763 -0.1082639 0.03406385 -0.029868135 -0.1335402 -0.04750871 -0.008808754 0.00051938393
-0.038263526 0.019339176 0.0365317 -0.047500845 -0.04781093 -0.006312206 0.0059197526 0.019770058
0.06532811 -0.0020586776 -0.059266556 -0.06591813 -0.07957219 0.058243092 -0.018180845 -0.057734895
0.008952186 0.061758026 0.010855946 0.10903819 0.015490653 -0.06677217 -0.08896112 -0.11268617
-0.0015396891 -0.037579305 -0.0721567 -0.08952547 0.051517278 0.059637822 -0.015802635 -0.060901698
-0.023903325 -0.11063739 -0.010113213 0.029562864 -0.09523314 -0.029275548 0.008407995 -0.09501004
-0.070362404 -0.062748335 -0.010839524 -0.15345398 -0.06974294 -0.008593023 -0.11436451 -0.02110809
-0.14259009 -0.058856916 0.030557476 0.03819002 -0.059054382 -0.06319444 0.07643499 -0.10952497
-0.011977018 -0.12404354 -0.07872929 0.041902043 0.033686485 -0.04223546 -0.080768034 -0.03923475
-0.03033781 -0.00091611425 -0.04363769 -0.014168854 -0.08990233 -0.042910893 -0.146218 -0.119541526
-0.121107556 -0.053451717 -0.09367614 -0.11225091 -0.093558215 -0.06844449 -0.05689426 -0.019676104
0.05475936 -0.024083214 -0.02105363 -0.15076518 -0.038039077 -0.07296758 -0.14932376 0.08290439

net.4.bias f4 [20]
00000000: b982 e0bd 02d8 763b c625 47bd 1399 3f3d
00000010: dbc6 11be cff8 d7bd 53d0 c1bc 5a3a 5fbd
00000020: a672 2a3d eafe 23bd 3d68 8cbd 7e38 11bd
00000030: 27bc 23bd 6e01 17be 6efa 793d 5a4c a73d
00000040: ce81 d2bd 406e 2abd b759 e5bd 1372 30bc
-0.10962433 0.0037665372 -0.048620008 0.046776842 -0.14236014 -0.10545503 -0.023658907 -0.054499008
0.041613244 -0.040038027 -0.068558194 -0.035454266 -0.039974358 -0.14746639 0.061029844 0.0816886
-0.102786645 -0.04160905 -0.111987524 -0.010769385

net.0.weight f4 [100, 20]
00000000: fe9a 0a3d 0945 6e3b 2d89 213e 6773 c9bd
00000010: 0046 c3bd 0c06 0a3e a2db 83be d652 933c
00000020: b643 973c 7b72 9c3c b4f2 0c3e a8ce dd3d
00000030: 0a2d 61bc 995f 4d3e 56cc 16bc 6f45 00be
00000040: a50d 1ebe 450a f3ba c9d9 2ebe 7c87 01be
00000050: 7d89 bb3d 5cd5 e3bc 6830 413e 5492 913d
00000060: 4112 81be f80d a2bd 5e21 90bd 2ce8 a53d
00000070: 2d94 bbbd fb5d 4ebc 9311 22bd b950 a93d
00000080: 089a 883d fbae 9d3d 429c b1bc 698d d7bb
00000090: a93f e13d 4ca2 b0bd a025 41be d2c9 9fbd
000000a0: 899f 10be 591e 2e3d ebed 36bc c8d9 213d
000000b0: 3552 4f3e f30f e6bd 8753 273c 4482 dbbd
000000c0: 76ff 9abd 072d cc3d f13c 51bc 12b5 59bd
000000d0: d14f 9dbd 5f1e 08be e542 1ebd 3e62 a73d
000000e0: 8a23 2e3e ce28 aabd 31fc f63d ea93 323e
000000f0: 3bc6 ebbd 21a9 24bd 1348 433e 0087 223e
00000100: fb15 d739 7cd1 29bd 0632 22be 4f94 8f3d
00000110: 5478 a8bd 8f3b 633c 81ba 06bc 67e9 1abe
00000120: 3237 a63d 039d a83c 8d63 1fbe 7f28 04bc
00000130: 46fc 12be 338f 19be 1cb9 223e 33a4 3a3d
00000140: f577 e83c 9659 93be d97c 10bd e548 8cbc
00000150: a421 153d 6a93 9c3e 4bf3 56bc 1b72 8c3e
00000160: b61c 27be 6665 25bd d456 0f3e 7b3f ce3d
00000170: e687 ed3d 1de1 1abf d7c3 f6be 1641 343c
00000180: 74c1 e4bd 218e 9d3c ed41 d2be 48ed 9fbe
00000190: 6eca 32bc fb94 073e 8ae4 9d3d 1393 36be
000001a0: c65f 6fbc 6f53 0dbd b652 163c 7860 6abd
000001b0: de6c 8d3d 59c8 f93d 456e 58bb 4869 14bb
000001c0: c55d b13c b641 e3bd eb1f 4ebd 24ed 59be
000001d0: e6b8 8e3d 407e b73c 33a9 e1bd 7ba4 173d
000001e0: fa06 943e 519b 53bd 1d4e 6dbd a000 a0bd
000001f0: 674e 22bd 6a85 c73d 1ad3 f03d 6bbd 51bd
00000200: c842 babd dcac 5cbe 1f40 66bd dc0d 29be
00000210: bba7 5a3e 212f a53a 677d b7bc 01c9 7abc
00000220: 57a5 cb3d d348 35be 23e6 c03c ac9b fa3c
00000230: 752e 553e f5c8 183d f57f d63c 0e8f a03d
00000240: 5f1f 1f3e 5a4e 9dbd 6975 8bbd 1181 ebbd
00000250: dfb8 1abe 659d 4d3d 70fd 243e bc65 37be
00000260: 921f 8e3d 7a64 553e 8b9c 3f3e 842e 33be
00000270: 21a3 ab3c 01b2 e3bd a85d 123d 0ab1 2e3e
00000280: 1ac9 a03d cc67 d43d 9944 2abd a4e0 26be
00000290: 45bb 7fbb 0527 e9bd 8fdc 923d 429b a3bd
000002a0: a19e 1f3c 8fed e4bd 83ad 87bd c121 01bd
000002b0: 5b55 34bd 68e3 333e b972 1e3c a811 8ebc
000002c0: 8968 043e acfd 063e 3c6d 8ebd 0dd8 45be
000002d0: 8602 23be b25e 003e 66b4 19be 0999 1a3e
000002e0: 9eaa afbd fc22 53be 1f25 24be 2c99 16bd
000002f0: 1e4d 10be 4f95 94bc a6c2 e53d 8164 7a3d
00000300: 745b ca3d 39d8 013e 955a 38bd a2d0 c0bd
00000310: 7770 cf3d 0029 f33d 1420 b1bd 7351 433b
00000320: ef38 243e 0dbb 13bd c66b 963d 56cb 20be
00000330: c93c d0bd 544c ea3d 179e dabd 4f3e bb3c
00000340: ba05 8bbe 7711 b7bc a328 2a3d b9de fabc
00000350: b3a1 f43d e6b6 1ebe 9a13 8a3d d7e0 8bbd
00000360: 8c2d f83d 718d 31bd fadf 1bbe 2794 0b3e
00000370: 76ae 6a3c f382 60bd cd36 b13e e57b 693c
00000380: b6a0 a9be 7aa1 7fbe 64cb 61bd 237e febc
00000390: 9dca 50be 11c7 d53d cc6b 68be 62b2 d1bc
000003a0: 6cf0 70be 4bcf 193e ddf1 a63d bd71 68bb
000003b0: 2d5d 2c3d 074f 53bd a93b 37be 1ec5 7bbd
000003c0: 7e46 38be acb5 253e f8ce d73d 9680 91bd
000003d0: a535 24be 1c72 1fbe a8f9 c33d a074 0fbc
000003e0: c2ca a3bd 4cbc 83bd 06fe f1bd a092 e33c
000003f0: 7678 3ebe a055 333c 78a0 49bd 00aa 5bbe
0.03383922 0.0036357066 0.15774985 -0.098364644 -0.09534836 0.13478869 -0.25753504 0.017983835
0.018464904 0.019097557 0.13764459 0.10830432 -0.013743648 0.20055999 -0.009203991 -0.12526487
-0.15434892 -0.0018542489 -0.17075266 -0.1264934 0.09157083 -0.027811699 0.18866122 0.07107988
-0.2520924 -0.079128206 -0.07037614 0.08100924 -0.09159122 -0.012595649 -0.03956754 0.0826735
0.06670004 0.076993905 -0.021680955 -0.0065781367 0.1099847 -0.08624706 -0.18862009 -0.07802166
-0.14123358 0.04250941 -0.0111651225 0.039514333 0.20246203 -0.11233511 0.010212786 -0.107182056
-0.075682566 0.09969526 -0.012770877 -0.053151198 -0.076812394 -0.13292836 -0.038638014 0.08173035
0.17005745 -0.08308564 0.120598204 0.17439237 -0.11512419 -0.040200356 0.19070463 0.15871811
0.00041024372 -0.041459545 -0.15839395 0.070107095 -0.08226076 0.01386918 -0.008223177 -0.15128098
0.081159964 0.020582682 -0.1556532 -0.008066296 -0.14354047 -0.14996032 0.15890926 0.04556675
0.028377512 -0.28779286 -0.035275314 -0.017124603 0.036409035 0.30581218 -0.013119529 0.27430806
-0.16319546 -0.040379904 0.13997966 0.10070702 0.11598186 -0.60499746 -0.4819629 0.011001846
-0.11169711 0.019232811 -0.41065922 -0.3123572 -0.010912521 0.13240425 0.07709606 -0.17829542
-0.0146102365 -0.034503397 0.009174993 -0.057220906 0.069055304 0.121964164 -0.003302471 -0.002264576
0.021651158 -0.11096518 -0.050323408 -0.21281868 0.0696886 0.022399068 -0.110186 0.037022095
0.28911573 -0.051661793 -0.057935823 -0.07812619 -0.03962555 0.097422436 0.117590144 -0.051206034
-0.09094769 -0.21550316 -0.056213494 -0.16509193 0.21353047 0.0012602546 -0.022398664 -0.015306712
0.099436454 -0.17703561 0.023547238 0.030591808 0.20818503 0.037301023 0.026184062 0.078397855
0.15539311 -0.0768096 -0.068095036 -0.11499227 -0.15109585 0.05019893 0.16112304 -0.17909902
0.06939615 0.2083911 0.1871206 -0.17498213 0.02095181 -0.11117936 0.03573385 0.17059723
0.07850857 0.1037136 -0.041569326 -0.16296631 -0.0039021533 -0.113843955 0.071709745 -0.079885975
0.00974241 -0.11178123 -0.066248916 -0.03152633 -0.044026714 0.17567217 0.009670907 -0.017342404
0.12930502 0.13182706 -0.069544286 -0.19320698 -0.15918931 0.12536123 -0.15010223 0.15097441
-0.085774645 -0.20618814 -0.16029786 -0.03676717 -0.14091918 -0.018137602 0.11218767 0.061131004
0.098807245 0.12680139 -0.04500826 -0.094147936 0.10128873 0.118730545 -0.086486965 0.0029803186
0.16037343 -0.036067057 0.07344775 -0.15702567 -0.10167844 0.1144034 -0.106746845 0.02285686
-0.27152807 -0.022347195 0.04154266 -0.03062378 0.11944904 -0.15499458 0.0674202 -0.06829994
0.121180624 -0.04334778 -0.15222159 0.13630734 0.014323821 -0.054812383 0.34612122 0.01425073
-0.33130425 -0.24963942 -0.05512561 -0.031066006 -0.20389791 0.104383595 -0.22697371 -0.025597755
-0.23529214 0.15020482 0.081516005 -0.0035468184 0.042081047 -0.05158904 -0.17893852 -0.061467282
-0.1799564 0.16182584 0.10537523 -0.07104604 -0.16036089 -0.15570873 0.095691025 -0.008755833
-0.07997657 -0.06432399 -0.11816029 0.027779877 -0.1860064 0.010945708 -0.0492253 -0.21451569

net.0.bias f4 [100]
00000000: d009 3a3f dfe1 f33e 1b80 053f 3645 ef3e
00000010: b86f a63e 7212 2abe 02f6 1d3f 53fa ccbe
00000020: 5a80 f83e ac55 d43e 555f 8ebe ecb6 a7be
00000030: a889 c4bd e0e4 b7be 249e 633e 4dc0 31be
00000040: 46ff c3be 60ce 36be ea33 143f 6d00 db3e
00000050: a3d7 24bf 1ee5 94be 5e78 c3be ffb6 fe3e
00000060: 18dd 76be 8813 96be 36e9 66be 00f9 19be
00000070: 4cee 99be b281 bbbe fc95 a3bd d52b ba3e
00000080: f4ad 69be 007e 3fbe 8f39 f7be 9e57 0fbe
00000090: 1345 993e 391d 53be 60eb 2cbd 9fa1 2e3f
000000a0: eff4 0abe 4cc3 a93e 13b4 b23e 386c 1d3f
000000b0: bd2c 00be 98e0 2d3f 4ac2 f1be 0626 4fbe
000000c0: 95cc b6bd ab6a 023f edbf b13e 074f dbbe
000000d0: c535 273f cdf1 203f 0172 09be 062a 053f
000000e0: 9a96 40be 9ea8 c7bd c8d9 0b3f 8ae1 d7be
000000f0: 2ac5 6ebe 03c2 293f 761d 39be 9b63 013f
00000100: f888 533f e0fe 7abe 1439 a6be 99af a7be
00000110: 2787 d7be d822 c03e d8ee 36be ac6e 3dbe
00000120: 5c5c b1be f7ea e33e d0fb 5cbe 82ea a3be
00000130: 8936 a2be c0c2 df3e de5c cabe bbe0 c03e
00000140: 839d 913e ff54 94be cd26 173f 399e 073f
00000150: 11f2 02be 129b e43e 9b7c 133f b897 22be
00000160: f6c7 02bf cd9a a3be 660c de3e 8f27 f43e
00000170: 553e 92be 8bbc d73e 6a88 1dbe 5651 84bf
00000180: 53df 50be b7eb f7be bf24 b4be 0ad8 423f
0.7267122 0.47633263 0.521486 0.4673249 0.3250711 -0.16608599 0.61703503 -0.40034732
0.48535424 0.41471612 -0.27807108 -0.32756746 -0.09596568 -0.35916805 0.22228295 -0.17358513
-0.38280696 -0.17852163 0.57891715 0.42773762 -0.64391536 -0.29081053 -0.3817777 0.4974899
-0.24107778 -0.29311776 -0.225499 -0.15036392 -0.3006462 -0.36622387 -0.079875916 0.36361566
-0.22820264 -0.18700409 -0.482861 -0.13998267 0.29935512 -0.20616616 -0.04221666 0.68215364
-0.13569997 0.33156812 0.3490301 0.61493254 -0.12517066 0.6792083 -0.47218543 -0.20229349
-0.0892574 0.5094401 0.3471674 -0.4283373 0.6531642 0.6286896 -0.13422395 0.5201725
-0.1880745 -0.09748958 0.5462918 -0.4216426 -0.233174 0.66311663 -0.18077645 0.5054261
0.8263087 -0.2451129 -0.32465422 -0.32751158 -0.420953 0.37526584 -0.17864549 -0.18499249
-0.34640777 0.445152 -0.21580434 -0.32014853 -0.31682232 0.4370327 -0.39523977 0.37671456
0.28440484 -0.28971097 0.5904358 0.52975804 -0.12787654 0.4464956 0.5761201 -0.15878189
-0.51086366 -0.3195404 0.43368834 0.4768643 -0.2856318 0.42136034 -0.15384069 -1.0337322
-0.20397691 -0.48422024 -0.35184285 0.761109
