GPU_AE/model/wdgrl_3.pth (torch, 272390 bytes, 47 tensors)

net.0.weight f4 [64, 32]
-0.023213014 0.024867564 -0.034418806 -0.011967495 -0.050569206 -0.016531914 -0.11812194 -0.1545882
0.10511519 0.16057049 0.03291972 -0.0048228353 -0.05278402 0.12722386 0.14464392 -0.05804403
0.007965416 -0.10567079 0.16583271 -0.0880572 0.14846809 0.16880147 -0.11634134 -0.0016560555
0.025831595 -0.04855968 -0.14761439 0.020834163 0.0996532 -0.010405615 -0.16031049 -0.05524999
-0.034880042 0.15857957 0.08864419 0.06720932 -0.031367287 -0.05790121 -0.0790541 0.1322561
-0.15677047 -0.0066893846 -0.11116771 0.0029915571 0.039429784 -0.07470377 -0.06051436 -0.16500889
0.044754222 0.17258506 -0.06404585 0.07065472 -0.04772505 -0.013682514 0.17490159 -0.035101414
-0.14141908 0.00828442 -0.02547197 -0.01755248 0.047601223 0.0109347105 -0.010639399 -0.1608572
0.028202936 0.10738285 -0.04664834 0.11662857 0.010089025 -0.09436032 0.1611505 0.029812932
-0.13789815 -0.15115622 0.02124007 0.02654849 0.12953286 -0.17393415 -0.15396792 -0.119916946
0.117986485 -0.1424022 0.03193322 0.079091355 0.08985983 0.13795777 0.05544232 -0.17486243
-0.028368115 -0.0055348277 -0.089675255 0.14144932 0.08587645 -0.1555299 0.067523375 0.13185818
0.07174705 -0.11043667 -0.016512886 -0.16381626 -0.16997729 -0.1540804 -0.11886231 0.16831352
0.1391591 0.06238164 -0.15845358 0.059942827 -0.054273993 0.16932727 0.1365888 0.14657475
-0.062150314 0.10280831 0.014339387 0.14957823 -0.1707379 -0.13322997 0.048530266 -0.093105905
0.102169886 0.040624857 0.058278427 -0.012351856 -0.13700795 -0.043933302 -0.08162945 -0.15667248
-0.0046999604 -0.08839406 0.17308824 -0.1325847 0.13180979 -0.04849802 -0.11358776 0.062598675
0.11359571 -0.13540816 -0.02972585 0.04679872 0.1612214 -0.019333333 0.15702264 -0.05796399
0.016754389 -0.16413935 0.09412588 -0.07498638 0.12412213 -0.10855313 0.01786904 0.05000311
0.06296018 0.17353182 0.05486974 0.08728875 0.03146331 -0.13933778 -0.002738893 -0.09550805
0.15476711 -0.0647709 -0.1766644 0.16194992 -0.08950756 0.09442599 0.15288149 0.11136143
0.063923225 -0.16957428 0.05669038 -0.12346959 -0.12075141 0.08674924 0.17305954 0.12136756
0.1324661 0.04971926 -0.16929321 -0.034955263 0.0882899 -0.043259174 0.05553031 0.094146535
-0.03441809 0.052905604 0.06957695 0.15763615 -0.015323639 -0.13504979 -0.16808885 -0.13288933
-0.094680026 -0.017297506 0.10014205 -0.015754193 -0.16230741 0.1617579 -0.07797161 0.16151212
-0.07002854 0.013425097 0.0033937246 -0.09880656 0.07470541 0.07395996 0.009187698 -0.06540308
0.057203785 -0.16653621 0.039731354 0.09532596 0.09768365 0.07393636 -0.10784272 -0.028011054
-0.079593524 -0.107553996 0.12829794 -0.13909522 -0.1380243 0.057925493 -0.0106206685 -0.13668221
0.15408663 0.03064555 -0.06971571 0.038563088 0.10311271 0.026263773 0.12421064 -0.16287953
-0.007441953 0.008939445 -0.008543476 0.059087753 -0.037521735 0.122326985 0.014665797 -0.17631882
0.15802298 -0.1331114 -0.0023717135 0.021401048 0.11529069 0.12652592 0.0031377077 0.08375482
0.07702656 -0.04381077 0.17455523 0.12674485 0.027588204 -0.08177167 0.040412128 0.043861657
00000000: 3829 bebc 10b7 cb3c bcfa 0cbd 5013 44bc
00000010: a821 4fbd f06d 87bc eae9 f1bd 5e4c 1ebe
00000020: a246 d73d 976c 243e d4d6 063d e008 9ebb
00000030: 0e34 58bd f946 023e 891d 143e 94bf 6dbd
00000040: 6081 023c ed69 d8bd 0dd0 293e 5557 b4bd
00000050: 0508 183e 4bda 2c3e 5e44 eebd 0010 d9ba
00000060: c89c d33c 84e6 46bd 3a28 17be 68ac aa3c
00000070: fa16 cc3d 507c 2abc 6f28 24be d04d 62bd
00000080: 60de 0ebd af62 223e 168b b53d 0aa5 893d
00000090: fc7a 00bd d229 6dbd 1ee7 a1bd 256e 073e
000000a0: 7088 20be a032 dbbb e5ab e3bd 000e 443b
000000b0: 2081 213d 4afe 98bd e8dd 77bd 17f8 28be
000000c0: 3450 373d 23ba 303e 782a 83bd 6cb3 903d
000000d0: 587b 43bd a02c 60bc 6719 333e 80c6 0fbd
000000e0: 2ad0 10be 60bb 073c 98aa d0bc 38ca 8fbc
000000f0: 80f9 423d 8027 333c e050 2ebc c0b7 24be
00000100: d809 e73c 8aeb db3d 5412 3fbd f6da ee3d
00000110: 704c 253c fc3f c1bd a304 253e 403a f43c
00000120: 2c35 0dbe b2c8 1abe a8ff ad3c 387c d93c
00000130: 43a4 043e cb1b 32be c4a9 1dbe 0497 f5bd
00000140: e6a2 f13d e2d1 11be 68cc 023d a6fa a13d
00000150: 6e08 b83d cd44 0d3e 7c17 633d 230f 33be
00000160: 4064 e8bc 805d b5bb a9a7 b7bd 17d8 103e
00000170: fedf af3d 3b43 1fbe b249 8a3d d505 073e
00000180: 1ef0 923d 9f2c e2bd 0846 87bc 73bf 27be
00000190: 870e 2ebe 41c7 1dbe 156e f3bd 615a 2c3e
000001a0: b97f 0e3e e483 7f3d a841 22be 9c86 753d
000001b0: 684e 5ebd 2164 2d3e efdd 0b3e b117 163e
000001c0: 5491 7ebd 2a8d d23d c0ef 6a3c 092b 193e
000001d0: ebd5 2ebe 706d 08be acc7 463d 4fae bebd
000001e0: 723e d13d 4066 263d 5cb5 6e3d 705f 4abc
000001f0: d04b 0cbe 68f3 33bd 572d a7bd c06e 20be
00000200: 2002 9abb f207 b5bd 0b3e 313e 49c4 07be
00000210: 25f9 063e dca5 46bd b3a0 e8bd bc33 803d
00000220: dea4 e83d 70a8 0abe a083 f3bc 04b0 3f3d
00000230: 3917 253e f060 9ebc 8bca 203e a66b 6dbd
00000240: 8040 893c 2514 28be 12c5 c03d 7692 99bd
00000250: be33 fe3d 1a51 debd 1862 923c 10d0 4c3d
00000260: 44f1 803d 53b2 313e 18bf 603d 72c4 b23d
00000270: acdf 003d 90ae 0ebe 007f 33bb b999 c3bd
00000280: 457b 1e3e 9ba6 84bd 83e7 34be 33d6 253e
00000290: bd4f b7bd 6a62 c13d f78c 1c3e 7611 e43d
000002a0: 2eea 823d e1a4 2dbe 2c34 683d a0dd fcbd
000002b0: 844c f7bd 96a9 b13d 8536 313e 8e8f f83d
000002c0: 31a5 073e 6ca6 4b3d 335b 2dbe 402d 0fbd
000002d0: 56d1 b43d 8830 31bd c073 633d e6cf c03d
000002e0: fcf9 0cbd 8cb3 583d 5c7e 8e3d 5f6b 213e
000002f0: 0010 7bbc 7e4a 0abe 7c1f 2cbe 2414 08be
00000300: 9ae7 c1bd 80b3 8dbc 4617 cd3d f00e 81bc
00000310: ea33 26be dda3 253e 94af 9fbd 6f63 253e
00000320: 206b 8fbd f0f4 5b3c 4069 5e3b 185b cabd
00000330: 26ff 983d 5278 973d 0088 163c 0df2 85bd
00000340: 844e 6a3d 7888 2abe 58bd 223d 423a c33d
00000350: 5e0e c83d f26b 973d a5dc dcbd 7077 e5bc
00000360: ee01 a3bd 4545 dcbd 8960 033e fa6e 0ebe
00000370: 3e56 0dbe 4843 6d3d 5002 2ebc 6cf6 0bbe
00000380: e3c8 1d3e 600c fb3c 1cc7 8ebd 54f4 1d3d
00000390: c22c d33d 2027 d73c 2662 fe3d e4c9 26be
000003a0: a0db f3bb c076 123c f0f9 0bbc 0006 723d
000003b0: 64b0 19bd 9286 fa3d d048 703c ec8c 34be
000003c0: c7d0 213e 5b4e 08be c06e 1bbb 4051 af3c
000003d0: 861d ec3d 0390 013e 00a2 4d3b a687 ab3d
000003e0: 1ac0 9d3d ec72 33bd 9bbe 323e 67c9 013e
000003f0: a800 e23c e877 a7bd 3087 253d 48a8 333d

net.0.bias f4 [64]
0.014339566 0.042293638 -0.054640144 -0.05731845 -0.07342935 0.005196944 -0.04904759 -0.10432995
0.055236652 -0.09591004 0.014777303 0.06025511 0.003945008 0.16529451 0.008655027 0.059870392
0.16415669 -0.12324341 -0.00023165345 0.16406496 -0.040770307 -0.08770287 -0.11651625 0.06994137
-0.12782082 -0.11512289 0.11992471 0.048697457 0.026134834 0.051570013 -0.17188936 -7.291138e-05
0.15884538 -0.07133798 -0.16898102 -0.13874939 0.15153845 0.02696602 0.10345997 -0.10905965
0.01727292 -0.08857234 -0.117287576 -0.13816158 -0.11278716 0.07800825 0.111264214 -0.0019978732
0.12062861 0.017877847 0.061026275 0.08720122 -0.04953593 -0.12990537 -0.027094379 0.013229936
-0.106908955 0.09325455 -0.1394993 0.06219372 0.10866718 -0.053447306 0.07808559 0.016111284
00000000: 80f0 6a3c 183c 2d3d 58ce 5fbd c0c6 6abd
00000010: 2162 96bd 204b aa3b 20e6 48bd f1aa d5bd
00000020: d43f 623d 7c6c c4bd 801c 723c 10ce 763d
00000030: 2045 813b f742 293e d0cd 0d3c a83a 753d
00000040: b118 283e 0a67 fcbd 00e8 72b9 a500 283e
00000050: c4fe 26bd 909d b3bd 12a0 eebd 6c3d 8f3d
00000060: 76e3 02be 8dc5 ebbd 169b f53d fc76 473d
00000070: b818 d63c 143b 533d c403 30be 00e8 98b8
00000080: 5da8 223e a619 92bd 5c09 2dbe 5214 0ebe
00000090: e52c 1b3e d8e7 dc3c d2e2 d33d aa5a dfbd
000000a0: f07f 8d3c 6a65 b5bd 7834 f0bd 3b7a 0dbe
000000b0: f4fc e6bd cac2 9f3d 7ede e33d c0ee 02bb
000000c0: 220c f73d 9074 923c b0f6 793d 8e96 b23d
000000d0: 30e6 4abd ea05 05be 08f5 ddbc 60c2 583c
000000e0: 15f3 dabd 3efc be3d e8d8 0ebe d8be 7e3d
000000f0: e68c de3d 90eb 5abd 56eb 9f3d d0fb 833c

net.2.weight f4 [64, 64]
0.0529889 -0.009060189 0.006926328 0.0059009194 -0.017959729 -0.0014252514 0.028756782 -0.0029737502
0.017389849 -0.11335869 0.05380255 -0.058971047 0.12184812 -0.12355314 -0.032739013 0.092214614
-0.060123503 0.092056826 -0.11670685 0.086707756 0.034784585 0.011050642 -0.08975391 0.062104568
0.029822603 0.011768997 -0.07586688 0.0075423867 -0.009875968 0.01991655 0.017537072 -0.11624396
0.009027079 -0.0031494051 0.025567219 -0.020970285 0.029192492 -0.11654368 -0.0071448386 0.06963168
0.02766633 0.019950598 0.033832386 -0.10818888 0.084285155 0.050581798 -0.039420992 0.058467194
0.043180957 -0.013546839 -0.086498424 -0.114563674 -0.007376626 -0.017297938 -0.08208819 0.056187153
0.06966643 0.08156456 -0.09791465 -0.11277655 -0.062868714 -0.104744926 -0.10177 -0.026345238
-0.11282252 0.006549403 0.1107883 0.08758645 0.118160054 0.08748071 0.0026366115 0.07503459
0.037288606 -0.10843505 -0.11804384 -0.03210333 0.0977636 0.039995372 -0.07320517 -0.032882333
0.06299327 -0.02241762 -0.080748916 0.08499898 0.0098324865 -0.053395465 0.0698493 0.030024052
-0.037560582 -0.06643212 -0.123542264 -0.025652722 0.10930228 0.081118405 -0.058023736 0.11788343
0.049729347 -0.063897416 0.06943585 -0.040576383 0.0794459 0.11549781 0.02506353 0.033104196
-0.026013672 0.07911323 -0.050570562 0.022831947 -0.05234641 -0.08400324 -0.056649685 -0.04636666
0.12269975 0.011043787 0.040203586 0.09692787 -0.123121366 -0.09900972 -0.066232815 -0.06337154
-0.060159907 -0.091131315 -0.024159014 -0.11469346 0.08501816 -0.06903739 0.10283995 -0.046963796
0.10860397 -0.011943668 -0.033614352 -0.08351529 -0.016340792 0.044729546 -0.069104075 0.01281473
-0.10034262 -0.111085966 -0.043980166 -0.08830772 -0.09614089 0.053558633 -0.0133678615 -0.06586653
-0.10474637 -0.10070108 0.046225175 -0.10856657 0.019388765 -0.07547028 0.09319495 0.10478051
0.013201207 -0.028853104 -0.12060544 -0.121278 0.06581332 -0.046348467 0.11070299 -0.014850602
0.062396124 0.119019955 -0.04852301 0.10138875 -0.036185637 0.040043816 0.119485304 0.002078712
0.049552873 -0.040584892 0.07154927 -0.11653037 -0.0940889 0.02182135 -0.026980862 0.018352255
0.06329006 0.06863508 -0.013875693 -0.0964385 -0.028655767 -0.013816968 -0.051843837 0.08883111
0.08294779 -0.08125545 0.06955317 -0.0736544 0.090860575 -0.068338886 -0.056721956 -0.058275104
0.097171664 0.027424932 -0.054366976 0.009188801 -0.09404437 0.09847954 0.048585325 0.08683543
-0.066382796 0.06870289 -0.029274449 0.019702658 0.04558137 -0.09466645 -0.022765249 -0.06955415
0.06691159 -0.011450499 -0.032470748 0.09274322 -0.028815448 0.10777113 -0.09698522 0.054189533
-0.014890626 -0.024422243 -0.07326123 0.023006871 0.085474 0.09793748 0.11562508 0.08823657
0.10178302 0.08268987 -0.052277148 -0.08644535 -0.07847214 -0.036625236 -0.018343806 -0.018699527
-0.0949945 0.0127212405 0.10890551 -0.0839362 -0.021713257 -0.052900463 0.12308347 0.087180585
0.06413278 0.03992021 -0.03661853 -0.124952465 0.030503735 0.050418705 -0.11323309 -0.08337279
0.013973549 -0.079004884 -0.115011916 0.047236726 -0.07237792 0.03866613 -0.017514512 -0.03293766
00000000: e40a 593d 3071 14bc 40f6 e23b 805c c13b
00000010: 4820 93bc 80cf baba 5893 eb3c 40e3 42bb
00000020: 2875 8e3c 9a28 e8bd 1060 5c3d a08b 71bd
00000030: 828b f93d 6e09 fdbd 5819 06bd 04db bc3d
00000040: 1044 76bd 4a88 bc3d 0004 efbd d693 b13d
00000050: 487a 0e3d c00d 353c e6d0 b7bd 5c61 7e3d
00000060: 884e f43c c0d2 403c 1860 9bbd 2026 f73b
00000070: d0ce 21bc 0828 a33c e8a9 8f3c 5011 eebd
00000080: 50e6 133c 4066 4ebb 5872 d13c e0c9 abbc
00000090: 1825 ef3c 74ae eebd 401f eabb 0e9b 8e3d
000000a0: 80a4 e23c 706f a33c d493 0a3d 2292 ddbd
000000b0: b29d ac3d dc2e 4f3d e877 21bd 4c7b 6f3d
000000c0: 84de 303d 90f3 5dbc 1626 b1bd 5ca0 eabd
000000d0: a0b7 f1bb 68b4 8dbc da1d a8bd 8024 663d
000000e0: 46ad 8e3d 520b a73d 7a87 c8bd 64f7 e6bd
000000f0: 50c1 80bd 8284 d6bd ca6c d0bd f8d1 d7bc
00000100: 7e0f e7bd 609c d63b fae4 e23d 8660 b33d
00000110: e6fd f13d 1629 b33d 00cb 2c3b bcab 993d
00000120: f0bb 183d 3213 debd f8c0 f1bd c87e 03bd
00000130: 4838 c83d 30d2 233d 98ec 95bd a0af 06bd
00000140: 9e02 813d 28a5 b7bc b05f a5bd f213 ae3d
00000150: 7018 213c 34b5 5abd 260d 8f3d 00f5 f53c
00000160: 20d9 19bd 900d 88bd ba03 fdbd a825 d2bc
00000170: e0d9 df3d 6821 a63d 4caa 6dbd de6c f13d
00000180: 00b1 4b3d a6dc 82bd 6234 8e3d 6c33 26bd
00000190: 88b4 a23d 1e8a ec3d 0852 cd3c 4498 073d
000001a0: a01a d5bc 1e06 a23d 1423 4fbd 100a bb3c
000001b0: 3069 56bd e409 acbd 8009 68bd f8ea 3dbd
000001c0: 024a fb3d 00f1 343c 84ac 243d 1e82 c63d
000001d0: 0e27 fcbd 9cc5 cabd 12a5 87bd f0c8 81bd
000001e0: 3c6a 76bd 0ea3 babd 20e9 c5bc 68e4 eabd
000001f0: 001e ae3d 7a63 8dbd c09d d23d 1c5d 40bd
00000200: c26b de3d 60af 43bc 34af 09bd 100a abbd
00000210: 20dd 85bc 5436 373d 7086 8dbd e0f4 513c
00000220: 6e80 cdbd 0a81 e3bd 8c24 34bd aeda b4bd
00000230: 84e5 c4bd 4c60 5b3d e004 5bbc 08e5 86bd
00000240: 4485 d6bd 5e3c cebd 9c56 3d3d 2658 debd
00000250: 30d5 9e3c 2a90 9abd fedc be3d 2a97 d63d
00000260: e049 583c 585d ecbc fcff f6bd 9a60 f8bd
00000270: 22c9 863d e4d7 3dbd 40b8 e23d f04f 73bc
00000280: 1493 7f3d bcc0 f33d 10c0 46bd e8a4 cf3d
00000290: 6437 14bd fc04 243d b6b4 f43d 003b 083b
000002a0: f4f7 4a3d 583c 26bd 6c88 923d 7aa7 eebd
000002b0: aeb1 c0bd b0c2 b23c f806 ddbc 7857 963c
000002c0: 389e 813d 8c90 8c3d e056 63bc 8c81 c5bd
000002d0: 80bf eabc 9060 62bc 345a 54bd 16ed b53d
000002e0: 88e0 a93d 4269 a6bd e471 8e3d 1ed8 96bd
000002f0: 1c15 ba3d 42f5 8bbd 4855 68bd e0b1 6ebd
00000300: f001 c73d 40aa e03c e8af 5ebd a08c 163c
00000310: 569a c0bd a4af c93d 6801 473d c6d6 b13d
00000320: b4f3 87bd 1ab4 8c3d f8d0 efbc 7867 a13c
00000330: 88b3 3a3d 7ce0 c1bd 307e babc 6872 8ebd
00000340: f208 893d e09a 3bbc 0c00 05bd 28f0 bd3d
00000350: 600e ecbc 1cb7 dc3d 30a0 c6bd d8f5 5d3d
00000360: d0f7 73bc 2811 c8bc fc09 96bd e878 bc3c
00000370: fe0c af3d 7293 c83d d8cc ec3d 60b5 b43d
00000380: 9e73 d03d 4e59 a93d 9020 56bd 420a b1bd
00000390: 00b6 a0bd 5804 16bd c045 96bc c02f 99bc
000003a0: 7a8c c2bd c06c 503c da09 df3d bee6 abbd
000003b0: 00e0 b1bc 28ae 58bd 3013 fc3d bc8b b23d
000003c0: 0c58 833d 6083 233d 50fd 15bd 14e7 ffbd
000003d0: f8e2 f93c d883 4e3d c0e6 e7bd 5abf aabd
000003e0: 50f1 643c 50cd a1bd 5e8b ebbd 4c7b 413d
000003f0: e03a 94bd 6060 1e3d 987a 8fbc a4e9 06bd

net.2.bias f4 [64]
-0.07999219 0.07733221 0.11645588 0.06986064 -0.005544424 0.037839666 0.03188713 -0.0808768
0.076333165 0.053480193 -0.08501352 -0.0074615926 -0.05082473 -0.11563666 0.07506724 -0.011163816
-0.0025862753 0.053614974 0.07280135 -0.04816228 -0.026585817 0.039257526 -0.01184985 -0.10049318
-0.1235614 0.028428078 0.08943175 -0.0251095 0.11685766 0.023565367 -0.12329584 -0.087788716
-0.073398024 -0.117974 -0.09010185 0.09386714 -0.013352007 -0.002769947 -0.031542346 0.09742412
0.08383241 0.11547938 0.07515773 -0.091931045 0.05310671 -0.071602136 0.03544064 0.018339738
-0.0054772794 0.0066541433 -0.088137224 -0.0070546567 0.11253758 -0.11979006 -0.05682127 0.04406655
0.062854975 0.0024305135 -0.12297362 -0.09553003 -0.038542077 0.001532048 0.10381225 -0.089827806
00000000: f2d2 a3bd 5a60 9e3d 6c80 ee3d 1813 8f3d
00000010: 00ae b5bb c4fd 1a3d 149c 023d bca2 a5bd
00000020: 9054 9c3d 0c0e 5b3d 921b aebd 6080 f4bb
00000030: 982d 50bd ead2 ecbd dabc 993d 70e8 36bc
00000040: 807e 29bb 609b 5b3d e018 953d d045 45bd
00000050: 80ca d9bc 80cc 203d e025 42bc 5ecf cdbd
00000060: c20d fdbd 00e2 e83c fe27 b73d 70b2 cdbc
00000070: 1253 ef3d 280c c13c 8882 fcbd 92ca b3bd
00000080: b451 96bd 5a9c f1bd 5287 b8bd 6a3d c03d
00000090: 60c2 5abc 0088 35bb 8c32 01bd 4c86 c73d
000000a0: 54b0 ab3d 7480 ec3d 4cec 993d 5846 bcbd
000000b0: 6c86 593d 24a4 92bd 342a 113d 383d 963c
000000c0: c07a b3bb 000b da3b 4a81 b4bd c02a e7bb
000000d0: 1a7a e63d 7e54 f5bd 6cbd 68bd 207f 343d
000000e0: 1cba 803d 4049 1f3b 98d9 fbbd 40a5 c3bd
000000f0: 4cde 1dbd 00cf c83a 849b d43d a4f7 b7bd

net.4.weight f4 [64, 64]
0.11847848 -0.10925177 0.07346602 -0.09666173 -0.07031049 -0.061480448 0.11601508 0.0462119
0.06242822 0.009538919 -0.008562908 0.09850778 0.082560375 0.11864562 -0.06379835 0.020290434
-0.048882455 -0.11100046 0.06786485 0.010216832 -0.064721555 0.057040423 -0.003987372 0.032782122
0.092217386 0.04462935 -0.022958785 0.022164658 0.06436102 0.02261962 0.07908249 0.0957271
-0.06479938 0.04785335 -0.1020945 0.11224261 0.04331267 -0.057209596 -0.05315581 0.08977635
-0.036947533 -0.058194652 0.055975303 0.11583246 -0.09507182 0.020711765 0.008898616 -0.08586301
-0.029031754 0.047236934 0.039973155 0.07678063 -0.027618483 0.008461252 -0.077359885 0.08426647
0.09246495 -0.119630456 0.07622495 0.056321338 0.040506393 -0.009133995 0.08600217 0.120533586
-0.013687357 0.12437117 -0.08989525 -0.023122475 -0.019432396 0.08564925 -0.10408723 0.046076596
0.113656715 -0.046127424 -0.03969267 0.07418737 -0.03450364 -0.021205053 0.109143436 -0.00799948
0.05287154 0.042811796 0.10199763 0.023505941 -0.058475345 -0.09267528 -0.043334693 0.045389026
0.12326279 -0.0038401783 0.08360523 0.06184633 -0.12043126 -0.076728866 0.10379183 -0.028103784
0.007870272 0.068187326 0.06327216 -0.07641925 -0.034977406 0.044829175 0.08869545 -0.042652577
0.06339142 0.07733178 -0.046784356 0.032376558 0.027042717 -0.0075778365 -0.066203594 0.088070214
-0.11430515 -0.121258765 0.09764896 -0.048009276 -0.029478863 0.0686024 0.034909993 -0.03185922
0.04084304 -0.11736342 0.098541185 -0.08901635 0.10128391 -0.08412257 -0.07283488 -0.08364645
0.11514196 -0.11394264 0.09709978 0.04251741 0.08880541 0.06696612 0.019135445 -0.031773508
0.116012424 0.06515533 -0.070255086 -0.05091639 -0.03372374 0.11432029 0.088792905 -0.00488241
0.08568069 -0.09041417 0.016756848 0.020629093 -0.054414496 0.018204644 0.015322089 -0.046040103
0.017882735 0.07443762 0.08750261 0.06017372 -0.08078478 -0.054583773 -0.05651726 -0.09245385
-0.107971445 -0.065360636 -0.020354941 -0.059182912 -0.12122147 -0.06998858 -0.023246095 0.108521685
-0.09438746 -0.108672604 -0.04215561 -0.08965847 -0.007863715 0.09411278 -0.062392235 -0.1059829
-0.0010956079 -0.08187927 0.09225081 -0.03247574 0.09152201 0.029523507 -0.08098483 -0.116859406
0.010947913 0.029462531 -0.10726072 -0.027684659 -0.1107371 -0.014086589 -0.07833955 -0.001439631
0.040959015 0.11154808 0.087816134 -0.0016941875 -0.080501765 -0.0574103 0.120447636 0.041601107
-0.095250025 -0.09230985 0.006709948 -0.042352274 0.120587006 0.020250455 -0.021687463 0.020523638
-0.12271914 -0.048537403 -0.12296103 0.09405644 0.09944224 0.111408055 -0.11052048 0.01423347
-0.02872914 0.09133701 0.065028355 -0.08338477 -0.08969648 -0.066825435 -0.011152819 0.086183146
0.117784485 0.06454137 0.019286245 0.079154626 -0.10248144 -0.077073336 -0.014469221 0.062586546
-0.035033613 0.08689907 -0.059314802 0.011077866 -0.046812534 -0.052133515 -0.06841762 -0.08457984
-0.035367996 -0.06966537 0.047939047 0.012288988 0.022845164 -0.07836555 -0.05156584 0.08569479
-0.03504221 0.03247693 -0.012286633 -0.11639483 -0.05352941 0.046794623 -0.11929113 -0.06302215
00000000: d8a4 f23d 64bf dfbd 5a75 963d 96f6 c5bd
00000010: f2fe 8fbd ecd2 7bbd 5099 ed3d b048 3d3d
00000020: bcb4 7f3d 2049 1c3c 704b 0cbc 72be c93d
00000030: 6a15 a93d 7afc f23d b6a8 82bd 2038 a63c
00000040: f838 48bd 3654 e3bd bafc 8a3d 8064 273c
00000050: bc8c 84bd 38a3 693d 80a8 82bb 8c46 063d
00000060: 78dc bc3d 44cd 363d 1014 bcbc a892 b53c
00000070: b6cf 833d c84c b93c 00f6 a13d 920c c43d
00000080: 8ab5 84bd e001 443d ec16 d1bd 74df e53d
00000090: a068 313d 9c54 6abd e8b9 59bd aadc b73d
000000a0: 4c56 17bd 845d 6ebd 5c46 653d 9239 ed3d
000000b0: 04b5 c2bd b8ab a93c 80cb 113c f2d8 afbd
000000c0: 00d4 edbc 847b 413d e4ba 233d 2a3f 9d3d
000000d0: 2840 e2bc 10a1 0a3c dc6e 9ebd e693 ac3d
000000e0: 445e bd3d d000 f5bd d41b 9c3d 34b1 663d
000000f0: 08ea 253d c0a6 15bc e821 b03d 50da f63d
00000100: f040 60bc 50b6 fe3d 001b b8bd 586b bdbc
00000110: b030 9fbc e068 af3d b02b d5bd d0ba 3c3d
00000120: dac4 e83d 1cf0 3cbd c894 22bd 8cef 973d
00000130: b053 0dbd 38b6 adbc 9886 df3d 4010 03bc
00000140: d48f 583d 6c5b 2f3d 22e4 d03d 888f c03c
00000150: d883 6fbd 8acc bdbd b87f 31bd d8e9 393d
00000160: 3471 fc3d 80ab 7bbb 3839 ab3d 9452 7d3d
00000170: aaa4 f6bd 0624 9dbd d090 d43d e839 e6bc
00000180: 50f2 003c cca5 8b3d d694 813d b281 9cbd
00000190: 7844 0fbd cc9e 373d f6a5 b53d 78b4 2ebd
000001a0: 5cd3 813d 2060 9e3d f4a0 3fbd 489d 043d
000001b0: b088 dd3c 804f f8bb c095 87bd 285e b43d
000001c0: d218 eabd 8456 f8bd 2efc c73d 60a5 44bd
000001d0: a87d f1bc 6a7f 8c3d c8fd 0e3d d07e 02bd
000001e0: 084b 273d 3c5c f0bd f6cf c93d 344e b6bd
000001f0: f06d cf3d 7448 acbd 742a 95bd d44e abbd
00000200: 8ccf eb3d c25a e9bd 40dc c63d bc26 2e3d
00000210: 9cdf b53d 8825 893d f0c1 9c3c f024 02bd
00000220: ec97 ed3d 2870 853d e6e1 8fbd b48d 50bd
00000230: e821 0abd c220 ea3d 0ed9 b53d a0fc 9fbb
00000240: 5c79 af3d 102b b9bd a845 893c 58fe a83c
00000250: bce1 5ebd e821 953c 8009 7b3c 8c94 3cbd
00000260: d07e 923c c072 983d 9234 b33d b878 763d
00000270: 7e72 a5bd 3c93 5fbd a47e 67bd 7258 bdbd
00000280: 2220 ddbd ccdb 85bd 68bf a6bc c869 72bd
00000290: f642 f8bd 2c56 8fbd 986e bebc 9e40 de3d
000002a0: 364e c1bd be8f debd 5cab 2cbd dc9e b7bd
000002b0: d0d6 00bc 34be c03d 008f 7fbd 900d d9bd
000002c0: 809a 8fba 52b0 a7bd feed bc3d 4805 05bd
000002d0: e46f bb3d 48db f13c 60db a5bd fc53 efbd
000002e0: e05e 333c 685b f13c 82ab dbbd f0ca e2bc
000002f0: 22ca e2bd 70cb 66bc 7c70 a0bd 00b2 bcba
00000300: a4c4 273d 5273 e43d f2d8 b33d 800f deba
00000310: 1cde a4bd 1027 6bbd 40ad f63d ec65 2a3d
00000320: 7212 c3bd f20c bdbd 20df db3b 9479 2dbd
00000330: 52f6 f63d 48e4 a53c e8a9 b1bc 3021 a83c
00000340: 2c54 fbbd 28cf 46bd fed2 fbbd aaa0 c03d
00000350: 60a8 cb3d e829 e43d 9058 e2bd 8033 693c
00000360: 6059 ebbc e60e bb3d 962d 853d a2c5 aabd
00000370: cab2 b7bd c6db 88bd 50ba 36bc ca80 b03d
00000380: fe38 f13d 442e 843d 30fe 9d3c d21b a23d
00000390: cae1 d1bd a0d8 9dbd 5010 6dbc 602d 803d
000003a0: 687f 0fbd 24f8 b13d 14f4 72bd f07f 353c
000003b0: 80be 3fbd f489 55bd 8a1e 8cbd 3238 adbd
000003c0: 08de 10bd b8ac 8ebd bc5b 443d c057 493c
000003d0: c825 bb3c 1e7e a0bd b436 53bd c080 af3d
000003e0: 6c88 0fbd 8806 053d e04d 49bc 6a60 eebd
000003f0: a841 5bbd b8ab 3f3d e84e f4bd c211 81bd

net.4.bias f4 [64]
-0.11228238 0.092770636 0.0071757734 0.07326214 -0.10044719 0.08417228 -0.002891913 0.11852914
-0.11583494 -0.04219079 -0.011802644 0.046675503 0.06515914 0.019761741 -0.10768564 -0.11406255
-0.085495114 -0.008069828 -0.03554088 0.075616464 0.03914489 0.051579595 0.052802235 -0.115324214
0.0772855 0.07976478 -0.04236859 0.092522085 0.027519971 0.03632039 0.058639854 0.005808592
-0.00028318167 0.09324914 -0.1054855 -0.016432106 -0.12409982 -0.021408334 0.02355446 0.025535628
-0.052004173 -0.052174166 -0.042937413 -0.03205484 -0.010694817 0.06481953 -0.066447794 0.04342267
-0.03882608 -0.008014515 0.084592745 -0.060496658 0.050384894 -0.08469877 0.041016012 -0.0985889
0.059529647 -0.06218326 -0.11161442 -0.037157297 0.028833821 -0.036893263 0.07137509 0.042574614
00000000: 4ef4 e5bd 88fe bd3d c022 eb3b 760a 963d
00000010: 42b7 cdbd 8462 ac3d 4086 3dbb 68bf f23d
00000020: de3a edbd 40d0 2cbd e05f 41bc d02e 3f3d
00000030: 2872 853d 60e3 a13c 4a8a dcbd a099 e9bd
00000040: 1018 afbd 5037 04bc 5093 11bd cedc 9a3d
00000050: 6456 203d 2045 533d 2847 583d 1a2f ecbd
00000060: dc47 9e3d b85b a33d b08a 2dbd 387c bd3d
00000070: 9071 e13c b0c4 143d 5830 703d 0056 be3b
00000080: 0078 94b9 68f9 be3d c808 d8bd a09c 86bc
00000090: 0c28 febd 8860 afbc 48f5 c03c 1830 d13c
000000a0: 5402 55bd 94b4 55bd 24df 2fbd f04b 03bd
000000b0: 5039 2fbc 1ac0 843d c815 88bd f8db 313d
000000c0: 1808 1fbd 504f 03bc f63e ad3d 58cb 77bd
000000d0: 6460 4e3d 8c76 adbd 6800 283d fae8 c9bd
000000e0: 5cd5 733d e0b3 7ebd 1a96 e4bd 4032 18bd
000000f0: e834 ec3c 641d 17bd 1a2d 923d b862 2e3d

net.6.weight f4 [64, 64]
0.077408955 -0.081388384 0.027565181 -0.04446046 -0.09682953 0.07757479 0.116126 -0.11775038
-0.0105769485 0.09914887 -0.10261412 0.12278496 -0.02577424 -0.10885239 -0.028831273 0.039472863
-0.11883232 -0.05818498 0.11918199 0.040573925 0.0111320615 0.024855494 -0.08246699 -0.035314634
-0.09232792 0.10053626 0.013086006 0.02543348 -0.0040174425 -0.069970876 -0.112197906 0.08586973
0.019195944 -0.1190002 0.018316865 -0.032087654 -0.016841814 0.07575819 -0.085653186 -0.06369096
0.1153654 -0.07133593 0.06710908 0.09885219 -0.037542045 0.061787784 0.034906566 0.053072453
-0.1167192 -0.0039151907 0.05680658 0.09704526 -0.11178064 0.09462835 -0.04422763 -0.07247269
-0.08071695 0.0035535544 -0.0350094 0.080540836 0.09163344 -0.011155248 -0.022467777 0.117543355
0.119398415 0.00480859 0.11882976 0.113254055 -0.10302083 -0.060676366 0.07225415 -0.041118234
0.062138066 0.02753912 -0.09855117 -0.115902334 -0.06056899 -0.049830675 -0.00095002353 -0.034045815
-0.023676395 0.069388196 -0.06954467 0.017426416 -0.02072145 -0.08831476 0.029717356 -0.027261674
0.008822843 0.03347437 -0.067389175 0.12023234 0.09657706 -0.03059569 0.056322083 -0.0076711327
0.11544128 0.08375603 -0.08703166 -0.036501557 -0.026022494 -0.018260896 0.03873016 -0.061998352
-0.061084688 0.028545633 0.054320022 0.02940175 0.078464866 -0.027552143 0.08937143 0.1204339
-0.06365435 0.08783649 0.0016645193 -0.039363265 0.016889185 -0.022459209 -0.09325592 -0.05199109
-0.084878236 -0.10734439 -0.06714471 -0.07612215 -0.054623663 -0.0052054822 -0.017457128 -0.029119864
0.098737806 0.05498399 -0.03644654 -0.032529473 0.03361003 -0.051470444 0.019773826 -0.096238256
0.025342092 0.03305611 -0.105680585 0.02489248 -0.03265761 0.120272964 -0.10583593 -0.12089963
0.1186219 -0.103343666 -0.09350853 0.10999848 0.11411071 0.05982475 0.082895264 -0.050725818
-0.068613246 0.114093706 0.027506754 0.04828112 -0.039253354 0.023721278 -0.080372155 -0.04555531
0.013566837 0.114410505 -0.045662418 -0.01658 0.107085556 0.09524576 0.07623644 -0.015837729
0.038116783 0.028335035 -0.11291756 -0.06849654 0.06289545 0.049534753 0.08645038 0.09899606
0.103134155 -0.014585197 0.045897484 0.101857975 -0.083630025 0.065827295 0.032094136 0.0032996535
0.07478809 -0.09449975 -0.0037233531 0.0012747645 -0.06344864 -0.06620565 -0.029500753 -0.0887299
0.052069053 0.0076956004 0.07615909 0.0740145 -0.01910074 -0.08129077 -0.12291464 0.019573659
0.04370506 -0.057679668 -0.085974514 -0.08202121 -0.0176249 0.06846574 -0.07646887 -0.11429927
-0.048830718 0.007961601 0.069011405 0.062291294 -0.079064816 0.12463586 0.08113216 0.09261906
0.10096526 0.09425335 0.048009083 0.0377423 0.02840957 0.012682408 0.021353647 -0.07890956
-0.085315704 -0.07477875 0.008818403 0.09166084 0.0010741204 0.06948128 -0.033902302 -0.06861305
0.081511125 -0.094653904 0.108744085 0.06326251 -0.04400012 0.108628705 0.0158052 0.09519601
-0.09288202 -0.060012862 0.060107797 0.035771683 0.053155065 0.045783088 -0.0069493502 -0.11973265
-0.009808272 0.11357601 -0.054553807 0.059822127 0.061034083 -0.11226721 0.092067 0.111623585
00000000: 9688 9e3d f4ae a6bd 60d0 e13c 2c1c 36bd
00000010: 904e c6bd 88df 9e3d 78d3 ed3d 1c27 f1bd
00000020: f04a 2dbc 900e cb3d 5a27 d2bd ae76 fb3d
00000030: 8024 d3bc 00ee debd 902f ecbc 4cae 213d
00000040: 5c5e f3bd 6053 6ebd b015 f43d d830 263d
00000050: 4063 363c c09d cb3c 74e4 a8bd 14a6 10bd
00000060: 6c16 bdbd f4e5 cd3d b066 563c e059 d03c
00000070: c0a4 83bb e44c 8fbd 04c8 e5bd 78dc af3d
00000080: d040 9d3c 60b6 f3bd 400d 963c 586e 03bd
00000090: d8f7 89bc 1c27 9b3d f06a afbd 6870 82bd
000000a0: b244 ec3d 9218 92bd 7c70 893d 0473 ca3d
000000b0: b0c5 19bd 3015 7d3d 30fa 0e3d 8062 593d
000000c0: 7a0a efbd 004b 80bb 04ae 683d aabf c63d
000000d0: 40ed e4bd 82cc c13d 0828 35bd 906c 94bd
000000e0: ee4e a5bd c0e2 683b 0466 0fbd 98f2 a43d
000000f0: 50aa bb3d 80c4 36bc 580e b8bc 92ba f03d
00000100: 2887 f43d 6091 9d3b 045d f33d bef1 e73d
00000110: 96fc d2bd c887 78bd fcf9 933d 986b 28bd
00000120: 7c84 7e3d b899 e13c 32d5 c9bd 345e edbd
00000130: 3017 78bd 401b 4cbd 000b 79ba a073 0bbd
00000140: 00f5 c1bc 661b 8e3d 706d 8ebd d8c1 8e3c
00000150: 08c0 a9bc 5ede b4bd d071 f33c e053 dfbc
00000160: b08d 103c 6c1c 093d 5603 8abd 603c f63d
00000170: 32ca c53d d0a3 fabc fcb1 663d 205e fbbb
00000180: 7a6c ec3d 4888 ab3d a83d b2bd a882 15bd
00000190: 202d d5bc e097 95bc 84a3 1e3d fcf1 7dbd
000001a0: f033 7abd 88d8 e93c ac7e 5e3d f0db f03c
000001b0: 30b2 a03d 08b5 e1bc 5e08 b73d 0ca6 f63d
000001c0: 365d 82bd 9ee3 b33d 002c da3a 603b 21bd
000001d0: 305b 8a3c 60fc b7bc f6fc bebd 9cf4 54bd
000001e0: a4d4 adbd 60d7 dbbd 2a83 89bd eee5 9bbd
000001f0: 10bd 5fbd c092 aabb 4002 8fbc c88c eebc
00000200: 0c37 ca3d e436 613d f848 15bd a03d 05bd
00000210: acaa 093d acd2 52bd b8fc a13c 9018 c5bd
00000220: 389a cf3c d865 073d 106f d8bd 50eb cb3c
00000230: fcc3 05bd ac51 f63d 82c0 d8bd 3a9a f7bd
00000240: 0af0 f23d d8a5 d3bd 6681 bfbd e246 e13d
00000250: e0b2 e93d cc0a 753d fec4 a93d e0c5 4fbd
00000260: 1a85 8cbd f6a9 e93d d855 e13c 6cc2 453d
00000270: 20c8 20bd 2053 c23c 289a a4bd 3498 3abd
00000280: 7047 5e3c 0e50 ea3d 8408 3bbd c8d2 87bc
00000290: ac4f db3d 3610 c33d da21 9c3d 20be 81bc
000002a0: 5820 1c3d e01e e83c 5241 e7bd ea47 8cbd
000002b0: 54cf 803d f4e4 4a3d e60c b13d 72be ca3d
000002c0: 0038 d33d c0f6 6ebc 00ff 3b3d ea9a d03d
000002d0: 3846 abbd 76d0 863d 2475 033d 003f 583b
000002e0: 802a 993d 1689 c1bd 8003 74bb 0016 a73a
000002f0: 5cf1 81bd d496 87bd 90ab f1bc 06b8 b5bd
00000300: 5c46 553d 602b fc3b 4cf9 9b3d ea94 973d
00000310: 2879 9cbc c67b a6bd acba fbbd f058 a03c
00000320: 1404 333d 8441 6cbd 6813 b0bd bcfa a7bd
00000330: 1862 90bc c437 8c3d b69b 9cbd bc15 eabd
00000340: b802 48bd 6071 023c da55 8d3d 2825 7f3d
00000350: bcec a1bd 1641 ff3d 9e28 a63d 10af bd3d
00000360: e0c6 ce3d e607 c13d 2ca5 443d ac97 1a3d
00000370: 30bb e83c e0c9 4f3c d8ed ae3c 569b a1bd
00000380: 00ba aebd 9a25 99bd 107b 103c aeb8 bb3d
00000390: 80c9 8c3a 344c 8e3d 24dd 0abd 0085 8cbd
000003a0: 4eef a63d e8d9 c1bd 38b5 de3d c68f 813d
000003b0: 7839 34bd ba78 de3d e879 813c 20f6 c23d
000003c0: ee38 bebd 0cd0 75bd 9833 763d 5485 123d
000003d0: 20b9 593d 0c87 3b3d 60b7 e3bb 6436 f5bd
000003e0: e0b2 20bc 8a9a e83d d073 5fbd 0c08 753d
000003f0: e0fe 793d 5aec e5bd a08d bc3d e89a e43d

net.6.bias f4 [64]
0.050989226 0.06820449 0.07374923 0.060240984 -0.063478574 -0.0049525946 0.014576435 0.0339365
0.005409509 0.05615361 0.07349077 0.0659184 0.0686596 -0.032188356 0.074539155 0.015813649
-0.10193765 -0.008939594 -0.022025794 -0.0781516 0.09018771 -0.027388573 0.045480058 0.050639153
0.01174593 0.11795755 0.004976183 0.060106263 0.11944899 -0.09682962 0.0350461 -0.058009222
0.05699937 0.08716038 0.023025542 -0.12055184 0.06462984 0.054528803 0.08045189 0.03463967
0.0434677 -0.06387967 -0.114502564 -0.118296355 0.02074252 -0.091881216 0.06513305 -0.04875599
-0.08942671 -0.007613182 -0.011078969 0.056123942 -0.08261725 0.016702145 -0.05333367 0.01558578
-0.05843161 0.018130302 0.117561355 0.013502255 0.085394666 0.033918515 0.02216813 0.07666093
00000000: 14da 503d ccae 8b3d d609 973d 40bf 763d
00000010: 0e01 82bd 6049 a2bb 00d2 6e3c 0001 0b3d
00000020: 4042 b13b 5401 663d 5482 963d 3a00 873d
00000030: 689d 8c3d f0d7 03bd fca7 983d a08b 813c
00000040: b0c4 d0bd 6077 12bc 706f b4bc f20d a0bd
00000050: 56b4 b83d 005e e0bc 4c49 3a3d 006b 4f3d
00000060: 0072 403c ba93 f13d 400f a33b fc31 763d
00000070: aca1 f43d 9c4e c6bd 808c 0f3d 149b 6dbd
00000080: 2c78 693d 2481 b23d 10a0 bc3c e2e3 f6bd
00000090: a65c 843d 9859 5f3d f6c3 a43d 54e2 0d3d
000000a0: 300b 323d 58d3 82bd 5280 eabd 5c45 f2bd
000000b0: 38ec a93c 382c bcbd 7a64 853d 5cb4 47bd
000000c0: 5a25 b7bd 0078 f9bb 9084 35bc 38e2 653d
000000d0: 3c33 a9bd f0d2 883c 6874 5abd 805b 7f3c
000000e0: fc55 6fbd 0086 943c 02c4 f03d 9038 5d3c
000000f0: 66e3 ae3d 24ee 0a3d f099 b53c 6800 9d3d

net.8.weight f4 [64, 64]
0.049282238 -0.07818355 0.087367415 0.041438445 0.06270324 0.108614594 0.113368005 0.11735445
0.009256527 -0.018902853 0.014247149 0.0699134 0.041860238 0.11593583 -0.10103607 0.0811376
-0.085022256 0.07463643 -0.04457675 0.08517155 -0.12474118 0.03969401 -0.11842735 -0.08538693
0.020849839 0.06977326 -0.07454528 -0.024463817 -0.04866232 -0.040499777 -0.02549316 0.012237564
-0.090201214 -0.035823062 0.12337345 -0.07692705 0.0510152 -0.09998137 -0.042947993 -0.11382827
0.070370466 -0.009619653 0.08095002 0.1242107 -0.06689526 0.082367584 -0.043795347 -0.044953257
0.06812924 0.0638514 -0.03647083 -0.047468245 -0.084317684 -0.10508634 0.02488415 0.07767837
-0.09346481 0.09800124 -0.086484924 -0.10782266 0.08910623 0.06707327 -0.05783525 0.034990907
0.112343 -0.088493705 -0.124822766 -0.11072475 -0.059057325 0.10746834 -0.012261018 -0.11051603
-0.026946336 -0.0723262 -0.08234297 -0.027651727 -0.0044849366 -0.10852224 -0.0020901412 -0.11847609
-0.082632616 0.118677124 -0.0785868 0.12200543 0.011364266 0.12367986 0.04176633 -0.046150625
-0.025370046 0.069539025 0.059748963 0.10057108 0.04594922 0.02733247 -0.05923237 -0.095026076
-0.03760293 0.10188992 0.11796616 -0.026514128 -0.06433049 0.062680334 0.07994175 -0.09381127
-0.086617514 -0.05808544 0.11322723 0.06688587 0.11535008 -0.0047397316 0.037928194 -0.11101687
-0.089021504 0.04469128 -0.021725237 0.041868865 0.11517005 0.12068586 -0.10241625 -0.06735878
-0.045469865 0.06352331 0.088940516 -0.11718392 -0.03678137 -0.024944201 -0.076155946 -0.048663765
-0.04271449 0.0304299 0.02984938 0.04906881 0.10041079 0.03777975 -0.008805692 0.055729166
0.03849411 0.12381773 0.09399909 0.10131353 0.01045154 -0.12222119 0.030821145 0.054039165
-0.03282687 0.062672675 0.08299966 0.058594957 0.052767724 0.0017523617 -0.11578733 0.09824778
-0.117051244 0.11197765 -0.058329314 -0.10179606 0.024982184 0.040713638 -0.030832484 0.018369406
-0.05993128 -0.09613465 0.098263875 -0.030850917 0.10954797 0.018473715 0.123208836 0.09179856
-0.06574859 0.074945286 -0.11715253 0.10793963 -0.017166018 -0.05448164 0.11009909 -0.03608501
0.079202384 -0.067088425 0.10036117 0.01758337 0.04313621 0.006188944 0.101216614 0.05986063
0.11065939 -0.034548923 -0.026629373 0.03625071 -0.012637883 0.12473743 -0.09986578 -0.111221835
0.0052541792 0.11690055 -0.11480223 0.06661174 0.027093634 -0.07315917 -0.11617082 0.021088004
0.047501862 0.06735666 -0.09625368 0.009073138 -0.0018048286 -0.07996699 0.06550054 -0.1031276
0.08098361 -0.009832695 0.12044124 0.10520871 0.112784445 -0.035477266 -0.021210715 -0.011949554
0.037471518 -0.00531137 -0.07088195 -0.08787297 0.027488947 -0.06796947 -0.036942482 -0.024958968
-0.068803474 -0.09932439 -0.069578186 -0.089822546 -0.041117117 -0.044729725 0.06589353 0.07262072
0.076734304 0.011015326 0.021764398 0.0074920803 0.051247373 -0.0062291026 0.022227198 0.08436747
0.115407735 0.0019634217 0.06849679 -0.10444982 -0.10537468 0.06242308 -0.118875235 0.03900209
0.043851584 -0.045688108 0.033624977 -0.04669267 -0.11520882 -0.08411834 -0.081716776 -0.07084918
00000000: 2cdc 493d b21e a0bd b0ed b23d 5cbb 293d
00000010: 8e6a 803d 5471 de3d 7c2d e83d 8857 f03d
00000020: b0a8 173c 28da 9abc e06c 693c c22e 8f3d
00000030: a475 2b3d c46f ed3d 00ec cebd 782b a63d
00000040: 2620 aebd fcda 983d 1c96 36bd 6c6e ae3d
00000050: 4e78 ffbd 3096 223d 0a8a f2bd 58df aebd
00000060: 48cd aa3c 48e5 8e3d 32ab 98bd 5868 c8bc
00000070: 2452 47bd 18e3 25bd 08d7 d0bc 1080 483c
00000080: 6abb b8bd 34bb 12bd 38ab fc3d ee8b 9dbd
00000090: 50f5 503d 08c3 ccbd 3cea 2fbd cc1e e9bd
000000a0: 641e 903d c09b 1dbc 20c9 a53d 2e62 fe3d
000000b0: 6200 89bd 56b0 a83d c062 33bd e820 38bd
000000c0: 5887 8b3d 86c4 823d 7062 15bd 106e 42bd
000000d0: c0ae acbd 8237 d7bd d8d9 cb3c d615 9f3d
000000e0: 7a6a bfbd e0b4 c83d 021f b1bd 20d2 dcbd
000000f0: 547d b63d b65d 893d a8e4 6cbd a052 0f3d
00000100: 1614 e63d 303c b5bd 14a3 ffbd a8c3 e2bd
00000110: 18e6 71bd 5c18 dc3d 70e2 48bc 3a56 e2bd
00000120: 90be dcbc c21f 94bd 6ea3 a8bd e085 e2bc
00000130: 60f6 92bb e840 debd c0fa 08bb 98a3 f2bd
00000140: 4a3b a9bd fe0c f33d 1ef2 a0bd fcdd f93d
00000150: 3031 3a3c de4b fd3d 2c13 2b3d 7008 3dbd
00000160: d8d4 cfbc 7a6a 8e3d 54bb 743d 36f8 cd3d
00000170: 4035 3c3d 58e8 df3c a49d 72bd 089d c2bd
00000180: 8805 1abd aaab d03d 3e98 f13d 2834 d9bc
00000190: b4bf 83bd 8c5e 803d 80b8 a33d 2020 c0bd
000001a0: 8664 b1bd 00eb 6dbd aee3 e73d 76fb 883d
000001b0: aa3c ec3d c04f 9bbb 985a 1b3d d05c e3bd
000001c0: e850 b6bd 340e 373d 20f9 b1bc b07e 2b3d
000001d0: 46de eb3d 262a f73d 9cbf d1bd 66f3 89bd
000001e0: 9c3e 3abd 8218 823d 7226 b63d 20fe efbd
000001f0: 10a8 16bd c857 ccbc a6f7 9bbd a853 47bd
00000200: 64f5 2ebd 2048 f93c b086 f43c 60fc 483d
00000210: 2ca4 cd3d f0be 1a3d c045 10bc 4444 643d
00000220: 00ac 1d3d 2694 fd3d 9882 c03d 787d cf3d
00000230: f03c 2b3c 1a4f fabd a07c fc3c 2c58 5d3d
00000240: 7875 06bd 885a 803d bafb a93d 4401 703d
00000250: f822 583d 80af e53a e821 edbd 2236 c93d
00000260: 90b8 efbd 8a54 e53d b8ea 6ebd 747a d0bd
00000270: 70a7 cc3c 58c3 263d 6894 fcbc 707b 963c
00000280: 807a 75bd 3ee2 c4bd 923e c93d 10bb fcbc
00000290: b05a e03d 3056 973c ea54 fc3d e200 bc3d
000002a0: 32a7 86bd ea7c 993d aaed efbd 740f dd3d
000002b0: c09f 8cbc 2428 5fbd a27b e13d e0cd 13bd
000002c0: dc34 a23d a865 89bd 288a cd3d 000b 903c
000002d0: 98af 303d a0cc ca3b a84a cf3d 6c30 753d
000002e0: 64a1 e23d 2c83 0dbd d825 dabc a07b 143d
000002f0: 200f 4fbc 5676 ff3d 6e86 ccbd 46c8 e3bd
00000300: 402b ac3b 8e69 ef3d 6e1d ebbd bc6b 883d
00000310: 78f3 dd3c 7ad4 95bd f8ea edbd c0c0 ac3c
00000320: 5091 423d 4af2 893d a620 c5bd 80a7 143c
00000330: 0090 ecba bcc5 a3bd 2625 863d 9034 d3bd
00000340: bcda a53d 5019 21bc e6a9 f63d aa77 d73d
00000350: 88fb e63d 9c50 11bd 18c2 adbc 10c8 43bc
00000360: bc7b 193d 000b aebb 8e2a 91bd bef6 b3bd
00000370: 8030 e13c 9433 8bbd 0051 17bd c076 ccbc
00000380: d6e8 8cbd 966a cbbd 027f 8ebd e2f4 b7bd
00000390: 6c6a 28bd 8436 37bd 30f3 863d 2cba 943d
000003a0: e026 9d3d a079 343c 404b b23c 2080 f53b
000003b0: c4e8 513d 801d ccbb d015 b63c dac8 ac3d
000003c0: e45a ec3d c0ac 003b 0c48 8c3d cae9 d5bd
000003d0: aece d7bd 58af 7f3d dc74 f3bd a8c0 1f3d
000003e0: b89d 333d 7423 3bbd 58ba 093d d040 3fbd
000003f0: 9af2 ebbd 3c46 acbd 205b a7bd 6019 91bd

net.8.bias f4 [64]
0.05056122 0.02495049 -0.08365145 -0.025575608 -0.030079186 0.0029062182 -0.012789592 -0.04295583
-0.06985837 -0.032232314 0.01891847 -0.035806417 0.11793293 0.066773474 0.035793796 -0.07884337
-0.06676282 0.072260275 -0.081335366 0.045872122 -0.056263223 0.018456623 -0.10305765 0.0901766
0.030760244 -0.078072 0.07522094 0.0876503 0.103113994 0.052803263 -0.05638726 0.075131446
-0.089674234 -0.08860375 0.07993151 -0.007321745 -0.043835863 0.10477933 -0.068624586 0.005137503
0.027310565 -0.019836918 -0.12172121 0.049283803 0.07873644 -0.0982133 0.05531168 0.09889434
0.031873703 -0.04973398 -0.11179137 -0.0966963 -0.035699487 0.036383584 0.015457526 0.057598844
0.022835791 -0.023543283 0.07582615 -0.08135162 -0.088933855 0.056274503 0.044343114 0.023016453
00000000: 4819 4f3d f864 cc3c 7451 abbd f083 d1bc
00000010: a068 f6bc 4076 3e3b 708b 51bc 74f2 2fbd
00000020: e811 8fbd 0806 04bd e8fa 9a3c c0a9 12bd
00000030: d286 f13d 88c0 883d 849c 123d a278 a1bd
00000040: f2ba 88bd 32fd 933d 2893 a6bd 68e4 3b3d
00000050: 4474 66bd 5832 973c e40f d3bd 82ae b83d
00000060: e8fc fb3c 36e4 9fbd 700d 9a3d 0082 b33d
00000070: 6e2d d33d 3c48 583d 54f6 66bd 84de 993d
00000080: 20a7 b7bd e275 b5bd 22b3 a33d 40eb efbb
00000090: 3c8d 33bd 8c96 d63d 0c8b 8cbd 8058 a83b
000000a0: 68ba df3c 0881 a2bc f848 f9bd d0dd 493d
000000b0: 9240 a13d 0e24 c9bd 808e 623d 1e89 ca3d
000000c0: 008e 023d dcb5 4bbd e0f2 e4bd b608 c6bd
000000d0: a039 12bd f406 153d 9041 7d3c c4ec 6b3d
000000e0: 2012 bb3c d8dd c0bc be4a 9b3d ae9b a6bd
000000f0: f422 b6bd 1880 663d 20a1 353d 008d bc3c

net.10.weight f4 [64, 64]
-0.016934082 0.009372219 0.07805854 0.02537097 0.016225874 0.0104094 -0.003109932 -0.071152434
0.09628628 -0.037667617 -0.024583578 0.04788263 -0.008273095 0.05969596 -0.011803091 -0.07789889
-0.0037165433 0.036925778 -0.03686507 -0.01564458 -0.058502987 -0.03546676 -0.079776615 0.076421246
0.05020635 0.08044694 0.106503084 0.045546412 -0.09406425 0.019740582 -0.10125844 0.021686897
-0.032995537 -0.054236516 0.068917066 0.0632655 0.0055152327 -0.0045152605 -0.035280406 -0.030477613
-0.023350164 -0.08380787 -0.11671157 0.10845305 0.016336903 0.036847398 -0.002263397 0.08812216
0.08991392 0.009199381 -0.02240026 0.08760613 -0.02323401 0.059915155 -0.005422607 -0.1068497
0.1158174 -0.10372041 0.007749602 0.11663936 0.055724278 0.10781841 0.06216164 0.094447404
-0.112374604 -0.00089381635 0.10278255 -0.053316146 -0.08719914 -0.07871379 0.056824625 0.08027993
0.108591005 0.037035257 -0.09464486 -0.046371177 -0.09933506 -0.09114015 0.08114141 0.08666599
-0.06213668 -0.01607649 -0.045126066 -0.11795694 -0.047414586 0.08043045 0.06558108 0.058584243
-0.106154606 -0.046713427 0.055514023 0.0414086 0.021437451 -0.10937479 0.031160757 -0.00700514
-0.021953642 -0.0837657 -0.0891345 -0.04025428 0.008393794 0.06515135 0.06620833 0.03993076
-0.01751265 0.0067961663 -0.046473205 -0.09208734 -0.01268892 -0.11433308 0.1027035 0.05226606
-0.082184464 -0.11226402 0.009666607 0.120611235 0.0138249695 0.117715865 -0.099882856 0.00054065883
0.077994496 0.022635415 -0.059620127 -0.06591377 -0.095149845 0.020151481 -0.023115292 0.09416804
-0.120456785 0.023139045 0.07294004 -0.08410573 0.07464263 0.05829498 0.1049476 -0.012380317
0.010314316 0.06427957 -0.054105833 0.05602275 -0.01188381 0.04561214 -0.121550694 -0.06619793
-0.11981872 -0.02416946 -0.05476655 -0.11221005 -0.016210243 0.0048684925 -0.065920815 0.022705436
-0.07006879 0.106496006 0.04962489 0.096739694 0.051499695 -0.11811052 0.07312718 -0.123555064
-0.0904122 0.079869404 -0.0686194 -0.063669115 -0.07233137 -0.0017957389 -0.01625532 0.042255387
0.037078157 -0.11677714 -0.026088804 0.02108559 0.11874691 -0.039166614 0.07554346 -0.0645293
-0.002796024 -0.029587716 0.024975881 0.09925847 0.12045483 0.06795776 -0.012294322 0.11766301
-0.114573 -0.10871692 0.051608205 0.019317895 -0.09195773 -0.1077829 0.10304764 0.08135384
0.034406498 -0.071602926 -0.09554011 -0.047587305 0.11146402 0.07450642 0.06589666 -0.11981721
-0.0033480078 0.04565707 -0.116595194 -0.039921194 0.097784385 -0.12190901 0.048493445 0.11640115
0.07931596 -0.11840351 0.035856605 0.085728616 -0.103482515 -0.1062465 0.08107591 0.033498704
-0.0707463 0.057136744 0.11194028 -0.068249434 0.06628066 0.07541241 -0.0062035024 0.03295231
-0.043460056 0.055072576 -0.07421777 0.062894076 0.013846636 0.119747475 -0.05617115 -0.122052625
-0.06948614 0.027265146 -0.12176752 -0.07998498 -0.08341986 -0.017171755 0.11959581 0.0020293891
-0.057660818 -0.12176387 0.039378017 0.042032868 0.12458134 -0.078452125 -0.088814646 -0.01605624
0.054497764 0.013289899 -0.09273583 0.06996712 -0.0078262985 -0.06755769 0.12490049 -0.10058297
00000000: 58b9 8abc f08d 193c 28dd 9f3d c8d6 cf3c
00000010: 20ec 843c 308c 2a3c 00d0 4bbb 5eb8 91bd
00000020: be31 c53d 5c49 1abd 8063 c9bc 9420 443d
00000030: e08b 07bc c083 743d c061 41bc 7489 9fbd
00000040: 4091 73bb 7c3f 173d d4ff 16bd 1029 80bc
00000050: d4a0 6fbd 9845 11bd ec61 a3bd be82 9c3d
00000060: 2ca5 4d3d 5ec1 a43d 4a1e da3d e08e 3a3d
00000070: c2a4 c0bd 00b7 a13c 9660 cfbd b8a8 b13c
00000080: 5426 07bd 1c27 5ebd 6424 8d3d 5891 813d
00000090: 20b9 b43b c0f4 93bb 3082 10bd 30ac f9bc
000000a0: d848 bfbc 76a3 abbd 7a06 efbd a21c de3d
000000b0: f8d4 853c 4ced 163d 8055 14bb 6479 b43d
000000c0: ca24 b83d 00b9 163c c080 b7bc d86a b33d
000000d0: 4055 bebc 9869 753d 20b0 b1bb 04d4 dabd
000000e0: ac31 ed3d 5e6b d4bd 60f0 fd3b 9ee0 ee3d
000000f0: 243f 643d e6cf dc3d 349d 7e3d a46d c13d
00000100: a824 e6bd 004f 6aba a87f d23d 0862 5abd
00000110: 7695 b2bd b234 a1bd f0c0 683d ce69 a43d
00000120: f664 de3d 48b2 173d 2ad5 c1bd b4ef 3dbd
00000130: 2e70 cbbd b0a7 babd 782d a63d f07d b13d
00000140: 0883 7ebd d8b2 83bc 1cd6 38bd 6893 f1bd
00000150: cc35 42bd b8b8 a43d 604f 863d 08f6 6f3d
00000160: 9667 d9bd 9456 3fbd ac62 633d 109c 293d
00000170: 989d af3c e4ff dfbd d844 ff3c 608b e5bb
00000180: 20d8 b3bc 5a8d abbd 268c b6bd ace1 24bd
00000190: 2086 093c 126e 853d 3c98 873d 708e 233d
000001a0: b076 8fbc 60b2 de3b b05a 3ebd 4a98 bcbd
000001b0: 30e5 4fbc 7627 eabd 3656 d23d f014 563d
000001c0: 5450 a8bd aeea e5bd b060 1e3c 0603 f73d
000001d0: 2082 623c 0415 f13d 628f ccbd 00bb 0d3a
000001e0: 94bb 9f3d e86d b93c 3c34 74bd ccfd 86bd
000001f0: ecdd c2bd b814 a53c 485c bdbc 2cdb c03d
00000200: 0cb2 f6bd 188e bd3c 9661 953d a03f acbd
00000210: 3cde 983d b8c6 6e3d c4ee d63d d0d6 4abc
00000220: 60fd 283c 02a5 833d 149e 5dbd 1c78 653d
00000230: 50b4 42bc ccd3 3a3d 92ef f8bd c892 87bd
00000240: 8463 f5bd 08ff c5bc e452 60bd 62ce e5bd
00000250: 58cb 84bc e087 9f3b 7e01 87bd c000 ba3c
00000260: 3a80 8fbd 941a da3d 7843 4b3d 761f c63d
00000270: 58f1 523d eee3 f1bd b4c3 953d 700a fdbd
00000280: 082a b9bd 9292 a33d 5488 8cbd f464 82bd
00000290: 7822 94bd 005f ebba e029 85bc fc13 2d3d
000002a0: 44df 173d da28 efbd 30b8 d5bc b0bb ac3c
000002b0: 9431 f33d 2c6d 20bd 88b6 9a3d f027 84bd
000002c0: 803d 37bb f061 f2bc 389a cc3c 0648 cb3d
000002d0: 06b1 f63d 702d 8b3d 206e 49bc 4ef9 f03d
000002e0: 40a5 eabd faa6 debd 2063 533d 9040 9e3c
000002f0: 5654 bcbd 48bd dcbd a40a d33d d89c a63d
00000300: d4ed 0c3d 8ea4 92bd 88aa c3bd e8ea 42bd
00000310: 4047 e43d d296 983d d4f4 863d ba62 f5bd
00000320: 406a 5bbb e802 3b3d 76c9 eebd 6884 23bd
00000330: 2e43 c83d 6eab f9bd 10a1 463d ba63 ee3d
00000340: 6870 a23d 8a7d f2bd 60de 123d 7c92 af3d
00000350: a4ee d3bd c497 d9bd 200b a63d f035 093d
00000360: 70e3 90bd 3808 6a3d f240 e53d 5cc6 8bbd
00000370: 28be 873d d271 9a3d c046 cbbb 00f9 063d
00000380: 2c03 32bd c893 613d 7cff 97bd 9cce 803d
00000390: 00dd 623c 2a3e f53d b813 66bd baf6 f9bd
000003a0: c04e 8ebd 285b df3c 4061 f9bd 2acf a3bd
000003b0: 08d8 aabd c8ab 8cbc a6ee f43d 80ff 043b
000003c0: c02d 6cbd 565f f9bd d84a 213d a82a 2c3d
000003d0: 8024 ff3d 82ab a0bd 74e4 b5bd 6088 83bc
000003e0: 0c39 5f3d e0bd 593c 48ec bdbd ec4a 8f3d
000003f0: e039 00bc b05b 8abd d4cb ff3d 72fe cdbd

net.10.bias f4 [64]
0.10758577 0.013843045 0.08915602 -0.11590427 -0.016570091 -0.067504525 -0.009939924 0.006870374
0.1099875 -0.006913364 0.005522892 -0.02393362 0.07299876 0.10182139 -0.0063390583 -0.057834372
-0.12020123 0.06985474 -0.04189989 -0.108558446 0.026536092 -0.093258634 -0.11713016 0.0054219514
-0.091521665 -0.038546935 -0.04809563 0.07841995 -0.065133736 -0.034645274 0.00036214292 0.03845857
0.10668543 0.100030065 -0.090567246 -0.09694347 0.025781035 0.014580414 -0.08461186 0.020241171
0.028291777 -0.037779644 0.08671051 0.08804299 -0.10933252 -0.092090875 0.008566007 0.037759677
-0.118179366 -0.005936563 0.049017146 0.0778397 0.04291728 -0.10192193 0.0060501993 -0.104454756
-0.084261164 0.06509854 0.0760123 0.044345647 0.10639638 -0.06753139 -0.108206704 0.08737922
00000000: ee55 dc3d f0cd 623c 6e97 b63d 385f edbd
00000010: 00be 87bc d03f 8abd 10db 22bc e020 e13b
00000020: 2041 e13d 8089 e2bb 60f9 b43b 7010 c4bc
00000030: 6080 953d bc87 d03d e0b7 cfbb bce3 6cbd
00000040: 102c f6bd 0010 8f3d 389f 2bbd e453 debd
00000050: 3862 d93c 62fe bebd f0e1 efbd a0aa b13b
00000060: b66f bbbd 64e3 1dbd ecff 44bd a49a a03d
00000070: d664 85bd 34e8 0dbd 00de bd39 bc86 1d3d
00000080: e47d da3d 90dc cc3d 527b b9bd 4c8a c6bd
00000090: c032 d33c b0e2 6e3c fc48 adbd d0d0 a53c
000000a0: 28c4 e73c d4be 1abd 4895 b13d e24f b43d
000000b0: bae9 dfbd 249a bcbd 7058 0c3c e4a9 1a3d
000000c0: 0608 f2bd 8087 c2bb 34c6 483d 6c6a 9f3d
000000d0: 08ca 2f3d 72bc d0bd c040 c63b 60ec d5bd
000000e0: 1e91 acbd 6252 853d 56ac 9b3d c8a3 353d
000000f0: 58e6 d93d e64d 8abd 7a9b ddbd e0f3 b23d
