GPU_AE/model/wdgrl_4.pth (torch, 275962 bytes, 51 tensors)

net.0.weight f4 [32, 16]
0.08188677 -0.093010426 -0.061264366 -0.088273644 -0.098376274 -0.23418474 -0.19232976 0.18922597
-0.15013325 -0.05857387 0.10958803 0.078243226 -0.23064971 -0.19616154 0.1886912 0.1266667
-0.07259914 0.086001426 0.026925802 0.01648435 0.16099516 -0.21231923 0.04611078 -0.09972775
0.16230446 0.08178681 -0.22763404 -0.058338076 0.119038016 0.121424854 0.06379235 0.016779363
-0.15615529 -0.0078314245 -0.066357076 0.07739505 0.18994701 -0.2191908 -0.16360494 0.23601949
0.08549705 0.22623453 0.18938866 -0.113378644 -0.15147579 0.08561602 -0.052357614 -0.1950157
-0.053816617 0.024158865 0.116553634 0.18043739 0.13250256 -0.20078874 0.14225402 -0.06929541
-0.06094277 0.13961968 0.023035765 0.19326249 0.16086227 -0.0897024 -0.23632139 0.14880928
-0.22300094 0.14037499 0.00478366 0.105864525 0.19249412 0.2107858 -0.2206119 0.1022802
0.12694609 -0.08466065 0.22837362 -0.12869883 -0.021449953 -0.15367651 0.071956694 0.23092216
-0.18610087 -0.049671322 0.14340544 0.12816334 -0.2051484 0.04787314 -0.1416651 -0.17601997
-0.06873134 -0.13392806 0.05450338 -0.14393875 -0.19872981 0.0014942586 -0.1590836 -0.20139527
-0.087697715 -0.18974558 0.1730774 0.047958165 0.02231446 0.09070557 0.18018293 -0.08601332
0.12013924 -0.16884652 -0.22890162 -0.06370625 0.23995176 -0.035048485 -0.24798095 0.02907598
-0.12808025 -0.1933778 -0.24548057 0.13635558 0.20094037 0.0054167807 0.1407074 0.20805237
0.043185562 0.14285666 0.2402978 0.091444135 0.14881891 0.1268965 -0.22959048 -0.14598987
0.11767787 -0.0069763362 0.06362915 -0.15495735 -0.14152408 -0.0042037666 -0.14860529 0.13292772
0.07092893 -0.126048 0.103058755 -0.20965788 0.22889984 -0.12607366 -0.025897563 0.07120988
-0.013982385 -0.18682086 0.15709582 -0.18062788 -0.093203515 -0.051786423 0.042372227 0.11401585
0.055528462 0.052424073 -0.15419957 -0.123821735 -0.22247994 -0.17577797 0.20951095 -0.19399434
0.16084233 -0.07140347 0.03012675 0.23901546 -0.11304116 0.18455204 0.14675862 0.24676576
0.10670328 0.0013024211 0.2392604 0.050243616 0.23077238 -0.19873843 -0.20536488 0.2397312
-0.15186748 0.18952799 -0.03282714 0.06528121 -0.06962976 0.13669041 0.0038289726 0.22001088
0.16130954 -0.028188348 -0.2138089 0.16643712 -0.16083461 0.01835084 0.1682266 0.20409068
-0.0740017 -0.05813679 -0.17185622 0.08152971 0.20765391 -0.03125164 -0.11163995 -0.08849782
0.129783 -0.11528063 0.20172632 0.0032691956 -0.09312528 0.24059132 0.06986287 -0.024615735
0.24003816 -0.11200574 0.12501204 -0.22519803 -0.047311902 -0.041216224 -0.068763316 -0.073542535
-0.13569492 -0.19930035 0.20215705 0.06066826 -0.0040501356 -0.07868591 0.24143916 0.004251331
-0.015158802 0.16618744 0.13365763 0.20118213 -0.15975308 0.13258678 -0.21510378 0.24267083
0.035391003 -0.0861446 -0.04143259 0.06846988 -0.18000367 0.17289913 -0.012441695 0.09618014
-0.051025063 -0.13283768 0.22832254 -0.07337907 -0.21379057 -0.08976179 -0.03989756 0.11235398
0.043490022 -0.16631258 -0.19438633 0.20871693 -0.10512757 0.18253738 -0.115692854 -0.07859823
00000000: 40b4 a73d 407c bebd 58f0 7abd d0c8 b4bd
00000010: 8079 c9bd 20ce 6fbe 18f2 44be 74c4 413e
00000020: 88bc 19be 28eb 6fbd b06f e03d fc3d a03d
00000030: 702f 6cbe 92de 48be 4438 413e eab4 013e
00000040: dcae 94bd 8421 b03d 8093 dc3c 300a 873c
00000050: eadb 243e 366a 59be a8de 3c3d 103e ccbd
00000060: 2433 263e d87f a73d e618 69be e8f3 6ebd
00000070: 34ca f33d 98ad f83d 90a5 823d e074 893c
00000080: 2ce7 1fbe 604f 00bc 38e6 87bd 4c81 9e3d
00000090: 7881 423e 8e73 60be 0e88 27be 18af 713e
000000a0: 1419 af3d 06aa 673e 1aef 413e 1033 e8bd
000000b0: 781c 1bbe 7457 af3d f074 56bd 32b2 47be
000000c0: d06e 5cbd d0e8 c53c acb3 ee3d 94c4 383e
000000d0: c0ae 073e 909b 4dbe 0aab 113e c0ea 8dbd
000000e0: 209f 79bd 76f8 0e3e 80b5 bc3c 9ae6 453e
000000f0: 14b9 243e e4b5 b7bd 3cfe 71be 7661 183e
00000100: 5c5a 64be 76be 0f3e 40c0 9c3b 80cf d83d
00000110: 2e1d 453e 3cd8 573e 16e8 61be 4878 d13d
00000120: 28fe 013e 9062 adbd c6da 693e a0c9 03be
00000130: d0b7 afbc 605d 1dbe 085e 933d dc76 6c3e
00000140: 3a91 3ebe 2874 4bbd e0d8 123e 403d 033e
00000150: 6c12 52be a016 443d a810 11be 943e 34be
00000160: 04c3 8cbd 7024 09be f03e 5f3d ae64 13be
00000170: d47f 4bbe 00db c33a d0e6 22be 903a 4ebe
00000180: dc9a b3bd aa4c 42be 343b 313e c86f 443d
00000190: d0cc b63c d8c3 b93d e081 383e c027 b0bd
000001a0: 900b f63d 1ae6 2cbe 3065 6abe 6c78 82bd
000001b0: eab5 753e 008f 0fbd b8ee 7dbe c030 ee3c
000001c0: 7827 03be d404 46be 425f 7bbe cca0 0b3e
000001d0: 50c3 4d3e 407f b13b 9a15 103e ae0b 553e
000001e0: 58e3 303d 0449 123e a010 763e 1047 bb3d
000001f0: fc63 183e 28f1 013e c419 6bbe 5e7e 15be
00000200: 1801 f13d c099 e4bb 0050 823d 24ad 1ebe
00000210: b0eb 10be c0bf 89bb fc2b 18be 341e 083e
00000220: 3043 913d ba12 01be 7810 d33d 8eb0 56be
00000230: b864 6a3e 7419 01be 2027 d4bc 7cd6 913d
00000240: 6016 65bc f84d 3fbe badd 203e 84f6 38be
00000250: 7ce1 bebd 001e 54bd 808e 2d3d 2481 e93d
00000260: d071 633d a0ba 563d 7ee6 1dbe 4096 fdbd
00000270: c8d1 63be 24ff 33be 0a8a 563e 74a6 46be
00000280: dab3 243e fc3b 92bd 60cc f63c 78c0 743e
00000290: 2082 e7bd 36fb 3c3e e447 163e 2ab0 7c3e
000002a0: 4087 da3d 00b6 aa3a ae00 753e 40cc 4d3d
000002b0: 984f 6c3e 1682 4bbe 2c4b 52be 187c 753e
000002c0: 2683 1bbe a013 423e c075 06bd 28b2 853d
000002d0: 0c9a 8ebd 92f8 0b3e 80ef 7a3b 884a 613e
000002e0: 542e 253e 40eb e6bc b8f0 5abe 7e6e 2a3e
000002f0: d4b1 24be 8054 963c 9843 2c3e 26fd 503e
00000300: 348e 97bd d820 6ebd 14fb 2fbe 0cf9 a63d
00000310: 3aa3 543e b801 00bd 7ca3 e4bd 583e b5bd
00000320: d6e5 043e 4018 ecbd 5891 4e3e 0040 563b
00000330: 78b8 bebd 925d 763e 4414 8f3d f0a6 c9bc
00000340: 90cc 753e 4463 e5bd 2803 003e 509a 66be
00000350: 20ca 41bd 58d2 28bd c8d3 8cbd 789d 96bd
00000360: 9cf3 0abe 6415 4cbe 4202 4f3e 487f 783d
00000370: 00b7 84bb 1426 a1bd d43b 773e c04e 8b3b
00000380: a05c 78bc 0a2d 2a3e 8cdd 083e b002 4e3e
00000390: 5096 23be d4c4 073e 2a44 5cbe b47e 783e
000003a0: 28f6 103d 946c b0bd 38b5 29bd f039 8c3d
000003b0: e252 38be 780c 313e 40d8 4bbc 18fa c43d
000003c0: a8ff 50bd 9a06 08be 62cd 693e c447 96bd
000003d0: eaeb 5abe 08d5 b7bd a06b 23bd d819 e63d
000003e0: 9822 323d d84d 2abe 360d 47be e4b9 553e
000003f0: 204d d7bd 14eb 3a3e 60f0 ecbd 1cf8 a0bd

net.0.bias f4 [32]
0.04512009 -0.052273154 -0.103550345 -0.20880821 0.011694342 -0.23034555 0.24638006 0.18987247
-0.16025749 -0.13940325 0.1762456 -0.0380103 -0.12909982 0.122213244 -0.07348496 -0.22090247
0.107020676 0.1088309 -0.084285975 0.15461162 -0.13345414 -0.21789387 -0.1491046 -0.18822244
0.20415786 0.14001447 0.23407242 0.15120307 -0.23222387 0.2072505 -0.014970422 -0.03325373
00000000: d8cf 383d 601c 56bd 3412 d4bd d2d1 55be
00000010: a099 3f3c b4df 6bbe 0e4b 7c3e ee6d 423e
00000020: 8a1a 24be babf 0ebe ba79 343e b0b0 1bbd
00000030: be32 04be f04a fa3d 487f 96bd 4234 62be
00000040: a82d db3d bce2 de3d 209e acbd 8252 1e3e
00000050: 34a8 08be 921f 5fbe e0ae 18be 62bd 40be
00000060: c20e 513e f45f 0f3e aeb0 6f3e fad4 1a3e
00000070: 18cc 6dbe 7a39 543e 8046 75bc 1035 08bd

net.2.weight f4 [64, 32]
0.15723269 -0.084914245 -0.124629095 0.048887685 -0.011242002 -0.11962544 -0.11445779 -0.14910583
0.040256873 0.11581002 0.15284027 0.1549675 0.024914205 -0.14513773 0.13891785 0.07732166
0.00945954 -0.14302664 -0.031112403 0.09997718 0.0013266802 -0.04509428 -0.1430909 -0.14956976
0.1222782 0.14604472 0.07977222 0.104907975 -0.10607451 0.12153508 -0.021298975 0.015894964
0.06006758 0.17076315 0.065441325 0.10085054 -0.10668897 -0.050512612 -0.119636945 -0.1638751
-0.11674306 0.16353025 -0.044464454 0.018069088 0.06127502 -0.058949277 0.03560637 0.10439105
-0.07240375 0.13587205 0.058116853 -0.12134451 0.13664202 -0.17426914 0.12840466 0.042462975
0.049228147 -0.097655915 -0.0375994 0.04819466 -0.14288956 -0.1263189 0.069183946 0.07437341
-0.10443135 0.018276393 -0.08321737 -0.11699326 -0.1725826 -0.16156195 0.118984446 0.16078077
0.09460686 0.0065350384 -0.12576923 -0.11797485 -0.08811479 -0.032868266 -0.11966652 -0.14874198
0.037187442 -0.09447513 -0.11128203 0.046185344 0.0052045435 -0.013024867 -0.1207595 0.14818378
-0.16793974 -0.08630104 0.07359527 -0.0036267638 0.14719693 -0.04911676 -0.052040376 0.11718656
-0.023438796 -0.09345259 -0.083783194 0.0016339719 0.15603058 -0.058187984 0.019022077 0.1061015
-0.12526383 0.086202756 0.025202572 0.081642225 -0.15299524 -0.14122677 -0.031380758 -0.15044975
0.020052865 0.1462671 0.096212044 0.059452653 0.017574415 -0.13825947 0.12753119 0.10402067
-0.076720834 0.077317074 -0.13656312 -0.1053621 -0.11198017 0.12743439 -0.13823801 0.09225242
-0.001183629 -0.13933632 0.04245256 0.14462636 0.0018707514 0.12776028 0.118146434 0.0084976405
-0.07943155 0.03300254 -0.010298535 -0.057030566 0.055690542 0.030373275 0.14985548 0.022205621
-0.11019873 0.13588299 0.16424315 -0.1269212 0.10439564 0.01525493 -0.058830738 0.030192778
0.07358427 0.1674413 -0.034439683 0.10542466 0.1701669 -0.07052586 0.039741084 -0.17064764
-0.11120151 -0.12779719 -0.15197669 -0.07504621 -0.093429424 0.13022093 0.029731229 -0.06113358
0.055043533 0.082151905 -0.062485904 -0.12622601 -0.091456614 -0.09727267 0.14730616 -0.15286368
-0.04569763 0.05296123 -0.166761 0.08149992 -0.06042541 0.019288257 0.037283167 -0.100351326
0.17226888 -0.030008405 0.08726247 0.01641877 0.16719513 -0.10127546 0.045393273 0.07326634
0.074672505 -0.08070277 0.095577404 0.1296324 0.061845973 0.15246867 -0.0648141 0.044745326
-0.07808825 0.117550984 0.15345438 0.09856661 0.16304718 -0.05525837 -0.06444736 -0.06901361
-0.041730613 -0.14334695 -0.07056533 0.050116897 0.17432715 0.046487868 0.12567432 0.16472434
-0.12606534 0.025222868 0.0787106 0.043780908 0.09902333 0.02573131 0.1320662 -0.028469577
-0.012616634 0.047627583 0.044380084 0.10115518 0.11547814 -0.0807612 -0.10318045 -0.14204314
0.02275157 -0.09468877 0.016146347 0.14763097 0.03849855 -0.0269662 0.10518475 0.13631453
0.12391664 0.03652063 0.05870898 -0.09173483 -0.008725807 0.046150297 0.13135837 -0.03736344
0.099996105 0.10035689 -0.101860836 0.05827512 0.040486813 0.12370227 -0.012018368 -0.16296336
00000000: 9b01 213e 85e7 adbd 8a3d ffbd 743e 483d
00000010: 6030 38bc 2ffe f4bd d968 eabd 33af 18be
00000020: 64e4 243d ce2d ed3d 2982 1c3e cdaf 1e3e
00000030: e018 cc3c fc9e 14be 7b40 0e3e d25a 9e3d
00000040: 30fc 1a3c 9375 12be 70df febc d6c0 cc3d
00000050: 00e4 ad3a c8b4 38bd 6c86 12be d128 19be
00000060: fe6c fa3d bf8c 153e 9e5f a33d fed9 d63d
00000070: 983d d9bd 62e7 f83d 307b aebc 2836 823c
00000080: 6c09 763d 89dc 2e3e 1a06 863d ba8a ce3d
00000090: bf7f dabd 50e6 4ebd 3704 f5bd e0ce 27be
000000a0: fc16 efbd 7974 273e 5c20 36bd a005 943c
000000b0: 84fb 7a3d cc74 71bd fcd7 113d faca d53d
000000c0: 6b48 94bd 0b22 0b3e f00b 6e3d 7883 f8bd
000000d0: e3eb 0b3e 9c73 32be 837c 033e a8ed 2d3d
000000e0: 74a3 493d d3ff c7bd d401 1abd c467 453d
000000f0: a451 12be be59 01be 50b0 8d3d 1651 983d
00000100: 1be0 d5bd 60b8 953c de6d aabd 2a9a efbd
00000110: 7eb9 30be 7f70 25be 1eae f33d b7a3 243e
00000120: 3ec1 c13d e023 d63b a6c9 00be cc9c f1bd
00000130: 8775 b4bd e0a0 06bd b813 f5bd d14f 18be
00000140: dc51 183d 2d7c c1bd d5e7 e3bd d82c 3d3d
00000150: e08a aa3b 4066 55bc c250 f7bd 7dbd 173e
00000160: 65f8 2bbe 9abe b0bd 1eb9 963d 00af 6dbb
00000170: cbba 163e a82e 49bd 4a28 55bd 82ff ef3d
00000180: b802 c0bc 1264 bfbd 8696 abbd 002b d63a
00000190: 7bc6 1f3e 8656 6ebd 30d4 9b3c be4b d93d
000001a0: 2945 00be 128b b03d a075 ce3c 0a34 a73d
000001b0: c9aa 1cbe c09d 10be 1c89 00bd 800f 1abe
000001c0: e845 a43c 0bc7 153e d20a c53d a084 733d
000001d0: 38f8 8f3c e493 0dbe 8997 023e ca08 d53d
000001e0: d01f 9dbd 6a58 9e3d 34d7 0bbe 16c8 d7bd
000001f0: dc55 e5bd 297e 023e 448e 0dbe d6ee bc3d
00000200: 0024 9bba 2eae 0ebe bce2 2d3d ef18 143e
00000210: 0034 f53a 97d3 023e c2f6 f13d b039 0b3c
00000220: 02ad a2bd ac2d 073d 30bb 28bc e298 69bd
00000230: c41b 643d 60d1 f83c b773 193e 90e8 b53c
00000240: dfaf e1bd e924 0b3e 5b2f 283e a2f7 01be
00000250: 62cd d53d d0ef 793c 80f8 70bd d856 f73c
00000260: 5ab3 963d bb75 2b3e a010 0dbd e2e8 d73d
00000270: 3b40 2e3e dd6f 90bd 8cc7 223d 41be 2ebe
00000280: 9ebd e3bd 44dd 02be c79f 1bbe d4b1 99bd
00000290: ed57 bfbd a358 053e e88e f33c 3467 7abd
000002a0: 5475 613d 423f a83d 38f1 7fbd 6441 01be
000002b0: 9b4d bbbd e536 c7bd 6dd7 163e 4c88 1cbe
000002c0: 702d 3bbd e0ed 583d 65c3 2abe 6ee9 a63d
000002d0: a280 77bd 6802 9e3c 3cb6 183d ff84 cdbd
000002e0: 4167 303e 30d4 f5bc aab6 b23d a880 863c
000002f0: 3335 2b3e 8269 cfbd 4cee 393d aa0c 963d
00000300: e6ed 983d 7e47 a5bd 16be c33d 5bbe 043e
00000310: 3452 7d3d bf20 1c3e 41bd 84bd e046 373d
00000320: bbec 9fbd 92be f03d 2523 1d3e 4add c93d
00000330: d7f5 263e 9a56 62bd fafc 83bd 0257 8dbd
00000340: b8ed 2abd 8bc9 12be 8e84 90bd 6047 4d3d
00000350: d182 323e 106a 3e3d c5b0 003e 7fad 283e
00000360: 4617 01be 30a0 ce3c 0633 a13d 9c53 333d
00000370: becc ca3d 78ca d23c 5d3c 073e 0839 e9bc
00000380: 00b6 4ebc 2415 433d e4c7 353d 722a cf3d
00000390: ce7f ec3d 2166 a5bd 4650 d3bd c273 11be
000003a0: 8061 ba3c 30ec c1bd 5845 843c 932c 173e
000003b0: a8b0 1d3d 38e8 dcbc 1a6b d73d 0996 0b3e
000003c0: 02c8 fd3d a896 153d d478 703d 78df bbbd
000003d0: b0f6 0ebc 1808 3d3d cf82 063e 680a 19bd
000003e0: c2ca cc3d ea87 cd3d 6a9c d0bd e4b1 6e3d
000003f0: 80d5 253d 9e57 fd3d b0e8 44bc dedf 26be

net.2.bias f4 [64]
-0.13278374 -0.16156234 0.08786695 0.052493766 -0.039711997 0.077377304 0.12255816 -0.08019011
-0.16776447 0.17565258 -0.1615539 0.07491173 -0.15501598 -0.011253476 0.09055586 -0.1349363
0.15681164 0.059918404 -0.05319497 0.08232348 0.02641651 -0.15307406 -0.038317874 0.07066758
0.1506653 -0.07647821 0.1277103 9.5933676e-05 -0.01764983 -0.16660373 0.15271722 0.107849196
-0.006482899 -0.07933969 -0.14613348 -0.1481263 0.16520853 -0.09574396 0.026812091 0.052293465
0.17398618 0.1691827 -0.15974854 -0.15082827 0.12636839 -0.05947995 -0.08792536 -0.037571326
-0.04330747 0.03703013 0.12564348 -0.111435845 0.09406616 -0.096134305 0.10370563 0.006751567
0.009521902 -0.07329356 0.1446004 -0.08934356 -0.06324105 -0.1426518 -0.038516343 -0.0031533986
00000000: 76f8 07be 9970 25be 96f3 b33d b403 573d
00000010: 0ca9 22bd fe77 9e3d c6ff fa3d b63a a4bd
00000020: 73ca 2bbe 45de 333e 636e 25be 526b 993d
00000030: 82bc 1ebe 8060 38bc 5a75 b93d be2c 0abe
00000040: 3b93 203e 006d 753d f8e2 59bd 3699 a83d
00000050: 7067 d83c 72bf 1cbe 34f3 1cbd 2aba 903d
00000060: 0148 1a3e 9ca0 9cbd 7dc6 023e 0030 c938
00000070: 6096 90bc 2b9a 2abe e761 1c3e 0ae0 dc3d
00000080: 806e d4bb d97c a2bd 04a4 15be 6cae 17be
00000090: 6d2c 293e 6915 c4bd 08a5 db3c ac31 563d
000000a0: 6f29 323e 3b3e 2d3e 1f95 23be ba72 1abe
000000b0: b766 013e 40a1 73bd 3612 b4bd 64e4 19bd
000000c0: 2c63 31bd e8ac 173d afa8 003e 7a38 e4bd
000000d0: c2a5 c03d 10e2 c4bd 9e63 d43d 403c dd3b
000000e0: c001 1c3c ef1a 96bd 2112 143e c2f9 b6bd
000000f0: 8684 81bd 5013 12be 50c3 1dbd 40a9 4ebb

net.4.weight f4 [64, 64]
0.117476955 0.022541761 0.0523417 -0.0949963 0.059680432 0.022350147 -0.11443782 0.0018796772
-0.09313807 0.07167548 0.070276335 0.094441 -0.09658104 0.10562879 0.047359347 0.0522556
0.0090369135 -0.10907741 -0.013207346 0.09806277 -0.04434535 -0.09976183 0.08369058 0.11890136
0.051532686 0.05677709 0.099353135 0.03766969 -0.0018249005 0.08277221 0.02045247 -0.019365534
-0.03165035 0.106707335 0.048310265 -0.085534245 0.042873636 -0.030579805 0.090088055 0.022070915
0.072873905 -0.043390974 0.06400232 0.013420194 0.06071514 0.10206187 0.003302753 0.11727233
0.06638567 0.016888171 0.090715185 0.03792265 -0.044552505 0.11975871 0.033091083 -0.012142122
-0.053307116 0.057804152 -0.054411992 -0.10958202 0.071199864 0.08286625 0.08776651 -0.018005043
0.041284755 0.07638608 -0.059452534 0.044858515 -0.03767915 0.081578895 0.09552659 0.058908165
-0.06328677 0.115493596 0.039248794 -0.0961225 0.10755955 -0.0059063435 -0.000684008 -0.040074497
-0.070601806 0.049128905 0.04929973 0.02462633 0.020783275 0.013332278 -0.10516916 -0.08999777
-0.009510726 -0.045453995 0.056130618 0.0152412355 -0.12431118 -0.049891904 -0.121997744 0.024708211
-0.022120565 0.05292511 -0.06664176 0.012901723 0.04585901 -0.005379334 -0.11460942 -0.0040210634
0.045596316 0.04241106 -0.003634259 0.025834203 0.07336399 0.050077856 0.09242998 -0.081947684
-0.017653182 -0.013073385 0.005709201 0.009951562 0.09410113 0.021163344 0.099826545 -0.017974645
-0.10638648 -0.11344494 -0.034796193 -0.09022792 0.038330153 -0.035919994 0.035035223 -0.022744507
-0.01791279 -0.078968525 0.078434184 0.035236567 -0.0675554 -0.1116537 -0.081925094 0.08241095
-0.10806699 0.054305926 -0.015653223 0.100843936 -0.0020609498 0.02723454 0.00543344 -0.0915979
0.12423006 0.0144414455 0.034861922 0.056400552 -0.09339909 -0.09829953 0.035695434 0.118496746
-0.11567296 -0.00321348 0.021665007 0.039968327 -0.029024407 0.06243038 0.015188694 0.10019891
0.045736164 0.018181846 0.019051507 -0.064332336 0.09410207 0.011722326 0.10125685 0.11599001
-0.03099826 -0.0986844 -0.05454026 -0.0019507408 0.062020272 0.008744195 0.034375638 0.010653466
0.122903466 0.041949436 -0.016364709 0.03681533 -0.10580246 0.103435144 -0.029503912 0.04047191
0.077470884 0.041593403 0.08398597 0.07233259 -0.031038404 -0.06862834 -0.12263055 -0.11309469
0.05925569 0.0024262965 0.018280968 -0.07050982 -0.08404112 -0.083661705 -0.083573356 0.008261785
-0.10834366 0.02585657 0.078050554 0.07062967 -0.060217634 -0.008552581 0.10101624 -0.052625313
0.0445617 -0.029090121 -0.09004149 0.0943515 -0.0056920648 0.059505433 -0.050847247 0.0917519
-0.0017125905 0.1160128 -0.015850157 -0.10784687 -0.016977683 -0.07906087 -0.09160724 -0.04019268
-0.03265713 0.031179726 -0.049921557 -0.040416613 -0.09632704 -0.058601454 -0.017906874 0.07815628
-0.08469367 -0.048603967 0.0066862553 -0.0050534606 0.1188492 -0.033293292 0.03552711 0.08367263
-0.0029847175 -0.08571987 0.004105985 0.11857459 -0.026140153 -0.029353678 -0.044910178 -0.031484857
-0.10648188 0.05622767 0.044590563 0.03407593 -0.03368382 0.060966358 -0.073992684 -0.008988678
00000000: c297 f03d 80a9 b83c 4064 563d 6c8d c2bd
00000010: 7873 743d a817 b73c 605e eabd 805f f63a
00000020: 2cbf bebd 98ca 923d 0aed 8f3d 486a c13d
00000030: 48cc c5bd e853 d83d e0fb 413d f809 563d
00000040: 900f 143c fa63 dfbd a063 58bc 22d5 c83d
00000050: 78a3 35bd ee4f ccbd f865 ab3d 8e82 f33d
00000060: f013 533d 188f 683d a879 cb3d 884b 1a3d
00000070: 8031 efba 7a84 a93d f08b a73c 78a4 9ebc
00000080: cca3 01bd 6089 da3d fce0 453d 942c afbd
00000090: 449c 2f3d 8082 fabc 1680 b83d 10ce b43c
000000a0: ea3e 953d bcba 31bd a613 833d 60e0 5b3c
000000b0: 70b0 783d d005 d13d 0073 583b 7a2c f03d
000000c0: 36f5 873d 1059 8a3c e2c8 b93d c854 1b3d
000000d0: b07c 36bd 0e44 f53d 848a 073d c0ef 46bc
000000e0: 9058 5abd 0cc4 6c3d 1cdf 5ebd 8a6c e0bd
000000f0: 3cd1 913d c8b5 a93d eebe b33d 507f 93bc
00000100: 341a 293d 4e70 9c3d 8084 73bd 90bd 373d
00000110: 7455 1abd d612 a73d 72a3 c33d b049 713d
00000120: 7e9c 81bd e887 ec3d 58c3 203d e0db c4bd
00000130: 2e48 dc3d 008a c1bb 004f 33ba 2825 24bd
00000140: ae97 90bd 643b 493d 84ee 493d 28bd c93c
00000150: b041 aa3c a06f 5a3c ee62 d7bd c050 b8bd
00000160: e0d2 1bbc f82d 3abd 38e9 653d 60b6 793c
00000170: dc96 febd 745b 4cbd f4d9 f9bd e068 ca3c
00000180: 3036 b5bc 00c8 583d 7a7b 88bd c061 533c
00000190: a8d6 3b3d 2045 b0bb 58b8 eabd 20c3 83bb
000001a0: 34c3 3a3d 38b7 2d3d c02c 6ebb 40a2 d33c
000001b0: dc3f 963d 701e 4d3d ee4b bd3d 30d4 a7bd
000001c0: 689d 90bc c031 56bc 4014 bb3b e00b 233c
000001d0: 18b8 c03d c05e ad3c dc71 cc3d 903f 93bc
000001e0: 28e1 d9bd d255 e8bd 7486 0ebd 6ac9 b8bd
000001f0: 1400 1d3d d820 13bd 1881 0f3d b052 babc
00000200: d8bd 92bc 40ba a1bd 1aa2 a03d 3854 103d
00000210: 7c5a 8abd b2aa e4bd 58c8 a7bd 12c7 a83d
00000220: 3a52 ddbd e46f 5e3d 303b 80bc 4487 ce3d
00000230: 0011 07bb f81a df3c 000b b23b ae97 bbbd
00000240: 546c fe3d d09b 6c3c 60cb 0e3d 4404 673d
00000250: 0648 bfbd 4451 c9bd 6035 123d 6cae f23d
00000260: f2e5 ecbd 4099 52bb d07a b13c d4b5 233d
00000270: 98c4 edbc 00b7 7f3d 00da 783c 1635 cd3d
00000280: d855 3b3d 18f2 943c e811 9c3c acc0 83bd
00000290: 96b8 c03d 000f 403c c05f cf3d 2c8c ed3d
000002a0: 10f0 fdbc 0c1b cabd 9c65 5fbd 00b0 ffba
000002b0: f808 7e3d d043 0f3c 78cd 0c3d e08b 2e3c
000002c0: d0b4 fb3d 2cd3 2b3d 480f 86bc accb 163d
000002d0: f6ae d8bd ced5 d33d 30b2 f1bc e0c5 253d
000002e0: 0ea9 9e3d d85d 2a3d d600 ac3d 1c23 943d
000002f0: 4044 febc 048d 8cbd ba25 fbbd 309e e7bd
00000300: 18b6 723d 8002 1f3b f8c1 953c 7467 90bd
00000310: c01d acbd d456 abbd 8228 abbd 705c 073c
00000320: 48e3 ddbd 28d1 d33c f8d8 9f3d 4aa6 903d
00000330: c4a6 76bd 2020 0cbc 9ae1 ce3d a48d 57bd
00000340: 5486 363d 684e eebc ac67 b8bd 5c3b c13d
00000350: 8084 babb f8bb 733d 3445 50bd 6ce8 bb3d
00000360: 0079 e0ba 1e98 ed3d 30d8 81bc d2de dcbd
00000370: c814 8bbc aaea a1bd 949c bbbd 14a1 24bd
00000380: 7cc3 05bd a06c ff3c 8c7a 4cbd e48b 25bd
00000390: 1c47 c5bd 1408 70bd 70b1 92bc 6610 a03d
000003a0: e073 adbd f414 47bd 6018 db3b 8097 a5bb
000003b0: 3667 f33d 8c5e 08bd e084 113d 8e5c ab3d
000003c0: 409b 43bb e68d afbd 808b 863b 3cd7 f23d
000003d0: e023 d6bc 2077 f0bc bcf3 37bd 44f6 00bd
000003e0: 2c13 dabd fc4e 663d 98a4 363d 3493 0b3d
000003f0: 0cf8 09bd dcb7 793d 7a89 97bd 4045 13bc

net.4.bias f4 [64]
-0.009558752 0.01126723 -0.030436888 0.116470516 0.030117288 0.051695675 -0.11613795 -0.09854719
-0.0028950125 -0.024038434 0.096371725 0.09582545 0.06528321 0.090184465 0.08919224 0.015324295
0.12365243 0.011427343 0.04916717 0.0005838275 -0.08078332 0.027142465 0.056068808 0.03022553
0.087874204 0.1238133 -0.09916459 -0.01566124 -0.12281646 -0.11071195 0.113229856 -0.09376462
0.07167615 0.030565798 -0.019386277 -0.05388932 0.10190539 -0.07698701 -0.0826302 0.035278335
0.004741788 -0.029551849 0.047453567 -0.00019423664 -0.07462922 0.07478036 0.0247242 -0.10397586
0.026771098 0.0055441707 0.0845225 0.052091986 -0.09194031 0.053720474 -0.025988102 -0.11801046
0.062258244 -0.11990297 -0.0991627 -0.09131485 -0.016772151 -0.098463774 -0.056138277 0.04610072
00000000: 509c 1cbc 309a 383c c856 f9bc 1888 ee3d
00000010: 88b8 f63c d8be 533d bcd9 edbd 1cd3 c9bd
00000020: 40ba 3dbb 40ec c4bc 8a5e c53d 2240 c43d
00000030: 34b3 853d a2b2 b83d 6caa b63d c012 7b3c
00000040: 7c3d fd3d c039 3b3c 8463 493d 000c 193a
00000050: ba71 a5bd e059 de3c 68a8 653d 889b f73c
00000060: 64f7 b33d d491 fd3d ce16 cbbd 004c 80bc
00000070: 3287 fbbd f2bc e2bd 0ee5 e73d aa07 c0bd
00000080: f2ca 923d 2065 fa3c f8cf 9ebc 0cbb 5cbd
00000090: c6b3 d03d 5eab 9dbd 063a a9bd 0480 103d
000000a0: 0061 9b3b b816 f2bc ac5e 423d 00ac 4bb9
000000b0: 34d7 98bd 7226 993d 688a ca3c 4cf1 d4bd
000000c0: 104f db3c e0ab b53b 221a ad3d 685e 553d
000000d0: 344b bcbd 000a 5c3d 00e5 d4bc 78af f1bd
000000e0: 8002 7f3d b08f f5bd d015 cbbd 4803 bbbd
000000f0: c065 89bc 60a7 c9bd 40f1 65bd 1cd4 3c3d

net.6.weight f4 [64, 64]
-0.047103122 -0.059556603 0.06968148 -0.10740505 -0.11559653 -0.0480389 0.10275994 -0.025489762
0.06470446 -0.03670615 0.11289762 -0.10214606 0.08715427 0.008570239 0.06640527 0.12100838
0.083456606 0.029546127 -0.02165839 0.06419207 -0.017213523 0.073862 0.050438568 0.048332885
0.0346362 0.021294266 0.08857998 -0.058780372 0.0015479922 -0.011801407 0.038323477 0.02096127
0.0762219 0.09883058 0.10446097 0.045520797 0.06520645 0.072291404 -0.049749315 -0.0778988
-0.06331344 -0.084292114 -0.01293841 -0.105557784 -0.04850462 0.08639076 -0.047395706 0.017576858
-0.11824599 0.0026914924 -0.116644576 -0.011339217 -0.102148324 0.048741013 0.082338095 -0.02418901
0.06487498 0.118403375 0.028156072 -0.030310377 0.06646326 0.00087985396 -0.0015565902 0.040912136
-0.04160732 0.11167312 0.0434134 0.09265958 -0.114477694 -0.1227252 -0.0041120052 0.04431814
-0.019844636 -0.04633081 0.044694245 -0.066306904 -0.105616465 0.06652281 0.02901341 -0.11714323
-0.08462325 -0.011953175 0.0058567226 -0.095502004 -0.029663295 0.09652972 0.07630077 -0.020472616
0.10570429 -0.108395174 -0.07073994 0.046911523 0.061304912 0.11674321 0.027388155 -0.07610987
0.016894147 0.02406913 -0.022094265 0.1017071 -0.06132093 0.05785285 -0.07424387 -0.11849396
0.07218006 -0.032150254 0.065973684 0.011621103 0.053999677 0.07195063 -0.04855068 0.013832167
0.061499134 0.004073322 0.003624931 -0.077855736 0.12257518 0.10855231 0.08109976 0.041787818
-0.10751557 -0.057038754 0.09624076 0.034629524 -0.09245017 0.11268027 0.0341672 -0.06479895
0.1078852 0.08742356 -0.007825479 -0.09607637 0.02685146 0.035405025 0.124505565 -0.09479463
0.039693624 0.07143769 -0.10913436 -0.07615554 0.08655277 -0.0021092594 0.028905764 -0.0038494468
-0.08827506 -0.11919357 0.07343471 0.11053541 0.07659577 0.06639254 -0.11832236 0.0026471615
-0.035394564 -0.031753436 -0.12293756 -0.10990375 -0.030986294 -0.009889647 -0.11160505 -0.11345792
-0.038813516 -0.119322255 0.11749287 -0.018323556 -0.050279945 -0.0765305 -0.12369776 -0.05228068
0.072007835 0.051851347 -0.100461334 0.11304432 -0.09876193 -0.0013701916 -0.06966981 -0.0122516155
0.006371349 -0.049259752 0.1071825 -0.10909209 0.078994766 -0.0039030612 -0.11735287 0.060339645
-0.044501707 0.1249944 -0.07325457 0.045164257 0.039958358 -0.073517814 -0.0709829 -0.08400835
0.014991343 -0.0098617375 -0.11926542 0.06596555 -0.03662674 0.10477491 0.08717075 -0.0051929355
-0.089791566 0.046802595 0.048059016 0.11934139 0.04749009 0.07559788 -0.10354775 0.024181977
-0.052161396 -0.10686737 0.08921939 0.10633695 0.104099035 -0.06568651 5.7041645e-05 0.11773799
0.112966955 0.017215028 0.06178005 -0.03344482 -0.05375132 -0.05511661 -0.027728647 -0.04956335
-0.11174181 -0.11639619 -0.118982226 0.045501158 -0.093435824 -0.02472061 0.06350389 -0.11002639
-0.069150254 -0.030465081 0.10372414 -0.027887538 0.005701363 -0.09971921 -0.0702412 0.06291549
0.11321826 0.08788696 -0.11494617 -0.028505668 -0.053877354 0.023936063 -0.11574957 -0.038912147
-0.10073061 0.11852904 -0.08198117 0.011210665 -0.06831789 -0.12393829 0.039227545 -0.09343517
00000000: 34ef 40bd a0f1 73bd 2ab5 8e3d 2ef7 dbbd
00000010: e0bd ecbd 70c4 44bd ce73 d23d e8cf d0bc
00000020: c683 843d 3059 16bd de36 e73d f431 d1bd
00000030: f07d b23d 306a 0c3c 7cff 873d 3ed3 f73d
00000040: 4ceb aa3d b80a f23c f06c b1bc 2277 833d
00000050: 6003 8dbc f644 973d ac98 4e3d b4f8 453d
00000060: b0de 0d3d 5071 ae3c 6c69 b53d b0c3 70bd
00000070: 00e6 ca3a b05a 41bc 14f9 1c3d f8b6 ab3c
00000080: 3a1a 9c3d b067 ca3d a2ef d53d 0474 3a3d
00000090: f68a 853d 840d 943d f0c5 4bbd 6889 9fbd
000000a0: 7aaa 81bd 58a1 acbd a0fb 53bc ae2e d8bd
000000b0: c8ac 46bd a4ed b03d 0022 42bd 58fd 8f3c
000000c0: f42a f2bd c063 303b 5ae3 eebd 20c8 39bc
000000d0: 2433 d1bd a8a4 473d e0a0 a83d 0828 c6bc
000000e0: 2cdd 843d 787d f23d 90a7 e63c 784d f8bc
000000f0: e41d 883d 00a6 663a 8006 ccba 7c93 273d
00000100: 706c 2abd e0b4 e43d 40d2 313d 4ec4 bd3d
00000110: 4873 eabd 5a57 fbbd 00be 86bb f086 353d
00000120: 3891 a2bc 60c5 3dbd 5011 373d eacb 87bd
00000130: 724d d8bd 1c3d 883d 88ad ed3c cae8 efbd
00000140: f44e adbd 40d7 43bc c0e9 bf3b 8e96 c3bd
00000150: 7000 f3bc 60b1 c53d 9443 9c3d 30b6 a7bc
00000160: 7e7b d83d 4afe ddbd 1ae0 90bd 4c26 403d
00000170: dc1a 7b3d 1017 ef3d 205d e03c 7edf 9bbd
00000180: 9865 8a3c a02c c53c 08ff b4bc d04b d03d
00000190: a82b 7bbd 1cf7 6c3d 2c0d 98bd f6ac f2bd
000001a0: 24d3 933d fcaf 03bd 361d 873d 7066 3e3c
000001b0: c42e 5d3d da5a 933d 14dd 46bd 50a0 623c
000001c0: 84e6 7b3d 8079 853b 4090 6d3b d472 9fbd
000001d0: b208 fb3d ac50 de3d a217 a63d b429 2b3d
000001e0: 2031 dcbd 78a1 69bd e019 c53d b0d7 0d3d
000001f0: 8456 bdbd eac4 e63d e8f2 0b3d 50b5 84bd
00000200: eaf2 dc3d 200b b33d 7036 00bc b0c3 c4bd
00000210: 98f7 db3c dc04 113d c6fc fe3d b023 c2bd
00000220: c895 223d ec4d 923d d681 dfbd 70f7 9bbd
00000230: 9442 b13d 803b 0abb c8cb ec3c 0047 7cbb
00000240: 8ec9 b4bd c21b f4bd f064 963d 6460 e23d
00000250: 3ede 9c3d d0f8 873d fe52 f2bd 007c 2d3b
00000260: e4f9 10bd e40f 02bd b0c6 fbbd 3815 e1bd
00000270: f8d6 fdbc 3008 22bc 3091 e4bd a05c e8bd
00000280: ecfa 1ebd 3a5f f4bd 1aa0 f03d 481b 96bc
00000290: 58f2 4dbd 06bc 9cbd 4055 fdbd 4424 56bd
000002a0: d878 933d 1462 543d acbe cdbd c883 e73d
000002b0: b243 cabd 0098 b3ba 0caf 8ebd 00bb 48bc
000002c0: c0c6 d03b 98c4 49bd 8082 db3d ac6b dfbd
000002d0: 02c8 a13d 80ca 7fbb b456 f0bd b426 773d
000002e0: 6c47 36bd 10fd ff3d 7e06 96bd 28fe 383d
000002f0: 60ab 233d 8290 96bd 7c5f 91bd 920c acbd
00000300: 409e 753c 2093 21bc 6e41 f4bd f218 873d
00000310: ec05 16bd 3a94 d63d 9486 b23d 8029 aabb
00000320: a4e4 b7bd 14b4 3f3d 88d9 443d 4269 f43d
00000330: f884 423d 10d3 9a3d d810 d4bd 4819 c63c
00000340: 30a7 55bd 48dd dabd a8b8 b63d 30c7 d93d
00000350: e031 d53d a686 86bd 0040 6f38 9e20 f13d
00000360: 385b e73d 8806 8d3c 140d 7d3d 70fd 08bd
00000370: 582a 5cbd f4c1 61bd 3027 e3bc f002 4bbd
00000380: e4d8 e4bd 2061 eebd f4ac f3bd 6c5f 3a3d
00000390: 485b bfbd e082 cabc 540e 823d 8455 e1bd
000003a0: a69e 8dbd e891 f9bc 526d d43d 6874 e4bc
000003b0: 80d2 ba3b 9639 ccbd 9eda 8fbd d6d9 803d
000003c0: fade e73d 14fe b33d e668 ebbd b884 e9bc
000003d0: 80ae 5cbd 9015 c43c 1c0e edbd 5862 1fbd
000003e0: da4b cebd 5abf f23d bee5 a7bd f0ac 373c
000003f0: 40ea 8bbd 5cd3 fdbd 10ad 203d f05a bfbd

net.6.bias f4 [64]
0.10165186 -0.053579092 0.06489307 0.037941933 0.09165554 0.069668666 0.073195666 0.09067845
-0.10565178 0.0753686 -0.04929568 -0.03977312 -0.10432726 -0.02377741 -0.018513441 0.017033398
-0.030526474 -0.10737923 0.03448081 -0.06339887 -0.08371164 0.10753457 0.01748021 -0.10172346
-0.09209977 -0.11238177 -0.033570617 -0.07427254 0.072582915 0.11538382 -0.028698087 -0.024356738
-0.056873366 -0.11668494 -0.06991477 0.09639108 0.064787254 -0.030204862 -0.10249305 0.05386111
-0.12197636 0.030118093 -0.09693761 -0.0046540946 -0.03604254 0.12221676 -0.113952294 -0.11627333
-0.0744089 -0.012301952 -0.0077191293 -0.042551443 0.078557774 0.050891057 -0.09581265 0.080166146
0.02969478 -0.03129098 -0.075602815 -0.07421872 0.022894114 0.027402326 0.10309537 0.043795973
00000000: da2e d03d c075 5bbd a8e6 843d 0069 1b3d
00000010: e6b5 bb3d 72ae 8e3d 9ce7 953d a0b5 b93d
00000020: f65f d8bd da5a 9a3d 44ea 49bd 24e9 22bd
00000030: 88a9 d5bd d8c8 c2bc 80a9 97bc a089 8b3c
00000040: a812 fabc a4e9 dbbd c03b 0d3d 44d7 81bd
00000050: 0271 abbd 163b dc3d a832 8f3c 6454 d0bd
00000060: ce9e bcbd 6a28 e6bd 5881 09bd 341c 98bd
00000070: 5aa6 943d 5a4e ec3d 4018 ebbc c887 c7bc
00000080: 0cf4 68bd 84f8 eebd 7a2f 8fbd b068 c53d
00000090: 2eaf 843d 3070 f7bc e0e7 d1bd 789d 5c3d
000000a0: bece f9bd 38ba f63c 3a87 c6bd 6081 98bb
000000b0: 58a1 13bd c84c fa3d d25f e9bd b620 eebd
000000c0: b263 98bd 208e 49bc c0f0 fcbb 6c4a 2ebd
000000d0: e6e2 a03d 2473 503d 6c39 c4bd 262e a43d
000000e0: 7842 f33c f82a 00bd a6d5 9abd fcff 97bd
000000f0: 708c bb3c d87a e03c aa23 d33d 6863 333d

net.8.weight f4 [64, 64]
-0.081967235 -0.06459008 0.0529169 -0.10643828 -0.09916429 -0.08500618 -0.12327738 0.048449576
0.0084795505 -0.082128614 -0.10924974 0.0637669 -0.10320899 0.041192144 -0.07412951 -0.115250155
0.0814272 0.09808825 0.03189017 -0.04850571 0.07522966 -0.086140856 0.12360294 0.037803113
-0.013186261 0.0007660985 -0.019891754 0.11059718 -0.07174961 -0.10222022 0.008083612 -0.03162442
0.08127013 0.009799257 -0.008614123 0.027510852 -0.106915236 0.015455082 0.05671428 0.0020989776
0.08753389 -0.06940515 -0.03942141 0.091571644 0.03483677 0.06811717 0.07804938 -0.040697902
0.0891168 -0.018118396 0.0003912151 -0.10870358 0.026812345 -0.085924566 0.005198151 0.052376807
0.055081606 -0.010451615 0.09001522 0.08957024 0.013489336 0.06443745 0.05716902 0.06310804
0.09653841 0.02414845 -0.102844924 0.014190629 -0.047234267 -0.049479812 -0.09298508 0.07416737
0.0601926 0.026431665 -0.036242604 -0.073803976 -0.05519186 -0.0009802431 -0.01898168 0.09008922
-0.06855115 0.06589387 0.017620042 0.04965596 -0.012238622 -0.059408948 -0.019869938 -0.08907431
-0.12288092 -0.10526191 0.010291025 -0.08063893 0.06770863 -0.11799911 0.09957418 0.0880996
0.11677775 -0.048666015 0.11958991 -0.036233574 -0.044288814 -0.029586524 0.10699062 -0.099841
0.007229835 0.10848948 0.0043482333 0.04902549 -0.09948842 0.06298348 0.07466975 -0.08052595
-0.11131339 -0.07170613 0.06878571 -0.06155105 0.08543126 -0.030641437 0.027154014 0.0822133
0.00021755695 0.022179127 -0.042025566 -0.055149704 0.06353845 0.0024895072 0.078502655 0.07850039
0.009326369 0.06502582 -0.07881884 -0.040342346 0.039150015 -0.08421345 0.02713719 0.10442251
0.079192385 -0.05273971 0.09498982 0.005794078 0.041363955 -0.06563556 0.08644314 -0.002601415
-0.06605703 -0.12151156 0.029419139 0.06317289 -0.038424373 0.060069755 0.066672474 -0.09923111
-0.07924414 0.09734717 0.03350547 0.11711992 -0.113714114 0.113572836 -0.029923663 -0.09427138
0.044998243 0.110405505 -0.05063671 -0.106837824 -0.035929814 -0.03864053 0.09059405 0.03186114
0.023166582 0.11561079 0.012557775 0.08820844 0.09901981 -0.091797635 0.008579537 -0.06968965
-0.09410024 0.050451264 0.033288196 -0.013955638 0.10397594 0.097249374 0.011888161 -0.009127423
0.098354176 0.120515525 -0.03968522 0.008347347 -0.037605748 -0.042085677 0.03993182 -0.030789599
-0.06024027 -0.008079395 0.032971144 0.039442122 -0.024829358 -0.011118144 0.06054102 0.051101536
-0.093363285 0.030558243 0.09389682 0.109571025 -0.07998973 0.045207858 0.090884626 0.02679941
-0.0638618 -0.100886956 -0.05046116 0.07578997 0.049783304 0.06611131 -0.040308267 -0.0781661
-0.058012888 0.07190789 -0.008051559 -0.046490386 -0.04724893 0.05468586 -0.10213408 0.05687298
0.05061528 0.07446937 -0.10267644 0.045936123 -0.04748714 0.0965454 0.045207754 0.038081765
-0.013419181 0.055702314 -0.07870078 -0.054511145 0.096424416 -0.09257585 -0.0108067095 -0.089496434
-0.08063485 -0.057782277 -0.09079781 -0.03876321 -0.0040907413 -0.007224247 0.041817427 -0.114317834
0.022588417 -0.12295905 0.032516494 0.041751444 -0.06700705 0.12177509 0.09153558 0.038615778
00000000: 70de a7bd ce47 84bd 64bf 583d 50fc d9bd
00000010: a616 cbbd b817 aebd da78 fcbd 1073 463d
00000020: d0ed 0a3c 0c33 a8bd 54be dfbd 3898 823d
00000030: 3c5f d3bd 18b9 283d 36d1 97bd 4608 ecbd
00000040: 4ec3 a63d 7ee2 c83d 449f 023d ecad 46bd
00000050: 0212 9a3d 9e6a b0bd 8a23 fd3d 70d7 1a3d
00000060: 300b 58bc 00d4 483a 08f4 a2bc c680 e23d
00000070: 76f1 92bd d658 d1bd 2071 043c 9c88 01bd
00000080: f470 a63d 108d 203c 4022 0dbc 705e e13c
00000090: 60f6 dabd 5037 7d3c 3c4d 683d 008f 093b
000000a0: f844 b33d 4a24 8ebd 5878 21bd ea89 bb3d
000000b0: 00b1 0e3d 0481 8b3d 5ad8 9f3d d8b2 26bd
000000c0: de82 b63d 086d 94bc 001c cd39 fc9f debd
000000d0: 90a5 db3c 38f9 afbd 4055 aa3b 1089 563d
000000e0: 409d 613d 403d 2bbc e659 b83d 9a70 b73d
000000f0: 6002 5d3c c8f7 833d 102a 6a3d ca3e 813d
00000100: eeb5 c53d f8d2 c53c 5ca0 d2bd d07f 683c
00000110: b878 41bd 58ab 4abd f66e bebd 10e5 973d
00000120: 848c 763d 3887 d83c 2073 14bd 8a26 97bd
00000130: dc10 62bd 807b 80ba 787f 9bbc b280 b83d
00000140: 8c64 8cbd 5ef3 863d e857 903c 0c64 4b3d
00000150: 8084 48bc cc56 73bd 48c6 a2bc 986c b6bd
00000160: fea8 fbbd 8e93 d7bd b09b 283c 0626 a5bd
00000170: d2aa 8a3d 84a9 f1bd 8ced cb3d 906d b43d
00000180: 2c29 ef3d 0456 47bd 8eeb f43d a869 14bd
00000190: 3068 35bd 705f f2bc e61d db3d 7079 ccbd
000001a0: 40e8 ec3b bc2f de3d a07b 8e3b f4ce 483d
000001b0: 96c0 cbbd 7cfd 803d 74ec 983d caea a4bd
000001c0: 46f8 e3bd aada 92bd 86df 8c3d f41c 7cbd
000001d0: 96f6 ae3d c003 fbbc 1872 de3c 725f a83d
000001e0: 0020 6439 00b1 b53c 0023 2cbd a8e4 61bd
000001f0: 7220 823d 0027 233b 00c6 a03d d0c4 a03d
00000200: a0cd 183c 422c 853d c66b a1bd 043e 25bd
00000210: c45b 203d 1a78 acbd d04e de3c 78db d53d
00000220: 9e2f a23d 9805 58bd 068a c23d 40dc bd3b
00000230: 406d 293d f06b 86bd 1a09 b13d 807c 2abb
00000240: e848 87bd 0edb f8bd 6800 f13c ca60 813d
00000250: e062 1dbd b40b 763d 948b 883d ae39 cbbd
00000260: c04a a2bd f45d c73d 083d 093d 92dc ef3d
00000270: f2e2 e8bd e098 e83d 7822 f5bc 5a11 c1bd
00000280: 1450 383d 481c e23d 7068 4fbd cacd dabd
00000290: 242b 13bd 8845 1ebd 6089 b93d d480 023d
000002a0: d8c7 bd3c 5ac5 ec3d 20bf 4d3c a0a6 b43d
000002b0: e6ca ca3d 6600 bcbd 3091 0c3c 72b9 8ebd
000002c0: a0b7 c0bd fca5 4e3d 3459 083d 30a6 64bc
000002d0: 56f1 d43d ae2a c73d 90c6 423c 308b 15bc
000002e0: ea6d c93d d8d0 f63d f88c 22bd 50c3 083c
000002f0: 7c08 1abd 0862 2cbd 8c8f 233d 783a fcbc
00000300: 80be 76bd 705f 04bc c00c 073d 108e 213d
00000310: f066 cbbc e028 36bc dcf9 773d d84f 513d
00000320: 4035 bfbd 4855 fa3c fa4c c03d c666 e03d
00000330: a8d1 a3bd e02b 393d b821 ba3d 708a db3c
00000340: fac9 82bd d29d cebd 5cb0 4ebd c637 9b3d
00000350: 94e9 4b3d 5e65 873d 481a 25bd 8c15 a0bd
00000360: ec9e 6dbd 7244 933d b0ea 03bc b46c 3ebd
00000370: 1888 41bd 48fe 5f3d ac2b d1bd a4f3 683d
00000380: f851 4f3d 6683 983d 0648 d2bd 8427 3c3d
00000390: e081 42bd 98b9 c53d c42b 393d a0fb 1b3d
000003a0: 20dc 5bbc 1c28 643d e02d a1bd 1447 5fbd
000003b0: 2a7a c53d 6898 bdbd a00e 31bc e849 b7bd
000003c0: e223 a5bd 1cad 6cbd 34f4 b9bd 2cc6 1ebd
000003d0: a00b 86bb 60b9 ecbb c048 2b3d 781f eabd
000003e0: 580b b93c f4d1 fbbd 0430 053d 9003 2b3d
000003f0: fe3a 89bd 3865 f93d 0277 bb3d 942b 1e3d

net.8.bias f4 [64]
0.101789534 0.060500428 0.026110068 -0.10126762 0.095520034 0.11514056 -0.014392629 -0.085576415
-0.034639463 -0.08547357 -0.04100798 -0.061914146 -0.03887041 0.027583182 0.08537941 -0.005204782
-0.032168508 -0.04043427 0.07322024 -0.03151986 -0.054681376 0.0009785593 -0.038662106 0.019737884
-0.046831995 -0.11417365 0.032186 0.011034951 -0.09258187 -0.015048116 0.06906162 -0.021584481
0.058851525 0.03576833 0.034244657 0.030514657 0.021892086 0.06263009 0.07143696 -0.10336876
0.037931144 -0.06024842 0.11826995 0.034956336 -0.050729573 -0.028998688 0.10778715 0.057178125
0.0010005981 0.06314947 -0.10711315 0.12253754 -0.102052465 -0.05846384 -0.030633733 -0.07410097
0.01998195 -0.08962259 -0.049464896 -0.0028659701 -0.07733308 0.068160266 -0.0418735 0.033169463
00000000: 0877 d03d 4ccf 773d c8e4 d53c 6665 cfbd
00000010: 02a0 c33d d0ce eb3d 10cf 6bbc b042 afbd
00000020: 1ce2 0dbd c40c afbd fcf7 27bd b099 7dbd
00000030: 9436 1fbd 20f6 e13c 66db ae3d e08c aabb
00000040: 20c3 03bd 689e 25bd 7ef4 953d f81a 01bd
00000050: 94f9 5fbd 0043 803a 285c 1ebd 58b1 a13c
00000060: e8d2 3fbd e0d3 e9bd 78d5 033d f0cb 343c
00000070: 909b bdbd 608c 76bc 2e70 8d3d f0d1 b0bc
00000080: 4c0e 713d d081 123d 2044 0c3d e0f9 f93c
00000090: 0857 b33c 3444 803d 8a4d 923d 00b3 d3bd
000000a0: b05d 1b3d 0cc7 76bd 8437 f23d 602e 0f3d
000000b0: d0c9 4fbd a88e edbc 82bf dc3d 9c33 6a3d
000000c0: 8026 833a 8254 813d 245e dbbd f6f4 fa3d
000000d0: e200 d1bd c877 6fbd 98f3 fabc 40c2 97bd
000000e0: 30b1 a33c 0c8c b7bd b49b 4abd 00d3 3bbb
000000f0: ce60 9ebd 9c97 8b3d 8c83 2bbd b4dc 073d

net.10.weight f4 [64, 64]
0.06782763 -0.09575698 0.005415514 -0.06474021 -0.10392745 0.10271503 0.07897718 0.06948505
-0.0073851794 0.10488415 0.0025583655 -0.081552416 0.0816181 -0.028704152 0.0070165396 -0.07519898
-0.068549976 -0.0983841 -0.12029868 -0.0011631548 0.037811577 0.020435035 -0.023091555 -0.10741888
0.07331213 0.014685303 -0.00025588274 0.12197009 -0.08206242 -0.055672005 0.0132070035 -0.038835257
0.105268 -0.10013011 -0.0888785 -0.10810077 0.081750944 0.05306588 0.07414377 -0.038497
-0.04608375 0.11414246 0.10680553 0.05735536 0.023545012 0.12314987 -0.07020335 -0.035704255
0.107430845 0.06497812 -0.022234544 0.09808329 -0.0073404163 -0.0730855 0.0143301785 0.121080086
0.107396156 0.12299211 -0.0598813 0.10727584 0.057889163 -0.10395466 -0.046094686 -0.09540373
-0.11015323 -0.117734954 0.0819999 0.094431356 -0.11162713 -0.119657725 0.051464856 0.051716983
-0.007926226 -0.07887988 0.007919058 0.0076861978 0.028775468 -0.040508643 -0.10860187 0.10844223
-0.11352365 -0.05257231 0.097730875 0.12050785 0.0909958 -0.08344312 -0.0056099147 0.124755844
0.1149261 -0.06396632 0.029709369 -0.082651556 -0.06423044 -0.109533936 0.08392015 0.07252291
-0.016880691 -0.012812838 0.095582634 0.060429454 0.09387292 0.068942145 -0.12229623 -0.101561114
0.049164146 -0.007848471 -0.05910985 0.08056474 -0.08358584 0.06551142 -0.002542287 -0.07752584
0.020133883 -0.08351283 0.03556128 0.11329472 -0.017049044 0.0041332543 0.08415358 -0.05009927
-0.055149943 -0.07214302 0.06497596 -0.020684466 -0.10962324 0.11801402 0.10960671 0.065908685
-0.10908538 0.09627733 -0.09966934 -0.10026781 -0.11541638 -0.078706264 0.021684244 -0.020046353
0.023354515 0.03316468 0.08072598 0.105442345 -0.031151757 -0.10686652 0.03020078 0.057123467
-0.07482141 0.057085842 -0.05102451 -0.012532815 0.12402211 -0.01650308 -0.017682016 0.08450736
0.08169298 0.045995817 -0.061116084 -0.047689706 -0.104989156 0.05598639 0.11120561 0.0685783
0.060540214 0.11751501 0.024788976 -0.09856166 0.06743683 0.044034272 -0.10799371 0.059978858
0.035833582 0.031207323 0.05760905 -0.014546931 -0.10025093 0.056025743 0.11035603 -0.022249699
-0.0014838278 -0.10870783 0.090268135 0.059743196 0.1098419 0.001924321 -0.099041894 0.050371572
-0.031347588 0.09811169 -0.025115341 0.11870755 -0.026305646 0.07192324 -0.054903418 -0.07849713
-0.0777563 -0.033443093 0.087851 0.0632616 0.053996623 -0.0053985566 0.06563464 -0.09545569
0.08116327 -0.090856716 -0.058804914 0.09442824 0.012907982 -0.12368646 0.06373598 -0.013386726
-0.011014491 -0.01663664 0.099969506 0.07536112 -0.10585791 0.026230514 0.06752208 -0.038159028
-0.09995836 0.092812225 0.09353021 0.0053666234 -0.037590325 0.05339302 -0.07700162 -0.08370136
-0.032905504 0.016089112 0.09720747 -0.0705574 -0.022501603 -0.07939349 0.0055060983 -0.057545587
-0.054084152 -0.080992505 0.114301294 -0.06394336 -0.106620535 -0.015058577 -0.103080854 -0.055782586
-0.05457154 -0.06039761 -0.04721974 0.046746686 0.0709649 0.015913561 0.10474317 0.07794264
0.04208225 -0.057299554 -0.0033922046 0.023353994 0.024323612 0.029295236 0.09122378 0.07837653
00000000: 36e9 8a3d 3c1c c4bd a074 b13b 8496 84bd
00000010: ead7 d4bd 425c d23d cabe a13d 2e4e 8e3d
00000020: 60ff f1bb 80cd d63d 40aa 273b f404 a7bd
00000030: 6427 a73d f824 ebbc 00eb e53b ec01 9abd
00000040: ee63 8cbd 9a7d c9bd 285f f6bd 0075 98ba
00000050: 50e0 1a3d 6067 a73c 802a bdbc 6efe dbbd
00000060: ac24 963d a09a 703c 0028 86b9 74cb f93d
00000070: 5810 a8bd 5408 64bd 3062 583c b811 1fbd
00000080: c096 d73d 0411 cdbd ee05 b6bd f063 ddbd
00000090: 0a6d a73d 9c5b 593d b0d8 973d 08af 1dbd
000000a0: 50c2 3cbd 86c3 e93d dcbc da3d 74ed 6a3d
000000b0: 78e1 c03c 0036 fc3d c6c6 8fbd a03e 12bd
000000c0: b404 dc3d 4013 853d 3825 b6bc e4df c83d
000000d0: e087 f0bb daad 95bd 20c9 6a3c d6f8 f73d
000000e0: 84f2 db3d 4ae3 fb3d 1846 75bd 70b3 db3d
000000f0: 301d 6d3d 2ee6 d4bd c8cd 3cbd 0863 c3bd
00000100: 0498 e1bd 061f f1bd 90ef a73d 3a65 c13d
00000110: c49c e4bd 1c0f f5bd d0cc 523d 30d5 533d
00000120: 00dd 01bc c68b a1bd f0be 013c 80dc fb3b
00000130: 88ba eb3c 64ec 25bd a86a debd f616 de3d
00000140: 167f e8bd 1056 57bd 2027 c83d d2cc f63d
00000150: 025c ba3d 3ae4 aabd 60d3 b7bb fe7f ff3d
00000160: 605e eb3d c600 83bd 1061 f33c 3845 a9bd
00000170: 408b 83bd 5453 e0bd 54de ab3d e486 943d
00000180: 6049 8abc f0ec 51bc d4c0 c33d e084 773d
00000190: 7240 c03d 8a31 8d3d 7276 fabd 46ff cfbd
000001a0: 5860 493d e096 00bc 2c1d 72bd 20ff a43d
000001b0: 0e2f abbd da2a 863d 809c 26bb dec5 9ebd
000001c0: d0ef a43c c608 abbd b4a8 113d 1007 e83d
000001d0: 70aa 8bbc 4070 873b b658 ac3d e434 4dbd
000001e0: e8e4 61bd b8bf 93bd 1e12 853d 7872 a9bc
000001f0: 2682 e0bd 56b1 f13d 7c79 e03d 22fb 863d
00000200: 2868 dfbd 0c2d c53d 701f ccbd 3659 cdbd
00000210: 6c5f ecbd c030 a1bd 28a3 b13c 4038 a4bc
00000220: f851 bf3c b0d7 073d aa53 a53d 28f2 d73d
00000230: f831 ffbc d6dc dabd a067 f73c 4cfa 693d
00000240: f83b 99bd d8d2 693d 14ff 50bd 7056 4dbc
00000250: 4eff fd3d 7831 87bc e0d9 90bc 3212 ad3d
00000260: a64e a73d 1c66 3c3d dc54 7abd 4856 43bd
00000270: 8e04 d7bd fc51 653d c4bf e33d c872 8c3d
00000280: 04f9 773d b6ab f03d 4012 cb3c b2da c9bd
00000290: 521c 8a3d 485d 343d ce2b ddbd 64ac 753d
000002a0: 3cc6 123d 80a6 ff3c 78f7 6b3d 4056 6ebc
000002b0: 5c50 cdbd 407b 653d 5802 e23d 0045 b6bc
000002c0: 007d c2ba 36a2 debd 80de b83d 48b5 743d
000002d0: caf4 e03d 8039 fc3a 7ad6 cabd 6c52 4e3d
000002e0: 5466 00bd c8ee c83d b0be cdbc f21c f33d
000002f0: f07e d7bc 7e4c 933d 68e2 60bd 1ac3 a0bd
00000300: b23e 9fbd a0fb 08bd 3aeb b33d 4c8f 813d
00000310: 902b 5d3d 60e6 b0bb 746b 863d 467e c3bd
00000320: ee38 a63d 1613 babd 6cdd 70bd 9863 c13d
00000330: 007c 533c 544f fdbd 0288 823d 0054 5bbc
00000340: 2076 34bc 9049 88bc d0bc cc3d ee56 9a3d
00000350: 08cc d8bd 60e1 d63c 0449 8a3d a44c 1cbd
00000360: f8b6 ccbd 5614 be3d c48c bf3d 80da af3b
00000370: 50f8 19bd a4b2 5a3d 06b3 9dbd 9e6b abbd
00000380: ecc7 06bd 50cd 833c b614 c73d 6680 90bd
00000390: 4855 b8bc 0e99 a2bd 806c b43b ecb4 6bbd
000003a0: 5887 5dbd 66df a5bd cc16 ea3d bcf4 82bd
000003b0: de5b dabd 40b8 76bc 0e1c d3bd 487c 64bd
000003c0: 6886 5fbd 7c63 77bd 7c69 41bd 7479 3f3d
000003d0: 0c56 913d 285d 823c 9683 d63d 64a0 9f3d
000003e0: 705e 2c3d f0b2 6abd c04f 5ebb e050 bf3c
000003f0: 5042 c73c 90fc ef3c 88d3 ba3d e083 a03d

net.10.bias f4 [64]
0.10608558 -0.020658359 -0.011131659 -0.032110736 0.0038973838 0.009703353 -0.061704203 -0.02273424
-0.04512091 -0.027287498 0.008551687 0.1018264 -0.027777344 0.023000434 -0.10639684 0.10448781
-0.031796426 0.030576974 0.037649006 -0.08751491 0.07307112 0.04748705 0.06731309 0.051213518
0.015790418 -0.105703875 -0.076471075 0.031139985 0.105454594 -0.059679747 -0.060785547 -0.019093484
-0.047103345 -0.070813194 0.040219948 -0.111006334 -0.06250982 -0.1008662 -0.11404155 0.055681348
0.055545628 0.05291374 0.10719778 0.020181015 0.12292944 -0.0216465 -0.029325485 -0.06336403
0.09518953 -0.06469272 0.10074861 0.020090744 0.020524636 -0.027980387 -0.052009374 0.057024896
-0.014425904 0.056240514 0.10510613 0.0016812533 -0.11398399 -0.07298492 0.04565312 0.0012177676
00000000: 6643 d93d b83b a9bc 9061 36bc 8c86 03bd
00000010: 406b 7f3b d0fa 1e3c 8cbd 7cbd 283d babc
00000020: b4d0 38bd 088a dfbc 601c 0c3c 5c8a d03d
00000030: 508d e3bc 686b bc3c 96e6 d9bd b4fd d53d
00000040: f83c 02bd 907c fa3c d835 1a3d 043b b3bd
00000050: 50a6 953d c881 423d 72db 893d 44c5 513d
00000060: e85a 813c 467b d8bd de9c 9cbd 4819 ff3c
00000070: 94f8 d73d c072 74bd 44fa 78bd f069 9cbc
00000080: 70ef 40bd 8206 91bd acbd 243d 4a57 e3bd
00000090: 2605 80bd f092 cebd 9e8e e9bd 2012 643d
000000a0: d083 633d 14bc 583d 828a db3d a852 a53c
000000b0: 6ec2 fb3d 0054 b1bc 003c f0bc 00c5 81bd
000000c0: baf2 c23d 9e7d 84bd 4a55 ce3d 5895 a43c
000000d0: 4823 a83c 2037 e5bc c807 55bd f092 693d
000000e0: a05a 6cbc 745c 663d e241 d73d 805d dc3a
000000f0: 7070 e9bd 1e79 95bd c4fe 3a3d 809d 9f3a
