gpu_wdgrl/model/wdgrl_5.pth (torch, 9858 bytes, 27 tensors)

net.0.weight f4 [4, 1]
0	0xbf579967	-0.8421845
1	0xbf7bbe52	-0.9833728
2	0x3f3d4825	0.7393821
3	0x3f0b77cb	0.54479665

net.0.bias f4 [4]
0	0xbf27fd1f	-0.6562061
1	0x3f6c6a9f	0.9235019
2	0xbef3bc3f	-0.47604558
3	0x3e87786d	0.26459065

net.2.weight f4 [4, 4]
0	0x3ee86452	0.45389038
1	0xbe00e720	-0.12588167
2	0xbec0d94a	-0.37665778
3	0x3ec393a8	0.3819859
4	0xbf1a8ee0	-0.6037426
5	0xbda7cbd8	-0.08193177
6	0x3f3145d5	0.6924718
7	0x3f093fc5	0.5361293
8	0x3e83a879	0.25714472
9	0x3f309e43	0.6899149
10	0xbed88882	-0.42291647
11	0x3ea99a6e	0.33125633
12	0xbe3a7cb2	-0.1821163
13	0xbc7a1485	-0.015263681
14	0x3c8b3c13	0.016996419
15	0xbf1ab460	-0.6043148

net.2.bias f4 [4]
0	0xbefd6a00	-0.49494934
1	0x3ebbd63c	0.36686885
2	0xbe4e6e82	-0.20159343
3	0x3eff4318	0.49855876

net.4.weight f4 [4, 4]
0	0xbe1c59d0	-0.15268636
1	0xbed29156	-0.41126508
2	0xbdd08180	-0.1018095
3	0xbc9a2080	-0.018814325
4	0xbadb5c00	-0.0016735792
5	0x3d614ae0	0.055003047
6	0x3e8f6a4f	0.28010795
7	0xbe837ee2	-0.2568274
8	0x3da66fb8	0.081267774
9	0x3f19d0a8	0.6008401
10	0xbeedd7b6	-0.46453637
11	0x3eb07f1e	0.34471983
12	0x3d827c30	0.06371343
13	0xbebd48fe	-0.3696975
14	0x3ed94a53	0.42439517
15	0x3e81e6d2	0.25371414

net.4.bias f4 [4]
0	0xbdddd970	-0.108324885
1	0xbefdb32b	-0.49550757
2	0x3bc77609	0.006087069
3	0x3f04348e	0.5164269

net.6.weight f4 [4, 4]
0	0xbde6b428	-0.11264831
1	0xbe1be3e7	-0.15223657
2	0xbedd8be7	-0.432708
3	0x3ef22482	0.47293478
4	0x3ef34388	0.4751246
5	0xbeccc657	-0.3999507
6	0x3c529cbf	0.012854754
7	0x3f29bf2c	0.6630733
8	0x3e88480e	0.26617473
9	0x3e95a302	0.29225928
10	0x3f2954c2	0.66144955
11	0xbd74d03e	-0.059768908
12	0x3d851118	0.06497401
13	0x3e0e1aac	0.13877362
14	0x3f07b311	0.5300761
15	0xbd2a855b	-0.041631084

net.6.bias f4 [4]
0	0x3ea175ba	0.3153513
1	0xbd4f4780	-0.050605297
2	0xbcdd4e1c	-0.027014785
3	0xbe93d46e	-0.28873008

net.8.weight f4 [4, 4]
0	0xbee9a95f	-0.45637032
1	0xbf2cae62	-0.6745359
2	0x3ec07369	0.3758805
3	0x3e61ddff	0.22057341
4	0x3f1108d4	0.56654096
5	0x3d0e20b0	0.034699142
6	0x3e0bbc64	0.13646084
7	0x3e28c8ba	0.16482821
8	0xbdad7ee4	-0.08471468
9	0x3e0d66d1	0.13808753
10	0x3f228dad	0.6349743
11	0x3f1d57c9	0.61462075
12	0x3d92d7d0	0.07170069
13	0x3db5e3e2	0.08881356
14	0x3ecf5d09	0.40500668
15	0x3ea012f9	0.31264475

net.8.bias f4 [4]
0	0x3ed88c99	0.42294767
1	0xbd451199	-0.048112486
2	0xbbb77828	-0.0055990405
3	0xbf03a7fe	-0.5142821

net.10.weight f4 [4, 4]
0	0x3e7460c0	0.23865032
1	0x3ee2018d	0.44141808
2	0x3d6d584f	0.057945546
3	0x3e5b06a1	0.21389247
4	0x3f207abf	0.62687296
5	0xbed6fd51	-0.4199014
6	0x3e430a2e	0.19046852
7	0xbd86b760	-0.06577945
8	0x3e893d62	0.26804644
9	0x3e9de140	0.30835915
10	0xbecfeb5e	-0.40609258
11	0x3efba4fa	0.49149305
12	0x3ef635a2	0.48087794
13	0x3e74454f	0.23854564
14	0x3d91d377	0.07120412
15	0xbcd46cbb	-0.025930753

net.10.bias f4 [4]
0	0xbeecab4a	-0.46224433
1	0x3de6c877	0.112687044
2	0xbe6e5fec	-0.23278779
3	0x3c5ef7b6	0.013608864

net.12.weight f4 [4, 4]
0	0xbe29c749	-0.16579928
1	0x3edc57b5	0.43035665
2	0x3ea6c010	0.32568407
3	0x3e0fad24	0.14030892
4	0xbefb3472	-0.4906345
5	0x3ebbdca2	0.36691767
6	0x3ec52c1e	0.3851022
7	0xbe94ffda	-0.2910145
8	0x3df54f40	0.11978006
9	0x3f06b91a	0.5262619
10	0xbe6d89e4	-0.23197132
11	0x3ed6fe5d	0.4199094
12	0x3e85f338	0.26162124
13	0xbf1101e4	-0.5664351
14	0x3eee18a6	0.4650318
15	0xbd9032a7	-0.07040911

net.12.bias f4 [4]
0	0xbebafdf6	-0.36521882
1	0xbe105ba8	-0.14097464
2	0x3d8ae1cc	0.067813486
3	0x3e8bb6f4	0.2728802

net.14.weight f4 [4, 4]
0	0xbe91b128	-0.28455472
1	0xbece0eca	-0.40245658
2	0xbf3992a4	-0.7248938
3	0x3ec0cc72	0.3765598
4	0x3d33b810	0.043876708
5	0xbe83b250	-0.2572198
6	0x3d266850	0.040626824
7	0xbec56548	-0.38553834
8	0xbe58e130	-0.21179652
9	0xbe48ff90	-0.1962874
10	0x3f28c7d3	0.6592991
11	0xbe230740	-0.15920734
12	0xbd73adb4	-0.059491828
13	0x3ee438fe	0.44574732
14	0x3f2b0c84	0.6681597
15	0xbcfe7ac8	-0.031064406

net.14.bias f4 [4]
0	0x3efcd7c6	0.49383372
1	0xbe8a2cfe	-0.2698745
2	0x3e6bbdc9	0.23021616
3	0x3de125af	0.10993516

net.16.weight f4 [4, 4]
0	0xbeb68c20	-0.35653782
1	0xbd809998	-0.06279296
2	0xbe0b1e6f	-0.13585828
3	0x3ed4f83d	0.4159564
4	0xbd0d7fd0	-0.03454572
5	0xbeadb0e4	-0.3392402
6	0x3ea82570	0.32841063
7	0xbe9126e4	-0.28349984
8	0x3e8229dc	0.2542256
9	0x3dbcb268	0.09213716
10	0xbef139b8	-0.47114348
11	0xbea8fe04	-0.330063
12	0xbf0b2d31	-0.5436583
13	0x3e009cf4	0.12559873
14	0x3f14bc40	0.58099747
15	0x3eee5535	0.46549383

net.16.bias f4 [4]
0	0xbe2c784c	-0.16842765
1	0xbe8badd8	-0.2728107
2	0xbee5315e	-0.44764227
3	0x3e9d70aa	0.30750018

net.18.weight f4 [4, 4]
0	0x3eacf97a	0.33784086
1	0x3df80418	0.12110156
2	0x3ece14fa	0.4025038
3	0xbd208a38	-0.039194316
4	0x3af14600	0.0018407702
5	0x3e2cb6c8	0.168666
6	0xbed60828	-0.41803098
7	0xbe5734a4	-0.21016175
8	0xbe543104	-0.20721823
9	0x3d62c3a0	0.055362344
10	0x3dd64438	0.104622304
11	0x3ebbf434	0.3670975
12	0xbdb1dda8	-0.08684856
13	0xbec10fde	-0.37707418
14	0x3eb037ec	0.34417665
15	0x3ef89806	0.48553485

net.18.bias f4 [4]
0	0x3e01a074	0.12658864
1	0xbeeadb04	-0.4587022
2	0xbed53016	-0.4163825
3	0x3e8d2582	0.2756768

net.20.weight f4 [2, 4]
0	0x3e87af7a	0.26501065
1	0xbe2c9a14	-0.16855651
2	0x3e6f6c2c	0.23381108
3	0x3eb71dca	0.35764915
4	0xbc964ca8	-0.0183471
5	0xbd9165e8	-0.07099515
6	0x3e121cc8	0.14268792
7	0x3f0cd981	0.55019385

net.20.bias f4 [2]
0	0xbee7e6a2	-0.45293146
1	0x3dd30000	0.103027344

net.0.weight f4 [4, 2]
0	0x3f1825d0	0.594327
1	0x3f2ab0c6	0.66675985
2	0xbeba8bf3	-0.36434898
3	0x3e398b0f	0.18119453
4	0x3edb16be	0.42790788
5	0xbee3646c	-0.44412553
6	0xbf3199b6	-0.6937517
7	0x3ee35042	0.4439717

net.0.bias f4 [4]
0	0x3f2c44a7	0.67292255
1	0xbe7bdeab	-0.2459666
2	0xbf0c071d	-0.54698354
3	0xbe854702	-0.26030737

net.2.weight f4 [2, 4]
0	0xbf2e6af1	-0.6813193
1	0x3ded6c1c	0.11592886
2	0xbe5327c0	-0.20620632
3	0xbddd2830	-0.10798681
4	0x3d90fd28	0.07079536
5	0xbe88dbf6	-0.26730317
6	0xbeba04d6	-0.36331815
7	0xbe5db30c	-0.21650332

net.2.bias f4 [2]
0	0x3e350d04	0.17680746
1	0xbe8631cc	-0.26209867

net.4.weight f4 [1, 2]
0	0xbf0991b3	-0.53737944
1	0x3e0fa6a8	0.14028418
