gpu_wdgrl/model/wdgrl_7.pth (torch, 260416 bytes, 49 tensors)

net.0.weight f4 [64, 16]
000000 c3 cb 51 be ca ca 2c bd 59 a5 86 3e 88 3c e7 bd
       -0.20487885 -0.042185582 0.26298025 -0.11290842
000010 29 e4 65 3e 3b a7 f4 3d 27 a8 7d 3e 6b f6 69 3e
       0.22450317 0.11945959 0.24771176 0.22847907
000020 b2 b5 f2 bd 60 76 85 3e 32 39 b6 3b 55 d8 2c 3e
       -0.11851062 0.26066875 0.0055610174 0.16879399
000030 84 60 87 3e b3 2a f2 bd 0d fb 61 3d d1 23 40 3e
       0.26440823 -0.118245505 0.05517106 0.18763663
000040 6e 61 22 3e 5e 11 2f bd ed ce 68 be 59 18 cc 3d
       0.15857479 -0.042741172 -0.22735186 0.099655814
000050 dd a6 07 3e a3 96 ca bd b0 79 f2 bd 46 2c ea bd
       0.13247247 -0.09892013 -0.11839616 -0.11434226
000060 36 de 55 be d4 45 6b be 08 4d aa bd de 68 0b bd
       -0.20885548 -0.22975856 -0.08315474 -0.034035556
000070 7d e3 5a bd 69 52 8f ba bd 9c 61 3d d6 66 de 3d
       -0.053439606 -0.0010934594 0.055081118 0.10859458
000080 8b 25 93 3b bb 3d cb bd 77 f2 eb bd 16 76 ce 3d
       0.0044905595 -0.099238835 -0.11520856 0.10081117
000090 68 e4 57 be da e3 a3 be 51 20 87 3d 88 95 12 be
       -0.21083224 -0.32009774 0.06597961 -0.14314854
0000a0 2b fc 5a be 2f 0c 11 3e 78 78 1b 3e 80 40 09 bd
       -0.21385257 0.14164804 0.15182674 -0.033508778
0000b0 6a d3 6e be a6 e3 8c 3d ab 93 01 bd ef 20 4f 3e
       -0.23322836 0.06879358 -0.031634968 0.20227407
0000c0 0d f0 c7 3d ad b1 32 be fb ff 4c 3e 54 ea ae bd
       0.09762583 -0.1745059 0.20019524 -0.08540788
0000d0 3b 6a 92 bd d6 64 0e be 12 f1 07 bc ca b1 6d be
       -0.07149168 -0.13905653 -0.008297222 -0.23212352
0000e0 4a 64 e4 bd fa f1 ba bc d7 7c 20 be d2 ba 82 3e
       -0.11151941 -0.022820462 -0.15672623 0.25533158
0000f0 b7 2e 3a bd 14 56 9d bd da 5e 37 be 97 9e dc 3d
       -0.045454707 -0.07682434 -0.17907277 0.10772436
000100 63 2b a3 be ed c9 e8 bd e6 53 72 3d 07 47 57 be
       -0.3186904 -0.11366639 0.059162043 -0.21023189
000110 34 ca 3e be 0c 77 4c bb 3d f3 7a be 76 72 04 bd
       -0.18631822 -0.0031198887 -0.2450685 -0.03233572
000120 43 a6 06 bd 0f 3f 56 3e 66 e7 19 bd de b7 44 3e
       -0.032873403 0.20922492 -0.037574194 0.19210765
000130 ac 05 59 be 04 af 44 3e 2c e8 35 be 8f f4 18 3e
       -0.2119357 0.19207388 -0.17764348 0.14937042
000140 3d 1d 8e 3d ec f0 1f 3d 7a b2 b5 3d f7 91 32 bc
       0.069391705 0.03904812 0.08871932 -0.010899059
000150 bb d4 51 3e e8 32 1d 3e 2f a7 d7 3d b5 0d 66 bc
       0.20491306 0.1535145 0.105299346 -0.014041354
000160 34 7a 09 3e 50 40 14 bd 15 7e b4 3c 0e 58 4f 3e
       0.13425523 -0.036194146 0.022032777 0.20248434
000170 78 3a 68 3e da 0d 79 3d f2 c2 51 be c5 74 6b 3d
       0.22678554 0.060804226 -0.20484522 0.057484407
000180 f4 91 81 be be 53 84 3d 47 6a 6d bd 46 5d b2 bc
       -0.25306666 0.06461285 -0.057962682 -0.021772992
000190 05 19 37 be 16 5b 0d 3d df 5c 16 be 6b f3 03 3e
       -0.17880638 0.034510694 -0.14683865 0.12885825
0001a0 d1 de 99 be d9 54 6d 3c 15 10 36 bc b2 89 cf 3d
       -0.30052808 0.014485561 -0.011112233 0.10133685
0001b0 bf 71 51 3b dd 9a 27 be 23 e5 0f be a4 54 11 bd
       0.0031958667 -0.1636767 -0.14052252 -0.03548111
0001c0 ec 66 e8 3d a5 c2 0f be a9 3b 20 3e 74 3e 84 be
       0.11347756 -0.14039095 0.15647759 -0.25828898
0001d0 e8 c2 00 bd bc 7d 05 3e 91 40 83 be d8 8a 83 be
       -0.031435877 0.13036245 -0.25635198 -0.25691867
0001e0 1b f0 90 bd 48 86 cc bc 55 94 a3 3d 37 f3 f5 3d
       -0.070770465 -0.024966374 0.079872765 0.1200928
0001f0 9b bf bf 3c 26 96 9a be ad 40 cc 3d 5e fa 08 3d
       0.023406794 -0.3019268 0.099732734 0.033441894
000200 c4 42 d4 bd e7 40 ba 3d 2d 28 0b 3c 3d 9e ae bd
       -0.10364297 0.090944104 0.008493465 -0.08526275
000210 cd 24 23 bd dd 7f 52 bd 42 14 c1 bd 1b ca 2e be
       -0.039830018 -0.05139147 -0.09427692 -0.17069285
000220 59 61 54 be 12 43 10 3e 55 26 4f be 76 58 6a 3e
       -0.2074026 0.14088085 -0.20229466 0.22885308
000230 2e 1a 21 be b3 ba 86 3d 23 bb 54 be 76 68 cc 3b
       -0.15732643 0.06578579 -0.20774512 0.0062380387
000240 41 44 3b 3e 4f df ff 3d 00 a7 78 be 39 1c c1 3d
       0.18287756 0.124937646 -0.24282455 0.09429211
000250 e4 69 9d 3d 9a 5e 22 3e 0a 0c 66 be ee eb 7a be
       0.07686213 0.158564 -0.2246553 -0.24504063
000260 70 c3 5d bd 65 4d 8e bd e0 5f 24 be 82 6c 39 3d
       -0.05414146 -0.069483556 -0.16052198 0.045269497
000270 cb 99 11 be 10 41 29 be fb 6f 1c 3e 33 35 f7 3d
       -0.14218824 -0.16528726 0.15277092 0.12070694
000280 11 1b 2a 3e 26 28 6c 3e 4d dc 33 3e 90 e1 2b be
       0.16611888 0.2306219 0.17564507 -0.16785264
000290 72 73 3b be 32 68 30 be 9f 93 33 be 9d 11 0a be
       -0.18305758 -0.17227247 -0.17536782 -0.13483281
0002a0 1c 9f 31 be cf ce 69 be 48 cb c7 3c 12 b1 5d be
       -0.17345852 -0.22832797 0.024388924 -0.21649578
0002b0 17 77 81 bd 0a 61 7f 3e b6 10 5e 3e 2a 41 84 3c
       -0.06321543 0.24939361 0.21686062 0.016144354
0002c0 fd 59 6a bd 69 a4 d3 bd f6 63 46 be 46 79 35 be
       -0.057214726 -0.10334093 -0.1937407 -0.17722043
0002d0 23 4d 67 bc 05 9c 3a 3e b1 d8 60 3e b4 d7 d3 bd
       -0.014117512 0.18223579 0.21957661 -0.103438765
0002e0 3e bf 72 be 80 6a fc 3d dd a4 df bd bd 58 13 bc
       -0.23705766 0.12325001 -0.10920117 -0.008993325
0002f0 11 39 f9 3d 47 fc 29 be ec a0 34 3b d1 83 f0 bd
       0.12169088 -0.16600142 0.0027561737 -0.11743892
000300 b2 3d 16 3e 5a 39 a7 bd c8 be 45 3e 2d ee 6e bd
       0.14671972 -0.08165236 0.19311059 -0.05833261
000310 f1 f2 1a be 72 20 59 be 46 33 10 3d 94 f7 e9 3d
       -0.15131737 -0.21203783 0.03520515 0.11424175
000320 da 07 4e bc 80 ae 8a bd 87 b8 87 be c7 08 91 bd
       -0.012575114 -0.067715645 -0.2650797 -0.07081752
000330 d4 7b b9 bc 9c c1 4f 3e c1 88 9b 3d 66 e2 e0 bd
       -0.022642054 0.202887 0.07594443 -0.10980682
000340 e4 8a 43 3d 54 5f c0 bc 7e e4 c9 3d 3b 1b ba bd
       0.04773988 -0.023482956 0.098580346 -0.09087225
000350 17 81 0d 3e 5a fe 04 3e d6 0a ba 3c c8 8c 68 be
       0.13818775 0.12987652 0.022710245 -0.22709954
000360 bc d7 91 3d 13 7d 39 3e 4a 97 ca 3d 9b 28 1e be
       0.07121226 0.18114118 0.09892137 -0.15445177
000370 0f d6 d7 bc 69 49 25 3e 2e 66 81 be 43 ec 49 bc
       -0.026347188 0.16141285 -0.2527327 -0.012324396
000380 2c f0 41 be 5d b3 db bd fc 4e 85 bd 72 bd e8 3d
       -0.18939275 -0.1072757 -0.06509206 0.11364259
000390 bf 11 0f be d3 44 c4 3d 17 4a 1a 3e e6 01 85 bc
       -0.13971613 0.0958344 0.15067326 -0.016236257
0003a0 1e fe 36 3e 13 1c 92 3d ca 3a 8c 3d e2 2e 69 3e
       0.17870376 0.07134261 0.068471506 0.2277179
0003b0 e7 34 60 be 00 c5 31 be eb de e6 3d 18 b9 ff bc
       -0.2189518 -0.17360306 0.11272987 -0.03121619
0003c0 e6 52 6e 3e 69 60 91 3d 32 48 08 3e 6e 98 2c 3e
       0.2327381 0.07098467 0.1330879 0.16855022
0003d0 3a 5e 4d 3e ab 70 7b 3e 24 00 bd bd f8 ae ac bd
       0.20055476 0.24554698 -0.092285424 -0.0843181
0003e0 7c 02 d6 bd 83 f7 ea 3d ab f4 85 3c d1 65 55 3d
       -0.104496926 0.1147299 0.016352018 0.052099053
0003f0 5a eb 02 3e 7a 9c 80 bd 57 7e e5 3d 63 ad fe 3d
       0.12785092 -0.062798455 0.11205738 0.12435415

net.0.bias f4 [64]
000000 89 4c 4c 3e f2 25 f2 bd e5 0d e0 3d ce cb 9c bd
       0.19951071 -0.11823644 0.1094015 -0.0765606
000010 eb b0 2d 3e ed ce 0b be ed e1 a7 be cf 18 99 be
       0.1696202 -0.13653155 -0.32789555 -0.2990174
000020 20 9d 0c bc b4 d5 4c 3d e8 e6 5d 3d cf 49 c3 bd
       -0.008582383 0.05000849 0.054175287 -0.09535562
000030 be 4b dd 3d 66 3f 83 bd 86 49 48 3d c5 e9 40 3e
       0.10805462 -0.06408577 0.048898242 0.18839176
000040 99 80 f7 bd d4 f0 c4 bd 82 a6 6a be a3 73 59 3e
       -0.12085075 -0.09616247 -0.2291508 0.21235518
000050 cf 83 41 be 8c 62 9b be ef 4c be bd 99 22 1f 3e
       -0.18897937 -0.30348623 -0.09292018 0.15540542
000060 a6 eb 24 3d 67 61 57 3e 6c 5d 6a 3c 6c 2b b9 bd
       0.040263794 0.2103325 0.0143045 -0.09041485
000070 80 d4 f5 3d 8b 53 01 bd d1 45 d5 bd 43 df be 3d
       0.12003422 -0.031573813 -0.10413707 0.093199275
000080 07 9e 2d be 98 59 a2 bc 2b d5 79 3d 0e d2 d7 bd
       -0.16954814 -0.019818112 0.06099431 -0.105381116
000090 12 b7 4f 3e 31 5c e9 ba ae f5 a1 3c 0b 4f 17 be
       0.2028468 -0.0017803964 0.01977047 -0.14776246
0000a0 d5 67 4d be 47 2b 41 3e 21 d0 14 be 4a 6b d3 bd
       -0.2005914 0.18864165 -0.1453252 -0.10323198
0000b0 f4 54 84 3d 11 45 1b be c2 e6 8e be df 3f 67 be
       0.06461516 -0.15163065 -0.2791043 -0.22582959
0000c0 ca 99 29 bd 84 73 21 3e 72 d0 7a be 40 ae 36 be
       -0.04140643 0.15766722 -0.24493578 -0.17839909
0000d0 24 d7 ee 3d 8e cd 97 3d 99 fe 30 3e c4 c0 a4 bd
       0.116621286 0.07412253 0.17284621 -0.080445796
0000e0 63 09 ca bc 6d 58 ff 3d 5e 6e ba bd ea 0d 47 bd
       -0.024662679 0.12468038 -0.09103082 -0.048597254
0000f0 ab 5d 66 3e d1 21 5a be a2 05 02 3e 0f 51 d6 bc
       0.22496669 -0.21301962 0.12697461 -0.026161699

net.2.weight f4 [64, 64]
000000 98 21 be 3d 34 f2 50 ba 1b 63 fd bd 50 89 17 bd
       0.09283751 -0.00079706614 -0.123724185 -0.036996186
000010 13 9d f6 3c 33 67 7a 3d 1e 90 a7 3d ea b5 92 3d
       0.030104196 0.061133575 0.08181785 0.071636036
000020 31 7d ba bd 81 58 83 bc 26 8d 8f bd 18 4c 0e be
       -0.091059096 -0.016033413 -0.07009344 -0.13896215
000030 a5 9f a1 3d 1e a1 e9 bc 06 34 4b bd a5 c6 04 3e
       0.07891778 -0.02851921 -0.04961016 0.12966402
000040 b1 3b 82 bd 05 7e c4 3d 60 19 51 bd 5e 53 27 be
       -0.063590415 0.09594349 -0.05104959 -0.16340396
000050 d2 ae 2c 3d 2d 67 44 3c 83 22 0f 3d 57 ae 63 bc
       0.04215891 0.01198749 0.034945022 -0.013896546
000060 73 47 21 3c 11 c7 2a bd 49 d2 e1 3b 80 9d 51 3d
       0.009843695 -0.04169375 0.006891523 0.051175594
000070 a4 fa f7 bd 51 e9 0e be c8 ac 57 bd aa a8 88 bd
       -0.12108353 -0.1395619 -0.05265501 -0.06672795
000080 38 c9 00 3d 34 3c 0a be c5 08 65 bd 29 7f ce 3c
       0.031441897 -0.13499528 -0.055916566 0.025207119
000090 99 0c 91 3d 7f ff c5 bd 17 84 32 bc 20 e3 55 be
       0.07082481 -0.09667873 -0.0108957505 -0.20887423
0000a0 30 a2 0e 3d 14 89 00 bd 47 bb b8 3d 30 42 b6 3d
       0.034822643 -0.031380728 0.09020095 0.08899343
0000b0 95 12 99 bc d1 66 da bd d2 1a 16 be 44 36 9f 3d
       -0.018685618 -0.10664142 -0.14658669 0.07774022
0000c0 8b 6e 49 bd 4e 7a c3 bd b9 9e 84 bd 54 33 d0 bd
       -0.049177688 -0.09544812 -0.064755864 -0.1016604
0000d0 98 d5 77 3d a5 3c 6c 3d dd 08 07 bc ba 2f 37 bd
       0.060506433 0.057675023 -0.008241859 -0.04472325
0000e0 41 82 62 bd 0e 0f 73 3d 03 eb 49 be 53 d8 dd 3d
       -0.0553 0.05934053 -0.19718556 0.10832276
0000f0 b3 90 10 3d 96 6a 36 bd e9 05 11 3d f1 f8 39 be
       0.035294246 -0.044535242 0.035406027 -0.1816137
000100 77 b4 af 3d d0 be 71 3d 36 88 02 bd 5c 51 d0 bc
       0.08579343 0.059019864 -0.031868182 -0.02542942
000110 12 a1 d6 3d 04 73 cb bd 84 c1 8f bd 24 ec a5 bb
       0.104799405 -0.09934047 -0.07019332 -0.0050635505
000120 0d cb 8e 3d 1d 2d 4b 3d f9 e8 fd bd f0 78 3d be
       0.069723226 0.04960357 -0.12397952 -0.18503165
000130 8c 4b 7c bd dd d3 f4 39 ae 20 60 3d c2 2d fd bd
       -0.061595485 0.00046697157 0.054718666 -0.12362243
000140 04 f0 bc 3d 89 e1 c4 bd 98 b1 29 bb f1 4a 6d bc
       0.09225467 -0.0961333 -0.0025893208 -0.014483199
000150 3a d1 f3 bd cc 52 c7 3d 44 00 32 3d 92 9d c1 3c
       -0.11905141 0.09732589 0.043457285 0.023634706
000160 2f 3a 4f 3d 96 ac 89 bd 6d 43 66 3c 8b 11 cc bd
       0.050592598 -0.06722371 0.0140541615 -0.099642836
000170 09 92 0b be e7 66 26 be 2a ff 65 3d db 95 cb bd
       -0.13629927 -0.16250192 0.056151547 -0.09940692
000180 07 05 d1 3c dd 62 b2 bd 66 a1 82 bd 00 7c 79 bd
       0.025515093 -0.08710263 -0.063784406 -0.06090927
000190 dc a0 fe bd fb 11 bd 3c 1c 32 e9 bd f1 23 35 be
       -0.12433025 0.023079863 -0.11386511 -0.17689492
0001a0 9d 3a 8f 3d 1f 5b 93 bd 5c ca ed 3c 03 97 4b 3d
       0.069936015 -0.07195114 0.029027157 0.049704563
0001b0 a6 25 20 be 48 18 c1 bd 36 63 3b bb 97 7a cf bd
       -0.15639362 -0.094284594 -0.002859307 -0.10130804
0001c0 eb 6c ac bd 17 20 57 3d 77 cd 24 3d 1f 2b 8b bd
       -0.08419212 0.052520838 0.04023501 -0.06795334
0001d0 32 e5 ce bd 0e 19 8f 3d e5 6b 73 3d 3c ac bc bd
       -0.10102309 0.06987201 0.059429068 -0.092125386
0001e0 50 b8 0a be 8c e0 99 3d eb 81 39 be d8 c8 cf bd
       -0.13546872 0.07513532 -0.18115966 -0.1014573
0001f0 66 02 83 bd ae 06 96 3d df bf 7b 3c 95 1c 80 bd
       -0.06396942 0.07325493 0.01536557 -0.062554516
000200 9f a6 e2 bd 73 21 30 3c ee 2d e1 bd f0 b3 03 3b
       -0.11066937 0.010750162 -0.109950885 0.0020096265
000210 1f f9 82 3b 47 8a 89 bc 39 ba 8f 3b 5b 03 0b 3d
       0.0039969827 -0.016789569 0.004386213 0.033938747
000220 42 da 94 bc 3e 74 20 bd 66 7c 04 be d1 42 c5 bb
       -0.01817048 -0.039173357 -0.12938079 -0.006019928
000230 53 c7 c5 3d 5f 87 fd bd 1d 1d bf bd 13 34 12 be
       0.09657159 -0.123793356 -0.09331725 -0.14277677
000240 14 81 e6 bd 88 9a c5 3d 59 78 2d bd 43 63 0c be
       -0.112550884 0.09648615 -0.0423511 -0.1370974
000250 37 03 87 3c 7b e5 c4 bd 97 48 8b bd 36 07 9a 3c
       0.016481025 -0.096140824 -0.06800955 0.018802267
000260 a0 c9 8a bc 61 5d 9f 3d 2d 5d 60 3d b5 50 72 bd
       -0.016941845 0.077814825 0.05477636 -0.059159
000270 e2 a7 c8 3d 5f 89 54 bd a0 29 ef 3c 63 47 0c 3d
       0.09797646 -0.05188882 0.029194653 0.034247767
000280 90 21 9c bd 9c 09 fc bd 59 27 01 be ae 75 53 3b
       -0.07623589 -0.1230652 -0.12612666 0.0032266187
000290 d6 25 11 be 0a c0 4d bd e8 97 43 bd 32 bf 15 3d
       -0.1417459 -0.05023197 -0.04775229 0.03655929
0002a0 dd e3 0a be 68 36 f9 bd 5f ca 0b be ba e9 62 3d
       -0.13563485 -0.1216858 -0.13651417 0.05539868
0002b0 02 0d a2 3d 7c 32 82 3c 57 31 e6 39 4e 2d c5 3c
       0.07912637 0.015893213 0.0004390578 0.024069455
0002c0 40 ce 1d be 38 6c da bc f7 dc 9c 3c ad 74 da 3b
       -0.1541071 -0.02666293 0.019148333 0.006666741
0002d0 38 f8 c4 3c 37 26 2b bd db 44 b2 3d e1 80 4e 3d
       0.024044141 -0.04178449 0.087045394 0.050415877
0002e0 32 6b f5 bc f6 f8 a7 bd 2b 4e 94 bd 52 72 c3 bd
       -0.029958341 -0.082017824 -0.07241472 -0.09543289
0002f0 79 6f 4c bd df 45 e3 bc 09 9d 65 3d 1b 17 13 3d
       -0.049910996 -0.027743278 0.056057964 0.035910707
000300 39 19 28 be 4c 96 5d 3d ff d1 06 be 19 99 13 be
       -0.16415872 0.054098412 -0.13166045 -0.14413871
000310 46 1b b5 3b fd 82 11 be cf 04 4e 3d cb 6c 0d be
       0.005526933 -0.14210124 0.050297555 -0.13811032
000320 3d c5 34 bc e1 c3 1f bb 28 92 69 3b a1 19 a5 3d
       -0.011033353 -0.0024378228 0.0035640094 0.08061529
000330 86 7d 8e bc 31 c1 05 bd 96 65 b3 bd ff 8c da bd
       -0.017393839 -0.032654945 -0.0875961 -0.10671424
000340 c6 e2 f3 3c f0 e2 0a 3d 79 ce dc 3b 8b cf 83 3d
       0.02977122 0.03390783 0.0067384806 0.0643607
000350 b1 59 dc bd d6 d7 0b be f2 ec 12 be 8a 25 c6 bd
       -0.10759295 -0.13656554 -0.143482 -0.09675129
000360 7b b7 d8 bd 67 f7 12 3d 6c 75 15 be b3 12 85 3b
       -0.10581871 0.035880473 -0.14595574 0.004061067
000370 e6 eb cb 3d 1b 95 ec 3d 33 89 c5 bd ed f5 9e bc
       0.099571034 0.11551877 -0.09645309 -0.019404376
000380 7f e3 ef bd 27 91 59 bd ff 51 88 bd 34 e7 5d bc
       -0.11713313 -0.053116944 -0.066562645 -0.013543893
000390 68 3b 0e be 10 83 59 3b 64 25 78 3d 27 09 f7 bd
       -0.13889849 0.0033189692 0.060582533 -0.120622925
0003a0 4d 53 ad bd 9e e7 1d ba a1 ca d5 bd a8 50 91 bd
       -0.08463154 -0.00060235884 -0.10439039 -0.07095462
0003b0 42 45 c0 3a 4a 93 6c bd 55 f8 87 bd 6d f3 3b 3d
       0.0014669078 -0.057757653 -0.066391625 0.045886446
0003c0 8f 76 ba bb fe 6a f0 bd 90 c7 a0 3d dc 37 43 bd
       -0.005690403 -0.11739157 0.078505635 -0.047660694
0003d0 2e cc d8 3d e1 c1 b9 bd ca 4c 8e 3c 0f a4 cb 3d
       0.10585819 -0.090701826 0.0173706 0.09943401
0003e0 df f2 36 be 70 bd 19 be e7 0a dc bc 0d 49 cb bd
       -0.17866085 -0.15013671 -0.026860667 -0.09926043
0003f0 b5 72 f2 bd 38 9a 21 3d df f4 cf bd 09 71 56 3a
       -0.11838285 0.039453715 -0.10154127 0.00081802957

net.2.bias f4 [64]
000000 21 82 93 3d eb 2a f6 bd 38 45 ce 3c 19 b2 ba 3d
       0.072025545 -0.12019905 0.02517949 0.09116001
000010 a5 da 33 bc 89 5e 9c 3b 6d f2 48 bd ae ff e2 bd
       -0.010977422 0.0047720117 -0.04905932 -0.11083923
000020 7a 32 2d be f1 98 2b be 37 5f 95 3d d9 d9 4a 3d
       -0.16913787 -0.16757561 0.072935514 0.049524162
000030 e5 ae c7 bd 30 df d8 bd bc f0 99 bd d5 ea 9f bd
       -0.09750155 -0.10589445 -0.075166196 -0.078084625
000040 b9 be 43 3d 86 0b 45 bd 5c 75 ae 3d f6 65 05 39
       0.04778931 -0.048106693 0.08518478 0.00012721852
000050 56 09 b6 bd ea 52 5e bd 69 e2 fe bd f8 f6 04 3d
       -0.088884994 -0.05427829 -0.12445528 0.03246209
000060 53 4d 4f 3d 19 1f ad 3a 8d 0e b6 bd e3 11 ea 3c
       0.05061085 0.001320812 -0.08889494 0.028572982
000070 00 74 be bd 70 ab f7 3c 64 5f 8e bc 01 b4 a8 3d
       -0.09299469 0.030233115 -0.01737947 0.08237458
000080 4c 70 9a bd 72 c9 d9 bd 2c a7 21 bd 89 25 5c bd
       -0.0754095 -0.10634126 -0.03946607 -0.053746734
000090 92 1a 3d 3d 81 11 90 bc 99 24 40 bd 7a 93 96 3a
       0.046167918 -0.017586472 -0.046909902 0.0011488043
0000a0 5f 3a 0f be 61 9c ee bd f6 63 68 bc 70 aa 5e bd
       -0.1398711 -0.11650921 -0.014183989 -0.05436176
0000b0 04 88 26 3d 21 38 68 bd dd b6 e1 bc 02 ae af 3c
       0.04065706 -0.056694154 -0.027553016 0.021445278
0000c0 40 cf 0b be c7 f3 d3 3d af f5 bd bd 0e df 55 bd
       -0.13653278 0.10349231 -0.09275376 -0.052214675
0000d0 21 ee dd 3c 3a f8 86 3d 9c 00 75 3d 0b ec 5a bd
       0.027091088 0.06590314 0.059815034 -0.053447764
0000e0 b7 97 16 3d 8e f8 aa bd 4c b6 e3 3c 02 60 97 bd
       0.03676578 -0.08348189 0.027796887 -0.07391359
0000f0 6f ce 8c bd 14 6e 19 be 2b db 95 bd 42 78 3a bd
       -0.068753116 -0.14983398 -0.073171936 -0.045524843

net.4.weight f4 [64, 64]
000000 dc 14 8c bd 8e 2b 20 bd 3c 6f 99 bd 43 72 92 bd
       -0.06839916 -0.039104037 -0.074919194 -0.071507
000010 f8 c2 48 3d 76 0d 02 be 28 76 81 3d 15 02 2a 3d
       0.04901406 -0.12700447 0.06321365 0.04150589
000020 16 e9 81 3c c6 85 49 bd 94 71 37 3c 9e 49 46 bd
       0.015858214 -0.049199842 0.011196513 -0.04841005
000030 7f a0 f0 3d 33 93 93 bd 60 a0 c6 bc 84 3c ad 3a
       0.11749362 -0.072058104 -0.024246395 0.0013216888
000040 eb 22 0c be 01 c6 21 bd 2f 17 20 be 45 cd 4f 3d
       -0.13685195 -0.039495472 -0.15633844 0.05073287
000050 b3 5c 9b 3d 2b 1c 76 ba 7f 0d 1a 3e af 17 8f 3d
       0.0758604 -0.00093883526 0.15044211 0.06986939
000060 f0 e5 d1 bd 29 c8 0f 3c 44 a1 23 bb 30 cc a4 3d
       -0.10248935 0.008775749 -0.0024967948 0.08046758
000070 6e 1f 36 bd a8 db bd 3c e5 34 9d bd 66 35 82 bd
       -0.044463567 0.02317603 -0.076761045 -0.06357841
000080 5f 3e a8 bd 00 c6 c9 bd 2e f2 b7 bd 00 37 12 3e
       -0.08215021 -0.09852219 -0.08981739 0.14278793
000090 d2 bf 60 bd 60 45 39 bd 4e 21 95 bd 64 63 2a be
       -0.054870434 -0.045232177 -0.07281743 -0.16639477
0000a0 81 97 44 3d c1 05 98 bd aa 29 b2 3c 8f 5d 01 be
       0.047996048 -0.074229725 0.021748383 -0.12633346
0000b0 f7 e1 ec 3c 2e 19 6f 3d 8e ff d1 bd af 16 25 3e
       0.028916342 0.058373623 -0.10253821 0.16121934
0000c0 9c e2 08 be 2e 68 26 bc 44 1f 00 bd cf 42 0f be
       -0.13367695 -0.010156674 -0.031279817 -0.13990329
0000d0 ad ef 79 3d 3a 9b 2d 3e ef 59 42 3d d8 31 d9 3c
       0.06101959 0.16953745 0.04744905 0.026513025
0000e0 67 8b d2 bb ea f8 ea 3d ac 52 b9 3d c6 00 41 3d
       -0.0064253095 0.11473258 0.090489715 0.04711988
0000f0 c7 9c 08 3e 4e 5e ba bd f7 4c e3 3c 79 fc 16 be
       0.13341056 -0.091000184 0.02774666 -0.14744748
000100 8d 0f a5 bc 73 93 c9 3c a6 77 b2 3c e6 76 5a bc
       -0.020149017 0.024606442 0.021785568 -0.013334012
000110 13 5e 80 bd 51 8c 9d 3b a0 7b 57 3d 76 e1 29 be
       -0.06267943 0.004807987 0.052608132 -0.16589913
000120 89 b3 9f bc 3c 43 85 3c 4b d9 90 ba 91 ee c0 bd
       -0.019494789 0.016267411 -0.0011051086 -0.09420503
000130 9b da 81 3d 91 4e 2a 3c e4 81 3b 3d e0 45 c2 bd
       0.06340524 0.010394708 0.04577817 -0.09485984
000140 2b 4f 63 3d 7f cf 5c bd 8c 24 27 3c 4d e5 23 be
       0.055495422 -0.05390882 0.010201585 -0.1600544
000150 54 ae ab 3b c4 e1 8d bd 25 dc db bd 58 78 08 3d
       0.0052392874 -0.06927827 -0.107353486 0.033317894
000160 d9 d0 06 be 14 25 a9 bc ac c8 26 be 07 63 36 bd
       -0.13165607 -0.020647563 -0.16287488 -0.044528034
000170 aa 72 ec bc d4 a7 af 3c d7 4c 81 bd 6f 99 04 be
       -0.02886327 0.021442331 -0.06313484 -0.12949155
000180 6d 20 22 be 7b 93 92 3d 6a 67 16 be fa 60 17 be
       -0.15832682 0.07157036 -0.14687887 -0.14783087
000190 f6 c9 9e bd 89 2f 6b 3d f7 34 36 3d ef 97 8f 3d
       -0.07753365 0.05741838 0.044484105 0.07011401
0001a0 33 75 8c bd 9d 56 fb bc 83 0c 99 bd 11 cb 53 3d
       -0.068582915 -0.030680949 -0.074730895 0.05170733
0001b0 06 1f 7f 3d 9e 85 8c 3d 5b 89 9a bb 7a 33 fc bd
       0.062285446 0.06861423 -0.004716081 -0.12314506
0001c0 62 d9 4c be c1 62 17 be 3e cc 56 bd d0 25 9f 3d
       -0.200048 -0.14783765 -0.052440874 0.07770884
0001d0 30 f7 92 3d b7 d3 9d 3d 18 36 d7 bc de 1d 32 bd
       0.071760535 0.07706397 -0.026270911 -0.043485515
0001e0 91 54 ea 3c 4b ab ca bd 05 1c 46 3b 36 47 b6 bd
       0.028604778 -0.09895953 0.0030229103 -0.08900301
0001f0 48 80 03 3d 76 16 1e be 62 6b 09 3c 83 06 88 bd
       0.03210476 -0.15438256 0.008387418 -0.06641867
000200 c8 67 93 3c 44 be 09 be 75 68 b0 3c bb 76 35 3d
       0.017993823 -0.13451487 0.021534184 0.044302683
000210 b2 c7 da bd 64 7f c2 bd a9 d5 0b be 77 a9 87 3d
       -0.1068262 -0.09496954 -0.13655724 0.0662412
000220 17 21 44 3d 15 8f 2d be 5e 24 9e 3c 9a 1a ef bd
       0.04788312 -0.16949113 0.01930445 -0.11674996
000230 9e 2d e9 bd 17 40 f1 bd be db 95 3a 88 1b ac bb
       -0.11385654 -0.11779802 0.0011433286 -0.0052523054
000240 5f 1d ec bb fb 79 da 3d 07 0c 55 bc cf ca a6 3a
       -0.0072056497 0.10667797 -0.013003356 0.0012725237
000250 a8 50 c8 bc 05 55 d3 3d ed 32 3e bd dc b6 91 bd
       -0.024452522 0.103189506 -0.046435285 -0.07114956
000260 2e 3b 2f be a5 74 28 3d 1b 51 6e bc 1d 29 f9 3a
       -0.17112419 0.041126866 -0.014545704 0.0019009445
000270 9a 87 82 bd 28 80 9f bd 8b b9 9e 3c 45 f7 0a 3d
       -0.0637352 -0.07788116 0.019375583 0.03392722
000280 d4 57 de 3c 06 7b e0 bd 7d 1f 20 3d eb 70 26 be
       0.02714149 -0.10960965 0.03909253 -0.16254012
000290 be 4f c2 bd 3c 28 5e bd 4c 63 c4 3d df ac ff bd
       -0.09487866 -0.05423759 0.09589252 -0.124841444
0002a0 02 a0 2a be f1 81 82 bd 68 99 ed bd f0 ee 8f 3b
       -0.166626 -0.063724406 -0.116015255 0.0043924972
0002b0 4d fb 2f 3c 4a e6 13 be 3a 0e a6 3a 27 58 97 3d
       0.010741067 -0.14443317 0.0012669035 0.073898606
0002c0 73 4f 96 3b e1 c2 82 bd 2b 02 23 3d d7 d7 46 bd
       0.004587108 -0.063848265 0.03979699 -0.048545685
0002d0 c9 e7 1a be e0 83 1f be 2f b5 4b 3c a9 8a 20 3d
       -0.15127482 -0.1557765 0.012433334 0.039194737
0002e0 b7 13 95 3c 85 c2 6a bd 30 14 95 bd 95 38 c0 3c
       0.018197877 -0.057314415 -0.07279241 0.02346448
0002f0 20 f0 0f bd 52 35 fc bc 1b 94 fe bd 6a 7d d1 bc
       -0.03514111 -0.030787144 -0.124305926 -0.025572497
000300 42 ce 83 3d 9f 7c fe bd ab ed 93 bd 1f 66 7e bc
       0.06435825 -0.12426113 -0.07223066 -0.015527277
000310 fd c5 c0 bd 98 f4 61 3c ca 64 e9 bb 6e 7d 02 3e
       -0.09412763 0.013791226 -0.0071226107 0.1274316
000320 14 38 8a bc 42 30 31 3e a8 53 32 3d 60 1a b3 3c
       -0.016872443 0.17303565 0.043536812 0.021863163
000330 2e 9a f7 3d bf 5f da 3d 63 40 12 be 89 e1 80 3d
       0.12089954 0.10662793 -0.14282374 0.062930174
000340 6c d4 c7 bd 51 41 c6 3b 1b 9d 9b bd 83 eb 23 bd
       -0.09757313 0.006050267 -0.07598325 -0.040019523
000350 e1 bd b0 3d 82 b0 de bd 6f c2 3b 3c 9c 81 a7 bb
       0.086299665 -0.1087351 0.011459931 -0.005111886
000360 f5 60 e7 3c fe fb f2 3d 52 41 2d be e7 34 a7 bc
       0.028244475 0.1186447 -0.16919449 -0.020410968
000370 32 d9 02 3e d1 bc 64 bc ea b2 37 be 11 a8 7a 3d
       0.12778166 -0.013961033 -0.17939344 0.061195437
000380 ac 3d 8c 3c d2 c4 cf bd 76 8e c7 bd 22 4f a7 bd
       0.017119251 -0.10144962 -0.09743969 -0.0816939
000390 d2 8b 1c 3c ef 6e 1e 3e 4b e9 ed bc 0c 35 9a bc
       0.00955482 0.15472005 -0.029041907 -0.018824123
0003a0 4e 49 d8 bd 08 91 96 3d 48 31 91 bc 3f c0 81 bd
       -0.10560857 0.07351881 -0.017723694 -0.06335496
0003b0 ac dd ab bd df 87 c2 3c a1 5a 88 bd e9 6d 5d 3c
       -0.0839189 0.023746429 -0.06657911 0.013514974
0003c0 e8 77 40 3d 7f 36 37 be 32 20 72 3b d6 ac 75 3d
       0.04698935 -0.17891882 0.003694546 0.059979282
0003d0 3f 24 9f bd 0d f9 66 3d 7d 23 bc 3d a7 80 53 3d
       -0.07770585 0.056389857 0.09186456 0.051636364
0003e0 02 6c 02 bd 01 d6 ee 3d 90 7f 8a 3d eb 55 c8 3d
       -0.031841286 0.11661912 0.06762612 0.097820126
0003f0 f9 7f 14 bc e9 24 dd bc ed 67 f4 3d 76 8f 32 be
       -0.009063714 -0.02699514 0.11933885 -0.17437539

net.4.bias f4 [64]
000000 2b 0e 88 3d ca d7 a9 ba e7 14 78 3d 3f 47 62 3d
       0.06643327 -0.0012957987 0.06056681 0.055243727
000010 a1 ad ef 3d a8 62 ff bd d3 ce ad 3d a9 8a 9b bd
       0.11703039 -0.12469989 0.08486714 -0.07594807
000020 68 fa 08 be b8 08 e7 3c 0e 50 a4 bd d5 33 d5 bd
       -0.13376772 0.0282024 -0.08023082 -0.10410277
000030 f4 0c e5 3c 17 0b 42 3b 20 27 87 bd 58 db a8 bd
       0.027960278 0.002960866 -0.065992594 -0.082449615
000040 c0 9c bb bd 79 6b 4a bd ba f6 b0 bb 96 39 ce 3d
       -0.09160757 -0.0494189 -0.005400506 0.100695774
000050 03 b9 00 bd c7 f4 97 bc 2a 18 ef bd 6d 6a 26 3d
       -0.03142644 -0.018549336 -0.11674531 0.04062884
000060 ae 11 24 bc 4b 03 04 3e 29 1e e4 bb 82 8a 0f be
       -0.010013981 0.12891881 -0.006961603 -0.1401768
000070 4f a2 65 bd 3b af 79 bb 8b f7 34 bd 26 c7 4a bd
       -0.056062993 -0.003809883 -0.044181388 -0.04950633
000080 25 4c 2e bd 2c 5a 40 3d 32 88 d9 bd 5d 25 9b 3d
       -0.042553086 0.046960995 -0.1062168 0.07575486
000090 35 6c 7f 3d a7 47 71 bd a2 1d 67 bd ed 10 7d bd
       0.062359054 -0.058906224 -0.056424744 -0.06178372
0000a0 61 09 e7 3d b0 24 70 bd 4f 80 aa bd 6a 1c a9 bc
       0.11281086 -0.058628738 -0.08325254 -0.020643432
0000b0 76 7e 7b 3d f8 06 9d 3d 38 3e 74 bd 09 24 22 bd
       0.0613999 0.07667345 -0.05962965 -0.039585147
0000c0 52 94 b8 3d e9 b5 02 3e 6d ad 89 b9 f8 4e 9e bd
       0.09012665 0.12764706 -0.0002625989 -0.07729906
0000d0 23 9b 85 bc 81 c9 53 3c 7a 4f 93 bd 55 1c 3a be
       -0.016309327 0.01292646 -0.07192893 -0.1817487
0000e0 34 63 84 bd 26 58 f3 3a 0e 99 a5 3d 88 0e 9d bd
       -0.06464234 0.0018565699 0.080858335 -0.07668787
0000f0 b5 af 38 be cc f6 00 3d ba c6 19 3d 09 04 01 be
       -0.18035777 0.031485364 0.037543036 -0.12599196

net.6.weight f4 [64, 64]
000000 a5 1f 9b bd 53 b3 5f bc 7a 56 c7 bc 90 5e 77 3b
       -0.07574395 -0.013653594 -0.024333227 0.0037745573
000010 c0 63 99 3c c0 ef a2 bb ce 5b 19 be 68 72 d2 bc
       0.018724322 -0.004972428 -0.14976427 -0.025689319
000020 c7 f0 13 bd 51 31 81 bc b0 fc 1b 3c 65 8f 04 bd
       -0.036118295 -0.015770586 0.009520695 -0.032363314
000030 a4 4d 7a 3d 4b f2 52 bd 26 8b 96 3d 4e df bc bd
       0.0611092 -0.0515006 0.07350759 -0.092222795
000040 a0 26 d0 bb b1 23 18 3e 6d 92 a3 3d 00 35 b6 3c
       -0.0063522607 0.14857365 0.07986913 0.02224207
000050 66 cc 06 3d c9 db b9 3d 62 9d 65 bd 43 cb a7 3d
       0.032909773 0.09075124 -0.056058295 0.08193066
000060 43 5b 2b 3d 22 36 a9 bd 36 29 3a bd b9 ef 4d 3d
       0.04183508 -0.08262278 -0.045449458 0.050277445
000070 78 d3 4c 3b d7 79 b6 3d 0b db 76 3c 8a a8 c2 3d
       0.0031253975 0.08909958 0.015066872 0.095048025
000080 38 74 fa 3b eb 4c 9f bd 90 73 ea bd 9d 4d 48 bd
       0.007643249 -0.07778343 -0.11447823 -0.048902143
000090 f5 c8 16 bd 58 d5 45 bd 3a 93 a7 3d d4 f8 63 bc
       -0.03681274 -0.048299164 0.08182378 -0.013914306
0000a0 a3 46 b5 3c 47 92 5f 3d 44 08 ca 3d 03 65 38 3d
       0.022128409 0.05458286 0.09864858 0.045018207
0000b0 0a 14 02 3e 0f 60 21 bd 7c 6e 13 bc 00 6a 41 bc
       0.12702957 -0.03939825 -0.0089985095 -0.0118050575
0000c0 47 29 3a 3d 7f f4 27 be 0d 01 a3 bd 20 d1 93 bc
       0.04544952 -0.16401862 -0.07959185 -0.018044055
0000d0 63 d5 71 3c 57 29 2b 3d cc 95 ad 3d d4 9d e9 3c
       0.014760348 0.04178747 0.08475837 0.028517641
0000e0 d0 1b ff bd 68 15 fa 39 ae 19 17 be 8f e5 9d 3c
       -0.12456477 0.00047699665 -0.1475589 0.019274501
0000f0 b6 fd a2 3d 79 f7 19 3d 19 ad 21 3d ef fc c4 3d
       0.07958548 0.037589524 0.03947172 0.09618556
000100 4a ff dc 3d 8e 16 3d bd 10 4d 74 bd 62 20 ec 3d
       0.1079088 -0.046164088 -0.059643805 0.11529614
000110 07 6d c4 bd ba 5f 95 3d bc 2f 51 bd be 48 84 bd
       -0.09591108 0.07293649 -0.051070914 -0.06459187
000120 83 36 b3 3d c9 ff 18 bd 62 8d dc bc 13 05 91 bd
       0.08750632 -0.03735331 -0.026922885 -0.07081046
000130 00 8f f9 3c f5 d8 c0 3d 8e 91 1c 3d c7 31 23 3e
       0.030463696 0.09416381 0.03822475 0.15936957
000140 5e df a0 bd 7e f7 e6 bd c2 29 a4 3b aa 4b 0e 3d
       -0.07855104 -0.11277674 0.0050098607 0.034740128
000150 74 d9 ae bc cf 1f d7 3c 6a b5 62 bb 72 e2 91 bd
       -0.021343924 0.026260285 -0.0034592994 -0.07123269
000160 b0 d2 aa 3c 73 01 8f 3c e3 2d 3b 3e 75 01 a0 3c
       0.020852417 0.017456746 0.18279223 0.019531945
000170 b6 6d a3 3d 38 ef cd 3d b9 48 e2 3c 4d ea bb 3d
       0.0797991 0.10055393 0.027622567 0.09175549
000180 95 6b 1f bd eb 02 77 bd 9f 0b 99 bd 7d 76 db 3b
       -0.038920958 -0.060305517 -0.0747292 0.0066974745
000190 c5 b8 1f 3e a8 42 5e bd 98 50 25 3d ac 4a 96 3d
       0.15597828 -0.054262787 0.040360063 0.07338461
0001a0 64 3f d6 bd 96 0b 2b 3b ae 13 dc bd ca d9 78 bb
       -0.104613096 0.0026099435 -0.10745941 -0.003797161
0001b0 c4 33 e8 ba d8 8a 0b 3d a2 52 b8 3d 96 a4 ff 3d
       -0.0017715623 0.03406796 0.09000136 0.12482564
0001c0 00 f0 d6 bd 5c 7b 65 3d c6 36 f0 3d bc e4 9d bd
       -0.10494995 0.056025848 0.11729197 -0.07709643
0001d0 fd fc 2b bd 08 28 17 3e 61 ee bb bc b2 62 a2 3c
       -0.041989315 0.14761364 -0.022940816 0.019822452
0001e0 70 d6 c7 3c df 5b d9 3d fb 82 dd bd 9f f5 fa bc
       0.024394244 0.10613226 -0.10815998 -0.0306347
0001f0 07 bf 13 be e6 a5 d5 bd 47 34 92 bc 23 24 8d bd
       -0.1442834 -0.10432033 -0.017847193 -0.06891658
000200 0b 72 ae 3d f5 10 f3 bd 3d 60 0a 3c d9 35 13 bc
       0.08517846 -0.11868469 0.008445797 -0.008985006
000210 a1 4c 9a bb 55 d0 80 bd ea 5f 84 3d dd 15 31 bd
       -0.004708842 -0.06289736 0.06463607 -0.04323374
000220 78 c2 ba bc 5b db 31 be 40 7c 04 bd 96 15 fe bd
       -0.022797808 -0.17368834 -0.032345057 -0.12406461
000230 63 ce 86 3c 8f 70 6f 3c b8 f9 24 3d cb c1 67 bc
       0.016455835 0.014614238 0.040277213 -0.014145325
000240 4c 58 cb bd 89 8c 48 3d 47 af 98 bd c7 f4 a0 bb
       -0.09928951 0.04896215 -0.074553065 -0.0049119922
000250 83 54 9f 3d 2c 22 c6 3d 0f f2 54 bd f3 34 ca bc
       0.07779791 0.096744865 -0.051988658 -0.024683451
000260 9e 1a a3 3d c7 40 2f bc 76 90 b9 3d bf 71 f1 bd
       0.07964061 -0.0106965965 0.09060757 -0.117892735
000270 89 3a a5 3d 9d 21 ad 3d 5a 7a 3c bd b2 ec 42 bd
       0.08067805 0.08453677 -0.04601512 -0.04758901
000280 d6 fe b5 bd ad 3f 28 3d 91 a0 20 3e 99 8b 26 be
       -0.08886497 0.04107635 0.15686251 -0.1626419
000290 cf 93 e6 bd 7c a8 30 3d 10 c8 23 3c a8 4f 06 bd
       -0.11258661 0.04312943 0.009996429 -0.03279081
0002a0 24 91 81 3b b5 dc 56 3d 80 9c a0 3b 4e 23 57 3d
       0.0039540697 0.052456576 0.0049014688 0.052523904
0002b0 4f 61 81 3d 89 7d 16 be 8f 0d 2a 3d 72 73 97 bd
       0.06317388 -0.14696325 0.041516837 -0.07395066
0002c0 9c 42 bc bd bf c9 96 bd a2 db c5 bd 9c 80 b7 bd
       -0.09192392 -0.07362699 -0.09661032 -0.08960077
0002d0 ed 1c 2c 3d e2 d1 6d 3c fc 7c c2 bd 2b 19 63 bc
       0.042019773 0.014515372 -0.09496495 -0.013860981
0002e0 c4 76 f4 bd 27 f0 9b bd c4 6e bc bd 12 1b 57 3b
       -0.11936715 -0.07614165 -0.09200814 0.0032822532
0002f0 44 ca 75 bc 6a ec f9 bd 5c 88 42 3c 9b 79 8d 3c
       -0.015001837 -0.122032955 0.011873331 0.0172699
000300 3c b5 c1 bd 3f 1d 69 bd af 77 03 3d f9 7a ac bd
       -0.09458396 -0.056912657 0.03209656 -0.08421893
000310 6c f0 05 bd dc 3a dd 3d 28 c8 82 3c d0 f0 e5 bd
       -0.032699987 0.10802242 0.015964583 -0.11227572
000320 6b c8 9f bc 93 bd c5 3d f6 01 8f 3d 1f e6 32 be
       -0.019504746 0.09655299 0.06982796 -0.17470597
000330 c4 c3 af 3d 90 8b 96 3d d3 7f 8c 3d ad 9b f4 bb
       0.08582261 0.07350838 0.06860318 -0.007464847
000340 a2 6c 88 bd e0 fd 19 3e 77 5b 3f 3d 2d dc 31 bb
       -0.06661345 0.15038252 0.046718087 -0.0027139292
000350 8c 2a 03 3e 21 38 b8 3d 7e ab c3 bd 22 a3 4f 3b
       0.12809199 0.08995081 -0.09554194 0.0031682928
000360 94 51 35 3e 72 9b de 3d 28 92 2e bc 7a 29 a9 3d
       0.17706901 0.108694926 -0.010654964 0.08259864
000370 b2 1a fa 3d d4 56 56 bd 56 46 02 3e a6 89 1a 3e
       0.12212123 -0.0523289 0.12722144 0.15091571
000380 86 8e 96 3c 7f eb f4 3d 77 55 14 3e 0f 29 d5 bc
       0.018378507 0.1195898 0.14485727 -0.026020555
000390 74 28 20 3e 92 79 1b 3d 53 e7 ae 3c aa 16 d0 3d
       0.15640432 0.037957735 0.021350538 0.10160573
0003a0 28 53 16 3d 31 f5 5e bd 81 26 81 3c cd ff 0f 3c
       0.036700398 -0.05443305 0.01576543 0.008789015
0003b0 f2 37 98 3c 65 4a da bd d7 9b 97 bd e0 54 75 3d
       0.018581364 -0.10658721 -0.07402771 0.059895396
0003c0 0f e2 a2 3d 9c a8 77 3c c6 5b 0e be 00 b3 69 bc
       0.079532735 0.015115883 -0.13902196 -0.014263868
0003d0 fd 37 e4 3c df 22 9a 3b 72 47 ef 3d c8 e1 7a 3c
       0.027858729 0.004703864 0.11683549 0.0153126195
0003e0 b0 d9 66 3d 99 29 3b 3e 33 f5 11 3e 22 c5 e1 bd
       0.056359947 0.18277587 0.14253692 -0.11023928
0003f0 c7 a3 ed 3d 87 65 2d bd c8 b6 11 3d 50 04 12 3e
       0.11603504 -0.042333152 0.035574704 0.14259458

net.6.bias f4 [64]
000000 4a 7b 38 bb a0 59 68 bd 91 59 ff bd 4a d2 d6 3d
       -0.0028149658 -0.056726098 -0.12468255 0.10489328
000010 a6 b4 1b 3c 4c 4d 38 3d 78 19 88 bd 07 59 68 bd
       0.009503519 0.04499559 -0.06645483 -0.056725528
000020 c2 11 1d be 08 57 b0 bc 78 f8 87 3d 3d fd 34 3d
       -0.15338805 -0.021525875 0.066391885 0.04418682
000030 cd f6 06 3e 1f 54 1c 3c 95 bb 1a be ed 1b 23 3d
       0.13180085 0.00954154 -0.1511062 0.039821554
000040 9c 19 a9 3d d3 2a ca bd a2 4e 0f be 72 54 92 bd
       0.08256838 -0.09871449 -0.1399484 -0.07145013
000050 3f 93 4e 3c 4c ac 01 3d 8d 4c 2d be e2 fb 75 bd
       0.012608348 0.031658456 -0.16923733 -0.060054667
000060 6b 12 17 3e 66 ee eb bd 62 3e 96 bd 80 f8 2a 3e
       0.1475312 -0.1152008 -0.07336117 0.16696358
000070 91 ac a9 bd 80 94 0c bd e4 a2 fe 3d 4f 7f 16 bd
       -0.082848676 -0.034321308 0.12433413 -0.036742505
000080 cf a7 3b bd 49 5b 0a be 4b 43 a4 3d 5a 06 a3 bd
       -0.04581433 -0.13511385 0.080206476 -0.07960196
000090 8c 99 e8 bd f6 fe 63 3d db 13 84 3c 98 32 b4 bd
       -0.11357412 0.05566307 0.01612275 -0.087987125
0000a0 32 b3 9a 3d 90 7c 29 3d 66 d9 6d 3d 81 1e b7 bc
       0.0755371 0.041378558 0.058068655 -0.022353413
0000b0 35 3f f6 3d e0 d8 34 be 13 76 05 be c3 d6 71 3d
       0.120237745 -0.17660856 -0.13033323 0.059042703
0000c0 8d 7d 8c bd af d2 d6 bd 71 4a ed bd c8 f1 b2 bb
       -0.068598844 -0.104894035 -0.11586464 -0.0054609515
0000d0 9d 42 95 bd b4 28 75 3d 5f ec 1c bd ec da 05 be
       -0.07288096 0.05985327 -0.03831136 -0.13071793
0000e0 35 92 35 3e 84 15 03 bd 9c ee 20 be 32 23 b3 3d
       0.17731555 -0.03200294 -0.15716022 0.08746947
0000f0 7c 5a 73 3d 48 d5 b4 bd 7c e2 0b 3e 36 e9 b0 3d
       0.059412464 -0.08829743 0.13660616 0.086382315

net.8.weight f4 [64, 64]
000000 10 f0 83 3c b6 e5 e5 bd fb 23 25 be 80 45 b5 bc
       0.016105682 -0.112254545 -0.16127007 -0.022127867
000010 cb ff fe bc 51 fd c8 bc 4d d8 e6 bd a0 ab c0 3d
       -0.031127831 -0.024534853 -0.11271725 0.09407735
000020 54 40 6a 3d 45 ec 82 bd ed e5 b1 bc ea e6 99 3d
       0.057190254 -0.06392721 -0.021716082 0.075147465
000030 9c 48 ff bd 73 41 81 bd ee 8b b2 3d cc ed 1e 3d
       -0.12465021 -0.063113116 0.08718096 0.038801
000040 a0 c1 01 3d 57 f4 12 be 00 75 3d 3c 57 e2 37 be
       0.031678796 -0.14351021 0.0115635395 -0.17957436
000050 d3 0c 65 3d 18 6b 9c bd 70 0c c5 bd b3 32 18 be
       0.055920433 -0.07637614 -0.09621513 -0.1486309
000060 db 1e e7 3c 10 5f 51 bc 30 11 ab 3c 5f 5e 52 3d
       0.028212955 -0.012779012 0.02088222 0.05135953
000070 f8 d3 89 3d 80 7f d7 bd 68 38 cc 3d 54 20 6c 3d
       0.06729883 -0.105223656 0.09971696 0.057648018
000080 d9 6e 01 be 3c bf aa bd a8 b4 e3 3c 00 5b 26 3c
       -0.12639941 -0.08337256 0.027796105 0.010153532
000090 bd 45 04 be f8 ce eb bd 33 c2 21 bd f0 78 26 bc
       -0.12917228 -0.115140855 -0.039491843 -0.01016067
0000a0 18 83 c5 bd 63 9a d7 bd be 00 a1 3c 1a c2 af 3b
       -0.09644145 -0.10527494 0.019653674 0.005363715
0000b0 40 18 0f 3b 98 61 ff 3c ea 5b e1 bd bc 0b 17 be
       0.0021834522 0.031174466 -0.11003859 -0.1475057
0000c0 0c 67 30 3d a0 a0 25 be 40 ab c5 3b 98 97 0f be
       0.043067023 -0.16174555 0.0060323775 -0.14022672
0000d0 92 f7 e9 3d e6 a6 91 bd 64 61 73 bb 0c a8 4e 3d
       0.114241734 -0.071119115 -0.0037136907 0.05045323
0000e0 c8 c0 90 bd c7 81 27 be b5 09 59 3d d3 d9 98 3c
       -0.0706802 -0.163581 0.052987773 0.018658554
0000f0 9e 12 91 bd 43 fe 03 be 70 54 51 bc 08 04 9b bd
       -0.07083629 -0.12889962 -0.012776479 -0.07569128
000100 cf 3f c7 3d cf e0 d8 bb b9 69 33 bc f9 b0 0d bc
       0.097289674 -0.006618596 -0.010950499 -0.008648151
000110 67 06 61 bc 4f 29 d0 ba 9d b3 3a bd 3d 80 25 be
       -0.013734437 -0.0015881452 -0.04558145 -0.161622
000120 88 67 50 bd 36 43 aa 3d 1f c0 69 3d 96 a5 da bc
       -0.050879985 0.08313601 0.057067987 -0.026690286
000130 a3 71 c3 3c 23 c0 af 3d c5 51 3f ba 61 9e 64 3c
       0.023857897 0.08581569 -0.00072982564 0.013953776
000140 b2 2f 27 bd c4 47 c9 3d 09 9e 79 3d 1d 1b 75 bd
       -0.04081697 0.09828141 0.06094173 -0.05984031
000150 92 13 77 bd 08 f7 cf bd 76 af e6 3d b5 c0 ed bc
       -0.060321398 -0.10154539 0.11263935 -0.029022554
000160 6f 4e d5 bd 30 31 16 3e bc db 39 3d 5d 0a b0 bd
       -0.10415351 0.14667201 0.04537557 -0.08595727
000170 bd ff 0e 3d df 15 ad bd de f6 fe bd e5 0d 24 bd
       0.03491186 -0.08451437 -0.1244943 -0.040052313
000180 35 5e e7 3d 5a 09 12 bd 15 20 0f be 4b d0 33 3d
       0.112972654 -0.03565345 -0.13977082 0.043899816
000190 73 01 50 bd f3 c1 c3 3c a9 be bd 3d 30 d0 e0 3d
       -0.050782632 0.023896193 0.09264881 0.109772086
0001a0 b4 cc c8 3d ea b1 01 3d 87 1b d2 3d 3c f3 3c bb
       0.09804669 0.031663813 0.10259157 -0.0028831502
0001b0 dc ea f6 bd 79 fe 22 3e 83 3d 02 3d 1a bd 27 3e
       -0.120565146 0.15917386 0.031796943 0.1638073
0001c0 69 8c a7 bd 31 39 14 bd 46 f8 91 3d 73 39 90 bb
       -0.08181078 -0.036187354 0.071274325 -0.0044013797
0001d0 be ec 19 3e 93 d6 66 3d 62 46 b0 3c 08 a2 09 3d
       0.15031716 0.056356978 0.021517936 0.03360179
0001e0 0f 21 0a be 18 7d 2e 3d f2 32 27 3e 1e 58 87 bd
       -0.13489173 0.042599767 0.16328028 -0.06608604
0001f0 2b e2 0a bd 07 22 51 bd 0a 89 a2 bd 2c bc 5c 3d
       -0.033907097 -0.05105784 -0.079362944 0.053890392
000200 14 44 85 bd f0 4e 5d 3d f0 22 4e 3c 6c 95 59 3d
       -0.065071255 0.05403036 0.012581572 0.053121015
000210 1f 5c 2f bd 8a 61 9b bd 4c 7d 24 bd 66 6d a3 bd
       -0.042812463 -0.075869635 -0.040158555 -0.079798505
000220 82 38 ff bd 18 7c 8a 3d 81 fe 09 3d de b7 ec bd
       -0.1246195 0.0676195 0.03368998 -0.115585074
000230 f3 5b 93 bd 56 93 b0 bd 8b 8f a3 bc df 0f 00 ba
       -0.07195272 -0.08621852 -0.019965908 -0.00048851775
000240 db 61 47 bc de f3 d6 bd 52 94 db 3d f6 c1 5a bd
       -0.012169327 -0.10495733 0.10721649 -0.05340763
000250 05 aa 2e bd 36 89 e9 bb 7c be 97 bd ad 49 00 be
       -0.042642612 -0.0071269525 -0.07409379 -0.12528105
000260 68 37 4b bd 80 9f e5 3a f2 70 b6 3d 9e 88 03 bd
       -0.049613386 0.0017518848 0.08908261 -0.03211271
000270 c6 ee 91 3d 87 bf 74 bc b4 fa 01 be 13 60 d5 bd
       0.071256205 -0.014938242 -0.12693292 -0.10418715
000280 55 25 06 be c8 59 0b 3d 5a 1a 55 3d b4 61 fc bd
       -0.13100179 0.03402117 0.052027084 -0.12323323
000290 94 68 56 3d 5c 02 94 bd cd bb db bc 0e f9 96 bd
       0.052345827 -0.072270125 -0.026822949 -0.07371722
0002a0 47 62 80 bd 82 ac 84 bd 3a 2e 30 be 89 38 83 3d
       -0.06268745 -0.06478216 -0.17205134 0.064072676
0002b0 3f f6 a4 bd 46 c7 d8 bd 80 5d d3 3d d9 f2 08 bd
       -0.0805478 -0.105848834 0.10320568 -0.033434723
0002c0 d4 d4 80 3d ae fa cb 3d 26 19 60 bd 29 6f 52 bc
       0.06290594 0.09959923 -0.054711483 -0.012843885
0002d0 32 8d ae bd 7f c4 be 3c e4 c8 eb bd 70 e4 1a 3c
       -0.085230246 0.023287056 -0.11512926 0.009453878
0002e0 e1 e2 c4 bd f5 3d ff bd 34 2c 9e 3d 94 ed 85 bd
       -0.09613586 -0.12462989 0.07723275 -0.06539455
0002f0 47 79 a3 bd 86 10 e6 bd a7 95 09 be 0b 57 ef bd
       -0.07982116 -0.1123362 -0.13435994 -0.11686524
000300 4f 7b 9a 3d c3 7b e2 3d d2 a0 79 3c b3 87 89 bd
       0.075430505 0.11058762 0.015236096 -0.06715336
000310 a5 f0 08 3d fd 0a a0 3d c1 ea 12 3e 70 34 95 3d
       0.03343262 0.07814596 0.14347364 0.07285392
000320 73 53 80 bd f1 a6 39 bd bc 4a 00 3e 42 14 b5 ba
       -0.06265917 -0.045325223 0.12528509 -0.0013815241
000330 b0 e4 59 3d 7a ff 51 3b aa 2f f0 3d 74 e8 f8 3d
       0.05319661 0.0032043145 0.11727841 0.12153712
000340 17 26 13 3e 1a 48 11 3e 8e 16 a5 3d be 23 b0 bc
       0.14369999 0.14187661 0.080609426 -0.021501418
000350 25 7c 67 3c 04 35 b1 bd 0c f6 12 3d 18 b7 c5 3c
       0.014128719 -0.0865269 0.03587918 0.024135157
000360 98 47 ad 3d 04 9e e2 bd a8 32 6e 3d a5 93 e0 bd
       0.08460921 -0.11065295 0.05815378 -0.10965661
000370 e0 56 06 3d 4f 45 ec 3d 6b e7 5c bd f4 95 28 3d
       0.032797694 0.11536657 -0.053931635 0.04115863
000380 fe d3 0e 3e 1f 52 7d 3d db 36 de bd d4 5a 68 bd
       0.13948056 0.061845895 -0.108503066 -0.056727245
000390 e8 b8 91 bc 31 60 eb 3d cc 2e bf bd 90 92 75 3d
       -0.017788365 0.114929564 -0.09335098 0.059954226
0003a0 d4 a5 de 3c 12 7c bd 3d d1 ce 66 3d 10 c6 b8 3d
       0.027178682 0.0925218 0.05634958 0.090221524
0003b0 14 75 b4 3d 40 8a af 3c 62 b0 07 3e 6e de 04 3e
       0.088113934 0.021428227 0.13250878 0.12975475
0003c0 ac 7f 69 bd 08 a7 c3 bc 5c 48 f4 3d be a2 ee bc
       -0.057006523 -0.023883358 0.11927864 -0.029130336
0003d0 9a 24 b0 3d b7 68 df bc d9 2f d3 3d d1 b4 6a 3d
       0.08600731 -0.027271612 0.103118606 0.057301346
0003e0 94 80 aa bd 14 61 af 3d a2 82 07 3e fc 7f 08 3e
       -0.083253056 0.08563438 0.13233426 0.13330072
0003f0 dc e2 af bd 27 6c 28 bc e3 9b 8f 3c f4 9b 1d 3e
       -0.08588192 -0.010279692 0.017530387 0.15391523

net.8.bias f4 [64]
000000 68 0c d8 bd 1a ca 98 3d 95 ed 7f bd 01 1c 51 bd
       -0.10549241 0.07460423 -0.062482435 -0.051052097
000010 1b c4 43 3e 1f c3 f8 3c 07 1a 42 bd 3b 34 a5 bc
       0.19117777 0.030366478 -0.047388103 -0.020166507
000020 51 9b 9c bc 5f ec 58 bc b0 4e 8b bd af 5c 70 bd
       -0.01911703 -0.013239949 -0.06802118 -0.05868214
000030 30 65 0c 3e 12 ee f3 bd 3c bb f5 3d 70 e5 bc bd
       0.13710475 -0.11910643 0.11998603 -0.09223449
000040 d0 6b 2e bd c9 30 47 3d 2c 1e 87 bd ee 70 93 3c
       -0.042583287 0.04863051 -0.06597552 0.017998185
000050 1e 70 d0 3d 10 b9 06 3d 64 6e f0 bd 0a d1 54 3d
       0.10177635 0.032891333 -0.11739805 0.051957168
000060 dc d9 80 bc ff 29 e0 bd 1c 97 fb bd 62 f5 4f bd
       -0.015728883 -0.1094551 -0.12284681 -0.050771125
000070 54 98 d9 bd 81 79 15 bd 1d 2e 8f 3d 0f df b8 3b
       -0.106247574 -0.03649283 0.06991217 0.005641825
000080 c3 c4 b2 bd 38 da fe bc 11 ba 1c 3d 4e f0 9e bd
       -0.087289356 -0.031109914 0.038263384 -0.07760678
000090 ee 34 ad bd 8e 8d 21 be ce ea 32 3d 4f 95 db bb
       -0.08457361 -0.15776655 0.04368096 -0.0067011486
0000a0 98 21 32 bd 40 a3 c4 bd 6f 57 68 3d 10 89 1d 3d
       -0.04348907 -0.0960145 0.05672401 0.03846079
0000b0 e2 a2 ef bd 95 66 b3 bd d1 0d a9 bd d0 3d d9 bd
       -0.11700989 -0.087598 -0.082545884 -0.10607493
0000c0 41 39 91 bc c8 5e 8d bd 81 b7 06 3e 96 fb e4 bd
       -0.017727496 -0.06902844 0.13155939 -0.11180799
0000d0 c5 b2 d8 3c 89 07 d7 bd c5 a6 12 3e e8 58 64 bd
       0.026452431 -0.10499484 0.1432143 -0.05574885
0000e0 3b de 90 3d 1b 7b 49 3d 06 81 0a be 6f 9a 15 3e
       0.07073637 0.04918967 -0.13525781 0.14609693
0000f0 77 91 08 bd cd 6b 1d bd 18 35 93 3c ea ea 42 bc
       -0.03334185 -0.038432885 0.017969653 -0.011896828
