gpu_wdgrl/model/wdgrl_10.pth (torch, 6274 bytes, 12 tensors)

net.0.weight f8 [8, 16]
000000 00 00 00 40 57 c5 cc 3f 00 00 00 40 c1 a9 ca 3f
       0.2247723639011383 0.2083055078983307
000010 00 00 00 00 8e 28 95 bf 00 00 00 00 8b e5 c0 3f
       -0.020662516355514526 0.13200509548187256
000020 00 00 00 00 ed 8c c1 bf 00 00 00 80 e0 04 cc bf
       -0.13711321353912354 -0.21889883279800415
000030 00 00 00 00 b0 e5 cc 3f 00 00 00 00 70 96 76 3f
       0.22575950622558594 0.005514562129974365
000040 00 00 00 c0 23 1c ce 3f 00 00 00 00 ed 1b af bf
       0.23523375391960144 -0.060759931802749634
000050 00 00 00 00 80 27 97 bf 00 00 00 c0 58 c5 c4 bf
       -0.022611618041992188 -0.16227254271507263
000060 00 00 00 c0 6b 04 c7 bf 00 00 00 c0 1a 63 ca bf
       -0.1798224151134491 -0.20614942908287048
000070 00 00 00 c0 f3 c4 ca bf 00 00 00 c0 4f 29 ca 3f
       -0.209135502576828 0.20438572764396667
000080 00 00 00 00 22 12 a1 bf 00 00 00 00 62 db cf bf
       -0.03334146738052368 -0.24888253211975098
000090 00 00 00 80 68 b7 c9 3f 00 00 00 00 88 bc a8 bf
       0.20090967416763306 -0.04831337928771973
0000a0 00 00 00 00 b9 2b be 3f 00 00 00 40 59 d5 cb bf
       0.11785465478897095 -0.2174483835697174
0000b0 00 00 00 80 72 6a c4 bf 00 00 00 00 00 e8 84 3f
       -0.15949851274490356 0.0102081298828125
0000c0 00 00 00 00 4a 5c a1 bf 00 00 00 00 c1 d0 c7 bf
       -0.03390723466873169 -0.1860581636428833
0000d0 00 00 00 00 a8 ec a6 3f 00 00 00 00 6a fc 99 bf
       0.04477429389953613 -0.025376945734024048
0000e0 00 00 00 40 f2 72 ce bf 00 00 00 40 54 92 cb bf
       -0.23788288235664368 -0.21540310978889465
0000f0 00 00 00 00 d4 3f a6 bf 00 00 00 00 25 d4 a9 bf
       -0.04345571994781494 -0.050446659326553345
000100 00 00 00 c0 76 3a c6 3f 00 00 00 00 52 40 9f 3f
       0.17365917563438416 0.030518800020217896
000110 00 00 00 80 46 a6 bc 3f 00 00 00 80 a4 d4 c6 3f
       0.11191216111183167 0.1783643364906311
000120 00 00 00 c0 09 7e ca 3f 00 00 00 00 e4 ba a1 bf
       0.20697137713432312 -0.034628987312316895
000130 00 00 00 00 3c 3d cb bf 00 00 00 00 20 7a b1 bf
       -0.21280622482299805 -0.06826972961425781
000140 00 00 00 00 52 f0 bb 3f 00 00 00 00 0e 2c a9 bf
       0.10913574695587158 -0.04916423559188843
000150 00 00 00 00 e5 2b c7 3f 00 00 00 00 15 30 cc bf
       0.18102705478668213 -0.22021734714508057
000160 00 00 00 c0 41 ec c9 3f 00 00 00 40 d0 05 c5 3f
       0.20252248644828796 0.16423991322517395
000170 00 00 00 00 a8 5c bd 3f 00 00 00 00 fb 53 cc 3f
       0.11469507217407227 0.22131288051605225
000180 00 00 00 00 a1 7a a6 3f 00 00 00 80 7e 27 b0 bf
       0.04390433430671692 -0.06310263276100159
000190 00 00 00 40 d7 66 c2 3f 00 00 00 00 e3 73 c8 bf
       0.1437634527683258 -0.19103658199310303
0001a0 00 00 00 00 fe 0f bd bf 00 00 00 80 32 40 b7 bf
       -0.11352527141571045 -0.09082332253456116
0001b0 00 00 00 00 40 a9 8a 3f 00 00 00 40 aa bb ca 3f
       0.013018131256103516 0.20885208249092102
0001c0 00 00 00 00 55 a3 bc bf 00 00 00 00 fc a9 c1 3f
       -0.11186724901199341 0.1380000114440918
0001d0 00 00 00 00 17 3e b5 3f 00 00 00 00 b2 40 a4 bf
       0.08297866582870483 -0.03955608606338501
0001e0 00 00 00 80 94 4c bc 3f 00 00 00 00 90 bf 70 3f
       0.11054351925849915 0.004088938236236572
0001f0 00 00 00 00 23 48 bf bf 00 00 00 80 1f 89 b5 3f
       -0.12219446897506714 0.08412358164787292
000200 00 00 00 00 5a f3 a4 3f 00 00 00 40 38 56 cd 3f
       0.04091912508010864 0.22919371724128723
000210 00 00 00 00 ec 14 ac 3f 00 00 00 80 d4 43 bf 3f
       0.054847121238708496 0.12212875485420227
000220 00 00 00 c0 74 9d cb bf 00 00 00 80 47 3e b5 3f
       -0.21574267745018005 0.08298155665397644
000230 00 00 00 00 80 95 3c bf 00 00 00 00 e8 5b c7 bf
       -0.0004361569881439209 -0.18249225616455078
000240 00 00 00 40 bb b9 cc 3f 00 00 00 80 21 e1 b1 bf
       0.22441807389259338 -0.06984147429466248
000250 00 00 00 00 93 2f c8 bf 00 00 00 00 22 65 9c 3f
       -0.18895184993743896 0.027729541063308716
000260 00 00 00 80 cf 8e b9 3f 00 00 00 00 2c 46 cb 3f
       0.0998353660106659 0.21307897567749023
000270 00 00 00 00 f7 35 bc 3f 00 00 00 40 69 91 c6 3f
       0.11019843816757202 0.17631259560585022
000280 00 00 00 80 90 b7 ce 3f 00 00 00 80 1d 7c cc bf
       0.2399769425392151 -0.22253769636154175
000290 00 00 00 c0 b2 e2 c5 bf 00 00 00 c0 c3 b3 c1 3f
       -0.1709807813167572 0.13829848170280457
0002a0 00 00 00 00 43 0e a9 bf 00 00 00 00 c0 fe 54 3f
       -0.048936933279037476 0.001281440258026123
0002b0 00 00 00 80 49 73 b1 3f 00 00 00 00 41 1d b6 3f
       0.06816539168357849 0.0863838791847229
0002c0 00 00 00 40 08 0a cb bf 00 00 00 c0 6d b2 cc bf
       -0.2112436592578888 -0.2241952121257782
0002d0 00 00 00 00 34 25 a2 3f 00 00 00 00 fa 2e 99 bf
       0.03544008731842041 -0.024593263864517212
0002e0 00 00 00 80 3d 15 bd 3f 00 00 00 80 f3 31 cd 3f
       0.11360535025596619 0.22808688879013062
0002f0 00 00 00 40 89 47 c9 bf 00 00 00 80 30 ee c6 3f
       -0.19749560952186584 0.1791439652442932
000300 00 00 00 c0 89 4a c7 3f 00 00 00 80 86 9a b5 3f
       0.18196222186088562 0.08438912034034729
000310 00 00 00 00 06 e3 a9 3f 00 00 00 00 7a 24 bb 3f
       0.050560176372528076 0.1060253381729126
000320 00 00 00 80 a8 e6 bc 3f 00 00 00 80 e7 0a ce bf
       0.11289456486701965 -0.234707772731781
000330 00 00 00 00 0d 96 cb bf 00 00 00 00 6b 94 bf 3f
       -0.21551668643951416 0.12335842847824097
000340 00 00 00 80 03 dc ce 3f 00 00 00 c0 af cd c5 bf
       0.24108928442001343 -0.17033955454826355
000350 00 00 00 00 d5 58 b9 3f 00 00 00 40 19 ca c8 3f
       0.09901171922683716 0.19366756081581116
000360 00 00 00 80 97 6c c9 3f 00 00 00 c0 d1 aa cb 3f
       0.19862645864486694 0.21615049242973328
000370 00 00 00 c0 56 b0 cc 3f 00 00 00 00 f8 ce aa bf
       0.22413143515586853 -0.05236029624938965
000380 00 00 00 00 5f 80 ae bf 00 00 00 40 5a 3d c9 bf
       -0.05957314372062683 -0.19718483090400696
000390 00 00 00 c0 6b 73 cf 3f 00 00 00 c0 b9 45 c4 bf
       0.2457098662853241 -0.15837785601615906
0003a0 00 00 00 00 9c c7 ae bf 00 00 00 c0 17 f4 c1 3f
       -0.06011664867401123 0.14026162028312683
0003b0 00 00 00 80 f9 2d c4 3f 00 00 00 00 54 10 84 3f
       0.15765303373336792 0.009796768426895142
0003c0 00 00 00 80 d1 8a c6 3f 00 00 00 00 a1 6d a0 3f
       0.1761114001274109 0.03208640217781067
0003d0 00 00 00 80 72 0f bf 3f 00 00 00 00 a8 ae a8 3f
       0.12132945656776428 0.04820752143859863
0003e0 00 00 00 00 5c 12 88 3f 00 00 00 c0 9b 55 c3 3f
       0.011753767728805542 0.15105006098747253
0003f0 00 00 00 00 e4 d3 a4 3f 00 00 00 80 64 eb bd bf
       0.040679097175598145 -0.11687305569648743

net.0.bias f8 [8]
000000 00 00 00 40 31 a8 c5 3f 00 00 00 c0 90 8f c9 3f
       0.16919532418251038 0.19969376921653748
000010 00 00 00 00 22 03 a7 bf 00 00 00 80 7a 47 bd bf
       -0.04494577646255493 -0.11437192559242249
000020 00 00 00 00 08 f1 bc bf 00 00 00 40 80 74 ca bf
       -0.1130528450012207 -0.2066803276538849
000030 00 00 00 80 68 f6 bd 3f 00 00 00 00 d4 5f 87 3f
       0.11704114079475403 0.011413246393203735

net.2.weight f8 [4, 8]
000000 00 00 00 60 b3 da d2 3f 00 00 00 80 f5 c6 be 3f
       0.29459843039512634 0.12022337317466736
000010 00 00 00 40 17 22 c2 bf 00 00 00 40 3e 35 be bf
       -0.14166536927223206 -0.11799992620944977
000020 00 00 00 40 69 82 cf 3f 00 00 00 c0 7f 13 c9 bf
       0.24616733193397522 -0.1959075629711151
000030 00 00 00 20 9f c6 d5 3f 00 00 00 00 91 b3 a2 bf
       0.34024789929389954 -0.036526232957839966
000040 00 00 00 c0 32 8f c4 3f 00 00 00 00 11 cc b6 3f
       0.1606200635433197 0.08905130624771118
000050 00 00 00 e0 b6 b8 c7 bf 00 00 00 a0 4c 06 d2 3f
       -0.1853245347738266 0.28163447976112366
000060 00 00 00 00 38 62 89 bf 00 00 00 00 8d 7c cb bf
       -0.012394368648529053 -0.21473848819732666
000070 00 00 00 c0 49 38 c8 3f 00 00 00 c0 e4 bc c4 3f
       0.18921777606010437 0.16201457381248474
000080 00 00 00 00 9a b4 c1 3f 00 00 00 00 dd 0d b4 bf
       0.13832402229309082 -0.07833653688430786
000090 00 00 00 40 08 70 bf bf 00 00 00 c0 c5 fd c7 3f
       -0.1228032261133194 0.18743202090263367
0000a0 00 00 00 00 cd 04 a2 bf 00 00 00 80 ae 4c d0 bf
       -0.03519287705421448 -0.2546802759170532
0000b0 00 00 00 00 9c 62 b6 bf 00 00 00 40 a4 db c5 3f
       -0.08744215965270996 0.17076542973518372
0000c0 00 00 00 00 20 d9 b3 bf 00 00 00 00 5c 01 97 bf
       -0.07753181457519531 -0.02246612310409546
0000d0 00 00 00 00 30 13 bc 3f 00 00 00 00 d7 be a0 bf
       0.10966777801513672 -0.032705992460250854
0000e0 00 00 00 c0 6f 0c c5 bf 00 00 00 a0 03 4a d3 3f
       -0.1644420325756073 0.30139246582984924
0000f0 00 00 00 80 fc 6d ba 3f 00 00 00 00 c6 1a 95 bf
       0.10324075818061829 -0.020609945058822632

net.2.bias f8 [4]
000000 00 00 00 00 1c ff ba 3f 00 00 00 00 e6 87 9d 3f
       0.10545516014099121 0.02883872389793396
000010 00 00 00 60 d3 a8 c4 bf 00 00 00 60 35 80 d0 3f
       -0.1614021509885788 0.25782522559165955

net.4.weight f8 [4, 4]
000000 00 00 00 80 cf 8a d8 3f 00 00 00 80 db d4 c7 3f
       0.3834723234176636 0.1861833930015564
000010 00 00 00 80 40 65 da bf 00 00 00 00 4a 88 b9 3f
       -0.41242992877960205 0.09973585605621338
000020 00 00 00 80 41 4e cc 3f 00 00 00 80 7d 99 d1 3f
       0.22113817930221558 0.27499330043792725
000030 00 00 00 00 01 d0 d4 bf 00 00 00 80 8c 94 c3 3f
       -0.3251955509185791 0.15297085046768188
000040 00 00 00 80 80 19 c4 bf 00 00 00 c0 8b a0 df 3f
       -0.15702825784683228 0.49417394399642944
000050 00 00 00 00 00 71 35 bf 00 00 00 80 88 de dc bf
       -0.00032716989517211914 -0.45108234882354736
000060 00 00 00 00 03 0c ba 3f 00 00 00 00 62 58 cd 3f
       0.10174578428268433 0.22925972938537598
000070 00 00 00 00 91 aa d1 bf 00 00 00 00 06 a2 ba bf
       -0.2760355472564697 -0.10403478145599365

net.4.bias f8 [4]
000000 00 00 00 00 ad d9 da 3f 00 00 00 00 84 93 c9 3f
       0.41953587532043457 0.1998143196105957
000010 00 00 00 80 2b 91 cf bf 00 00 00 80 e0 29 d9 3f
       -0.24661773443222046 0.3931809663772583

net.0.weight f8 [4, 4]
000000 00 00 00 40 6b 46 df bf 00 00 00 00 20 1b 9f 3f
       -0.48867303133010864 0.030376911163330078
000010 00 00 00 00 07 52 c5 3f 00 00 00 80 34 de cc 3f
       0.16656577587127686 0.22553116083145142
000020 00 00 00 00 ce 91 d0 bf 00 00 00 00 84 97 a3 3f
       -0.2588992118835449 0.038265347480773926
000030 00 00 00 80 90 84 db 3f 00 00 00 00 46 d2 a7 bf
       0.4299660921096802 -0.04652613401412964
000040 00 00 00 00 79 6d d1 bf 00 00 00 80 84 22 da 3f
       -0.2723066806793213 0.40835678577423096
000050 00 00 00 80 b2 94 d5 3f 00 00 00 00 93 0c c0 bf
       0.33720076084136963 -0.12538373470306396
000060 00 00 00 c0 fe 34 dd 3f 00 00 00 00 b3 a5 cf 3f
       0.4563595652580261 0.2472442388534546
000070 00 00 00 00 d5 0a bc bf 00 00 00 80 05 d2 c9 3f
       -0.10954028367996216 0.20172184705734253

net.0.bias f8 [4]
000000 00 00 00 80 5f b7 dc bf 00 00 00 00 08 56 9e 3f
       -0.4486922025680542 0.0296250581741333
000010 00 00 00 80 40 e0 c5 3f 00 00 00 c0 9c 51 da 3f
       0.17090612649917603 0.41123121976852417

net.2.weight f8 [2, 4]
000000 00 00 00 c0 d6 37 d5 bf 00 00 00 00 d1 7a c2 3f
       -0.33153313398361206 0.1443730592727661
000010 00 00 00 80 f9 1a cd 3f 00 00 00 c0 c6 f3 da 3f
       0.22738569974899292 0.42112892866134644
000020 00 00 00 00 21 0b b8 3f 00 00 00 80 a1 c0 ca bf
       0.09391981363296509 -0.20900362730026245
000030 00 00 00 80 f7 14 d0 bf 00 00 00 80 01 b4 da bf
       -0.25127971172332764 -0.41723668575286865

net.2.bias f8 [2]
000000 00 00 00 c0 1f d8 dc 3f 00 00 00 40 e8 ea da bf
       0.4506911635398865 -0.42058759927749634

net.4.weight f8 [1, 2]
000000 00 00 00 40 43 c3 ca bf 00 00 00 00 4f f7 ce 3f
       -0.2090839445590973 0.2419222593307495

net.4.bias f8 [1]
000000 00 00 00 80 d5 fa c0 bf
       -0.1326548457145691
