gpu_wdgrl/model/wdgrl_9.pth (torch, 7334 bytes, 16 tensors)

net.0.weight f8 [8, 16]
-0.09461566805839539 -0.15420001745224 -0.03425601124763489 -0.11844253540039062 -0.05371743440628052 0.08691191673278809 -0.04972025752067566 -0.05293592810630798
0.24169230461120605 -0.2381846308708191 -0.1869041621685028 0.06579059362411499 0.09331631660461426 0.08518907427787781 -0.20143815875053406 0.1829741895198822
-0.19442814588546753 0.009425729513168335 -0.12927445769309998 0.028761714696884155 0.24021092057228088 0.02901482582092285 -0.15702548623085022 0.09375691413879395
-0.04543381929397583 -0.005525916814804077 -0.23143309354782104 0.012519985437393188 -0.20036643743515015 -0.19021514058113098 -0.051333338022232056 -0.11263367533683777
-0.041676998138427734 0.2346690595149994 0.026700198650360107 0.06233379244804382 0.09860348701477051 -0.1822122037410736 0.17835187911987305 0.189191073179245
0.029964417219161987 0.20723500847816467 0.08731004595756531 -0.10962489247322083 -0.0015286803245544434 -0.21904075145721436 -0.06330358982086182 0.14120405912399292
-0.17002061009407043 0.022684097290039062 -0.1407482624053955 0.11172658205032349 0.06655454635620117 0.2371109426021576 -0.2413051724433899 0.025288641452789307
0.014717966318130493 0.24688243865966797 0.11613002419471741 -0.011108338832855225 0.19058293104171753 0.043783217668533325 -0.09004595875740051 0.18333688378334045
0.1123734712600708 -0.011840492486953735 0.12163439393043518 0.024465560913085938 -0.16932269930839539 0.21765661239624023 -0.16650143265724182 0.09743952751159668
-0.2044389843940735 0.21213382482528687 -0.24117550253868103 -0.14297419786453247 -0.16840514540672302 -0.23286059498786926 0.19115939736366272 -0.19183993339538574
-0.19363313913345337 -0.0653679370880127 0.24518299102783203 -0.019175857305526733 0.190790593624115 -0.1611083745956421 0.19163954257965088 -0.10440236330032349
0.15565228462219238 -0.16603416204452515 0.09330496191978455 0.05127054452896118 0.11167943477630615 0.029143482446670532 -0.16209331154823303 0.03099644184112549
0.057052284479141235 -0.0319078266620636 -0.2384507954120636 0.22317516803741455 -0.22228991985321045 0.11692869663238525 -0.07689887285232544 -0.23099729418754578
0.1602717936038971 0.0229339599609375 -0.09034916758537292 -0.10643798112869263 0.013766258955001831 0.1644718050956726 0.0647524893283844 0.03758993744850159
-0.02227717638015747 -0.21648746728897095 0.07924461364746094 -0.23841014504432678 0.09776312112808228 -0.249435693025589 -0.018390893936157227 0.2254449725151062
0.02115499973297119 -0.15246227383613586 0.14384734630584717 -0.03458350896835327 0.22044947743415833 0.0765196681022644 0.16943097114562988 -0.0283011794090271
00000000: 0000 0080 bb38 b8bf 0000 0080 d3bc c3bf
00000010: 0000 0000 018a a1bf 0000 0000 4052 bebf
00000020: 0000 0000 da80 abbf 0000 0000 dc3f b63f
00000030: 0000 0000 ef74 a9bf 0000 0000 6b1a abbf
00000040: 0000 0000 c6ef ce3f 0000 0080 d57c cebf
00000050: 0000 00c0 79ec c7bf 0000 0000 a7d7 b03f
00000060: 0000 0000 94e3 b73f 0000 0080 f3ce b53f
00000070: 0000 00c0 b9c8 c9bf 0000 00c0 b26b c73f
00000080: 0000 0080 05e3 c8bf 0000 0000 cc4d 833f
00000090: 0000 00c0 108c c0bf 0000 0000 b673 9d3f
000000a0: 0000 0040 3bbf ce3f 0000 0000 10b6 9d3f
000000b0: 0000 0040 6919 c4bf 0000 0000 7400 b83f
000000c0: 0000 0000 1a43 a7bf 0000 0000 58a2 76bf
000000d0: 0000 0080 999f cdbf 0000 0000 14a4 893f
000000e0: 0000 0080 9ba5 c9bf 0000 0040 f858 c8bf
000000f0: 0000 0000 5d48 aabf 0000 0080 8fd5 bcbf
00000100: 0000 0000 b056 a5bf 0000 00c0 a209 ce3f
00000110: 0000 0000 4c57 9b3f 0000 0000 37ea af3f
00000120: 0000 0000 143e b93f 0000 00c0 ba52 c7bf
00000130: 0000 0000 3cd4 c63f 0000 00c0 6937 c83f
00000140: 0000 0000 feae 9e3f 0000 0040 ad86 ca3f
00000150: 0000 0080 f359 b63f 0000 0080 6010 bcbf
00000160: 0000 0000 c00b 59bf 0000 0000 8709 ccbf
00000170: 0000 0000 aa34 b0bf 0000 0080 f912 c23f
00000180: 0000 0040 3cc3 c5bf 0000 0000 803a 973f
00000190: 0000 0000 0a04 c2bf 0000 0000 1d9a bc3f
000001a0: 0000 0000 b809 b13f 0000 00c0 a659 ce3f
000001b0: 0000 0080 16e3 cebf 0000 0000 44e5 993f
000001c0: 0000 0000 7424 8e3f 0000 0000 d899 cf3f
000001d0: 0000 0080 b2ba bd3f 0000 0000 f8bf 86bf
000001e0: 0000 0080 0565 c83f 0000 0000 c16a a63f
000001f0: 0000 0080 400d b7bf 0000 0040 9577 c73f
00000200: 0000 0000 82c4 bc3f 0000 0000 d43f 88bf
00000210: 0000 0080 6e23 bf3f 0000 0000 800d 993f
00000220: 0000 00c0 5dac c5bf 0000 0000 2cdc cb3f
00000230: 0000 0040 eb4f c5bf 0000 0000 ccf1 b83f
00000240: 0000 0080 0e2b cabf 0000 0080 3327 cb3f
00000250: 0000 00c0 d6de cebf 0000 0080 fa4c c2bf
00000260: 0000 00c0 4c8e c5bf 0000 0040 60ce cdbf
00000270: 0000 0040 e977 c83f 0000 0000 368e c8bf
00000280: 0000 0080 f8c8 c8bf 0000 0000 f4bb b0bf
00000290: 0000 0000 2862 cf3f 0000 0000 d6a2 93bf
000002a0: 0000 0080 d36b c83f 0000 0000 339f c4bf
000002b0: 0000 0000 a587 c83f 0000 0000 1dba babf
000002c0: 0000 0000 6aec c33f 0000 0080 9b40 c5bf
000002d0: 0000 0080 d5e2 b73f 0000 0000 2240 aa3f
000002e0: 0000 0000 0697 bc3f 0000 0000 cad7 9d3f
000002f0: 0000 0040 79bf c4bf 0000 0000 88bd 9f3f
00000300: 0000 0000 f535 ad3f 0000 0000 3956 a0bf
00000310: 0000 0040 8e85 cebf 0000 0000 0191 cc3f
00000320: 0000 0000 ff73 ccbf 0000 0000 0aef bd3f
00000330: 0000 0000 a5af b3bf 0000 00c0 5191 cdbf
00000340: 0000 0040 c983 c43f 0000 0000 007c 973f
00000350: 0000 0080 1f21 b7bf 0000 0000 853f bbbf
00000360: 0000 0000 7c31 8c3f 0000 0080 690d c53f
00000370: 0000 0080 9e93 b03f 0000 0000 fd3e a33f
00000380: 0000 0000 d4cf 96bf 0000 0080 dcb5 cbbf
00000390: 0000 0000 6049 b43f 0000 0040 3984 cebf
000003a0: 0000 0000 0107 b93f 0000 0040 82ed cfbf
000003b0: 0000 0000 10d5 92bf 0000 0080 61db cc3f
000003c0: 0000 0000 a8a9 953f 0000 0040 e283 c3bf
000003d0: 0000 0000 9769 c23f 0000 0000 eeb4 a1bf
000003e0: 0000 0040 b037 cc3f 0000 0000 cb96 b33f
000003f0: 0000 0000 eaaf c53f 0000 0000 fcfa 9cbf

net.0.bias f8 [8]
0.11989015340805054 0.09475573897361755 0.23671570420265198 0.03874054551124573 0.12476804852485657 0.09314587712287903 -0.1256454885005951 -0.017716020345687866
00000000: 0000 0000 1fb1 be3f 0000 0080 e941 b83f
00000010: 0000 0040 b34c ce3f 0000 0000 cdd5 a33f
00000020: 0000 0080 ccf0 bf3f 0000 0080 68d8 b73f
00000030: 0000 00c0 2615 c0bf 0000 0000 2624 92bf

net.2.weight f8 [4, 8]
0.3453872501850128 -0.017224609851837158 -0.17609664797782898 -0.32716619968414307 0.1404234766960144 -0.13780353963375092 0.2739444673061371 0.27049896121025085
-0.12831448018550873 -0.1376412808895111 0.24527904391288757 -0.3028296232223511 0.11852949857711792 -0.26138973236083984 0.11443594098091125 0.20407184958457947
0.09645891189575195 0.21337226033210754 -0.31992483139038086 -0.11168484389781952 0.11730647087097168 0.23535069823265076 0.1422225534915924 -0.2271636724472046
-0.13690687716007233 0.21121743321418762 -0.31094130873680115 -0.09993353486061096 -0.14179539680480957 0.060293495655059814 0.281878262758255 -0.03092747926712036
00000000: 0000 0020 d31a d63f 0000 0000 54a3 91bf
00000010: 0000 00c0 558a c6bf 0000 0080 4af0 d4bf
00000020: 0000 0080 65f9 c13f 0000 00e0 8ba3 c1bf
00000030: 0000 0060 4e88 d13f 0000 00e0 da4f d13f
00000040: 0000 00e0 9b6c c0bf 0000 00c0 3a9e c1bf
00000050: 0000 00c0 4d65 cf3f 0000 0080 8f61 d3bf
00000060: 0000 0000 f357 be3f 0000 0000 9cba d0bf
00000070: 0000 0080 ac4b bd3f 0000 00c0 061f ca3f
00000080: 0000 0000 88b1 b83f 0000 0040 c84f cb3f
00000090: 0000 0000 a679 d4bf 0000 00c0 6097 bcbf
000000a0: 0000 0000 cc07 be3f 0000 00c0 f81f ce3f
000000b0: 0000 0040 5934 c23f 0000 0000 b313 cdbf
000000c0: 0000 0020 2a86 c1bf 0000 0040 2c09 cb3f
000000d0: 0000 0060 76e6 d3bf 0000 0080 3e95 b9bf
000000e0: 0000 0000 5a26 c2bf 0000 0000 cade ae3f
000000f0: 0000 0020 4b0a d23f 0000 0000 74ab 9fbf

net.2.bias f8 [4]
-0.2582303583621979 -0.3308776319026947 -0.04238349199295044 -0.2106349766254425
00000000: 0000 00a0 d886 d0bf 0000 0060 192d d5bf
00000010: 0000 0000 4ab3 a5bf 0000 0040 16f6 cabf

net.4.weight f8 [4, 4]
-0.2157520055770874 -0.2546367049217224 -0.2252521514892578 0.21859121322631836 0.18466967344284058 0.4806225895881653 -0.10174310207366943 -0.4579007625579834
-0.40974366664886475 0.009451031684875488 -0.0630948543548584 -0.1456325650215149 0.4720693826675415 -0.01429837942123413 0.21176284551620483 -0.018894672393798828
00000000: 0000 0000 c39d cbbf 0000 00c0 f74b d0bf
00000010: 0000 0000 10d5 ccbf 0000 0000 ccfa cb3f
00000020: 0000 0080 41a3 c73f 0000 0040 85c2 de3f
00000030: 0000 0000 d60b babf 0000 0000 3f4e ddbf
00000040: 0000 0080 3d39 dabf 0000 0000 105b 833f
00000050: 0000 0000 fc26 b0bf 0000 0080 16a4 c2bf
00000060: 0000 0080 6236 de3f 0000 0000 7848 8dbf
00000070: 0000 0080 0b1b cb3f 0000 0000 2059 93bf

net.4.bias f8 [4]
-0.004686832427978516 -0.3255835175514221 0.13563865423202515 0.18664586544036865
00000000: 0000 0000 8032 73bf 0000 0040 5cd6 d4bf
00000010: 0000 0080 9b5c c13f 0000 0000 03e4 c73f

net.6.weight f8 [4, 4]
0.01297837495803833 0.2107669711112976 -0.3693947196006775 0.11280065774917603 -0.30162012577056885 0.15987783670425415 -0.46914589405059814 0.12321329116821289
0.045855939388275146 0.10957366228103638 -0.3672032952308655 0.3026910424232483 -0.35898715257644653 0.2848464250564575 0.24373167753219604 0.33696556091308594
00000000: 0000 0000 6894 8a3f 0000 0080 69fa ca3f
00000010: 0000 00c0 29a4 d7bf 0000 0000 81e0 bc3f
00000020: 0000 0080 be4d d3bf 0000 0080 e076 c43f
00000030: 0000 0080 7c06 debf 0000 0000 e88a bf3f
00000040: 0000 0000 6e7a a73f 0000 0000 050d bc3f
00000050: 0000 0040 4280 d7bf 0000 0040 4a5f d33f
00000060: 0000 0040 a5f9 d6bf 0000 0080 ec3a d23f
00000070: 0000 0080 9932 cf3f 0000 0000 d890 d53f

net.6.bias f8 [4]
-0.10150420665740967 0.46665477752685547 0.42678868770599365 -0.32539838552474976
00000000: 0000 0000 2efc b9bf 0000 0000 acdd dd3f
00000010: 0000 0080 8150 db3f 0000 00c0 53d3 d4bf

net.0.weight f8 [4, 4]
0.34230631589889526 -0.4230527877807617 -0.010227799415588379 0.38898009061813354 0.449682354927063 -0.13701289892196655 -0.3870443105697632 0.11219078302383423
0.185990571975708 0.22275274991989136 -0.3570252060890198 -0.07919108867645264 -0.40083611011505127 -0.14176017045974731 0.4589204788208008 -0.053629934787750244
00000000: 0000 00c0 58e8 d53f 0000 0000 4c13 dbbf
00000010: 0000 0000 50f2 84bf 0000 00c0 0ce5 d83f
00000020: 0000 0080 98c7 dc3f 0000 0080 a389 c1bf
00000030: 0000 0080 55c5 d8bf 0000 0000 89b8 bc3f
00000040: 0000 0000 8ace c73f 0000 0080 2983 cc3f
00000050: 0000 0040 80d9 d6bf 0000 0000 de45 b4bf
00000060: 0000 0080 4ca7 d9bf 0000 0080 3225 c2bf
00000070: 0000 0000 f45e dd3f 0000 0000 6275 abbf

net.0.bias f8 [4]
-0.4087073802947998 0.2481093406677246 0.07496190071105957 0.2631642818450928
00000000: 0000 0000 4328 dabf 0000 0000 0cc2 cf3f
00000010: 0000 0000 b430 b33f 0000 0000 afd7 d03f

net.2.weight f8 [4, 4]
-0.012159347534179688 0.1430538296699524 -0.40773963928222656 0.41337692737579346 -0.24858933687210083 0.37361055612564087 0.45544397830963135 0.28902125358581543
-0.36525094509124756 0.03693670034408569 -0.28284531831741333 0.3274567127227783 0.4159436821937561 0.058926165103912354 0.15570545196533203 -0.40579676628112793
00000000: 0000 0000 00e7 88bf 0000 0080 964f c23f
00000010: 0000 0000 6818 dabf 0000 0080 c474 da3f
00000020: 0000 0080 c6d1 cfbf 0000 0040 3ce9 d73f
00000030: 0000 0080 fe25 dd3f 0000 0000 537f d23f
00000040: 0000 0080 4560 d7bf 0000 0000 5ee9 a23f
00000050: 0000 0040 231a d2bf 0000 0000 0df5 d43f
00000060: 0000 0040 d29e da3f 0000 0000 922b ae3f
00000070: 0000 0000 28ee c33f 0000 0000 93f8 d9bf

net.2.bias f8 [4]
-0.1841442584991455 -0.0968695878982544 0.4586735963821411 -0.1368318796157837
00000000: 0000 0000 0a92 c7bf 0000 0000 72cc b8bf
00000010: 0000 0080 e85a dd3f 0000 0000 b583 c1bf

net.4.weight f8 [2, 4]
0.1622096300125122 0.24350786209106445 0.29577475786209106 0.4473511576652527 0.43615394830703735 -0.30372679233551025 0.4251098036766052 0.051538169384002686
00000000: 0000 0000 49c3 c43f 0000 0000 442b cf3f
00000010: 0000 0040 f9ed d23f 0000 00c0 66a1 dc3f
00000020: 0000 0040 f2e9 db3f 0000 0080 4270 d3bf
00000030: 0000 00c0 ff34 db3f 0000 0000 3663 aa3f

net.4.bias f8 [2]
-0.16063618659973145 0.2782875895500183
00000000: 0000 0000 ba8f c4bf 0000 00c0 76cf d13f

net.6.weight f8 [1, 2]
0.5473130345344543 0.09466898441314697
00000000: 0000 00a0 9683 e13f 0000 0000 3a3c b83f

net.6.bias f8 [1]
-0.42402517795562744
00000000: 0000 0080 3a23 dbbf
