GPU_MAD/model/wdgrl_2.pth (torch, 5490 bytes, 11 tensors)

net.0.weight f4 [10, 1]
0	0xbe6cdfa8	-0.23132193
1	0xbf632f6c	-0.88744235
2	0x3d82d330	0.06387937
3	0xbf5d130a	-0.86357176
4	0x3e552f80	0.20818901
5	0x3f3b767e	0.7322768
6	0x3d773e20	0.06036198
7	0xbe17bc78	-0.14817989
8	0x3f66327e	0.89920795
9	0x3f41c0e2	0.7568494

net.0.bias f4 [10]
0	0x3dad3df0	0.08459079
1	0xbf492e88	-0.78586626
2	0xbda93470	-0.08261955
3	0x3ee6d85c	0.45086944
4	0x3e5c98b8	0.21542633
5	0x3f344602	0.70419323
6	0xbf4e4d40	-0.80586624
7	0xbf3e3a02	-0.7430726
8	0xbe8afe6c	-0.27147233
9	0x3eadaa24	0.3391887

net.2.weight f4 [10, 10]
0	0xbe1a4089	-0.1506368
1	0x3e363208	0.17792523
2	0x3e403e9a	0.1877388
3	0xbe38a17a	-0.18030348
4	0xbe75ff7e	-0.24023244
5	0x3dea2938	0.11433643
6	0x3e431ab2	0.19053152
7	0xbe8cfd5a	-0.27537042
8	0xbde7f3f2	-0.11325826
9	0xbe5726d5	-0.21010907
10	0x3e1a2f9e	0.15057227
11	0xbdd7f4fe	-0.105447754
12	0x3de3c890	0.11122239
13	0x3e12ee46	0.14348707
14	0xbe9bef4e	-0.30456012
15	0x3cb68df0	0.022284478
16	0x3e1b59de	0.15171
17	0xbd041560	-0.032246947
18	0x3d6a7990	0.057244837
19	0x3e43fd86	0.1913968
20	0xbd820c00	-0.06349945
21	0x3dc779b8	0.09740013
22	0xbe3ffccd	-0.1874878
23	0xbe939f4b	-0.28832468
24	0x3e841481	0.25796893
25	0xbe3a8120	-0.1821332
26	0x3e45a2ae	0.19300339
27	0x3e4635ea	0.19356504
28	0x3df05778	0.11735433
29	0xbe3b4e2b	-0.18291537
30	0x3d204390	0.039126933
31	0x3e9667c9	0.29376057
32	0xbdcf2940	-0.1011529
33	0xbd87d190	-0.06631768
34	0xbe872242	-0.26393324
35	0xbe72878c	-0.2368452
36	0xbdab3cb8	-0.083611906
37	0xbd83ac6c	-0.06429371
38	0x3e894407	0.26809713
39	0xbe204c83	-0.15654187
40	0xbe807cd4	-0.25095236
41	0xbde037d8	-0.10948151
42	0xbcd89f50	-0.026443154
43	0xbe01c283	-0.12671857
44	0xbe4c0d2c	-0.199269
45	0xbe7077d5	-0.23483212
46	0x3dbb48e0	0.09144759
47	0xbdafce90	-0.085843205
48	0xbc94b8e0	-0.018154562
49	0xbd86c2a8	-0.065800965
50	0x3df47d54	0.11937967
51	0x3cc69490	0.024240762
52	0x3e66eaf6	0.22550568
53	0x3e8c34bd	0.27383986
54	0x3da6234c	0.08112201
55	0xbdc95d04	-0.098321944
56	0xbe8697ce	-0.26287693
57	0x3e8e0e1d	0.27745143
58	0xb96b3800	-0.00022432208
59	0xbe2cad9e	-0.16863105
60	0xbd260560	-0.04053247
61	0xbea0d244	-0.3141042
62	0xbcec98b0	-0.0288814
63	0x3dc00a18	0.09376925
64	0x3e5e077a	0.2168254
65	0xbe326d37	-0.17424475
66	0xbe6aeca9	-0.22941841
67	0xbe480904	-0.19534689
68	0x3e983fd7	0.29736206
69	0x3e6a9b96	0.22910914
70	0xbe9342ed	-0.28761998
71	0xbda24658	-0.07923573
72	0xbe1bcf8a	-0.15215889
73	0xbd28c330	-0.04120177
74	0xbe6a179f	-0.22860573
75	0x3d57ff28	0.05273357
76	0xbe11065d	-0.14162584
77	0xbc85f840	-0.016353726
78	0xbc83b5b0	-0.016077846
79	0x3da037d0	0.078231454
80	0x3e8362a5	0.25661197
81	0x3d8df8a0	0.06932187
82	0x3da980f8	0.08276552
83	0x3e8bcfdf	0.2730703
84	0x3d2fd758	0.042929977
85	0xbe9920b0	-0.2990775
86	0xbe49e708	-0.19717038
87	0x3e342ae0	0.1759448
88	0x3e5ca09e	0.21545646
89	0x3d1acea8	0.03779474
90	0x3e33b1a8	0.17548239
91	0x3e471eca	0.19445339
92	0xbe1374fa	-0.14400092
93	0x3e8baeef	0.272819
94	0x3e13c420	0.14430285
95	0xbe8283e9	-0.25491264
96	0xbdb09902	-0.08622934
97	0x3c7be520	0.015374452
98	0x3e4329c2	0.19058898
99	0xbd2e1990	-0.042504847

net.2.bias f4 [10]
0	0x3e19963a	0.14998713
1	0xbe69cdb6	-0.22832379
2	0x3dd8a530	0.10578382
3	0x3dd85538	0.10563129
4	0xbe0395ea	-0.12850156
5	0xbdab9390	-0.08377755
6	0x3e38af92	0.18035725
7	0x3e10dc68	0.14146578
8	0x3e95f537	0.29288647
9	0x3e5601ae	0.20899078

net.4.weight f4 [10, 10]
0	0x3e5f4252	0.21802643
1	0x3db33388	0.08750063
2	0xbe416db8	-0.1888951
3	0x3e906f8d	0.28210106
4	0x3cfa7460	0.03057307
5	0xbe8253c0	-0.2545452
6	0xbe98c845	-0.29840294
7	0xbe4bd9e7	-0.19907342
8	0xbe8892bd	-0.26674452
9	0x3e9e93e5	0.3097221
10	0xbe7aafca	-0.2448112
11	0x3e7a6a06	0.24454507
12	0x3e996e69	0.2996705
13	0x3e235e08	0.15953839
14	0xbd7d6430	-0.061863124
15	0x3e34d976	0.1766108
16	0xbe6acd4e	-0.2292988
17	0x3e4e14c2	0.20125106
18	0x3e7d2792	0.24722126
19	0x3da27770	0.07932937
20	0x3e72918e	0.23688337
21	0x3e33e362	0.17567208
22	0x3dc67c34	0.096916586
23	0x3e8cbe67	0.27489015
24	0xbdb9d262	-0.090733305
25	0x3df3e280	0.11908436
26	0x3e007560	0.12544775
27	0x3e346892	0.17618015
28	0x3e532ef6	0.20623383
29	0xbe9c924a	-0.3058036
30	0xbe62e2e3	-0.22156863
31	0x3c2860c0	0.010276973
32	0x3e98e9d9	0.29865912
33	0xbd9725ba	-0.07380243
34	0xbe77ae49	-0.24187578
35	0xbe2d7b6f	-0.16941617
36	0xbe9a16f6	-0.30095643
37	0x3e96e4b1	0.29471353
38	0xbd5192d8	-0.05116543
39	0xbc763aa0	-0.015028626
40	0x3e68281e	0.22671553
41	0xbe44ef94	-0.19232017
42	0x3e47e81e	0.1952214
43	0x3e1c0bbe	0.15238854
44	0xbe66f8ac	-0.22555798
45	0xbe0cfd05	-0.13768394
46	0x3e510dce	0.20415422
47	0xbdfe434c	-0.124151796
48	0x3dbafaf0	0.09129894
49	0x3e8a0a47	0.26960966
50	0xbe07b7f9	-0.13253774
51	0x3e2ee088	0.1707784
52	0x3e72288e	0.23648283
53	0x3e9c3e97	0.30516502
54	0xbe95ea22	-0.29280192
55	0xbe438afc	-0.19095987
56	0xbdf323b0	-0.11872041
57	0x3e42e4b6	0.19032559
58	0x3d2b7b60	0.041865706
59	0xbe41b343	-0.18916039
60	0x3e62c6a2	0.22146085
61	0x3e04ff14	0.1298793
62	0x3e43075e	0.19045779
63	0xbe4231be	-0.18964288
64	0x3e2bf6b6	0.16793332
65	0xbd931b96	-0.07182996
66	0x3d57ca50	0.052683175
67	0x3df591dc	0.11990711
68	0xbd93d948	-0.072191775
69	0xbd577088	-0.052597553
70	0xbc247c40	-0.010039389
71	0x3e52ddb2	0.20592383
72	0xbe3e4643	-0.1858149
73	0xbd516180	-0.051118374
74	0xbdd83520	-0.10557008
75	0xbe145f43	-0.14489464
76	0x3e0e9964	0.13925701
77	0xbc70f540	-0.01470691
78	0xbe7d0566	-0.2470909
79	0xbe379c76	-0.17930779
80	0x3d8cb5e0	0.068706274
81	0xbe9e70f7	-0.3094556
82	0x3e8b4829	0.2720349
83	0xbe359d84	-0.17735869
84	0x3ea0f891	0.3143964
85	0x3e1efbee	0.15525791
86	0xbe7678bd	-0.24069495
87	0xbcc5ccc0	-0.024145484
88	0xbe8ad882	-0.27118307
89	0xbe18a682	-0.14907268
90	0xbd707fd8	-0.05871567
91	0xbe519876	-0.20468315
92	0x3e8d6fbb	0.27624306
93	0x3e56484a	0.20926014
94	0xbe20c976	-0.15701851
95	0x3d5bc790	0.053657115
96	0xbc22b740	-0.0099313855
97	0xbe3076f7	-0.17232881
98	0x3aa6e100	0.001273185
99	0xbe997297	-0.29970238

net.4.bias f4 [10]
0	0xbe2e0188	-0.16992772
1	0xbe8cbd68	-0.27488256
2	0xbe935658	-0.28776813
3	0xbe9a30ba	-0.301153
4	0x3e98f0eb	0.29871306
5	0xbe26973a	-0.16268626
6	0xbe82e69e	-0.25566572
7	0xbe16e0ac	-0.14734143
8	0x3e8b6a01	0.27229312
9	0x3e614b42	0.22001365

net.0.weight f4 [4, 10]
0	0xbcf1aa00	-0.029500008
1	0xbc997dc0	-0.01873672
2	0x3dbde46c	0.09272084
3	0xbd9ac0b2	-0.07556285
4	0xbea1a6d1	-0.31572583
5	0x3e47e092	0.1951926
6	0x3e6edb36	0.2332581
7	0x3ca4df40	0.020125985
8	0xbe201811	-0.1563418
9	0x3da712b0	0.08157861
10	0xbdcb7a94	-0.09935489
11	0xbe52ac0b	-0.20573442
12	0xbd384eb0	-0.044996917
13	0x3d4b3828	0.0496141
14	0xbe0f799c	-0.14011234
15	0x3e5405ca	0.20705333
16	0x3e10b570	0.14131713
17	0xbd022c58	-0.03178057
18	0xbe1d4388	-0.15357792
19	0xbe924a57	-0.28572342
20	0x3dd54c8c	0.10414991
21	0xbe57c691	-0.21071841
22	0xbe9641dc	-0.29347122
23	0xbdd25392	-0.10269846
24	0x3d735ea8	0.059416443
25	0xbd955a90	-0.07292664
26	0xbe86382b	-0.26214728
27	0x3e991e09	0.29905728
28	0xbd683a38	-0.056696147
29	0x3ca573e0	0.020196855
30	0x3e2c0f14	0.16802627
31	0xbe56fb62	-0.20994332
32	0x3e6232ca	0.22089687
33	0xbe15348c	-0.14570826
34	0xbe92a8b8	-0.28644347
35	0x3d77b680	0.06047678
36	0x3e23f8d6	0.16012892
37	0x3e15372a	0.14571825
38	0x3df906a0	0.12159467
39	0x3e4427ea	0.19155851

net.0.bias f4 [4]
0	0xbddb2472	-0.10700311
1	0x3d47b7e0	0.04875934
2	0x3dbef9d8	0.09324998
3	0xbe69c8ce	-0.22830507

net.2.weight f4 [2, 4]
0	0xbec60470	-0.3867526
1	0x3d52a3e0	0.051425815
2	0xbe7cf380	-0.24702263
3	0xbec52712	-0.3850637
4	0x3efd6e7c	0.49498355
5	0xbd6a1df0	-0.057157457
6	0x3dfbea90	0.123005986
7	0x3ed572ce	0.41689152

net.2.bias f4 [2]
0	0x3eafe74e	0.3435616
1	0x3e6891c4	0.22711855

net.4.weight f4 [1, 2]
0	0xbf1c7112	-0.6111003
1	0x3eb126b2	0.34599835
